result/mnist/seed12/noniid_0.4/ratio_0.05/final.pt (torch, 75941 bytes, 6 tensors)

cnn1.weight f4 [16, 1, 5, 5]
00000000: 08f0 9dbd 7a47 30be ba34 d4bd d8e6 583c
00000010: d73b 933c 68b1 6dbe 1151 d2bc dfc2 07be
00000020: 5ae1 333e d403 2f3e 4d26 5fbe 7df0 4c3d
00000030: 162d d23d f82b 283e 3303 283d d28f 15be
00000040: d058 893e a41d 423e 1dd0 2cbe 67bb 6ebd
00000050: 0472 033e bf9e d3bd 129e 17be 2e6c d33d
00000060: df01 c23d 6f75 18be 4041 15be 3f1c 05bd
00000070: 1b7f 213b fbd1 3b3d 4659 b9bd 12ab 7b3d
00000080: 8031 1abe aca3 0bbe caaa c4bd f7dc 43be
00000090: 42f0 a2bc da71 38be af7f 33be 3784 093e
000000a0: 98e3 553d a965 38be 0151 e0bd 3a09 37be
000000b0: f010 ff3d 4981 02bd 585a 993d 8cd2 31be
000000c0: 7591 67bd 6505 a53e c930 f23d 7a18 6b3e
000000d0: 4575 0f3e 7a21 8c3e 5203 693e 3caa 48be
000000e0: 3cb4 dfbd 2318 a23e 2182 763e a617 873d
000000f0: eab2 e93d d8d1 58be d895 053e 3c0a 1b3e
00000100: a527 d43d df38 2fbd de74 16be 0dd4 04bc
00000110: 4144 2d3e fb45 043e 54c0 63be 65e3 7abe
00000120: 0434 01be b68e 42be 01e0 81bd 87d2 883d
00000130: 619c 31be d7db 403e 5b48 4c3d 6267 a63d
00000140: 655d 10bd 16eb 2bbe fd96 1e3e 53b2 92bd
00000150: 95c9 6dbd 761b e73d 00e3 113d 4179 673e
00000160: c891 d0bc 1b1e d43d e88d b63d 1875 133e
00000170: 3ef7 853c b975 8cbd 3bc8 0d3e b3c6 6e3d
00000180: c774 4fbe 0031 5cbe fdc0 52be 86d2 973e
00000190: deb3 013d 4890 9a3d 0bf5 f73d 6a94 873d
000001a0: 1757 913e d06e 0f3e b4fa cdbd 11ab 2b3e
000001b0: e7ed 6f3e e29e 7e3d f59b 9ebc 7316 4c3b
000001c0: ae01 59be 8cc6 3bbe 0009 303e 2704 82be
000001d0: 1e0a c8bc c61b 7fbe 20b8 1ebe 1df4 9ebd
000001e0: 3165 23bd 7a21 1cbe f95d 223c beaf 41bd
000001f0: c561 58be c347 423d 5219 8f3e 5967 823e
00000200: 1cbe bfbd b0ee ea3d cb2a f0bd c35b 893e
00000210: 915a 223e 4f36 a83d 6d03 18be a5cf a5bd
00000220: d531 12be e3bf 0c3e 49c2 13be fe1c a7bd
00000230: 3cde 2dbd acea c03d b66d 8f3d 9339 713d
00000240: bf9b 033e 9169 29bc a4bf 19bc 0111 98bd
00000250: 5ad3 89bd 7bf7 49be f32e 1b3e d364 823e
00000260: fc89 5a3e c988 d53d 5982 0abe 97b1 f5bd
00000270: bc8b 8a3e da0a 9fbb 00ae 05be 419c 75be
00000280: ee93 c8bd 3969 143e edb5 133e b6fb 79be
00000290: 990c 8bbe f715 f8bc 2218 cabd a1ec fc3d
000002a0: 2249 05be 2cd5 91be c36b 9dba ec00 0f3e
000002b0: a428 abbc 59f2 7fbe 2c35 acbd d1c9 49be
000002c0: 630e c93d 5fc8 fe3c 0430 c63d d6a5 0fbd
000002d0: ea2c 4dbe f8f4 903d 8406 6b3e 9b09 f9bc
000002e0: e595 0bbe eb57 2fbe 928f b73c defa 7d3e
000002f0: d49e 8ebd 3292 d7bd 25cf 023e 9871 06be
00000300: e2f1 5b3c 7a4d 68bd 3539 d9bc 7e3c 12be
00000310: 2c55 1fb9 0a72 213d 7a1f 423d ba82 f4bd
00000320: 01ea a33d 7fec 0abe 4a45 513d ffde d73d
00000330: 81c8 eabc 2153 9bbd 6a61 73bc 1420 3b3e
00000340: 6dd4 8b3e 2af3 47be 16e8 f23d 7aac c73d
00000350: c7a3 b23e 7aef 923e e2a9 f3bd 7aba 82bd
00000360: 8576 173e 5705 383e 1e38 893e 3e9d 2ebd
00000370: 4a7b 833d 681a 12be db2f 49be c5b3 563e
00000380: 6d68 2a3e 21c3 a03e e0c6 a03e da60 7d3d
00000390: 0de4 503c bf91 373e cc55 9b3e 164d 923d
000003a0: c895 c43e eda4 883e 930e 0d3e be36 50be
000003b0: 424f 8cbd 5466 f33d 63a0 b63d 3d57 ad3d
000003c0: 60ee 89be 944e aebe 303a a1be 9e89 abbd
000003d0: 570f d3bd c26f 74be 8d47 09bb e1ba afbe
000003e0: 7421 a0be 9121 a7be aefa d3bd d51e cd3c
000003f0: ff61 21bd 237c 4c3c 8682 0c3e b395 41be
-0.07711798 -0.17214766 -0.10361619 0.013238631 0.01797287 -0.23212206 -0.025673421 -0.13257931
0.17566434 0.17091304 -0.21791954 0.050034035 0.10262506 0.16423023 0.041018676 -0.14605644
0.2682557 0.1895662 -0.16876264 -0.05828419 0.12836462 -0.10333013 -0.14806393 0.10323368
0.09473013 -0.14888547 -0.14575672 -0.03249764 0.002464241 0.04585455 -0.09050231 0.061442442
-0.15057945 -0.13636655 -0.09602888 -0.1912726 -0.019889954 -0.18012181 -0.17529176 0.13429342
0.052219003 -0.1800753 -0.1095295 -0.17874613 0.124544024 -0.031861577 0.07487935 -0.17365474
-0.056535203 0.32230678 0.11825711 0.22958556 0.14009579 0.2736929 0.22755173 -0.1959619
-0.10923049 0.3165904 0.24073078 0.065963075 0.11411078 -0.21173799 0.13045442 0.15140623
0.10359124 -0.042778846 -0.14693019 -0.0081071975 0.16920568 0.1291732 -0.22241336 -0.24500807
-0.12617499 -0.18999752 -0.063415535 0.0668078 -0.1734481 0.18833862 0.04987369 0.081251875
-0.035245318 -0.16788897 0.15487285 -0.07162919 -0.05805357 0.11284535 0.035616875 0.22604848
-0.025460139 0.10357305 0.08913785 0.14400136 0.016353246 -0.06858391 0.13845913 0.058294963
-0.20259391 -0.21503067 -0.20581432 0.29652804 0.031665675 0.07547051 0.12107285 0.066201046
0.28386757 0.14007115 -0.100575835 0.16764475 0.23430596 0.06216324 -0.019361475 0.003114131
-0.21192047 -0.18337458 0.17190933 -0.25393793 -0.024418887 -0.24912938 -0.15499926 -0.07761405
-0.039891426 -0.15247145 0.0099101 -0.04728674 -0.21131046 0.04743172 0.27949005 0.25469473
-0.09362432 0.11471307 -0.11726912 0.2682782 0.15854861 0.082134835 -0.14845057 -0.08096246
-0.14276822 0.13745074 -0.14429583 -0.08159827 -0.042448267 0.0941976 0.070033476 0.058892798
0.12852381 -0.01034011 -0.00938407 -0.07425118 -0.06729765 -0.19723313 0.15154628 0.25467548
0.213417 0.1042648 -0.13526286 -0.11996763 0.27059734 -0.0048535885 -0.13054657 -0.23985387
-0.0979384 0.14493264 0.14424868 -0.24412426 -0.2715805 -0.030283911 -0.09867884 0.12349821
-0.13016179 -0.2848295 -0.0012010265 0.13965195 -0.020893402 -0.24994792 -0.08408579 -0.19705893
0.09817197 0.031101404 0.09677127 -0.035070263 -0.20036665 0.07077974 0.22951704 -0.030400088
-0.13631399 -0.17123382 0.022407327 0.2480273 -0.06963888 -0.105259314 0.12774332 -0.1312927
0.013424369 -0.056714512 -0.026516536 -0.14280888 -0.0001519515 0.039415397 0.0473933 -0.119389966
0.08003617 -0.13566779 0.05109147 0.1054058 -0.02866006 -0.07584215 -0.014854768 0.18273956
0.27310506 -0.19526353 0.11860673 0.09749694 0.34890577 0.2869833 -0.11897637 -0.06383224
0.14791305 0.17970787 0.26800627 -0.042630427 0.0642 -0.14267886 -0.19647162 0.20967014
0.16641398 0.31398872 0.3140173 0.061859943 0.012749684 0.17926691 0.30338895 0.07143609
0.38395524 0.26688328 0.13775091 -0.20333382 -0.06851055 0.11884752 0.0891731 0.08463905
-0.26939678 -0.34044325 -0.31489706 -0.08375858 -0.1030566 -0.23870757 -0.0020947189 -0.34322265
-0.31275523 -0.32642797 -0.10350548 0.025039116 -0.039400097 0.012480768 0.13721666 -0.18904762

cnn1.bias f4 [16]
00000000: 2354 01be 5742 4b3d cd4b 53bd 4a4b 353b
00000010: c41f 25bd 911f 01bd d78f e13d e8e9 053e
00000020: 7082 13be f111 813d 423f 173e 26dc 8f3d
00000030: cbfc 0d3c 7257 31be f7a0 703d aa76 eb3d
-0.12629752 0.049623813 -0.05158596 0.0027663284 -0.040313497 -0.031524245 0.110137634 0.1307751
-0.14405227 0.0630225 0.14770225 0.07024412 0.008666228 -0.17318514 0.058747258 0.11497243

cnn2.weight f4 [32, 16, 5, 5]
00000000: ca1b 363d b32a 16bd af40 fcbc 5617 61bc
00000010: 8a23 a13c 3ee1 74bd 5435 1bbd d729 debb
00000020: 3c93 3f3c 5090 df39 deec 07bc a3f5 cf3b
00000030: 7a3f eebc eca0 f33c aaa3 ce3c 2cc8 a2bc
00000040: 8691 d93c 16c5 173c f43f 013d 95c0 bdbc
00000050: 17e6 ee3c 6518 4c3c 39cd 90bc 7464 073d
00000060: cfab 5fbd 2584 48bd 02f6 913c 9362 5c3c
00000070: a076 e93b ee0e 7f3c 89e8 b53c c8f4 8b3c
00000080: b9d2 1fbd c55b 8a3c 396f 9f3c 414c aebc
00000090: f5b5 423c 06b5 163d 092a 423c 1eea 20bc
000000a0: 2a35 cfbc 5f17 153d ac43 0a3d c330 cc3b
000000b0: 1fcd 15bd f84b 723b e85d 3a3c aa51 f4bc
000000c0: 0587 ddbc d6e4 61bd b876 403d 84da 993b
000000d0: 738d ba3c 250e 103c fcb2 4ebc 1232 223d
000000e0: 599a e93c bd20 40bc 1f6d 03bd 99e2 16bd
000000f0: 60b9 f2bb 6e9a e7bc 9e89 0fbc 79c2 353d
00000100: d7a4 43bd 6124 003d dadd 21bc 64b3 6cbc
00000110: 3276 6abd 0640 80bd 51c0 543c be2c d6bc
00000120: d96d 8a3d 67ed 683c ae8f 183b 8349 0abb
00000130: d6f8 293d c1c7 8d3c d118 063b 7908 ef3c
00000140: 8d54 2fbd 96dd 19bd 9886 1abd 1e93 74bc
00000150: 6749 d1bc 16c9 993c 1581 31bd 924d f1b9
00000160: 9464 52bd 7d7a 29bd 5a8f bd3c 3d22 ef3c
00000170: f77b 6f3d 915e 73bc a111 6fbd 5c01 e5bc
00000180: b28a 0b3d a969 a83c b7de 993c 7e55 63bd
00000190: af94 3bbd c912 913c b019 f53b 2eb4 23bd
000001a0: acd8 a13b 6675 2e3b 1937 163c 1f7a 533c
000001b0: e2ce 2d3d 3ce9 593d 1463 e9bc 0aca 213d
000001c0: 79f1 d73c 9caa 083d 9154 023d 6d69 08bd
000001d0: ed5c d93c 1992 99bb e552 e0bc 21e0 ed3c
000001e0: af7e d6bc cb9a 07bb 1b07 7d3b dfc4 1b3d
000001f0: 4800 373d 9547 c43c 2832 adbc eb74 a93c
00000200: 5e80 493c 1e5d 633d dd3d ac3c 9356 1e3d
00000210: 9154 9f3c b100 66bd d712 dbbc 06ce 123d
00000220: b1fc 0c3d dd86 53bd ab04 f73c d2d7 5dbb
00000230: ce66 19bd a2a1 2ebd 15fe c43c f4bc 84bd
00000240: 2775 50bc d846 0cbd d313 ee3c a267 8cbc
00000250: ec6e b8bc 2bce ec3c acbd aebc 4e69 893c
00000260: 8072 b63c fafc 2c3d 234d 843d 4139 283d
00000270: 6667 e23c 334b 06bd 81ca 14bd 3b8c c4ba
00000280: c506 d1bc ba70 913c ebd8 963b f8ef c33c
00000290: 6a32 5e3d fb4a 683d 201a f4bc d127 26bd
000002a0: 5a11 b83c dc2e f2bc 453c 8bbb f0b8 b4bb
000002b0: 879f b83c 3dc4 143c ae3d 43bd f51f 92bc
000002c0: d0c4 1cbd efb6 cebc c753 453b 4d2a 2bbc
000002d0: 9d8b 283d df36 893b 476c c53c 2da9 903c
000002e0: 8d69 063d 10da b93c ef87 203d 8011 4d3d
000002f0: 1127 193d 3d6f 45bc 8f83 0d3d 158c 4fbb
00000300: 2e5a 393c b642 093d df47 06bd 3359 063d
00000310: 3a23 723c ba65 383d 6ed2 edbb d3d9 e83c
00000320: 10f2 253d 6789 4f3d d6b9 533c 2211 0c3c
00000330: ec1b fc3c f370 7c3c 7b1f 8dbd 821c 96bd
00000340: 5289 373d b165 24bd 2767 3dbc 5d51 63bc
00000350: 82d1 abbc b819 53bd 6f59 b3bd 403c 25bd
00000360: e5e9 173a fb32 3e3d b32c 4abd 7643 71bb
00000370: 8158 ab3c 9b62 94bc 08ce 82bc 9530 01bd
00000380: f81b fa3b 8a4a 26bc 61d1 4d3b 9a6f cf3c
00000390: 31e2 f0bc 383e 3dbd 0a7a 31bc 775f 2d3d
000003a0: 1c4b 683d 18f5 0fbc 9df7 c6bc 381b a23c
000003b0: a5a2 bd3c 437f 83bb e5e1 6d3d 3a75 e23c
000003c0: 32c3 31bd 3140 293d 9024 9a3c a41d a43c
000003d0: bfc8 e33b 9861 62bd dbb5 dd3c e648 843c
000003e0: 014f 7c3d 5f81 b83c 3129 11bd 94ae 13bd
000003f0: 90f3 55bd 2110 a33c 1722 1ebc 7bf9 6cbd
0.044460095 -0.036661815 -0.030792562 -0.013738474 0.019670267 -0.05978512 -0.037892655 -0.00677989
0.011692818 0.00042641396 -0.00829622 0.006346421 -0.029083002 0.02973982 0.025224525 -0.01987084
0.026558649 0.009263298 0.03155513 -0.02316312 0.02916245 0.012456988 -0.017675983 0.033054784
-0.05460721 -0.048954148 0.017817501 0.013451236 0.007124737 0.015567524 0.022205608 0.017084494
-0.03901932 0.016889462 0.019462215 -0.021276595 0.011884202 0.03679373 0.011850842 -0.009821443
-0.025293905 0.03639924 0.033755943 0.006231399 -0.03657257 0.003697155 0.011374928 -0.029824097
-0.027041921 -0.055149876 0.04698822 0.0046952385 0.022772526 0.008792435 -0.012615915 0.039598532
0.028515982 -0.011726555 -0.032086488 -0.036837194 -0.0074073523 -0.02827188 -0.008760838 0.044374917
-0.047764625 0.031284694 -0.009879554 -0.014447067 -0.057241626 -0.062622115 0.012985305 -0.026144382
0.06759233 0.014216757 0.0023279 -0.0021100945 0.041497074 0.017307164 0.002046157 0.029178845
-0.042805243 -0.037564836 -0.037726015 -0.014927654 -0.025547696 0.018772643 -0.043335993 -0.00046024896
-0.05136545 -0.04137658 0.023139644 0.02919113 0.05846783 -0.014854089 -0.05836642 -0.02795475
0.034067817 0.020558195 0.018782957 -0.055501454 -0.045796093 0.017709153 0.007479869 -0.039966755
0.0049391594 0.0026620268 0.00916841 0.012907534 0.042433627 0.053200945 -0.028489627 0.03949932
0.02636026 0.03336583 0.03181893 -0.033303667 0.026533568 -0.0046866057 -0.027383277 0.029037537
-0.026183454 -0.002069163 0.0038608972 0.038029548 0.044678003 0.023959914 -0.02114208 0.020685634
0.0122986715 0.055508725 0.021025592 0.038656782 0.019449504 -0.056153003 -0.026742382 0.03584101
0.034420673 -0.051642288 0.030153593 -0.0033850563 -0.037451558 -0.042634614 0.024046937 -0.064813524
-0.012723244 -0.03424725 0.029062187 -0.01713926 -0.02251383 0.028906902 -0.021330677 0.016773846
0.022271395 0.042233445 0.06460025 0.041070227 0.027637195 -0.03278656 -0.036325935 -0.0014995405
-0.025515923 0.017753948 0.0046034954 0.023918137 0.054247297 0.056712132 -0.029797614 -0.040565316
0.022469211 -0.02956336 -0.004249128 -0.0055152103 0.022537006 0.00907999 -0.047666244 -0.017837504
-0.038273633 -0.025233714 0.003010975 -0.010447097 0.04114877 0.0041874493 0.024099482 0.017658794
0.032815505 0.022686988 0.039192136 0.050065517 0.037390772 -0.012050447 0.034549292 -0.0031669189
0.011313004 0.033510886 -0.032783385 0.03279991 0.0147789065 0.04501889 -0.007257751 0.02842418
0.040514052 0.050668146 0.012922725 0.008549007 0.030775033 0.015407789 -0.0689077 -0.07329656
0.044808693 -0.040136043 -0.011560238 -0.013874379 -0.020973925 -0.0515382 -0.087572925 -0.040340662
0.0005795046 0.046435338 -0.049359035 -0.0036813891 0.020916225 -0.018113425 -0.015967384 -0.031540472
0.0076327287 -0.010149607 0.0031405317 0.02532177 -0.029404731 -0.046201915 -0.010832319 0.04232737
0.056712255 -0.008786462 -0.024287993 0.01978837 0.023148844 -0.0040129735 0.058076758 0.027643789
-0.043399043 0.041320983 0.018816262 0.020033665 0.006951421 -0.055268854 0.027064255 0.016148042
0.06159878 0.022522626 -0.035439674 -0.036055163 -0.052234232 0.019905152 -0.009651682 -0.05785511

cnn2.bias f4 [32]
00000000: 26b8 b7bc 977d 873c 7850 c9bc 6f07 69bd
00000010: 167d 843b 6671 00bd 7e5b b0bc 69ca 63bd
00000020: 7de8 163d 9dde 8dbd 18d8 253d dba1 d83c
00000030: ccf6 393c 6738 bfbc a80c 1dbc b5e0 7ebc
00000040: 98ed d639 f025 4dbd 0724 6c3d 3a89 07bd
00000050: 127f de3c b2ae 25bd a452 9bba 36c7 123d
00000060: 5e2f 8dbb 5f30 18bc e4ee 49bd d21a a6bc
00000070: 6f2e 92bd 9910 423d c357 9f3c 8b01 093c
-0.022426676 0.016539378 -0.024574503 -0.056891855 0.0040432317 -0.031358145 -0.021528002 -0.055612955
0.03684281 -0.06927226 0.040489286 0.026444366 0.011350345 -0.023342324 -0.009585537 -0.015556504
0.00040994282 -0.05008501 0.057651546 -0.033089854 0.027160201 -0.040449806 -0.001185019 0.035834514
-0.004308625 -0.009288876 -0.04930009 -0.02027646 -0.07137763 0.04737911 0.019451028 0.008362184

fc1.weight f4 [10, 512]
00000000: a156 28bc bcad 5c3c 7b5c 64bb ce9c 33bd
00000010: 2144 fd3b 5514 11bd d2a2 f4bb 5cd2 493d
00000020: e67d 7bbd 7d92 a0bc 13c5 f43c 68ab 273d
00000030: 8075 2ebd 22d5 e8bc ce96 3bbd 087e 99bc
00000040: 7771 333c e539 a8bd 9ab8 a93c 4fc0 103e
00000050: 474e 80bd 2f25 36bd 458d 2f3c b287 513d
00000060: 9907 e63c 6781 453d 9da4 cc3a ad05 9c3c
00000070: 44c7 ed3d 0f5d 633d fe48 433d 8d30 1abd
00000080: 29e2 afbc 86e9 efbc 6e2b 3cbb 3232 1ebd
00000090: 552b 44bc 8cc9 b13b ea4c 5cbd 0a20 61bd
000000a0: 9097 b5bd d16e 3dbd 51da 9dbc e8ce 2d3d
000000b0: 97a7 17bb 25fe f7bc b45d d23d b1e1 ef3d
000000c0: f7c7 543c cf37 00bd c476 6cbd 446a eb3b
000000d0: 3639 dbbc c1a4 8f3c 816f c13c 6d0f 87bc
000000e0: cb51 89bd 7dcd 86bd b111 903d 7d08 c83c
000000f0: 5ee7 83bd 9dcd 6a3d 28b6 1abd ea11 3f3d
00000100: 9fd5 9c3b 2326 763d 95fa 143d 38dd 8ebb
00000110: 1817 123d 65f7 903d 32d1 a6bb 9eb2 8a3d
00000120: ccdc 883d 188f 99bc 3b44 8cbc fadc 133d
00000130: ee46 22ba 252f 213c 0a22 34bc 6884 393d
00000140: 048f c23c 16ec a3ba 85bf 7b3d ff5b 9dbb
00000150: 2f46 a6bc 04dc c7bc 6a6d eebd 8c1d 8cbd
00000160: e213 85bb 6aad f1bd 8876 083b a3e9 973d
00000170: 926b 8cbc 568d 32bb f403 0a3c c4a8 e93d
00000180: 9f73 4abc 4148 0a3d 829d b53d 977b 3f3d
00000190: b755 aebc feaf 1fbd 3851 90bd 26fb 66bc
000001a0: 840f a5bd 5c47 8dbd 3360 213d b020 eb3c
000001b0: 3dd0 6ebb 0ac8 2ebd 9118 aa3a 6d35 21bd
000001c0: 9fc6 d93c c3dd 523c 3328 9a3c ddbf 143c
000001d0: f19f dd3c 4783 18bd ece2 583d eee2 89bc
000001e0: 635c c43c 8341 263e ac75 383d a8d4 1cbd
000001f0: bae6 f7bc 06b5 163d c9bb 523d df1a 9dbc
00000200: ae45 253c abd5 5fbd d43b 023d 9275 6c3d
00000210: ef0b c6bb 1b90 f1bc 4188 70bd 5a07 b23c
00000220: ce2f 48bd eaa2 4abd 2236 cabc ace4 35bd
00000230: 41c2 76bb e51a c33b a851 07bd 13b9 a3bc
00000240: e343 f2bb 14e8 8a3d 4218 f73c 17e1 483a
00000250: 4695 7cbd 2680 323b 721e 5abc 1f6c e4bd
00000260: 8cd1 2b3c d4b8 043e 1d58 583d ece7 5dbd
00000270: 9d8b 0b3d 4ec6 a03d fd06 453d 2ca5 173d
00000280: a61e 0dbd 9774 2fbd 3261 a3bd 3be5 2f3d
00000290: 82e9 aebc 222b 383d ae60 32bd 9fed a03c
000002a0: fa39 dc3d f96a b33d d281 78bd 5dab 813c
000002b0: dd73 9d3d bdf9 093c c2c0 763d 729f 3cbd
000002c0: 5894 883c c980 753c e42d 923c 6ebc 2e3d
000002d0: cd0e 1ebd 8c1e 1e3c 07b2 983a e00a 053d
000002e0: 9c1e e73b 4024 d6bc 6b11 3fbd 1e66 cdba
000002f0: 963f 12bc d22d ef3b f38d 163d cad2 d23c
00000300: c6b5 fabc 6b6e 09bd 84f2 0b3c 20e4 cabd
00000310: 0142 93bc 2920 993c a9d3 f5bc f029 34bd
00000320: c2a1 f03b d920 593d 0bf0 0dbd c0dd 07bd
00000330: e3e0 c5bd ed17 b2bc 8bbb a23c a706 c73c
00000340: 5ce6 e2bc b196 5abd e55b 6abc ef05 083d
00000350: 666f ed3b cf50 1c3d 907c 19bc 95d2 1dbc
00000360: bd38 08bb 27e8 0b3e 0323 1bbd fe10 6b3b
00000370: 2e47 03bb df62 b73c 916b bfbc 1553 013c
00000380: 98a0 26bd d0bb 7fbd ef38 faba 8673 1abd
00000390: e14d 3bb9 6b6f a93c 2399 ddbc 88a7 5ebd
000003a0: 60de 063d ec2c a3bd ae7b 2dbe 5af4 c13c
000003b0: 2a87 5b3c 19dd 6d3d 7ed5 893d babe aa3d
000003c0: 87b8 383d 4501 0cbc 3fb3 52bd 4a38 1cbd
000003d0: 5dbb 97bc 6e2e 94bc 9812 463d e3d0 823c
000003e0: 5c91 7bbc 42a7 923c 6540 5f3d c6c3 bbbb
000003f0: ea53 4dbd e66e 32bb b9f2 7f3c 62eb 15bd
-0.01027456 0.013469156 -0.0034845162 -0.043850712 0.007729069 -0.03541978 -0.0074656988 0.04927288
-0.061399363 -0.019601101 0.029879129 0.04093495 -0.042592525 -0.028421942 -0.045798115 -0.018736854
0.010952345 -0.082141675 0.020717908 0.1413586 -0.0626493 -0.044469055 0.010714834 0.0511548
0.028079795 0.04821911 0.0015613023 0.019045675 0.116102725 0.05550867 0.047677033 -0.037643958
-0.021470146 -0.029286157 -0.002871241 -0.03862209 -0.011973222 0.0054256376 -0.05378429 -0.054962195
-0.08866799 -0.04624826 -0.01926914 0.04243365 -0.0023140663 -0.030272553 0.10271779 0.11712969
0.012987128 -0.031303223 -0.05773045 0.0071842987 -0.026760679 0.017534615 0.02361274 -0.016486848
-0.06705054 -0.065821625 0.07034624 0.02441811 -0.06440614 0.057324994 -0.037771374 0.046647944
0.004786208 0.060094964 0.036371786 -0.0043598674 0.035666555 0.07078437 -0.005090856 0.0677235
0.06682739 -0.01874499 -0.017122379 0.03609941 -0.0006190379 0.0098379 -0.010994444 0.045292288
0.023749836 -0.0012506272 0.061461944 -0.0048022266 -0.020297138 -0.024396904 -0.11641963 -0.06841573
-0.004061208 -0.11800654 0.0020822603 0.074176095 -0.017141137 -0.0027244887 0.008423794 0.114091426
-0.012356668 0.033760313 0.08867933 0.046748724 -0.021281106 -0.0389862 -0.07046741 -0.014097964
-0.080596 -0.06898376 0.039398383 0.02870211 -0.0036440038 -0.04267124 0.0012977292 -0.03935759
0.026583968 0.012870255 0.018817997 0.009078947 0.027053805 -0.03723457 0.052950785 -0.016831841
0.023969835 0.16235928 0.045034096 -0.038288742 -0.030261386 0.03679373 0.051448617 -0.019177852
0.010087414 -0.05464713 0.031795338 0.05772931 -0.006043903 -0.02948766 -0.05872369 0.021732021
-0.048873715 -0.049471773 -0.024684016 -0.04440753 -0.0037652405 0.005954134 -0.033036858 -0.019985711
-0.0073933466 0.06782547 0.030162934 0.00076629355 -0.061665796 0.0027237027 -0.013312923 -0.11153435
0.010486972 0.12961131 0.052818406 -0.054176256 0.034068692 0.078503236 0.048102368 0.037022755
-0.034453057 -0.042835798 -0.07977523 0.04294322 -0.02135158 0.04496301 -0.043549232 0.019644557
0.10753246 0.08760638 -0.06067068 0.015828783 0.07688115 0.008421359 0.060242422 -0.046050496
0.016672298 0.014984318 0.017844148 0.04266017 -0.038588334 0.009650838 0.0011649736 0.032481074
0.0070532095 -0.026140332 -0.04664747 -0.0015670692 -0.008926293 0.0072991634 0.036756467 0.025735278
-0.030604254 -0.03355257 0.008541707 -0.09906793 -0.017975809 0.018692093 -0.030008154 -0.043985307
0.007343502 0.05300984 -0.03465275 -0.03317046 -0.09662034 -0.021739924 0.019864818 0.024295164
-0.027697735 -0.053366367 -0.014304136 0.033208784 0.0072459457 0.038163003 -0.009368077 -0.009632726
-0.0020785772 0.13662778 -0.037875187 0.0035868282 -0.002003144 0.022386013 -0.023366721 0.007893343
-0.040680498 -0.06243497 -0.0019090454 -0.037707828 -0.00017862722 0.020683011 -0.02705056 -0.05435899
0.032926917 -0.079675525 -0.16941711 0.023676086 0.013398925 0.058072183 0.067301735 0.083371595
0.045097854 -0.008545225 -0.051440474 -0.03813962 -0.018521959 -0.018088546 0.048357576 0.015968746
-0.015354481 0.01790202 0.05450477 -0.005730125 -0.050128855 -0.0027226745 0.015621834 -0.03660143

fc1.bias f4 [10]
00000000: 1026 073d 658c a73d dc26 7bbd 2b33 473c
00000010: a091 54bd 1270 1cbd 74cb 7abc d4c2 13bd
00000020: b33a 303d e635 803b
0.032995284 0.08181075 -0.061316356 0.0121581955 -0.05189669 -0.038192816 -0.015307296 -0.036074474
0.04302473 0.003912675
