result/mnist/seed12/noniid_0.8/ratio_0.4/final.pt (torch, 75941 bytes, 6 tensors)

cnn1.weight f4 [16, 1, 5, 5]
00000000: 1d4f 28bd cd43 07be 9bc1 14bd ef7d 633d
00000010: 5919 993b e119 3dbe 0768 ca3c 997a b9bd
00000020: 0f1f 133e 9940 fb3d 3d74 1fbe ca09 9b3d
00000030: 7325 9e3d 8d12 c93d 7c6b 4d3c bf43 0bbe
00000040: 54c2 693e 37f8 253e c8d3 28be e80c 54bd
00000050: 6046 df3d 25b4 13be e620 0cbe 271e 023e
00000060: 8380 d03d e1d2 cabd 309b cabd a03c 743c
00000070: 8d7c a43c bb1e 6b3d 6b0b 3ebd e5b2 f73d
00000080: adb6 d1bd dd37 e4bd 13e3 b8bd 1803 19be
00000090: 8845 f53c b128 18be ea29 1dbe 84e9 fc3d
000000a0: abea a03d e152 19be 9de4 acbd 1829 1dbe
000000b0: a2f7 c43d 6d6a dfbc 820d a13d ae21 22be
000000c0: 7027 77bd 6cef 7a3e ef1b 423e 251a 893e
000000d0: 5b5f 2c3e 1c56 903e 7c27 873e c6e6 26be
000000e0: 7d63 c6bd be26 9d3e 18b1 603e 7587 ad3d
000000f0: 6a1c f43d b960 38be 75e9 363e b7ad 283e
00000100: e8a9 d83d 75a5 1cbd 3014 00be f847 353d
00000110: 6782 333e c763 ae3d 514f 49be c932 56be
00000120: a326 a2bd fcb9 22be 3aff 87bd 2e96 313d
00000130: 4149 30be bc41 403e 69a6 0b3d a99a c03d
00000140: d8ea c73b 9aaf 1bbe 411e 0a3e 7872 81bd
00000150: 447f 5fb9 0ec2 f03d 9004 c33c 8f69 593e
00000160: 90ab f2bb ec30 223e db09 653d c69c 183e
00000170: f2c2 163d 73f2 6bbd 68a6 e63d c6d2 623d
00000180: 80ee 2fbe 1938 41be f8d7 49be a1ec 7c3e
00000190: ad57 053d 733d 593d c7ef 913d d9cd 5b3a
000001a0: 183c 5a3e 47b4 1a3e 41be cabd 4d05 103e
000001b0: 0fe2 4b3e 681c 183d b94c 553c 35f6 193d
000001c0: 2e0f 2bbe 5c82 ffbd c636 513e 6595 61be
000001d0: a550 2a3c 569e 58be 8613 a6bd 12bf bebc
000001e0: 78a0 afbc e0b6 fbbd 782f 793d f768 c73c
000001f0: 1635 2fbe 7b3d 7e3d b30e 8b3e 9b79 803e
00000200: ad46 a1bd 3423 db3d 104c 08be d707 7f3e
00000210: 1781 1a3e 8539 c63d d343 18be 12f4 c3bd
00000220: a969 25be ddf2 113e ad37 0ebe d2ee 6ebd
00000230: 6ad9 3dbd acc8 a33d 5924 9c3d fa05 ae3d
00000240: a888 363e 8dd7 ebbc 54cf e5bc 0ae4 86bd
00000250: c8f8 01bd 145b 20be 6899 e73d 81f8 603e
00000260: 282e 443e 2028 e53d 9481 dbbd 8e9a 29be
00000270: 5d35 853e 0479 623c ece1 b1bd 6ed9 53be
00000280: f209 e1bd 1487 073e 875d 2e3e 7303 5abe
00000290: fa55 70be ab2f 403b f71d b7bd 3faa 273e
000002a0: 609c 93bd 9000 64be 9ce8 893d a7b8 383e
000002b0: 1ec9 c93c 85fe 44be 4354 bfbc 1b07 39be
000002c0: d352 d53d fc8e 363c e921 8e3d e5a4 21bd
000002d0: 9a63 3bbe 4d1e 993d 2536 5e3e febb 13bd
000002e0: c500 dbbd 39a6 23be db09 993c 1ca6 753e
000002f0: 980f 7fbd eea8 aebd ca76 183e 57c4 ffbd
00000300: 6c97 413c ded1 57bd ccd3 32bc 7c89 e4bd
00000310: 3ffb c33c 7d0d 4f3d 67ac 623d 33ed d5bd
00000320: 77fd 6a3d f7de 3ebe 89ce cf3c 90c2 a13d
00000330: 0f1b 13bd 4d73 a8bc addd f53b 172a 3c3e
00000340: f810 883e 30c4 35be 7237 3f3e ee64 1f3e
00000350: 4a57 b53e 21bc 933e b1fb 72bd ae07 87bd
00000360: f373 4b3e fe0d 5c3e 21a0 803e 5aed 1abd
00000370: ebba 093d 9ac8 cabd 3430 26be fcfa 333e
00000380: 2dc5 fc3d c0b8 893e 6f0c 823e 51c2 96ba
00000390: 493e 80bc 48f2 043e ad10 813e 7d56 ac3a
000003a0: 2b9d b13e fafd 723e 454b b63d d46b 33be
000003b0: ccc7 14bd 2555 313e ea1e d93d 240d b53d
000003c0: a72b 58be 8954 81be 488c 77be 184e 17bd
000003d0: dfd5 42bd 0ffb 38be 9094 bc3d fda6 8abe
000003e0: c89d 78be 359f 73be f375 ffbd 2700 fc3a
000003f0: 6264 22bd 36b4 113d b847 253e c00c 27be
-0.041091073 -0.13209458 -0.03631745 0.05554002 0.004672211 -0.18466903 0.024707807 -0.09056587
0.14367317 0.122681804 -0.15571685 0.075702265 0.077219866 0.098179914 0.012537833 -0.13600062
0.22828037 0.16207968 -0.16487038 -0.05177012 0.10902095 -0.14424188 -0.13684425 0.12706815
0.10180762 -0.09903503 -0.09892881 0.014907032 0.020078922 0.057402354 -0.046397608 0.12094668
-0.10239921 -0.111434676 -0.09027686 -0.14942586 0.029940382 -0.14859273 -0.1534802 0.12349227
0.07857259 -0.14973022 -0.08442042 -0.15347707 0.09617545 -0.027272427 0.078639045 -0.1583316
-0.060340345 0.24505395 0.18955968 0.2677776 0.1683325 0.28190696 0.26397312 -0.1629897
-0.09686945 0.3069362 0.21942556 0.08473102 0.11919482 -0.18005647 0.17862494 0.16472517
0.10579282 -0.03824373 -0.12507701 0.044258088 0.17530213 0.08515125 -0.19659163 -0.2091781
-0.079175256 -0.1589126 -0.066404775 0.043356113 -0.17215444 0.18775076 0.034094248 0.09404499
0.0061009936 -0.15203705 0.13488103 -0.06320661 -0.00021314347 0.11755763 0.023805887 0.21231674
-0.0074057057 0.15838975 0.055917602 0.14903554 0.036807008 -0.057604264 0.11262208 0.05537679
-0.17180824 -0.18869056 -0.19711292 0.24699642 0.032554317 0.05303712 0.07125812 0.00083848607
0.21311986 0.15107833 -0.09899569 0.14064522 0.19910453 0.037136465 0.01301878 0.037588317
-0.1670501 -0.12476036 0.2043105 -0.22029646 0.010395204 -0.2115415 -0.081091926 -0.023284469
-0.021438822 -0.1229074 0.060836285 0.024342043 -0.17110094 0.06207035 0.27159652 0.25092778
-0.078748085 0.10700074 -0.13310266 0.24905334 0.15088306 0.0967894 -0.14869623 -0.09568037
-0.16153587 0.14252801 -0.13888426 -0.058333226 -0.04634992 0.079972595 0.0762412 0.08497234
0.17825568 -0.028789306 -0.028052963 -0.06586464 -0.031731397 -0.15659744 0.11308557 0.21969797
0.19158232 0.11189294 -0.107180744 -0.16562864 0.26017275 0.013822798 -0.08685669 -0.20688412
-0.10988225 0.13235122 0.17027865 -0.21290378 -0.23470297 0.0029325287 -0.08941262 0.16373537
-0.072075605 -0.2226584 0.0673382 0.1803919 0.024632033 -0.19237716 -0.023355609 -0.18069117
0.10416188 0.011142489 0.069400616 -0.039463896 -0.18299714 0.074764825 0.21700342 -0.036067955
-0.10693506 -0.15981378 0.018681457 0.23989147 -0.06227073 -0.085283145 0.14889064 -0.12488621
0.011815887 -0.05269038 -0.010914754 -0.111590356 0.023923514 0.050549973 0.055340197 -0.10445633
0.05737063 -0.18639742 0.025367038 0.07898438 -0.035914477 -0.020562792 0.0075032325 0.18375431
0.26575446 -0.17750621 0.18673494 0.15565845 0.3541816 0.28854468 -0.059322063 -0.06593262
0.1986845 0.21489713 0.2512217 -0.037824012 0.033625524 -0.09901543 -0.16229326 0.17576212
0.12342296 0.26898766 0.2540011 -0.0011502003 -0.0156547 0.12983048 0.25208035 0.0013148334
0.34690222 0.23729697 0.08901075 -0.17521602 -0.036323354 0.17317636 0.106015995 0.08840397
-0.21110402 -0.25259808 -0.24174607 -0.03693971 -0.047567245 -0.18064521 0.092080235 -0.27080527
-0.24278939 -0.23791201 -0.12473669 0.001922612 -0.039646514 0.035572253 0.1614064 -0.16313457

cnn1.bias f4 [16]
00000000: 3d24 0abe 4c8a 5fbc 451d 09bd a59d e43c
00000010: 7622 abbd 287b c1bc ee45 dd3d cba2 f33d
00000020: d176 eabd 7317 afba 9f7c 1f3e f23c 213e
00000030: 742a 833c 56f0 36be 0c78 b03d b0fb 0b3e
-0.13490386 -0.013643812 -0.03347518 0.027907202 -0.08356182 -0.023618296 0.10804354 0.11896285
-0.11448444 -0.0013358429 0.15574883 0.15745905 0.016011454 -0.17865118 0.08616647 0.1367023

cnn2.weight f4 [32, 16, 5, 5]
00000000: 7eb4 1a3d 81c7 1ebd 3cb0 0fbd c28f a9bc
00000010: 3cb2 963c 0d46 56bd 2388 1fbd b82c b9bb
00000020: 5edc 433c 59d9 8f3b fcfe 63bc a468 8939
00000030: 66c3 a5bc 62ad 3b3d 643c ef3c 2972 dfbc
00000040: a32d b73c f9ae 363c 3b80 093d 3a33 3ebc
00000050: 6f9f 983c e2a2 c13a 62f8 9ebc 11e3 1e3d
00000060: 997c 3bbd 2f00 58bd 2ec8 573c 56be 793c
00000070: 3ad2 6d3c a4dc 483c d07f a33c 56c0 d23c
00000080: 7bd8 d8bc bc35 bc3c 3d70 d33c 5d3f b8bc
00000090: 054e 603c 75ca 133d 91f2 803c 0b11 b6bb
000000a0: f0d3 bbbc fbb3 1a3d 672f 093d b422 5a3c
000000b0: 7171 15bd ec4e 8c3c e6c1 cc3b 655d e5bc
000000c0: 21e1 51bc 3e9b 4dbd 4de9 753d 4955 ac3c
000000d0: a7e8 0b3d 5ecf 983b 8249 953c 8e07 e13c
000000e0: 36f1 de3c c4be c0ba 686a 25bc 6701 8bbc
000000f0: 8b41 12b9 8c5e babc bc14 f63b b6ff 633d
00000100: 44de 75bd 3abc 913c efad 9cbc d287 3abb
00000110: f419 c9bc 8813 e0bc 863b be3a 13bb 4cbd
00000120: 07cc ab3c c966 9abb a15d 8a3c 4f9e 75bc
00000130: 6fc7 183d 975e 913c 77e7 24ba fb77 073d
00000140: da8c 2ebd 90d5 cebc e0b6 f8bc 8931 81bc
00000150: 2c59 88bc 9502 a03c c2fe 31bd 5725 203b
00000160: cdf4 1bbd bba2 00bd c3d9 883c 38e6 303c
00000170: 1c66 4e3d 89a5 c1bb 6a92 30bd 669d 08bd
00000180: 3f8b df3c 7916 9a3c 1fb2 ad3c e53a 5ebd
00000190: ae95 18bd 08f7 f03c 1191 283c 61fb e8bc
000001a0: 3971 433c 5965 bfbb 7e5b 05bb 0954 ae3b
000001b0: 36fc 0e3d 6c77 2f3d f7ce d7bc 6f97 273d
000001c0: 3482 b93c 0e15 a03c e090 773c af49 21bd
000001d0: 7598 833c 585a 8ebb 8c00 c0bc 3dbb d03c
000001e0: a261 0dbd 4fc4 1cbd 5b2a d0bc fb1f 093d
000001f0: 89a2 5a3d a7bd 143d d866 82bc ba15 f03c
00000200: bb08 3d3b a355 373d 2921 723c 95ee 103d
00000210: 8654 bc3c 5381 58bd 7c4d c5bc ac9d 073d
00000220: 0f38 2c3d 902d 55bd 21ca 143d 19e8 34b9
00000230: ccee 45bd 6a0a 4bbd 2673 f03c c0e9 12bd
00000240: 2374 3c3c 1a0d 3fbd 228c b23c 5f54 09bd
00000250: e8b6 e2bc 2e5f 3a3d 9daf 70bc ab18 9c3c
00000260: 8978 933c 54d8 a83c 0b26 343d 790f ee3c
00000270: 7603 8b3c 76b8 1fbd 3b6d bcbc 28cb 7b3c
00000280: a2e4 24bd 8e7a 9b3c 2c4d cd3b ea81 1e3d
00000290: 670b 773d 49f1 243d 9c83 f5bc 2d06 efbc
000002a0: 349a 333d ee43 80bc b9a8 f4bc c40d 83bb
000002b0: ea34 af3c e60a 783c 8f31 f8bc 091d a3bc
000002c0: 9037 44bd 5f8a d7bc 989c 2abc 81e8 89bc
000002d0: d505 193d e2c6 0b3c b6d7 ad3c 10fc af3c
000002e0: 981e 1a3d b3b9 8f3c de0d 173d acd5 383d
000002f0: 2f2c 483d 41cc 13bc da2c df3c 241d a6bb
00000300: 0355 1d3c d99a 363d 6c19 d4bc 0081 ae3c
00000310: 7d2e 033c a7c0 053d 8ef3 4bbc b959 143d
00000320: e175 213d d781 3c3d c518 8d3c a85d 073c
00000330: 46cd 773d a4c6 9c3c a35a 7bbd a015 86bd
00000340: a8c4 683d 17b3 c2bc 0645 babc c6af abbc
00000350: 5bb2 c83b e496 1e3b 5789 69bd 3b04 59bd
00000360: 789e 9dbc 3764 073d 58e6 2cbd e93e e13c
00000370: bb95 833c a245 45bb 2370 bfbc a8ca 88bd
00000380: 6f11 be3a 86cb 2c3b 2085 9b3c 0683 403d
00000390: 5b9a 86bc da05 04bd 61f7 edbc 3132 9e3c
000003a0: d39a f83c 449c 05bd 3027 38bd e7e3 e43c
000003b0: 9a49 eb3c ce91 43bc 7cf7 f33c b3da 14bc
000003c0: c08c 48bd d69e 653c 97b0 92ba b8b2 bd3c
000003d0: 23ec b93c a963 88bd f84b 88bc 0a5b 1fbd
000003e0: 0a99 0d3d 9ebf a13c 6a6f 30bd c2a3 4cbd
000003f0: 61d8 4abd 78f8 a33c 65c5 a53b b3bd 7bbd
0.037769787 -0.03876448 -0.03508018 -0.020698432 0.018395536 -0.0523129 -0.03894819 -0.005651083
0.011954395 0.0043899235 -0.0139157735 0.0002620864 -0.020234775 0.045819648 0.029203601 -0.027276115
0.022360628 0.011150115 0.033569556 -0.011608893 0.018630711 0.0014773274 -0.019405548 0.038790766
-0.045773122 -0.05273455 0.013170285 0.0152431335 0.014515454 0.012259636 0.019958407 0.025726479
-0.026470413 0.022974841 0.025810355 -0.022491151 0.013690476 0.03608175 0.015740665 -0.005556231
-0.022928208 0.0377693 0.033492472 0.013313938 -0.03648514 0.017127477 0.0062487004 -0.027998636
-0.012810023 -0.05019688 0.060036946 0.02103676 0.03415742 0.004663392 0.018223528 0.027469423
0.027214628 -0.001470529 -0.01009617 -0.016968442 -0.00013948062 -0.022750162 0.007509796 0.055663787
-0.060026422 0.017789949 -0.019125907 -0.0028462303 -0.024548508 -0.027353063 0.0014513589 -0.049983095
0.020971311 -0.00471196 0.016890349 -0.014991357 0.03729957 0.0177453 -0.00062905945 0.033073407
-0.042614795 -0.025248319 -0.03036064 -0.01577069 -0.016644083 0.019532481 -0.043455847 0.0024436319
-0.038075257 -0.031405192 0.0167054 0.010797076 0.050390348 -0.005909626 -0.04310838 -0.03335323
0.027288077 0.018809544 0.021203099 -0.054255385 -0.03725212 0.029414669 0.010288493 -0.02844018
0.01192885 -0.005840939 -0.0020348723 0.0053200764 0.034908496 0.0428385 -0.026343806 0.040915903
0.022645094 0.01954129 0.0151102245 -0.03937691 0.016063908 -0.004344266 -0.02343776 0.025479907
-0.034516938 -0.038273152 -0.025410822 0.033477765 0.05337766 0.03631368 -0.01591818 0.029307235
0.0028844315 0.044759404 0.014778414 0.03538378 0.022989523 -0.05285771 -0.024084799 0.033109352
0.04204565 -0.052045405 0.036325578 -0.00017252601 -0.048323438 -0.04957048 0.029351782 -0.035867453
0.0115022985 -0.046643354 0.021795336 -0.03352773 -0.027675107 0.045500927 -0.014690307 0.019054731
0.018001812 0.020610966 0.043981593 0.029060112 0.016969424 -0.038994275 -0.023001304 0.01536826
-0.040257104 0.018979337 0.006265303 0.038698114 0.06031361 0.04026917 -0.029969983 -0.02917775
0.04384823 -0.015657391 -0.02986561 -0.0039994437 0.021387536 0.015139317 -0.030297069 -0.019911306
-0.04790455 -0.026311098 -0.010413311 -0.0168345 0.037359077 0.008531304 0.021221023 0.021482497
0.037626833 0.017544603 0.03687846 0.04512565 0.04887026 -0.009020866 0.027243067 -0.005069392
0.009602788 0.044581268 -0.025891028 0.021301746 0.008006689 0.03265443 -0.012448205 0.03621838
0.03941906 0.046022262 0.017223725 0.0082620755 0.0604985 0.019137688 -0.061365735 -0.065470934
0.05682817 -0.023767037 -0.022737991 -0.020957839 0.0061247773 0.0024198825 -0.057015743 -0.05298255
-0.019240603 0.033054557 -0.04221186 0.027495818 0.016062608 -0.003010132 -0.0233689 -0.066792786
0.0014501045 0.0026366427 0.018984377 0.046999954 -0.016431024 -0.032232143 -0.029048624 0.019311043
0.030347263 -0.03261973 -0.044959247 0.027940704 0.02872162 -0.011936618 0.029781096 -0.009085345
-0.048962355 0.01401492 -0.0011191544 0.023156509 0.022695607 -0.06659634 -0.016637787 -0.03890518
0.034569778 0.01974469 -0.043075003 -0.04996086 -0.04952276 0.02001594 0.0050589317 -0.06146021

cnn2.bias f4 [32]
00000000: f48d f5bc 4ebc a63c a84a 61bc 86ad 3ebd
00000010: 64e4 b93c 9123 1bbd 2a0d 71bc fd14 51bd
00000020: 00e7 1f3d d220 43bd a160 033d 6f29 cb3c
00000030: ddcc f13b b7d3 d5bc 253e ff39 dcee 4dbc
00000040: be45 9d3c 2884 43bd 3d1e 163d 5f07 e9bc
00000050: 5a32 f13c d484 25bd 0499 4c3c 8c4c 293d
00000060: 4512 12ba 98c9 58bc 949b 4cbd 6b76 4abc
00000070: ecdd 86bd 8bab 093d 44b8 b13c 11b3 a93b
-0.029974915 0.020353463 -0.01375071 -0.046552204 0.022691913 -0.037875716 -0.014712611 -0.051045407
0.03903866 -0.04763872 0.032074574 0.02480003 0.007379158 -0.02610193 0.0004868369 -0.012569156
0.019198295 -0.047733456 0.03664993 -0.028445898 0.029442955 -0.040409878 0.012487654 0.041332766
-0.00055721804 -0.013231657 -0.04995306 -0.012357335 -0.06585297 0.03361086 0.02169431 0.005178817

fc1.weight f4 [10, 512]
00000000: 8cf5 a6bc 7c95 d739 99e8 d43c 3dc3 65bc
00000010: c960 863c c2d5 cabc 2344 9abc b488 ad3d
00000020: 70a0 d8bc b231 7ebc 234f 85b9 de97 953d
00000030: 0ea2 53bc 2bf4 56bc 0765 a4bc f283 b1bc
00000040: 1acc a73a d3d7 a8bd 7de2 793c 1107 a33d
00000050: fe91 0dbd 6708 fabc 446f 153d 41a7 7b3d
00000060: c239 0b3d d113 a1bc 6e1b 09bd 415e 453d
00000070: e5c3 873d a678 1e3c 54d8 93ba 9154 60bc
00000080: 844e 14bd 9a58 c8ba 77ee 3d3d c301 8bbd
00000090: 13c5 d4bc 6d03 473b 2d8c e8bc f53f 5dbd
000000a0: 6fa6 12bc 083d 63bd 7778 8fbc a2e7 2bbc
000000b0: f102 013c f445 b3bc 96a0 0a3d 9661 8f3d
000000c0: 2dd7 ae3c bc2a 54bc f380 09bd 9bcb 213d
000000d0: d4eb fc3c ee8c c03c fca3 1e3d c7dc 33bc
000000e0: 071c 25bc 7817 793b 8a5f 693d 8959 cdbc
000000f0: 5b8e 83bc d6f4 e33c 6fb5 72bc 9fcd 353d
00000100: 8c51 673d 85f9 673d 1fe4 703d ddbd 7ebb
00000110: 3820 3d3d ab92 b83d fff8 98bc 85f1 0b3e
00000120: 666d 763d d732 253d 9a5f 743d 5ccc 3a3d
00000130: 5523 073d eb42 7e3d 409c dd3c 04df 1b3d
00000140: 372f 3b3d 6bdc 773c 7996 4a3d 2012 08bc
00000150: 70dc 95bb 95d5 023d 1cff 64bd 6c28 85bd
00000160: d1f7 83bd c0ee f1bd 5c34 bd3b 7d14 633d
00000170: e8ae 90bd 4454 3ebd cd32 133d ed68 a43d
00000180: 9e91 ca3c af6b 383d 212e 3a3d 9527 5c3d
00000190: 51cf ff3c 87c4 d03c d306 6fbd 36f9 fa3c
000001a0: 917e 2abd 42f4 69bd 6687 813d 158e 723c
000001b0: b718 31bb afa4 20bd aa2f e53b ddd0 4ebd
000001c0: 93c8 1dbc 40a8 473b 374c 033d 4723 013d
000001d0: b04c 313d b812 42bd d5e7 a23c 732c 34bb
000001e0: 9119 8d3d 8491 c03d 05ae f73a 27cb 17bd
000001f0: 3816 c43b d74b 783c 2fb7 033d 244d 96bc
00000200: 0f1b 60bc d240 63bd cd51 9d3c 0ccd 9b3c
00000210: 98d0 d1bc 9e07 a2bc 511a 9bbd 314e e53c
00000220: 7d72 25bd c9ff 20bd e535 0bb9 ed6c 96bc
00000230: f282 1f3c a257 833a dfa8 12bd e8bc d5bc
00000240: ed7c 683c 433c 853d bc30 203d e3d8 7f3d
00000250: 4990 91bc 3d89 e43c 87e2 793d 7eba aa3c
00000260: 6716 4a3d 4d5d b63d a229 793d 1673 933d
00000270: f0c8 903c 506a 263d be65 663d 796c 223d
00000280: dcbd cbbb 38cb 033b f2b4 a6bc 1389 ff3c
00000290: a8fa f53c 9f28 a13c ebb4 eabc 7765 bf3d
000002a0: 3402 d43d dff2 9f3d 78f4 26bd c758 713d
000002b0: 70f6 d43d aa0d 943c f1ab a1bb eeb6 50bd
000002c0: bc04 8b3b b3de 293c c09f 613c 544c 2f3d
000002d0: 7a9b 06bd 2ae0 d43c 174e 02bc 1356 5c3d
000002e0: 9297 833b 486b 21bc e577 18bd a0bc cd3b
000002f0: 27ba 7e3c 500e 863c c753 4f3d fae3 aa3c
00000300: 0442 b5bc e43f 13bd dcbf 9a3c e27f 2ebd
00000310: 0648 9bbc 0929 ae3b af9c 1dbd fa30 4dbd
00000320: 185e b43c 27da 153d bd3f 9cbc 265b fdbc
00000330: 1194 05bd f796 f3ba 46cc fa3c 4952 dc3c
00000340: 5dc1 adbc cfed 44bd 5c67 9abb e891 c33c
00000350: fc7b d43c 045b 313d e4b7 003b 9e43 04bc
00000360: 6e16 f0bb 87cf 063e 9915 25bd 6974 5bbc
00000370: 06e2 63bc 141c cc3c 91c4 083d e715 71bc
00000380: 8716 f4ba 51d3 6c3c c57b 233c e07d 30bd
00000390: 9ad2 7bbc 3c84 ea3c c20b e3ba bef4 3fbd
000003a0: 6e94 283d 77d4 923b 09b5 0abe c625 a0bb
000003b0: 8dd9 0cbd 9245 a53b bc2c 8e3c 6644 9a3c
000003c0: 5fc0 bd3c 8d42 2dbb b3e1 58bd 5df4 5ebc
000003d0: 8fe2 293c 1506 fe3b aa56 173d 3627 883c
000003e0: a858 bc3c 9771 493b 043d 573d ad1c f4b9
000003f0: 01b4 13bd 2fd1 77bb 7df9 773c 016b 5c3a
-0.020380758 0.0004111937 0.025989817 -0.014023599 0.016403573 -0.02476013 -0.018831318 0.0847334
-0.02644369 -0.015514778 -0.00025426698 0.07304357 -0.012917055 -0.013119738 -0.020067705 -0.021669362
0.0012801916 -0.0824429 0.015251753 0.07960332 -0.034563057 -0.030521585 0.036483064 0.061438803
0.03399063 -0.01966277 -0.033473425 0.04818559 0.06629161 0.0096723195 -0.0011279681 -0.013692037
-0.03620769 -0.0015285194 0.046369996 -0.067874454 -0.025972879 0.0030367032 -0.028387154 -0.054016072
-0.008950814 -0.055478126 -0.017513497 -0.010492237 0.007874236 -0.021883942 0.033844553 0.07001035
0.021342838 -0.012949642 -0.03357024 0.039500814 0.03087417 0.0235047 0.038730606 -0.01097793
-0.010077483 0.0038008373 0.05697588 -0.025067108 -0.016059091 0.027826708 -0.014813765 0.04438555
0.056474254 0.056634445 0.058811303 -0.0038870492 0.046173304 0.0901235 -0.018673418 0.13666351
0.060162924 0.040331688 0.059661485 0.04560505 0.03299268 0.062075537 0.027052045 0.03805448
0.045699324 0.015128235 0.04945991 -0.008305103 -0.0045733973 0.03194197 -0.055907354 -0.065018505
-0.064437516 -0.11813116 0.005774064 0.05543946 -0.07064611 -0.04646708 0.03593712 0.080278255
0.024727639 0.04502457 0.04545415 0.053748686 0.031226786 0.025484337 -0.058356117 0.030636411
-0.04162461 -0.057117708 0.06324653 0.014804383 -0.0027022788 -0.039219555 0.0069942074 -0.050492156
-0.00963034 0.0030465275 0.032055106 0.031527784 0.043286026 -0.047381133 0.019885937 -0.0027492314
0.06889642 0.09402755 0.0018896466 -0.037058976 0.005984094 0.0151548 0.03215712 -0.01834733
-0.013678326 -0.05548174 0.019204045 0.019018672 -0.02561216 -0.019779023 -0.07573379 0.027991386
-0.040392388 -0.039306436 -0.0001327615 -0.018362487 0.00973581 0.0010020623 -0.03580558 -0.026091054
0.014189941 0.06505635 0.039108977 0.0624627 -0.017768996 0.027897472 0.06100705 0.02084088
0.04933777 0.089045145 0.06083072 0.07199685 0.01767394 0.04062873 0.056249373 0.03965423
-0.0062177014 0.0020110141 -0.020349953 0.031193292 0.030026749 0.01967269 -0.028650722 0.09345525
0.10351983 0.07809996 -0.040760487 0.058922555 0.10398567 0.018072922 -0.004933827 -0.050955705
0.0042425077 0.010368037 0.0137709975 0.0427974 -0.032863118 0.025985796 -0.007953188 0.053793024
0.0040158713 -0.009852238 -0.037223715 0.0062785894 0.015547312 0.016364247 0.050617006 0.02086066
-0.022126205 -0.035949603 0.018890314 -0.042602427 -0.018955242 0.0053149504 -0.038479503 -0.050095536
0.022017524 0.036585 -0.019073362 -0.030927252 -0.03261191 -0.001858442 0.030614983 0.026894705
-0.021210367 -0.048078354 -0.0047120284 0.023873284 0.025938027 0.04329969 0.0019640857 -0.008072762
-0.0073268926 0.13165103 -0.0403038 -0.013394454 -0.013908869 0.024915732 0.033390585 -0.014714695
-0.0018622436 0.014454679 0.009978239 -0.043088794 -0.015370036 0.028627507 -0.001732223 -0.046864264
0.04115718 0.004480894 -0.13545622 -0.0048873154 -0.03438716 0.005043694 0.017355315 0.018831443
0.023163019 -0.0026437372 -0.05294962 -0.013608065 0.010368957 0.00775219 0.036947884 0.01662026
0.022991493 0.003073787 0.052548423 -0.00046560672 -0.036060337 -0.0037813892 0.015135166 0.0008408279

fc1.bias f4 [10]
00000000: 6c9e a23d cf49 b6bc d7a9 ed3a c1f4 49bd
00000010: 4cb7 c1ba b894 c0bd e37e bd3c 2502 9fbd
00000020: bc5a b33d dfc9 c33c
0.07940373 -0.022251992 0.0018132281 -0.04930568 -0.0014779358 -0.09403366 0.023131793 -0.07764081
0.087575406 0.02389997
