result/fmnist/seed12/noniid_0.8/ratio_0.5/final.pt (torch, 122111 bytes, 14 tensors)

layer1.0.weight f4 [16, 1, 5, 5]
00000000: ca74 86bd f7d3 6dbd 372c bd3c 24d9 883d
00000010: 9530 103d 247e 61be 93f6 a13d e475 9ebd
00000020: f699 f43d 1909 cf3d 9128 6bbe 5671 973d
00000030: adb1 a83d edb1 853d 587e 973c 3525 61be
00000040: 9f76 823e c155 183e 85e3 35be 8ea9 9bbb
00000050: 603f 473d dfaf 8ebd aa63 efbd aa53 da3d
00000060: 3c56 1d3d 193d 3abd ec4e 1cbd 3809 183d
00000070: dc60 bb3a fa40 7d3d 3d8d 253c 225b 0f3e
00000080: 723f bbbd bdc8 b9bd fd41 1dbd e167 9dbd
00000090: 19d8 413d 571f 3dbe 3639 2cbe d447 113e
000000a0: d8c0 c63d dc8c 13be 5c23 febd 97e1 31be
000000b0: 7932 de3d 585a 84bc 8518 603d 05e1 0abe
000000c0: d914 09bd 9807 7d3e 16ad 153e 7e53 4a3e
000000d0: d25c 743d 8ab3 143e 0e34 423e 8e6a 21be
000000e0: da7c 02be 3d19 433e dd50 aa3d 386d 303d
000000f0: ff16 123e ea64 1ebe ec1e 133e b58b d63d
00000100: 65de 933d c7f8 da3c 2de8 22bd 43db 9d3d
00000110: 6688 143e 221c 4f3c 48de c8bd a3ae c2bd
00000120: 1ad3 12bc 47c2 1cbe 91f6 02be 3cc1 a23d
00000130: ec01 07be 4830 473e 2a76 863d 1c1b 0b3e
00000140: 97ce 523d 8f02 0dbe dfcb e63d d9c8 38bd
00000150: 88ca 113d 0357 fc3d 00fe c4bc 70cc 173e
00000160: 21ea f1bc bdd7 1c3e 23b5 4c3d 0160 033e
00000170: a65e 033d 4b9f 45bd 5c77 c83d 5c17 c53d
00000180: d4f5 d2bd c69b 07be 00d2 18be 9100 633e
00000190: 0526 093d 9827 a53d 8131 943d 6771 e7bc
000001a0: 2aae 463e e005 c33d 40c2 c7bd 0ec3 003e
000001b0: 8201 403e b89a cd3c ea7b dcbc 0088 473d
000001c0: e48e 12be 1cbf bdbd 5009 5f3e 7ced 63be
000001d0: c853 113d 4f2a 52be 131d cfbc d941 bfbb
000001e0: 602c 29bd fab2 ffbd f0a5 733d 3ea3 403d
000001f0: 944f 32be 09b7 7bbc b6f6 443e cbe4 003e
00000200: af52 8abd 8178 113e 91ff 39be 03ec 3b3e
00000210: 2788 693d da18 bb3d 831e debd 8b08 f7bd
00000220: d41d 28be 890d a63d 48c2 25be 5215 78bd
00000230: 2180 5abd 57c2 b13d 1fec fd3c 4492 813d
00000240: edf6 193e fd6e 9cbc 9f43 89bc 20de c5bd
00000250: 2497 d4bc a12f 01be 6c08 cf3d 6166 103e
00000260: 411f 023e 7360 e63d 8df3 bfbd e6f6 0dbe
00000270: 38d3 413e f432 bbbc 265e 20bd 1691 3abe
00000280: 51e0 b5bd 4a04 6e3d dfd8 183e c591 26be
00000290: 020b 61be d815 74bc 8637 0dbe e307 423e
000002a0: 12cc c7ba f075 39be 4153 903d 9ed7 453e
000002b0: df9f 823d 7985 f9bd ef86 a43c 0722 42be
000002c0: b72d f73d 0705 9fbc 0a57 263d fbbb 58bb
000002d0: d4f6 61be 5307 633d 69c8 403e 28b1 62bd
000002e0: 1b89 eebc 35f6 67be fda0 de39 521f 783e
000002f0: 84be a0bd 870f 9dbc 70ce d23d ac93 0dbe
00000300: d4e0 063c 2bc2 46bd a7b3 223d ffa8 0cbe
00000310: ba2a 173d b5ca 1f3d 5f0f 7b3d 30b8 86bd
00000320: 9513 6d3d bb2f 29be debc d3bb 1ed6 f83c
00000330: 55aa 0ebd 51b6 883b a360 4c3c 2095 c13d
00000340: d096 403e 5cea 17be 8039 2d3e 1748 953d
00000350: 2d42 3d3e 5517 483e c92e dfbc 2236 9cbd
00000360: f111 0a3e 7a78 ee3d 1b08 3f3e eb81 2fbd
00000370: 0468 953d 1575 4ebd 6f89 06be 85eb 193e
00000380: c2cc b13d aa1c 2e3e 7d68 083e 9229 ffbd
00000390: 845b bcbd e952 9e3d 445c 323e f11a 0dbe
000003a0: 0277 603e 4603 1b3e ba3b 833c 1d3d 33be
000003b0: bc82 77bd cb49 2c3e 4945 c63d 2f9c 993d
000003c0: 32ae 28be c888 30be d4b9 28be 78de bebc
000003d0: 2eab 5cbc 5569 ccbd 3774 4b3e 21d3 46be
000003e0: 5eb0 46be afd5 18be 248e bdbd 41c0 9a3b
000003f0: 91a4 55bd 6a31 953c 26da 233e 1de4 13be
-0.065652445 -0.058063474 0.023092372 0.06682041 0.03520258 -0.22020775 0.079083584 -0.077373296
0.11943428 0.10109157 -0.22964694 0.07394664 0.08237014 0.06528077 0.018492863 -0.2198685
0.25481126 0.14876463 -0.17762573 -0.004750437 0.048644423 -0.069671385 -0.11688931 0.10660489
0.038412318 -0.045468424 -0.038161203 0.037118167 0.0014295834 0.061829545 0.010104475 0.13999608
-0.091429606 -0.09071491 -0.03839301 -0.07685829 0.047325227 -0.18468986 -0.16818699 0.14187557
0.09704751 -0.14409202 -0.12409088 -0.17371212 0.10849471 -0.01615636 0.054710884 -0.135624
-0.033467147 0.24709928 0.14616808 0.19758412 0.059658833 0.14521614 0.1896517 -0.15763304
-0.1274294 0.19052596 0.08316205 0.04307291 0.14266585 -0.15468183 0.14367265 0.10475866
0.07220153 0.026729954 -0.0397722 0.077078365 0.14505157 0.012640985 -0.09808022 -0.095059656
-0.008961463 -0.15308486 -0.1278937 0.07947013 -0.13184327 0.19452012 0.06565507 0.1358456
0.05146655 -0.13770507 0.11269354 -0.04511342 0.03559354 0.12321284 -0.024046898 0.1482408
-0.029530587 0.15316673 0.049977433 0.12829591 0.032072686 -0.048247617 0.09788391 0.09623596
-0.10300794 -0.13243017 -0.14923859 0.22168185 0.033483524 0.080641925 0.072360046 -0.028252317
0.19402376 0.09522605 -0.09753847 0.12574407 0.18750575 0.02509819 -0.026914556 0.048713684
-0.14312321 -0.09264967 0.21780896 -0.22258562 0.03548029 -0.20523952 -0.025282418 -0.005836707
-0.041302085 -0.12485309 0.059484422 0.04703068 -0.17413169 -0.015363463 0.19234738 0.12587278
-0.06754052 0.14206125 -0.18163897 0.1835175 0.05701461 0.091355994 -0.108456634 -0.12062176
-0.16417629 0.081080504 -0.16187394 -0.060567208 -0.05334485 0.086796455 0.03099638 0.06326726
0.15035601 -0.019095892 -0.016755877 -0.096615076 -0.025950976 -0.12615825 0.10109028 0.14101554
0.12707235 0.11248865 -0.093726255 -0.13863716 0.1892823 -0.022851445 -0.039152287 -0.18219408
-0.088806756 0.05810956 0.1492648 -0.16266544 -0.21976855 -0.014897786 -0.13790712 0.18948321
-0.0015243313 -0.18111396 0.070471294 0.19320533 0.06378149 -0.12183661 0.020083873 -0.18958293
0.12069266 -0.019411577 0.04061035 -0.003307103 -0.22066814 0.055426907 0.1882645 -0.05534473
-0.029118111 -0.22652514 0.00042463085 0.24230698 -0.07848838 -0.019172443 0.10293281 -0.13825864
0.008232314 -0.048525017 0.03972211 -0.13736342 0.03690598 0.039011676 0.061293956 -0.065781
0.057880003 -0.16522114 -0.0064617237 0.030375537 -0.03483041 0.0041721244 0.012474212 0.094522715
0.1880753 -0.14835495 0.16916466 0.07289141 0.18482275 0.1954015 -0.027243989 -0.076275125
0.13483407 0.11644073 0.18655436 -0.04284851 0.0729523 -0.050404627 -0.13138364 0.1503125
0.086816326 0.17003122 0.13321109 -0.12459101 -0.09197143 0.077306576 0.17418009 -0.13779809
0.21920398 0.15137967 0.01601969 -0.17503782 -0.060427412 0.16825025 0.09681184 0.07500493
-0.164727 -0.17239678 -0.16477138 -0.02329944 -0.013468547 -0.09981028 0.19868551 -0.19416477
-0.19403216 -0.14925264 -0.09255627 0.0047226255 -0.052158896 0.018212039 0.16001186 -0.14442487

layer1.0.bias f4 [16]
00000000: ddf0 16be 15f2 35bd 29f8 aebd 36e2 be3c
00000010: 1cd9 d5bd e223 70bd f0fc bb3d aaf7 e83d
00000020: 1134 28be 4e12 77bd 1cf2 0d3e 4a47 133e
00000030: 60bb 29bd 6bfc 4bbe 9472 2f3d 0ea1 073e
-0.1474032 -0.04442032 -0.085434265 0.023301225 -0.10441801 -0.05862797 0.091791034 0.11375363
-0.16426112 -0.06032019 0.13861889 0.14382663 -0.04143846 -0.19920509 0.04283388 0.13245031

layer1.1.weight f4 [16]
00000000: 84e2 883f af95 803f 1f6e 763f 8361 793f
00000010: 4625 7e3f b41e 813f e48b 7c3f ad93 873f
00000020: afd3 783f 86d3 7f3f c288 773f bb32 7b3f
00000030: 482b 7d3f 262a 803f a1bd 823f c41c 7b3f
1.0694127 1.004568 0.9626178 0.97414416 0.99275625 1.0087495 0.98650956 1.0591942
0.97198004 0.99932134 0.9669305 0.98124284 0.98894167 1.0012863 1.021412 0.9809077

layer1.1.bias f4 [16]
00000000: 1b80 82bd f554 fdbc 714c 7fbd 7269 97bd
00000010: 09b0 96bc 2d64 05bd d90d 593d b541 ea3b
00000020: 9fa7 21bd df0d 25bd f9f5 64bd 50fd 7fbd
00000030: b91a 06bd 5e05 2fbd 924c 463d 647a 63bd
-0.063720904 -0.0309243 -0.06232876 -0.07393159 -0.018394487 -0.03256624 0.05299172 0.007148946
-0.039466497 -0.04029643 -0.05589864 -0.062497437 -0.03274033 -0.042729728 0.048412867 -0.055536643

layer1.1.running_mean f4 [16]
00000000: 0ca0 11be c956 22be 0093 0b3e d172 8b3e
00000010: 4ffa cebd c9c6 6abd a786 ac3d 81b5 ba3c
00000020: 2b30 053e 191e 11be be8d ce3e 07d7 ba3e
00000030: 85b0 9ebe 292d 5dbe 9448 3a3d 758f cb3e
-0.1422121 -0.15853418 0.13630295 0.27236035 -0.10106336 -0.057318483 0.084241204 0.022791626
0.13006656 -0.14171638 0.40342516 0.36492178 -0.3099405 -0.21599258 0.045479372 0.39757887

layer1.1.running_var f4 [16]
00000000: c729 be3c 0df2 123d e09d ad3d 6517 903d
00000010: 5206 dd3c 1788 883c 753b 283d ec03 013d
00000020: e8a2 e33d 540d 173d fbc5 b03d 1e53 693d
00000030: 00b3 b53d b25b 223d 3a4d 1d3d e8f5 a13d
0.02321328 0.03587537 0.08477378 0.07035712 0.026980553 0.016666455 0.041072328 0.03149788
0.11115056 0.036877945 0.08631512 0.056964032 0.08872032 0.03963823 0.038403727 0.07908231

layer2.0.weight f4 [32, 16, 5, 5]
00000000: 77a9 003d 72fe 24bd 654b 3dbd 3c4f 05bc
00000010: 98c9 863c 5706 5dbd a8e5 10bd 0c26 7fbb
00000020: 15e0 283a bb39 56bc 8424 a7bc b1c6 5f3c
00000030: 1401 91bc 6579 233d f9e4 833c a771 a5bc
00000040: 9a89 283d 2a48 023d 402f e73c 3ae5 d1bc
00000050: 1513 ae3c bb8c 433c 87bf 62bc d366 a53c
00000060: 93b3 42bd 6d1b 0abd 2474 113c d5db 013d
00000070: 0c2d 9e3c ca52 213c c43d 123d 444d b53c
00000080: caf4 28bc 4d44 0b3d b169 b43c 440d 1fbc
00000090: e99d 1c3c 7ab2 343d c86a 653c 6882 85ba
000000a0: 2b29 86bc 0e37 d03c af93 2e3d 2da1 653c
000000b0: 8f20 a5bc 5894 873c 67a1 9abc 0133 64bc
000000c0: 85a5 babc b027 18bd fb1f 0a3d d727 2cbb
000000d0: dc9d b93c e613 12bc c648 07bc 583d bb3c
000000e0: b322 063d 8a64 fdbb 0dd5 21bd c23d 2bbd
000000f0: 3c93 c53c 7a31 76ba c90e 02bc 2e19 173d
00000100: 5909 56bd 34b2 2d3d 2fed 67bc ba27 4ebc
00000110: e5e0 fdbc 8e57 1cbd 3071 703c b4cb 22bd
00000120: cc3b ef3c 6975 e43b 5c8c 873b 1fa4 54bc
00000130: a30a 0f3d c991 2f3c 09a3 efbb aa03 c33b
00000140: 770b 03bd 4021 bdbc d21b d4bc bc2c f3bc
00000150: bcc5 44bd b9e7 ee3c 9c12 e5bc e907 fd3b
00000160: 2b11 54bd 316a 21bd ab52 a73c 705c d13c
00000170: 7969 783d e41b 93bc 1ee0 81bd 2c22 f6bc
00000180: 510e 2a3d 2a40 033d df04 613c 2211 85bd
00000190: 394c 26bd 5d07 853c 52b2 f139 a633 f4bc
000001a0: f941 aa3c bfa0 88bc c339 8ebc ec2e 85ba
000001b0: f6b7 193d dcc7 253d 8cb5 d4bc 3c7b e03c
000001c0: 0c9f a13c 43fa 003d 88c2 a53c 06a6 34bc
000001d0: 1aa6 ab3c b14f d3ba 15e6 81bc 912f c33c
000001e0: 13fc 90bc 2bca efbc d016 82bc f6ba f53c
000001f0: 06d8 403d a7af 773c 2095 09bd d8a5 573c
00000200: d0f3 ddba b780 083d 6ce4 663a 34d4 ce3c
00000210: 0561 8c3c fdbf 3dbd beef 11bd 4f99 073d
00000220: 1893 173d 6ecb 83bd f341 293c 4c2e b7bc
00000230: da58 b2bc 394a d9bc 8dd0 9a3c bb2c 54bd
00000240: ee09 c83b 21ac c0bc 15de f73c 5551 ecbc
00000250: 1f74 aebc c8fb 323d 8590 36bc 85a4 fd3c
00000260: 4c31 a33c 696c 173d 8232 2f3d b28d ee3c
00000270: 492f 083d ef52 55bc 8f18 c4ba f149 263c
00000280: cf85 38bd 871b d53c e662 d73c 69dd 4a3d
00000290: cc93 613d 81c8 373d 6cf6 d8bb 0ee2 b3bb
000002a0: 5296 a43d 6bd6 4d3c 3a1b 9bbc d5e2 243c
000002b0: b5a0 673d ace3 7d3d f802 f7bb e341 f6bc
000002c0: d03e 12bd cb22 86bc def1 4b3b 69bf 02bc
000002d0: 4e68 d13c 7337 c53c a011 233d 2133 d83c
000002e0: 45ea c73c 8a09 133a 9ef9 463d aeda 903d
000002f0: 904c 413d 0ab3 45bc fd33 7a3c 49ad 703b
00000300: 23ad 1c3d 0eae 753d 165c 02bd c7f2 873c
00000310: 39f3 253c 00b8 3d3d da8c f239 56b0 e93c
00000320: 1fa8 253d 47ae 613d e80f c03c 96af 503c
00000330: ea75 c63c 60f5 203d 502d 07bd df82 4fbd
00000340: 7c6b 233d 16b1 54bd e2f8 22bc 6556 28bb
00000350: f7af 093b d106 66bc 4b33 77bd ceab 2dbd
00000360: 37ca 6cbc 7bf1 303d 64e3 07bd 6366 843c
00000370: 9077 2b3c 06fc 4abb 4487 36bb fd37 31bd
00000380: 52f3 283b e4e5 5bbb 9c36 973b 1515 433d
00000390: e375 c0bb 568b c1bc 76a4 48bd b283 9bb9
000003a0: 17a6 033d d83b ecbc cb40 08bd c869 a43c
000003b0: 2fff 1e3c ab71 81bc 2d22 3d3d 068e fa3b
000003c0: b997 cdbc 8bfb 823c 4507 72ba f3b0 643c
000003d0: f9dd 833c e4f5 1fbd 74a5 75bb 8bde e9bc
000003e0: d994 b73c 59e1 0c3c ce57 18bd ebc9 1ebd
000003f0: aa80 4abd 21c9 643c 84bf 80bc 8544 f7bc
0.031411614 -0.04028172 -0.04621448 -0.008136567 0.01645355 -0.053961124 -0.035375267 -0.003893259
0.0006442082 -0.013075287 -0.020403154 0.013658212 -0.01770071 0.039910693 0.016100394 -0.020195795
0.041146852 0.031807102 0.028220773 -0.025621999 0.021249333 0.011935408 -0.013839609 0.020190632
-0.047534537 -0.03371756 0.008877788 0.03170379 0.01930859 0.009846399 0.035703436 0.02213157
-0.0103122685 0.034000684 0.022023054 -0.009707753 0.009559133 0.04411552 0.014002509 -0.0010185959
-0.016377052 0.025416877 0.04262131 0.014015478 -0.020157127 0.016550228 -0.01887579 -0.013928176
-0.022784004 -0.037147224 0.033721905 -0.0026268864 0.022658281 -0.008915877 -0.008257097 0.0228564
0.032747936 -0.0077329325 -0.03950982 -0.041806944 0.024118058 -0.0009391528 -0.007938095 0.036889248
-0.05225501 0.042406276 -0.01415567 -0.012582714 -0.030991027 -0.038169436 0.0146754235 -0.039745048
0.029203318 0.006972004 0.004136605 -0.012978583 0.034922253 0.01071591 -0.0073131365 0.0059513645
-0.031993356 -0.023087144 -0.025892172 -0.029684417 -0.048040137 0.029163228 -0.027962975 0.00772189
-0.051774185 -0.039407913 0.020425161 0.025556773 0.06064746 -0.017957635 -0.06341575 -0.030045591
0.04151756 0.032043613 0.0137340715 -0.064974084 -0.040600035 0.016238863 0.0004609996 -0.029809784
0.020783411 -0.016678212 -0.017361527 -0.0010161079 0.037528954 0.040473804 -0.025965475 0.027402513
0.01972916 0.03148867 0.020234361 -0.011025911 0.020953227 -0.0016121772 -0.015856782 0.023826392
-0.017698323 -0.029271206 -0.015880018 0.029996376 0.047081016 0.015117562 -0.033589482 0.013162099
-0.0016933624 0.033325877 0.0008807841 0.02524767 0.017136106 -0.046325672 -0.035629027 0.03310519
0.037005514 -0.064352855 0.010330665 -0.022360943 -0.021770883 -0.02652465 0.018898273 -0.05180047
0.0061046993 -0.023519577 0.030257264 -0.028847376 -0.021295605 0.04369715 -0.011142855 0.030962238
0.019920968 0.036968622 0.042772777 0.0291203 0.03324822 -0.013020261 -0.0014960932 0.010149465
-0.045049485 0.026014103 0.026292276 0.04952756 0.05507259 0.04486895 -0.0066211727 -0.0054895943
0.08036484 0.012563328 -0.018933881 0.010063847 0.056549747 0.061984703 -0.0075381957 -0.030060714
-0.035704434 -0.016374012 0.0031119506 -0.007980206 0.025562432 0.024074292 0.03981173 0.026391568
0.0244037 0.00056090264 0.048577897 0.0707296 0.047192156 -0.012066612 0.015271184 0.003672438
0.038251054 0.059980445 -0.0318261 0.016595257 0.01012879 0.046318054 0.0004626278 0.028526466
0.040443536 0.055097844 0.023445085 0.012737175 0.024226148 0.039296508 -0.033002198 -0.050661918
0.039897427 -0.051926695 -0.009947034 -0.002568626 0.0021009424 -0.014039711 -0.06035165 -0.042400174
-0.014452509 0.043199044 -0.03317584 0.016162103 0.010465518 -0.0030972972 -0.002785162 -0.043266285
0.0025779796 -0.0033553774 0.0046146642 0.047627527 -0.005873428 -0.02362601 -0.048984967 -0.00029662024
0.032140817 -0.02883713 -0.033264916 0.020069972 0.009704395 -0.015801271 0.04617517 0.007646325
-0.025096761 0.015989086 -0.00092326506 0.013958204 0.016097056 -0.03905286 -0.003748265 -0.0285485
0.022409843 0.008598649 -0.037193112 -0.038766783 -0.04943911 0.0139639685 -0.015716322 -0.03018404

layer2.0.bias f4 [32]
00000000: 7951 bebc 10a9 173d 454f fcbb 5e26 12bd
00000010: 1cb3 d43c e1d1 97bc a0a2 48bc 59dc 06bd
00000020: a58b 303d 6cda 04bd 25bd 193d 2366 df3c
00000030: cc52 d93b e839 9cbc d468 1b3d 969e 843b
00000040: 68d5 323d d5ac ffbc c7e6 1e3d 25f6 4a3c
00000050: 039a 153d 102f feba 6121 d33c 4129 463d
00000060: 69de 523c 5cb5 2c3c ede7 38bd b393 86bb
00000070: 5e47 2abd 8b58 3e3d 0b0d 213d c1db 863c
-0.023232209 0.037026465 -0.0076998794 -0.03568112 0.025964312 -0.018532695 -0.012245804 -0.032924984
0.043101925 -0.032434866 0.037533898 0.027270382 0.0066321846 -0.01907058 0.03794177 0.004047225
0.04366055 -0.031210342 0.038794305 0.012387787 0.03652383 -0.0019392688 0.025772752 0.048379187
0.0128704095 0.010541286 -0.045143057 -0.0041069626 -0.041571967 0.04647116 0.03931908 0.016462209

layer2.1.weight f4 [32]
00000000: 6c15 313f fd66 1f3f d840 3a3f 5fdc 313f
00000010: 8759 263f 215f 373f 9410 2e3f 7287 353f
00000020: 40e2 2b3f 28cd 3e3f 4e2e 2d3f b131 293f
00000030: 6f07 2c3f 4bb2 2e3f fa10 4a3f 95b9 313f
00000040: ca66 2b3f c7d0 223f d87b 363f 8967 323f
00000050: bfb5 273f 5a16 373f 673b 343f a05b 2f3f
00000060: 6406 2d3f 2698 0d3f dafe 2f3f e1ca 463f
00000070: f42c 473f 5e95 323f 57db 353f fa1a 3a3f
0.6917331 0.6226652 0.72755194 0.69476885 0.6498036 0.7162953 0.67994046 0.709098
0.67142105 0.74531794 0.6764878 0.6609145 0.6719884 0.68240803 0.78932154 0.694238
0.6695372 0.6359982 0.7128272 0.6968923 0.655117 0.7151848 0.7040314 0.68499184
0.67587876 0.55310285 0.6874825 0.7765332 0.7780297 0.69759166 0.7103781 0.7269741

layer2.1.bias f4 [32]
00000000: b176 d8be 12d7 d9be c484 e9be 8407 d4be
00000010: b2a6 b1be 1076 b5be ee87 c8be 6077 c6be
00000020: 7425 d4be f61a ccbe bb4e debe 02fd ccbe
00000030: 369f d9be ebe1 d9be a655 f0be 1130 e0be
00000040: 5703 ddbe c6e4 c7be 2740 dcbe a4cd d4be
00000050: 0583 c7be 623d b6be 4736 d2be d06f c1be
00000060: 2d01 cfbe 33c7 cabe 7d29 dcbe f1e7 d7be
00000070: b168 efbe 936c d7be 83c1 debe 8db0 dcbe
-0.42278054 -0.42546898 -0.45609105 -0.41411984 -0.3469749 -0.35441637 -0.39166206 -0.3876295
-0.41434824 -0.3986432 -0.43419442 -0.4003678 -0.4250428 -0.42555174 -0.46940345 -0.43786672
-0.4316661 -0.39041728 -0.43017694 -0.4156314 -0.38967147 -0.35593706 -0.41057035 -0.3778062
-0.40430585 -0.39605102 -0.43000403 -0.42169145 -0.4675956 -0.42075023 -0.43507013 -0.43103448

layer2.1.running_mean f4 [32]
00000000: f877 2fbd ee52 40bd 18aa c0bd 43b3 75be
00000010: f3dc a4be c954 2abf 6065 e7be 2a76 43bf
00000020: 160c 69bd 898b afbd b038 35bc 4357 20be
00000030: deaf e73c a8fe 41bc dbba 92be b677 933e
00000040: baba 7a3e a55a bd3d 3be0 453e c4f2 89be
00000050: d634 db3c 5b4b d4be 7233 c5be aa56 e5be
00000060: 5ae6 553d f99d 4b3f 26fb 97bd adbe cbbe
00000070: ca2a 1bbf 319b b5bd bd2b 8fbe f0f8 413d
-0.04283902 -0.046954088 -0.09407443 -0.23994164 -0.3219982 -0.6653562 -0.4519453 -0.7635218
-0.05689629 -0.08571536 -0.011060879 -0.15658288 0.028282102 -0.0118405 -0.28658184 0.2880227
0.24485293 0.09245805 0.19323818 -0.26943028 0.026758593 -0.41463742 -0.38515812 -0.44792682
0.052221633 0.7953792 -0.0742095 -0.39793912 -0.60612166 -0.08867491 -0.27963057 0.047356546

layer2.1.running_var f4 [32]
00000000: be33 083f a0f6 c43e 437a c53e fe5a c63e
00000010: b0e3 043f d2a2 5a3f 5fad 163f e87f 223f
00000020: f4b5 123f 4e02 1b3f 7d22 183f e81a cf3e
00000030: 2a3c d53e 8ae8 113f 96e2 f83e 3dee e03e
00000040: fc8d f63e cca8 f53e 4740 003f 7cfe ff3e
00000050: 77d5 0e3f 8567 5c3f 60d7 da3e 432e 323f
00000060: 1d42 d43e db61 0a3f ca3e 9d3e c41d c13e
00000070: 50de cf3e 28df c73e 64c7 c43e 1cab 173f
0.5320395 0.3846941 0.3856984 0.38741297 0.51909924 0.85404694 0.58858293 0.6347642
0.5730889 0.6055039 0.59427625 0.40450215 0.41647464 0.5699545 0.4861037 0.4393176
0.481552 0.47980344 0.5009808 0.49998844 0.5579447 0.8609546 0.42742443 0.6960184
0.4145669 0.54055566 0.30711967 0.37718022 0.40599298 0.39037442 0.38433373 0.5924547

fc.weight f4 [10, 1568]
00000000: 34ca 1cbc 11b1 823c 315a 973b fa5d e0bc
00000010: 6d8f 82bb aacd 43bc 7b49 f6bc 37c1 ec3c
00000020: f775 b9bc a34b 58bc e112 283b 6a6e 123d
00000030: f3cf 0b3b db29 833b bb59 97bc b7a2 0dbd
00000040: 65e6 0d3b 259a 17bd 0f08 b83b 3f2c b0bb
00000050: 2119 10bd 0d4e a5bc f61b fb3b a17d daba
00000060: 7e28 b4bc 973a bbbc ff3d a2bc 8c5e b63c
00000070: e6bd bebc 4edb 213c 057f 8c3c fca6 dcbb
00000080: 84b4 a7bc 3841 11bd 5a30 9fba 8295 5ebd
00000090: 8ed8 8e3b 7cba dfbb fa55 9cbc a636 00bd
000000a0: b023 6fbb 1fed 1bbd 4495 17bc fae0 80bc
000000b0: e00b 87bc 0683 0abd 8cac 8dbb 62ee b2bc
000000c0: cd23 95ba bbb2 52bb 04e3 d0bc 5015 4c3c
000000d0: 496a 18bc cab5 80bb 74ab 58bc a9b1 90bc
000000e0: 68d6 aabc 3897 03bc 268e 2e3c 60d8 b9bc
000000f0: b44b 80bc d994 603c af48 1fbd 151e 113c
00000100: 36fe 86bc 9414 9f3c 9843 953c 9ab1 53bc
00000110: 3b77 b2bc 8618 a43c e64d afbc 6275 e33c
00000120: d178 07bc aab5 87bb 15e5 a23c 61ac d5bc
00000130: 44ed d7bc 116f 7cbc 82b9 27bc 19f9 f13c
00000140: 010b 963c 0b89 afba cd81 853c 678c 07bc
00000150: 7fbf c4bc dc80 58bc 4366 b83b 0250 92bb
00000160: 66ca afbb e7d3 1fbd f88e e9bb 553d 6ebb
00000170: 8588 dabc 156a 313c d313 93bb 1f88 8f3b
00000180: fb4f c4bc 7711 413a fd64 c43b 5574 0f3d
00000190: 5e33 123d f3cc 203d be4a b3bb e5e7 0b3a
000001a0: 02bc c5bc 4148 09bc d355 853d 7879 42bc
000001b0: 4aac 663b 64fc c3bc 3673 2d3a 04a9 ddbc
000001c0: 8d43 5a3b 93f6 8c3d 83d6 273d e22c 21bb
000001d0: 3d42 ee3c 8511 a73c efb6 083d dd48 97b9
000001e0: 0c97 f93b 8a6f e43b 7db4 56bc c675 afbc
000001f0: 5fb5 a4bc 775c b6bc 2d19 ae3c 61ec ffbc
00000200: 30ce 4aba 32ca bcbc 0c54 ad3c d988 83bc
00000210: 0bf6 8ebc f8e7 8bbc b80c 06bd 2704 8abc
00000220: 0705 bfbc 86b7 57bc 41c7 b1ba 77b6 fdb9
00000230: fea7 45bc 13ce d4b9 43c7 8e3b 9a7f 223b
00000240: ae32 693b e268 883b 6c63 dd3b ce49 143d
00000250: 9447 3b3c e6b4 31bd 667f f43b 1a38 13bc
00000260: b8af 8a3c 5651 38bc 2062 e83c 8e09 5739
00000270: 9daf 803b 3144 273c f2c0 073d 6226 7ebb
00000280: 92da 2ebc d2b7 59bc 66c6 86bd 51b4 4fbc
00000290: 9e20 babc 45ac fcbc b27c 08bd 40ab a2bc
000002a0: f43d 95bc 62ad 99ba fd90 ecbc 362a 0b3c
000002b0: 4c35 3f3c b8fd 71bc 0c75 143b 02c4 12bd
000002c0: d567 b03b f1c5 ae3c 31f4 003c f186 473c
000002d0: a65e 1dbd 09ed 053b 0e19 9ebc e155 8f3c
000002e0: 1311 6f3b 6449 a0bc 375f e0bc 9f37 47bc
000002f0: f165 25bc 9aaa 50bd 2c46 f53b 6b2a 8a3b
00000300: 5a15 b0bc 739b 48bd 8b4b f8bc 1ecc 05bd
00000310: c1be 2bbd 9fe3 78bd 3e0f 3bbd ae65 febc
00000320: cc34 223c 4ac5 91bc c3cd 91bc 5407 36bd
00000330: 027e 23bd 9a61 4cbb 1111 bc3c 66c3 1c3c
00000340: 1506 96bc 06b7 1cbd 3b7b d639 abd7 79bc
00000350: bc2a 18bc 2564 ebbb 6e70 1e3c 3530 63bc
00000360: 6c45 0fbd 6234 4b3d 64d8 bbbb c0fd afbc
00000370: 9ab6 a7bc 9328 303b 81b9 083d 94d3 1dbc
00000380: ebd4 693b 615b fcbc c2b1 68bc d966 3fbc
00000390: 7713 a3bc ec72 ab3c 15cd 89ba c843 99b9
000003a0: 015a 11bc 1dad 743a 5604 d5bc dbaa 8ebb
000003b0: e9de 6ebc c98a 3dbc 514b 39bc f5a0 1abd
000003c0: 7909 94bb a4dc 06bc 452a e3bc dac1 36bc
000003d0: 1e25 2c39 ec7b 94bc a2d4 173d 866b cd3c
000003e0: 479a b13c 7c88 c73b b8da dc3c a5e3 dc3b
000003f0: 1da4 1e3b d836 5e3c 9bd2 e23b 9869 2dbc
-0.009569693 0.015953572 0.004618906 -0.027388562 -0.003984383 -0.01195089 -0.030064335 0.028900726
-0.022639258 -0.013201627 0.0025646018 0.03574983 0.0021333664 0.0040027923 -0.018475404 -0.034579005
0.0021652218 -0.037012238 0.005616195 -0.0053763683 -0.035180215 -0.02017882 0.0076632453 -0.001666952
-0.021991964 -0.022855086 -0.019804953 0.02226188 -0.02328391 0.0098789465 0.017150411 -0.0067337733
-0.020471819 -0.035462588 -0.0012145147 -0.0543418 0.0043593114 -0.0068276506 -0.019083966 -0.031302117
-0.0036489777 -0.038067933 -0.009251896 -0.015732277 -0.016485155 -0.03381636 -0.0043235477 -0.021842185
-0.0011378467 -0.0032149989 -0.025498874 0.012456253 -0.009302684 -0.003927921 -0.013224471 -0.01766284
-0.02085419 -0.008031659 0.010654008 -0.022686183 -0.015661098 0.013707363 -0.038887676 0.00885727
-0.01647864 0.019418992 0.018220708 -0.0129207615 -0.02178537 0.020031225 -0.02139945 0.027765933
-0.008268551 -0.004141529 0.019884625 -0.026083173 -0.026358254 -0.01540734 -0.0102371 0.029537724
0.018315794 -0.0013392282 0.016297245 -0.008273221 -0.024017094 -0.013214316 0.005627425 -0.004465104
-0.005364704 -0.039020445 -0.007127639 -0.0036352475 -0.026676426 0.010828515 -0.004488447 0.0043802406
-0.023963919 0.0007364968 0.005993484 0.035023052 0.03569352 0.039257955 -0.0054715564 0.0005336984
-0.0241375 -0.008379043 0.0651051 -0.011869781 0.0035197907 -0.02392406 0.0006616594 -0.027058132
0.0033304424 0.06882968 0.04097606 -0.0024593403 0.02908432 0.020394096 0.033377584 -0.00028855252
0.007616883 0.0069713043 -0.013104555 -0.021418463 -0.020106016 -0.022260888 0.02125224 -0.031240644
-0.0007736413 -0.023045633 0.02115824 -0.016056465 -0.017451307 -0.017078385 -0.032726973 -0.016847683
-0.023317827 -0.013166314 -0.0013563411 -0.00048391867 -0.012063978 -0.00040589328 0.00435725 0.0024795295
0.0035583186 0.0041628936 0.006756237 0.036203198 0.01143064 -0.04338541 0.007461476 -0.008985544
0.016929492 -0.011249861 0.028367102 0.00020507557 0.0039271847 0.010209129 0.03314299 -0.0038780202
-0.010672228 -0.013288455 -0.0658081 -0.012677268 -0.022720631 -0.030843863 -0.033322044 -0.019857049
-0.018218018 -0.0011724646 -0.02887773 0.008493951 0.011670422 -0.014769964 0.0022652773 -0.03583146
0.0053834715 0.02133462 0.00787072 0.012178169 -0.038420342 0.0020435473 -0.019299056 0.017497005
0.0036478683 -0.019566245 -0.027389152 -0.012159257 -0.0100951055 -0.05094395 0.007485172 0.0042164824
-0.021494556 -0.048976373 -0.03030946 -0.032665364 -0.041929964 -0.06076395 -0.045668833 -0.031054344
0.009900283 -0.01779427 -0.01779831 -0.044440582 -0.039915092 -0.0031186105 0.022957357 0.009568071
-0.018313447 -0.038260482 0.00040909075 -0.015249173 -0.009287532 -0.007183569 0.00967036 -0.013866474
-0.034978315 0.049610503 -0.005732583 -0.021483302 -0.020472813 0.0026879653 0.033380035 -0.009632964
0.0035679888 -0.030805292 -0.014202537 -0.011682236 -0.019906742 0.020928822 -0.001051339 -0.00029232935
-0.008871556 0.0009333657 -0.026003044 -0.0043538637 -0.014579513 -0.0115687335 -0.011309461 -0.037751157
-0.004517731 -0.008231316 -0.027730117 -0.011154616 0.00016417025 -0.018125497 0.037068017 0.025075685
0.02168001 0.0060892683 0.026959762 0.0067410045 0.0024206706 0.01356288 0.006922079 -0.010584258

fc.bias f4 [10]
00000000: b6fb 9fbc ab9b 853c 3d32 02bd dde1 3dbd
00000010: 1e96 4bbc b2bd 3c3d f14c 45bc 9b04 d13c
00000020: 1e14 0d3d aa83 a5ba
-0.019529205 0.01630958 -0.031786192 -0.046357978 -0.012425927 0.046079345 -0.01204227 0.025514891
0.034443013 -0.001262774
