result/fmnist/seed12/noniid_0.8/ratio_0.03/final.pt (torch, 122111 bytes, 14 tensors)

layer1.0.weight f4 [16, 1, 5, 5]
0	0xbb8c2d9a	-0.004277897
1	0xbd8625fb	-0.06550213
2	0xbbb70af1	-0.005586021
3	0x3d765c5b	0.06014667
4	0x3ca1647f	0.01970124
5	0xbe352b96	-0.17692408
6	0x3d3858c2	0.04500652
7	0xbdefefbd	-0.11715648
8	0x3e0ffa40	0.14060307
9	0x3dc0269d	0.09382365
10	0xbe60d476	-0.21956047
11	0x3d075e65	0.033049006
12	0x3dbca594	0.09211269
13	0x3dc502c0	0.09619665
14	0x3c2aa899	0.010416173
15	0xbe6310bf	-0.22174357
16	0x3e66e96e	0.22549984
17	0x3e476ad4	0.19474345
18	0xbe2028c7	-0.15640555
19	0xbd09313e	-0.033494227
20	0x3e019a8c	0.12656611
21	0xbe0e3b3a	-0.1388978
22	0xbe292987	-0.16519748
23	0x3df5c250	0.11999953
24	0x3ce45588	0.027872816
25	0xbdbc0cce	-0.0918213
26	0xbd548c54	-0.05189164
27	0x3d8d0e8c	0.0688754
28	0x3d1d2f53	0.03837521
29	0x3da5e6d0	0.081006646
30	0xbcc3c805	-0.023899088
31	0x3e1cfe96	0.15331492
32	0xbd9f59c3	-0.077807926
33	0xbddc6b3a	-0.10762639
34	0xbd4b98c0	-0.04970622
35	0xbdb09ef9	-0.08624072
36	0x3d416c1b	0.047222238
37	0xbe2c1b0e	-0.16807196
38	0xbe353e71	-0.17699601
39	0x3e2f8bd1	0.1714318
40	0x3e11a061	0.14221336
41	0xbe00af16	-0.1256679
42	0xbdc1de72	-0.09466256
43	0xbe3a1b68	-0.18174517
44	0x3dda4aff	0.106588356
45	0x3d3a6b0c	0.045512244
46	0x3e1ab717	0.15108906
47	0xbd91078d	-0.07081518
48	0xbd9d5541	-0.076822765
49	0x3e5f8692	0.21828678
50	0x3e12be2b	0.14330356
51	0x3e4584f6	0.19289002
52	0x3d6cb39f	0.057788488
53	0x3e1d2e95	0.15349801
54	0x3e3aa662	0.18227533
55	0xbe278baa	-0.16361871
56	0xbe0a1f2a	-0.1348845
57	0x3e36a44a	0.17836109
58	0x3daef71c	0.08543226
59	0x3cf74818	0.030185744
60	0x3dfb27e6	0.122634694
61	0xbe32b1fa	-0.17450705
62	0x3e029d02	0.12755206
63	0x3dd9d771	0.10636795
64	0x3d8376c6	0.064191386
65	0xbaf99b75	-0.0019043522
66	0xbd87290c	-0.06599626
67	0x3d732e0f	0.059370097
68	0x3e0c1d68	0.13683093
69	0x3b355373	0.0027668148
70	0xbdf9cdbe	-0.12197445
71	0xbdf8b0b9	-0.12143082
72	0xbd016295	-0.031588156
73	0xbe289eea	-0.16466871
74	0xbe04a898	-0.12954938
75	0x3d35d3ff	0.04439163
76	0xbe44bd1d	-0.19212766
77	0x3e49db1e	0.19712493
78	0xbbc596f3	-0.0060299574
79	0x3db9195a	0.090380386
80	0x3d28e60e	0.041235022
81	0xbe223439	-0.15840234
82	0x3e20e118	0.15710866
83	0xbdc63a0b	-0.096790396
84	0x3c1cf6e2	0.009580346
85	0x3de4d60e	0.1117364
86	0xbd06dda4	-0.032926217
87	0x3e3c7616	0.18404421
88	0xbde6b028	-0.11264068
89	0x3df478c2	0.11937095
90	0x3cbee428	0.023302153
91	0x3db1412d	0.086550094
92	0x3d127e71	0.035765115
93	0xbe247255	-0.16059239
94	0x3d4798a9	0.048729572
95	0x3d85536d	0.06510053
96	0xbe0de23f	-0.13855837
97	0xbe12d822	-0.1434026
98	0xbe7d935f	-0.24763249
99	0x3e2bee6c	0.1679017
100	0x3ccf7e28	0.02532871
101	0x3d7b79ba	0.061395384
102	0x3d5b721a	0.053575613
103	0xbcf28fc9	-0.029609578
104	0x3dfb664f	0.12275373
105	0x3dd9967b	0.10624405
106	0xbe169faf	-0.14709352
107	0x3d9b997d	0.07597635
108	0x3e2a2148	0.16614258
109	0xbb9772f8	-0.0046218596
110	0x3b8e8a77	0.0043500024
111	0x3c2c498b	0.010515581
112	0xbe4958d3	-0.1966279
113	0xbdf7b355	-0.12094752
114	0x3e6855f9	0.22689046
115	0xbe3273b8	-0.17426956
116	0x3b39a204	0.0028325329
117	0xbe6d49b8	-0.23172653
118	0xbd8f802e	-0.0700687
119	0xbc323fec	-0.010879498
120	0x3b5c67dc	0.003363124
121	0xbe19571d	-0.14974637
122	0x3d08b851	0.033378903
123	0x3c080b9c	0.008303549
124	0xbe403458	-0.18769968
125	0x3cd14b35	0.025548557
126	0x3e6e27e2	0.23257402
127	0x3e4a67de	0.19766185
128	0xbd7c6a87	-0.06162503
129	0x3e0ee990	0.13956285
130	0xbdffa586	-0.12482743
131	0x3e5c3635	0.21505053
132	0x3dc12345	0.09430555
133	0x3dd15fc7	0.10223346
134	0xbde5dea6	-0.112241074
135	0xbdad93eb	-0.08475479
136	0xbe65502d	-0.22393866
137	0x3dad3682	0.08457662
138	0xbe2b0717	-0.16701923
139	0xbdaa2202	-0.08307268
140	0xbd2283af	-0.039676365
141	0xbb80bf7d	-0.003929077
142	0x3ba62997	0.005070876
143	0x3d1180da	0.035523273
144	0x3e1883ea	0.14894071
145	0x39d8320f	0.00041236027
146	0xbdca917b	-0.098910294
147	0xbe03a3bb	-0.12855427
148	0xbd472c62	-0.04862631
149	0xbe0971e2	-0.13422349
150	0x3db28750	0.08717215
151	0x3e27ef7a	0.16399947
152	0x3e0402d7	0.12891708
153	0x3de930c6	0.11386256
154	0xbd66ca20	-0.056345105
155	0xbe3dc325	-0.18531473
156	0x3e58023e	0.21094605
157	0xbd18fd08	-0.037350684
158	0xbd893789	-0.067000456
159	0xbe263c90	-0.1623404
160	0xbe119189	-0.14215674
161	0x3d97187f	0.07377719
162	0x3e241544	0.16023737
163	0xbe32e290	-0.17469239
164	0xbe4b9650	-0.19881558
165	0xbd12e2bd	-0.035860766
166	0xbe2c6a15	-0.16837342
167	0x3e443032	0.1915901
168	0x3bd12258	0.006382268
169	0xbe1417bb	-0.14462177
170	0x3d54ffba	0.052001692
171	0x3e34f82d	0.17672797
172	0x3d80ea7f	0.062947266
173	0xbdd8870e	-0.10572635
174	0x3d6a4ab7	0.05720016
175	0xbe2c12d0	-0.16804051
176	0x3e23eb02	0.16007617
177	0xbc8cee8a	-0.017203588
178	0x3d10e4f4	0.035374597
179	0xbca7b30e	-0.020471122
180	0xbe6524dc	-0.22377342
181	0x3d9cb8ee	0.0765246
182	0x3e81ac7b	0.25326905
183	0xbd83da6c	-0.06438145
184	0xbd616d0a	-0.05503563
185	0xbe5a4680	-0.21315956
186	0xbc3cd978	-0.011526458
187	0x3e8d303f	0.2757587
188	0xbd3bdfed	-0.04586785
189	0xbd586ea3	-0.052839886
190	0x3e187541	0.14888479
191	0xbe334510	-0.17506814
192	0x3cc4f980	0.024044752
193	0x3c4d5d1d	0.012534407
194	0x3c50e6c8	0.012750335
195	0xbdc484e9	-0.09595663
196	0xba9d7169	-0.0012011948
197	0x3d0b5d06	0.03402426
198	0x3dc5cb19	0.096578784
199	0xbdbe9b17	-0.09306925
200	0x3d1a93a9	0.037738476
201	0xbe311e50	-0.1729672
202	0x3bae0ba1	0.005311445
203	0x3caa97e2	0.020824376
204	0xbdbce245	-0.09222845
205	0xbce97902	-0.028500084
206	0xbcabd87f	-0.020977257
207	0x3db03a34	0.08604851
208	0x3e30a5ec	0.17250794
209	0xbe604b53	-0.21903734
210	0x3e0d2fec	0.13787812
211	0x3d5e14fd	0.054219235
212	0x3e38c321	0.18043186
213	0x3e373f43	0.17895226
214	0xbdbdb3fd	-0.09262846
215	0xbdc88bd1	-0.09792293
216	0x3df3b20e	0.118991956
217	0x3dd045c5	0.101695575
218	0x3e252ef6	0.16131195
219	0xbdd6bea0	-0.104855776
220	0x3cf96ea7	0.030448271
221	0xbdb5ff64	-0.088866025
222	0xbe186873	-0.14883594
223	0x3ded7dd5	0.11596266
224	0x3c6192ec	0.013767939
225	0x3e347688	0.17623341
226	0x3e05f4bf	0.13081644
227	0xbdedff46	-0.11620955
228	0xbda57a12	-0.08079924
229	0x3d35314c	0.044236466
230	0x3e416abd	0.18888374
231	0xbe1f6f1a	-0.15569726
232	0x3e7762d1	0.24158789
233	0x3e20ec56	0.15715155
234	0xbc035d9e	-0.008017926
235	0xbe3bb8ee	-0.18332264
236	0xbdc4704a	-0.0959173
237	0x3e314696	0.17312083
238	0x3df000b6	0.117188856
239	0x3d9d8c77	0.07692807
240	0xbe1c8be5	-0.1528774
241	0xbe377283	-0.17914777
242	0xbe2bd119	-0.16778983
243	0xba01e718	-0.0004955395
244	0xbc89dfaa	-0.016830284
245	0xbdaab9aa	-0.08336194
246	0x3e6cf021	0.23138477
247	0xbe418e51	-0.18901946
248	0xbe39fee3	-0.18163638
249	0xbe20062e	-0.15627357
250	0xbdf946f1	-0.12171734
251	0xbca0f928	-0.019650057
252	0xbd6a6b1d	-0.057231057
253	0xbb93e378	-0.0045132004
254	0x3e11d052	0.14239624
255	0xbe3b01b3	-0.18262367

layer1.0.bias f4 [16]
0	0xbe16f0ac	-0.14740247
1	0xbd35f1d5	-0.044420082
2	0xbdaef7f4	-0.08543387
3	0x3cbee258	0.023301288
4	0xbdd5d97d	-0.10441873
5	0xbd7023a3	-0.058627736
6	0x3dbbfcf5	0.09179107
7	0x3de8f7dc	0.113754004
8	0xbe28340d	-0.16426106
9	0xbd771239	-0.060320113
10	0x3e0df21d	0.1386189
11	0x3e13473b	0.14382641
12	0xbd29bb86	-0.041438602
13	0xbe4bfc92	-0.19920567
14	0x3d2f72b7	0.04283401
15	0x3e07a13c	0.132451

layer1.1.weight f4 [16]
0	0x3f854cdb	1.041408
1	0x3f804b0d	1.0022904
2	0x3f726a53	0.9469349
3	0x3f8079a5	1.0037123
4	0x3f836e07	1.0267953
5	0x3f7f53b4	0.99737096
6	0x3f851dea	1.0399754
7	0x3f881d61	1.0633966
8	0x3f76ad60	0.963583
9	0x3f86dba2	1.0535777
10	0x3f6f9126	0.93580854
11	0x3f757812	0.9588634
12	0x3f81f6ce	1.0153444
13	0x3f768ef6	0.9631189
14	0x3f816fd9	1.0112258
15	0x3f718000	0.9433594

layer1.1.bias f4 [16]
0	0xbcc54a6a	-0.024083335
1	0xbcd6506b	-0.026161393
2	0xbd9570c0	-0.07296896
3	0xbdc81c3f	-0.097710125
4	0xbd5983fc	-0.053104386
5	0xbd3249f4	-0.04352756
6	0x3b731dd4	0.0037096636
7	0xb9de3409	-0.0004238191
8	0xbd8951be	-0.06705044
9	0xbcbd071e	-0.023074683
10	0xbd9e2f77	-0.07723897
11	0xbda618bb	-0.08110186
12	0xbbd46f41	-0.006482989
13	0xbd3b4ee2	-0.045729525
14	0xbd10b082	-0.03532458
15	0xbd85188c	-0.064988226

layer1.1.running_mean f4 [16]
0	0xbe1a4244	-0.15064341
1	0xbdc11ab4	-0.09428921
2	0x3d7dd13f	0.06196713
3	0x3d4bf067	0.049789812
4	0xbe634d78	-0.2219752
5	0xbd8dc1f8	-0.06921762
6	0x3db55f39	0.08856053
7	0x3daca3a7	0.08429652
8	0xbd7c73aa	-0.061633743
9	0xbe00d569	-0.1258141
10	0x3e95427e	0.29152292
11	0x3e5ea276	0.21741661
12	0xbe7a0ddd	-0.24419351
13	0xbe62457a	-0.22096816
14	0x3bc08b91	0.0058760126
15	0x3e9bbe7a	0.3041876

layer1.1.running_var f4 [16]
0	0x3c93c0ee	0.018036332
1	0x3ca1878c	0.019717954
2	0x3d76945e	0.060200088
3	0x3c70850c	0.014680158
4	0x3d162dd0	0.036664784
5	0x3cb887fa	0.022525776
6	0x3cf93743	0.030421859
7	0x3c9b704c	0.018974446
8	0x3cf70bf3	0.030157065
9	0x3cfca4e9	0.030840354
10	0x3d22ab3f	0.039714094
11	0x3c78457e	0.015153287
12	0x3d621ec6	0.05520513
13	0x3ce79ab6	0.028272014
14	0x3d08fef5	0.03344627
15	0x3d297b42	0.041377313

layer2.0.weight f4 [32, 16, 5, 5]
0	0x3d6f4949	0.0584195
1	0xbd11b42d	-0.03557222
2	0xbd3cd2e9	-0.046099577
3	0xbcb56ed9	-0.022147583
4	0xb98f81b9	-0.00027371736
5	0xbd479d6d	-0.048734117
6	0xbd016f0c	-0.031600043
7	0xbbf5fcde	-0.0075069508
8	0x3c6b0867	0.014345265
9	0xbc778be5	-0.015109037
10	0xbcb02862	-0.021503631
11	0x3cd0d38e	0.025491502
12	0xbbca0485	-0.0061650896
13	0x3d5f2847	0.05448177
14	0x3cc5edb2	0.024161194
15	0xbce4fc76	-0.027952414
16	0x3d116f71	0.03550667
17	0x3cc282bc	0.02374398
18	0x3cc2de65	0.023787687
19	0xbc849dd9	-0.016188549
20	0xbaded4ae	-0.0017000639
21	0x3b6767a0	0.0035309568
22	0xbbb8becd	-0.0056379796
23	0x3c78d21c	0.015186813
24	0xbd499550	-0.04921466
25	0xbd090600	-0.033452988
26	0xbbd006f0	-0.0063484833
27	0x3cd6bb3c	0.026212327
28	0x3c43bc12	0.011946695
29	0x3b44d83a	0.0030036108
30	0x3d28a131	0.04116935
31	0x3c7d4707	0.015458829
32	0xbce31753	-0.027721083
33	0x3cd529ca	0.026020903
34	0x3c6884e0	0.014191836
35	0x3b794b1f	0.003803916
36	0x3cbcaed4	0.023032583
37	0x3cc15dfd	0.023604387
38	0x3c5124a3	0.0127650825
39	0xbb0d1e30	-0.0021532886
40	0xbc9a52ef	-0.018838374
41	0x3d3570b1	0.044296924
42	0x3cfe631e	0.031053122
43	0x3d0472ea	0.032336153
44	0xbca1996e	-0.019726481
45	0x3cf6a0b8	0.030105934
46	0x3bfd9e49	0.0077398163
47	0xbceeb13f	-0.029137252
48	0xbb94d6c6	-0.0045422046
49	0xbcd210dd	-0.025642807
50	0x3d5bac0c	0.053630874
51	0x3c669d78	0.014075629
52	0x3c966031	0.018356415
53	0xbc19a9ed	-0.009378892
54	0xbc308a3b	-0.010775144
55	0x3cfc7ced	0.030821288
56	0x3d2bb6a5	0.04192223
57	0xbbb36b96	-0.0054754717
58	0xbd1df6cd	-0.038565446
59	0xbd26dfbd	-0.040740717
60	0x3c1631aa	0.009167114
61	0xbbb03f62	-0.0053786496
62	0xbc046b9d	-0.008082298
63	0x3d1f5618	0.038900465
64	0xbd3752e5	-0.04475679
65	0x3d1c5314	0.038165167
66	0xbc2e1df9	-0.010627263
67	0xbc6299d5	-0.013830622
68	0xbd07fa23	-0.033197533
69	0xbd257467	-0.040394213
70	0x3c2b7734	0.010465432
71	0xbd108443	-0.035282385
72	0x3ced2770	0.02894947
73	0x3b987fef	0.0046539227
74	0x3c73006e	0.014831645
75	0xbc2f0e93	-0.010684627
76	0x3d00d10e	0.03144937
77	0x3b916e74	0.004438216
78	0xbca64a01	-0.02029896
79	0xba940615	-0.0011293316
80	0xbd080d46	-0.033215784
81	0xbcc45fe0	-0.023971498
82	0xbd28ff19	-0.041258905
83	0xbd15e7f4	-0.03659816
84	0xbd579963	-0.052636515
85	0x3c687573	0.014188158
86	0xbd2283ce	-0.03967648
87	0xba751303	-0.0009348841
88	0xbd573095	-0.052536566
89	0xbd098b4a	-0.033580102
90	0x3ccce3f4	0.02501104
91	0x3d040904	0.03223516
92	0x3d675b3b	0.05648349
93	0xbcfdfbce	-0.031003859
94	0xbd5182ab	-0.051150005
95	0xbcefc9d7	-0.02927105
96	0x3d1e8217	0.038698282
97	0x3d222479	0.039585564
98	0x3c18710d	0.009304297
99	0xbd33450e	-0.043767028
100	0xbccdd96d	-0.02512809
101	0x3cddf3fd	0.027093882
102	0x3c5792f6	0.013157597
103	0xbd24b9d0	-0.040216267
104	0x39dc6f0a	0.000420444
105	0x3b91f4fb	0.004454253
106	0x3bec816e	0.0072175777
107	0x3ca200fd	0.019775862
108	0x3cba38e3	0.022732204
109	0x3cb498c5	0.022045502
110	0xbd0f3a10	-0.034967482
111	0x3d140796	0.036140047
112	0x3d0afd72	0.03393311
113	0x3c8fefaf	0.017570345
114	0x3be6f723	0.007048504
115	0xbd17a89e	-0.03702604
116	0x3c2fba77	0.010725609
117	0xbc58c6b4	-0.013230968
118	0xbd05e86d	-0.03269236
119	0x3c7638ba	0.015028173
120	0xbcc549ca	-0.024083037
121	0xbceab294	-0.028649606
122	0xbcc70f44	-0.024299271
123	0x3d056f4a	0.032576837
124	0x3d410cb0	0.04713124
125	0x3d068b3a	0.03284762
126	0xb931c7e0	-0.00016954495
127	0x3cab389c	0.020901017
128	0xba9563ac	-0.0011397502
129	0x3d1c27bc	0.03812383
130	0x3c9e943c	0.019357793
131	0x3d45f77c	0.048331723
132	0x3ca4d66d	0.020121777
133	0xbd47fccc	-0.04882507
134	0xbcf1e06b	-0.029525956
135	0x3cfea6d8	0.031085417
136	0x3d11f222	0.035631306
137	0xbd606771	-0.05478615
138	0x3d0abc50	0.033870995
139	0xba8ab98d	-0.0010583863
140	0xbce4246e	-0.027849402
141	0xbcea03df	-0.028566299
142	0x3d009729	0.031394158
143	0xbd4c478b	-0.049872916
144	0x3c492ab9	0.012278252
145	0xbcfe64ec	-0.031053983
146	0x3cc2d4f5	0.023783186
147	0xbc647e9c	-0.013946202
148	0xbca7ddbd	-0.020491475
149	0x3d947711	0.072492726
150	0xbbf3daa1	-0.007441834
151	0x3ce1ae3e	0.027548905
152	0x3c41a0e9	0.011818149
153	0x3cb2bc76	0.02181838
154	0x3d4747d2	0.048652478
155	0x3d1b689d	0.037941564
156	0x3c93f7b2	0.018062446
157	0xbd16f4e8	-0.036854655
158	0xbd09dda2	-0.03365863
159	0x3c20e617	0.009820483
160	0xbccadace	-0.024762537
161	0x3c06e687	0.008233673
162	0x3bc92837	0.006138827
163	0x3cd2343e	0.025659677
164	0x3d955125	0.07290868
165	0x3d415d97	0.047208395
166	0xbd146c74	-0.03623624
167	0xbcc1664a	-0.023608346
168	0x3d6e7c18	0.058223814
169	0x3c98bb0c	0.018643878
170	0xbcbb89af	-0.022892801
171	0xbcc0b08e	-0.023521688
172	0x3d3685b0	0.044561088
173	0x3d46321a	0.048387624
174	0x3c2880d6	0.010284623
175	0xbc275281	-0.010212542
176	0xbca48da8	-0.020087078
177	0xbd3ff2e8	-0.046862513
178	0x3b5cad1c	0.0033672517
179	0xbc4dfce2	-0.012572499
180	0x3d198c0d	0.03748708
181	0x3cf5693b	0.029957404
182	0x3c81ae3d	0.015830154
183	0x3d047b7a	0.03234432
184	0x3d19eea2	0.037581094
185	0x3b3039a0	0.0026889816
186	0x3d4943bb	0.04913686
187	0x3d6ff779	0.058585618
188	0x3d3eed22	0.046612866
189	0x3aabe733	0.0013115167
190	0x3c7cd2ae	0.015431089
191	0xbb908137	-0.004409935
192	0x3ca34430	0.019929975
193	0x3d283b39	0.041072104
194	0xbc910d64	-0.01770658
195	0x3bce8148	0.0063020326
196	0xbc16fd28	-0.009215631
197	0x3d1f094f	0.038827237
198	0xbc81fd42	-0.015867833
199	0x3d368399	0.044559095
200	0x3d1f8a19	0.03895006
201	0x3d8078ec	0.06273064
202	0x3ce980f5	0.028503874
203	0x3b7eef0c	0.0038899807
204	0x3d04f15f	0.032456752
205	0x3d00472c	0.031317875
206	0xbd01fed2	-0.031737156
207	0xbd3396e3	-0.04384507
208	0x3d1ce71c	0.03830634
209	0xbd2e79ae	-0.04259651
210	0xbcd38b3c	-0.025823228
211	0xbc667c9f	-0.014067798
212	0x3b816bd3	0.003949621
213	0xbc392c24	-0.011302028
214	0xbd651da0	-0.055936456
215	0xbd164ac6	-0.036692403
216	0xbc653dfa	-0.013991827
217	0x3d23a780	0.039954662
218	0xbce5460b	-0.0279875
219	0x3cba3a74	0.02273295
220	0x3c57d927	0.013174332
221	0xbbddf2a2	-0.006773309
222	0xba3dabb8	-0.0007235366
223	0xbd025d4a	-0.03182725
224	0x3bc0a4e3	0.005879031
225	0x3c1261ea	0.008934477
226	0x3c958150	0.018250138
227	0x3d60342d	0.05473726
228	0xbc1c6cde	-0.00954744
229	0xbd1b5863	-0.03792609
230	0xbce03fea	-0.027374227
231	0x3cb256f1	0.021769973
232	0x3d3f42a4	0.046694413
233	0xbd050ea0	-0.03248465
234	0xbd4e1fe0	-0.050323367
235	0x3c2b9822	0.010473283
236	0x3c26d78d	0.010183227
237	0xbc42e68e	-0.011895789
238	0x3d3a0609	0.04541591
239	0x3c3dbeaf	0.011581107
240	0xbd2321b3	-0.03982706
241	0x3b2bfa6c	0.0026241792
242	0xbc69eebb	-0.014278109
243	0x3c882774	0.016620375
244	0x3c6d6694	0.014489789
245	0xbd03cd22	-0.03217805
246	0x3b39ce75	0.0028351818
247	0xbd122096	-0.035675608
248	0x3d0a7cae	0.03381031
249	0x3c3d1d0e	0.011542572
250	0xbd26fc95	-0.040768225
251	0xbd086854	-0.03330262
252	0xbd509f3f	-0.05093312
253	0x3c8b38b0	0.016994804
254	0xbc4fb3de	-0.012677161
255	0xbd2583be	-0.040408842

layer2.0.bias f4 [32]
0	0xbcbe5192	-0.023232255
1	0x3d17a8e7	0.037026312
2	0xbbfc4eb5	-0.0076998123
3	0xbd12261d	-0.03568088
4	0x3cd4b320	0.02596432
5	0xbc97d1f1	-0.018532725
6	0xbc48a2a4	-0.012245808
7	0xbd06dc54	-0.032924965
8	0x3d308be9	0.04310218
9	0xbd04dabc	-0.032435164
10	0x3d19bda8	0.037534386
11	0x3cdf666d	0.02727052
12	0x3bd95242	0.0066321203
13	0xbc9c39b2	-0.01907048
14	0x3d1b6914	0.037942007
15	0x3b849e97	0.0040472257
16	0x3d32d4f6	0.043660127
17	0xbcffacdc	-0.031210355
18	0x3d1ee67c	0.038794026
19	0x3c4af702	0.012387993
20	0x3d1599f7	0.036523785
21	0xbafe2da5	-0.0019392265
22	0x3cd32153	0.025772726
23	0x3d462978	0.04837939
24	0x3c52de08	0.012870319
25	0x3c2cb58c	0.010541331
26	0xbd38e79e	-0.045142762
27	0xbb869357	-0.0041069197
28	0xbd2a47f2	-0.04157252
29	0x3d3e58a7	0.046471264
30	0x3d210d0c	0.039319083
31	0x3c86dbc0	0.016462207

layer2.1.weight f4 [32]
0	0x3f59d9ed	0.85098153
1	0x3f4d7e0f	0.80270475
2	0x3f5c65eb	0.86093014
3	0x3f52d3c0	0.82354355
4	0x3f5c958f	0.8616571
5	0x3f59c711	0.85069376
6	0x3f5630f0	0.8366842
7	0x3f570664	0.83994126
8	0x3f57d96a	0.8431612
9	0x3f674d7d	0.9035261
10	0x3f54a0b4	0.83057714
11	0x3f4d908b	0.8029868
12	0x3f5449af	0.8292493
13	0x3f53ec53	0.8278248
14	0x3f5f95dd	0.8733805
15	0x3f53ea24	0.82779145
16	0x3f56e14c	0.83937526
17	0x3f45817e	0.77150714
18	0x3f5c017f	0.8593978
19	0x3f601277	0.87528175
20	0x3f5704a2	0.83991444
21	0x3f5dd0ae	0.86646545
22	0x3f521abd	0.8207205
23	0x3f569499	0.8382049
24	0x3f521e8c	0.8207786
25	0x3f4dd761	0.8040677
26	0x3f53abf6	0.82684267
27	0x3f603839	0.8758579
28	0x3f5a6ebf	0.85325235
29	0x3f576584	0.84139276
30	0x3f55f9b6	0.83584154
31	0x3f5b5157	0.8567099

layer2.1.bias f4 [32]
0	0xbe7df5d3	-0.24800806
1	0xbe869030	-0.2628188
2	0xbe7faf97	-0.24969326
3	0xbe81ec83	-0.25375757
4	0xbe78b488	-0.24287617
5	0xbe6ed1ac	-0.23322171
6	0xbe72c457	-0.2370771
7	0xbe80ab74	-0.25130808
8	0xbe80c7fa	-0.2515257
9	0xbe71902a	-0.2359015
10	0xbe831274	-0.25600016
11	0xbe8887b1	-0.26666024
12	0xbe8612dd	-0.26186267
13	0xbe8850b0	-0.2662406
14	0xbe8206e6	-0.25395888
15	0xbe89cd7c	-0.26914585
16	0xbe80a6aa	-0.25127155
17	0xbe84f744	-0.259699
18	0xbe7b8e81	-0.2456608
19	0xbe66ae32	-0.22527388
20	0xbe851389	-0.25991467
21	0xbe7202f5	-0.2363394
22	0xbe81f9d2	-0.2538591
23	0xbe807a1d	-0.25093165
24	0xbe80cbfc	-0.25155628
25	0xbe81d4be	-0.25357622
26	0xbe85a3b5	-0.2610146
27	0xbe7bbde3	-0.24584155
28	0xbe619539	-0.2202958
29	0xbe839315	-0.25698152
30	0xbe7fe282	-0.2498875
31	0xbe828283	-0.25490198

layer2.1.running_mean f4 [32]
0	0xbde78f8e	-0.11306678
1	0xbea9e547	-0.33182737
2	0xbe9b16b7	-0.30290768
3	0xbeb861d7	-0.36012146
4	0x3e76f516	0.2411693
5	0xbed57562	-0.41691118
6	0xbf42b989	-0.76064354
7	0xbf428c9a	-0.7599579
8	0xbf19814d	-0.5996292
9	0x3e0f2786	0.1397992
10	0xbddc88f5	-0.1076831
11	0xbeb41a98	-0.3517654
12	0xbeb214ef	-0.34781596
13	0x3ca2eee8	0.01988931
14	0x3dcc14af	0.099648826
15	0x3e96ae40	0.29429817
16	0xbc7e091d	-0.015505102
17	0x3edbc16b	0.42921004
18	0x3e7361ef	0.23767827
19	0xbd4f6d9c	-0.05064164
20	0x3e60a106	0.21936426
21	0xbc811479	-0.015756832
22	0xbebf6094	-0.3737837
23	0xbe8298ba	-0.25507146
24	0xbedc5b02	-0.43038183
25	0x3e109923	0.14120917
26	0xbed4fbfe	-0.41598505
27	0xbe962b38	-0.29329848
28	0xbe578973	-0.21048526
29	0xbd855b83	-0.06511595
30	0xbe9288c2	-0.28619963
31	0x3ecfc665	0.4058105

layer2.1.running_var f4 [32]
0	0x3eab46ad	0.3345236
1	0x3e670f84	0.22564512
2	0x3e3bc843	0.18338113
3	0x3e9761dd	0.2956685
4	0x3e8fe373	0.28103217
5	0x3f0b355c	0.54378295
6	0x3ee4d7dd	0.4469594
7	0x3eb2f645	0.34953514
8	0x3ea8b9cb	0.3295425
9	0x3f1254f7	0.57160896
10	0x3e92b22e	0.28651565
11	0x3e7677a2	0.24069074
12	0x3e45db9a	0.19322053
13	0x3e88c82c	0.2671522
14	0x3ea672f5	0.3250958
15	0x3e61e08c	0.22058314
16	0x3ec1c7d8	0.3784778
17	0x3ece1c57	0.40255997
18	0x3ec622d6	0.38698453
19	0x3ed68924	0.41901505
20	0x3e7819f7	0.24228655
21	0x3f001489	0.50031334
22	0x3e863677	0.26213428
23	0x3ea707d1	0.3262315
24	0x3eb70090	0.35742617
25	0x3e960b8f	0.29305694
26	0x3e2e40a6	0.17016849
27	0x3ed229b0	0.4104743
28	0x3e85ce45	0.26133934
29	0x3e7e4c49	0.24833788
30	0x3e678b01	0.2261162
31	0x3ed054ba	0.4068964

fc.weight f4 [10, 1568]
0	0x3beaae42	0.0071618864
1	0x3cd043f7	0.025423033
2	0x3c93da0b	0.018048307
3	0xbcba407e	-0.02273583
4	0x3c74baee	0.014937146
5	0xbc8aec76	-0.016958456
6	0xbc8b31d4	-0.016991533
7	0x3d6e0d5c	0.05811821
8	0xbc594670	-0.0132614225
9	0xbc1ea4a5	-0.009682809
10	0x3c10465e	0.008805839
11	0x3d61b849	0.05510739
12	0x3cee47b9	0.029086934
13	0x3bb37080	0.0054760575
14	0x3c8a7af9	0.016904341
15	0xbcfb69d8	-0.030690119
16	0x3aea993c	0.0017898451
17	0xbd35f8b6	-0.044426642
18	0x3c9c37f7	0.019069655
19	0x3cf3f403	0.02977944
20	0xbd1ee978	-0.038796872
21	0x3bf6eac0	0.0075353086
22	0x3cefa8b8	0.029255256
23	0x3cf2c837	0.029636486
24	0xbc31c534	-0.01085024
25	0xbca219b0	-0.01978764
26	0x3d06c78d	0.03290515
27	0x3d3b0bba	0.04566548
28	0x3b96304f	0.0045833956
29	0x3cb3b352	0.021936093
30	0x3ba38d70	0.004991226
31	0xbc91b1e9	-0.01778503
32	0xbc99ae89	-0.018759983
33	0xba62317d	-0.000862859
34	0x3b59b103	0.003321708
35	0xbd3b58e4	-0.04573907
36	0x3cd458d5	0.025921265
37	0xbcb60ca3	-0.022222823
38	0xbbe4ec6c	-0.0069861915
39	0xbc93cf02	-0.018043045
40	0xbccc6217	-0.024949117
41	0xbcf3b9f7	-0.02975176
42	0xb4545eb7	-1.9778496e-07
43	0xbbe8cea4	-0.0071047116
44	0xbccab8b5	-0.024746278
45	0xbcca2d45	-0.02467979
46	0x3c183d9d	0.0092920335
47	0xbc3e50e7	-0.011615968
48	0x3bf89d54	0.0075871143
49	0x3c88b535	0.016687969
50	0xbcdb39db	-0.026760986
51	0xbab92941	-0.0014126675
52	0x3ae7e6c3	0.0017692674
53	0xbb631745	-0.003465132
54	0xbc114dbd	-0.008868632
55	0x3becc2b8	0.0072253607
56	0xbbadaceb	-0.0053001544
57	0x3b982b69	0.004643847
58	0x3ca5f42a	0.020258028
59	0xbcfe2a90	-0.031026155
60	0xbc804fff	-0.015663145
61	0x3c0b481b	0.008501078
62	0xbd1dcd36	-0.038525783
63	0x3c3ee634	0.011651564
64	0xbc4743c1	-0.01216215
65	0x3cc47ff1	0.023986788
66	0x3d316b6d	0.04331534
67	0xbcb6348a	-0.02224185
68	0xbcbfca6f	-0.023411958
69	0x3cb512dc	0.02210372
70	0x3c44adaf	0.0120043
71	0x3cb0874a	0.021548886
72	0xbce6f7ef	-0.028194396
73	0x3b58a8e7	0.0033059658
74	0x3c8c7f9e	0.017150696
75	0xbb8102fe	-0.0039371243
76	0xbcf14e6e	-0.029456344
77	0xbb2ded0c	-0.0026538996
78	0x3c8fbd6b	0.017546376
79	0xbbc249ff	-0.005929231
80	0x3d179858	0.03701052
81	0xbb9b61d6	-0.0047418876
82	0x3c4ccc94	0.012499947
83	0x3c895d67	0.01676817
84	0xbc962536	-0.01832829
85	0x3cdd83f5	0.027040461
86	0xbcb4606f	-0.02201864
87	0x3b5ed859	0.0034003465
88	0xba0ea601	-0.00054416066
89	0xbd1acdf8	-0.037794083
90	0x3c897438	0.01677905
91	0x3c63b9e2	0.013899298
92	0x3b684326	0.0035440414
93	0x3ca3867a	0.019961584
94	0x3c44c131	0.012008951
95	0x3d07009b	0.03295956
96	0xbc483b69	-0.012221196
97	0x3c2a89af	0.010408803
98	0x3c2aa9bd	0.010416445
99	0x3d3b5814	0.045738295
100	0x3c4c31fb	0.012463088
101	0xbcc9a1a6	-0.024613213
102	0xbcf4ea46	-0.029896867
103	0x3c9b50fe	0.018959519
104	0xbce0dd34	-0.027449228
105	0xbd0f75e5	-0.035024542
106	0x3d6fbf59	0.058532093
107	0x3b3f17f9	0.0029158576
108	0xbd2084b8	-0.03918907
109	0xbcc9b361	-0.024621667
110	0x3c38f68e	0.011289252
111	0xbd07d91e	-0.033166043
112	0xbd33a732	-0.04386062
113	0x3ca334af	0.019922582
114	0x3bd5d8b6	0.006526078
115	0xbcc9c46a	-0.02462979
116	0x3d3ca1cf	0.04605275
117	0xbc96cd2e	-0.018408384
118	0x3c1921be	0.009346424
119	0x3a03bf28	0.0005025738
120	0x3c52742a	0.0128450785
121	0x3a16b8a6	0.00057495607
122	0xbc943878	-0.018093333
123	0x3cd8dbc5	0.026471982
124	0xbccc3d57	-0.024931593
125	0xbcbcc312	-0.023042236
126	0x3cd96f7e	0.026542421
127	0xbcc6e054	-0.02427689
128	0x3ca9c129	0.020721989
129	0xbc0feb4c	-0.0087841265
130	0x3d676254	0.056490257
131	0xbc4d76e7	-0.012540556
132	0xbc16eb41	-0.009211362
133	0x3c1657a2	0.009176167
134	0xbd05bfb1	-0.032653514
135	0x3b213906	0.002460064
136	0xbc87da5c	-0.016583614
137	0x3c0df290	0.008663788
138	0x3c77cda6	0.015124714
139	0x3c530e53	0.012881833
140	0x3aa6245a	0.0012675629
141	0xbc50f5e5	-0.012753938
142	0x3c38351d	0.011243132
143	0x3c1233d3	0.008923489
144	0x3b25bd7e	0.0025289948
145	0x3d0d4091	0.034485403
146	0x3bc99428	0.006151695
147	0x3d10039d	0.035159696
148	0x3be63f9e	0.0070266267
149	0xbd04cf89	-0.032424483
150	0x3b6f5887	0.0036521272
151	0x3ca5bea8	0.020232514
152	0x3cafb9b8	0.021450862
153	0xba9b342b	-0.0011841109
154	0x3d44a260	0.048006415
155	0x3c1fa2cd	0.009743405
156	0x3cff9a6c	0.031201564
157	0x3bb1c577	0.005425151
158	0x3d320a7f	0.04346704
159	0x3c07c734	0.00828724
160	0xbc4e7b65	-0.012602662
161	0x3c1866eb	0.009301881
162	0xbd2a2390	-0.04153782
163	0xbc94f401	-0.018182756
164	0xbcb9ece9	-0.022695975
165	0xbce76910	-0.02824834
166	0xbd230b2e	-0.039805584
167	0xbce83d8c	-0.02834966
168	0x3d0461ec	0.032319948
169	0xba982eac	-0.0011610589
170	0xbc558aa6	-0.013033545
171	0x3c96b539	0.01839696
172	0x3d477937	0.048699584
173	0xbc914cad	-0.017736757
174	0x3c3af7ac	0.011411589
175	0xbb963712	-0.0045842016
176	0xbc6d8039	-0.014495903
177	0x3c707b83	0.014677885
178	0x3cb86597	0.02250938
179	0x3ce05ee1	0.027388992
180	0xbc81dd71	-0.015852662
181	0x3c2b5020	0.010456115
182	0xbca3e7ef	-0.020008055
183	0x3c1ca842	0.0095616
184	0x3b8a40f5	0.0042191693
185	0xbc8aa022	-0.01692206
186	0xbc70af96	-0.0146903
187	0xbc686a08	-0.014185436
188	0xbb4bba7d	-0.0031086497
189	0xbc673764	-0.014112327
190	0x3c4f19b7	0.012640408
191	0x3c9391fc	0.018013947
192	0xbc048d30	-0.008090302
193	0xbcc11a3d	-0.023572082
194	0xbb25285a	-0.0025201053
195	0xbc39cc9a	-0.011340285
196	0xbd0ac23d	-0.033876646
197	0xbcca2a73	-0.024678444
198	0x3b9aac69	0.00472026
199	0x3bcd20a0	0.0062599927
200	0x3d018b60	0.03162706
201	0xbca4d62d	-0.020121658
202	0xbac5475d	-0.0015051175
203	0xbd18b849	-0.037285123
204	0xbcbd5168	-0.023110107
205	0x3cb02831	0.02150354
206	0x3a00e495	0.0004916874
207	0x3cc21ea1	0.023696246
208	0xbcd8e096	-0.026474278
209	0xbd0e28fe	-0.034707062
210	0xbb8e60cd	-0.0043450356
211	0xbbb8b9c3	-0.005637379
212	0x3bef0c3b	0.007295159
213	0x3c85792f	0.016293136
214	0x3cbdc83b	0.023166766
215	0xbcf34872	-0.02969763
216	0xbcf2a3de	-0.029619154
217	0x3d81a3b2	0.063300505
218	0x3d3d2551	0.046178166
219	0xbc8447f1	-0.016147586
220	0xbc7ced46	-0.01543743
221	0x3c71feac	0.014770191
222	0x3da4564a	0.08024271
223	0x3bae3aaf	0.005317054
224	0x3c64b107	0.013958222
225	0xbcbf7b97	-0.023374362
226	0xbcbc1fb3	-0.022964334
227	0xbbf55003	-0.007486345
228	0xbd20c104	-0.039246574
229	0x3d3af034	0.04563923
230	0x3c3da411	0.011574761
231	0x3c81f0b5	0.015861848
232	0xbcd094fc	-0.025461666
233	0x3c342274	0.010994542
234	0xbcbc956d	-0.02302047
235	0xbd0dc383	-0.034610283
236	0xbc6cc23f	-0.014450609
237	0xbc010329	-0.007874289
238	0x3b0598a5	0.0020385173
239	0xbc6c160d	-0.014409554
240	0x3c8c3134	0.017113306
241	0x3bb87aaa	0.005629857
242	0xbcf80e16	-0.030280154
243	0xbc4c9f08	-0.012489088
244	0x3cbe3d15	0.023222486
245	0xbcbdadbd	-0.023154134
246	0x3ce93d9b	0.028471759
247	0x3c86d900	0.016460896
248	0x3cb077fa	0.021541584
249	0x3cdb6f39	0.026786434
250	0x3d191495	0.037373144
251	0x3cbe106f	0.023201196
252	0x3b960dcb	0.004579281
253	0xbb923329	-0.004461665
254	0x3bd7bf06	0.006584051
255	0x3c6ae75b	0.014337386

fc.bias f4 [10]
0	0xbbe44f6b	-0.006967475
1	0xbb804ef6	-0.003915663
2	0xbb88be86	-0.004173103
3	0xbc8f031e	-0.017457541
4	0x3c5c38a8	0.013441242
5	0x3c96d146	0.018410336
6	0x3c54086d	0.012941462
7	0xbb674eb8	-0.0035294723
8	0x3ba10be9	0.00491475
9	0xbc71362f	-0.014722391
