result/mnist/seed12/noniid_0.8/ratio_0.03/final.pt (torch, 75941 bytes, 6 tensors)

cnn1.weight f4 [16, 1, 5, 5]
00000000: 172e 6cbd f9aa 1dbe 387b 68bd 43ed 313d
00000010: 9690 e43b 0aca 3dbe 71db 893c 0529 d4bd
00000020: 8840 113e ad08 0d3e 0f3c 18be e021 a43d
00000030: b880 a73d b71f f03d e625 2f3d bf1d 10be
00000040: 95f5 6a3e 40bc 3b3e 574b 02be 562c 05bd
00000050: 8561 c63d e5f0 10be 7b26 f1bd 8faf 073e
00000060: 3228 c53d ed65 e2bd 8192 d6bd b20e 833c
00000070: 7461 da3c 76fc 873d 1c92 54bd c499 ee3d
00000080: 9bfa d2bd fd45 d4bd d748 a8bd 64c9 1cbe
00000090: 128c d13c 64dc 18be a056 1bbe 116c fe3d
000000a0: 9276 9c3d a6d8 20be f554 bcbd a236 2cbe
000000b0: 3481 ab3d 9cd9 c3bc a73b b03d d03b 24be
000000c0: b77b 95bd de32 743e d250 283e c9d8 833e
000000d0: dd77 413e 7495 993e 899b 893e 5a2f 2dbe
000000e0: d40d c1bd 3432 a93e 353a 713e 517a fa3d
000000f0: c511 f23d 1f9f 30be cf86 423e d346 363e
00000100: 2618 183e a18f 11bd 7c00 f3bd 39d2 333d
00000110: 5f5d 2c3e 7c5e c53d 587d 3fbe 3b88 4cbe
00000120: b549 a1bd 561b 29be bc9b 92bd 1e5a 7b3d
00000130: 5347 1fbe 3698 4e3e 7783 103d a806 ad3d
00000140: af27 0d3d f22b f9bd 0c1a 1b3e e7a9 86bd
00000150: 6bf7 6cbc 832f 1b3e 8ff1 113d c1f3 593e
00000160: f094 a1bc b055 1d3e c1ec 9a3d bf68 213e
00000170: 677a 413d 391b 2fbd d1bc 013e 6262 853d
00000180: ae8d 21be 788f 34be b9ac 3abe 11e0 793e
00000190: bcf7 e03c 87e3 4b3d 6708 8b3d fd5d 233c
000001a0: 9182 633e 27d3 063e b56f e3bd 3233 0c3e
000001b0: 4298 593e a60f 6b3d 6773 1838 c4c4 f53c
000001c0: d4a3 33be 8847 05be 2d5d 563e 014a 67be
000001d0: 4652 bf3b b203 61be f2d4 b8bd 198e b5bc
000001e0: 1cee 93bc e0fe fcbd 0aa8 5e3d be77 9c3c
000001f0: 1b02 29be 603b a03d 5439 923e be3c 833e
00000200: 67e9 9abd 3df4 c63d fc39 d4bd c9a2 853e
00000210: c2b2 1e3e d2ea ca3d 8041 20be 934f 91bd
00000220: b400 20be acd0 0d3e 1097 18be 2426 84bd
00000230: 29c6 02bd e5db a73d d03a 943d fd00 8d3d
00000240: c60b 2e3e 172e 47bc 7990 d8bc dd63 9abd
00000250: 1a89 5ebd 7009 2bbe 998d 173e 336c 883e
00000260: 863c 563e 2433 e83d 20e2 b7bd 9823 f7bd
00000270: e0c8 953e 04fb a73c 1e4c b6bd 92a0 51be
00000280: 4d1b 97bd ff83 1a3e 880d 3b3e 730d 53be
00000290: 2b12 72be 76c2 a43c 9d7e a4bd 3e1a 423e
000002a0: ef20 66bd dedd 5cbe fbfd 4f3d e97d 2d3e
000002b0: 8b11 ea3c c656 4ebe a1bf febc 9347 34be
000002c0: 2b71 fa3d 26f3 d73c cf71 a03d 32c5 ecbc
000002d0: b62c 36be 84d6 b33d b6e3 6a3e 50ab a1bc
000002e0: 0c15 cebd 05c3 1dbe 674d 9c3c e65b 803e
000002f0: f614 4dbd b73d b3bd 2f72 173e f9a8 02be
00000300: b3c9 2a3c 8cdd 52bd 76b6 13bc 6ab5 f5bd
00000310: 1e33 9b3c 12a2 193d 7db7 3d3d 5995 e4bd
00000320: 5e22 553d 7dd4 2fbe f67a 7b3d 5608 c93d
00000330: c099 13bd 99d0 11bd 56c4 b83c 4d7a 643e
00000340: 892f 913e 946a 3abe e3ab 323e 1152 303e
00000350: a6ae c53e 15c0 a43e 4b94 6dbd c5ab 84bd
00000360: bff7 563e 8bb8 803e de0b 953e 13c5 c9bc
00000370: e1fb 0a3d 16ed c7bd 094a 0cbe 39e6 4f3e
00000380: 40df 073e 26f1 8e3e 349e 813e ff10 08bb
00000390: e8cd cabb 73ef 053e 22e0 853e 32c0 54bc
000003a0: 1c5a ad3e 5621 7b3e 5833 a23d df6f 31be
000003b0: 4b78 6ebd efe3 1e3e fa85 c43d 36e7 963d
000003c0: 476b 5cbe 6399 89be 99ee 7ebe 26f9 74bd
000003d0: 6037 62bd b42f 35be 660a c23d e90e 8cbe
000003e0: ee92 84be ff8e 6abe 8bf5 04be a553 44bc
000003f0: 25a6 90bd b8ea 6dbb 2d5e 013e 2ba9 34be
-0.057661142 -0.15397252 -0.056758136 0.04343916 0.006975244 -0.18534103 0.01682827 -0.10359386
0.14184773 0.13772841 -0.1486666 0.08014274 0.08178848 0.11724799 0.042760752 -0.14073847
0.22945245 0.1833353 -0.12724052 -0.032512985 0.09686569 -0.14154394 -0.11774918 0.13250564
0.09626807 -0.11054597 -0.10477162 0.015998218 0.026657797 0.0663995 -0.051897153 0.11650422
-0.103017054 -0.10364912 -0.08217018 -0.153112 0.025579486 -0.14927822 -0.15169764 0.12422956
0.07639803 -0.15707645 -0.09195892 -0.16817716 0.08374253 -0.023907475 0.08605128 -0.16038442
-0.07298987 0.2384753 0.1643708 0.2575133 0.1889338 0.29996836 0.26876476 -0.16912594
-0.09426466 0.33046114 0.2355736 0.12230361 0.118197955 -0.172482 0.18996738 0.17800455
0.14852962 -0.035537366 -0.11865327 0.043901656 0.16832493 0.09637162 -0.18700159 -0.19973843
-0.078753866 -0.16514334 -0.0715861 0.06136524 -0.15554552 0.20175251 0.035281625 0.08448535
0.034461673 -0.12166585 0.15146655 -0.06575375 -0.014463286 0.15154843 0.03563076 0.21284391
-0.01972434 0.15364718 0.075646885 0.15762614 0.047235873 -0.04275057 0.12669684 0.06512906
-0.15776703 -0.17632854 -0.18229951 0.24401881 0.027461879 0.049777534 0.06788712 0.009971139
0.22217776 0.13166486 -0.11105291 0.13691404 0.21249488 0.05738797 3.63471e-05 0.030001052
-0.17542964 -0.13015568 0.20933981 -0.22586824 0.005838665 -0.21974066 -0.09024991 -0.022162484
-0.018057875 -0.12353301 0.054359473 0.019100066 -0.1650471 0.07823825 0.28559363 0.2563228
-0.07564049 0.097145535 -0.10362622 0.26100758 0.15497878 0.0990807 -0.15649986 -0.07095256
-0.15625268 0.13849133 -0.14901376 -0.06452587 -0.03192726 0.081962384 0.0723778 0.06884954
0.16996679 -0.012156985 -0.026436077 -0.07538579 -0.05432997 -0.16702819 0.14800109 0.2664505
0.20921525 0.11337879 -0.08978677 -0.12067336 0.29254818 0.020505436 -0.08901237 -0.20471409
-0.07378254 0.15089415 0.1826688 -0.20610599 -0.23639743 0.020112257 -0.08031962 0.18955323
-0.05618375 -0.2156901 0.050779324 0.16942562 0.028572818 -0.20150289 -0.031097235 -0.17605428
0.12228616 0.02636106 0.07834207 -0.028902624 -0.17790493 0.0878115 0.22938427 -0.019735008
-0.10062608 -0.15406425 0.019079877 0.25070113 -0.050068818 -0.087520055 0.14789651 -0.1275977
0.010424065 -0.051480815 -0.00901567 -0.119974926 0.018945273 0.037508078 0.046317566 -0.11161298
0.05203473 -0.17170902 0.06139656 0.09816043 -0.0360353 -0.035599325 0.022554558 0.22312279
0.2835658 -0.18204719 0.17448382 0.17218806 0.3860981 0.32177797 -0.05800275 -0.06478075
0.20992945 0.25140795 0.29110616 -0.024630105 0.033931617 -0.097620174 -0.13700117 0.20302667
0.13268757 0.27918357 0.25316012 -0.0020762084 -0.0061890967 0.13079624 0.26147562 -0.012985276
0.3385781 0.24524435 0.07919949 -0.17327832 -0.05822019 0.15516637 0.095958665 0.07368319
-0.21525298 -0.26874837 -0.24895705 -0.05980792 -0.05522859 -0.17693979 0.094746396 -0.27355126
-0.25893348 -0.22906111 -0.12984292 -0.011982833 -0.070629396 -0.0036303233 0.12633581 -0.17642657

cnn1.bias f4 [16]
00000000: 4eca 08be 16f6 e1bb af26 07bd d299 943c
00000010: 69f9 96bd cf6f d6bc 6cf1 e73d 48ca 013e
00000020: 4f1a f0bd b2c0 1aba 4d6a 293e bca9 1b3e
00000030: 6bc6 3fbc d003 34be dbe5 ac3d 4734 1d3e
-0.13358423 -0.006895791 -0.032995876 0.018139753 -0.0737179 -0.026176361 0.113253444 0.1267482
-0.11723768 -0.00059033476 0.16544457 0.15201467 -0.011705021 -0.1757958 0.08442279 0.15351973

cnn2.weight f4 [32, 16, 5, 5]
00000000: 5ee5 213d c55b 08bd 225f 13bd f679 acbc
00000010: 69be 723c dd40 55bd b6b5 0abd b384 0bbc
00000020: 2773 b83b fed6 cd3b 7732 56bc ed0c b93b
00000030: eac0 adbc 70ae 263d 40a5 0d3d 9168 c7bc
00000040: 2389 da3c 1f50 613c 31ec 0b3d 1a6b 27bc
00000050: a7c3 a83c dda1 c8ba 6682 bcbc 296c 0d3d
00000060: 7e6a 2abd 672e 39bd 8fc8 8d3c ba1a 423c
00000070: 47e6 903c edfe 9a3c 51e9 d13c a464 e43c
00000080: ade6 00bd 8034 d93c fcc6 ef3c b300 8cbc
00000090: d6f8 a93c 4842 183d 0b18 873c 1072 b73a
000000a0: 183b b8bc 9a63 2b3d 95e5 0a3d f1ef a13c
000000b0: ea30 e4bc 19c9 6e3c d8f7 2b3c 44f3 c7bc
000000c0: 70f5 cabb 84b8 3fbd 640c 863d 1ab0 0b3d
000000d0: 188f 033d c167 bdbb 3033 c03b be94 043d
000000e0: a105 3a3d be37 24ba 8671 cebc 0e59 b4bc
000000f0: a883 5cbb 1079 a9bc 5b27 2ebb 9ed3 313d
00000100: bf4a 3dbd a834 aa3c 6152 6bbc fc65 2c3a
00000110: 60c1 edbc ae89 21bd 3156 833c 178c 21bd
00000120: a63a 043d f5a3 ddb9 0a6e 013d e559 f9bb
00000130: 1052 453d 8222 673c b9db 3b3b 8854 a63c
00000140: 0a11 18bd 0417 afbc 7cbc fcbc 5a0a 9abc
00000150: 7f21 babc 5937 9a3c ee1d 30bd cf39 39bb
00000160: e622 3abd ae11 a4bc ba81 a33c 3ef5 aa3c
00000170: a132 683d 0213 8439 9794 27bd 2874 bdbc
00000180: 40a3 073d 222e 8a3c 0b29 8e3c a8c2 59bd
00000190: cc6e 03bd 5b94 0b3d 436c 233c 0f17 f4bc
000001a0: 9fb3 673c de0c 95b9 b116 343c 6e9f 373c
000001b0: 90a3 283d 5ff3 353d e92e c4bc 724a 3e3d
000001c0: 532c da3c 413e eb3c d4eb ac3c 2c69 14bd
000001d0: b305 ba3c 37df 2bbb 16c4 cbbc 58cc ec3c
000001e0: d49d cbbc c58d 9cbc 8ab0 fabb d027 233d
000001f0: 81dc 6b3d d163 073d 635e 06bc 4915 153d
00000200: 2510 ba3a d62a 423d c9bc 8e3c ca8c 273d
00000210: b169 0f3d 2b3f 52bd aaa9 dbbc 298c 133d
00000220: c037 2b3d 65e0 40bd aa9d 173d f7ee 3a3b
00000230: 614a 38bd 7692 49bd 8e26 0c3d c4f8 29bd
00000240: a197 493b 8659 0dbd e411 f93c 4ebd adbc
00000250: 84ac aabc 165f 273d 256a 35bc 6727 dd3c
00000260: dc6c 153d 8439 053d e02a 463d 2d18 193d
00000270: 1a91 ca3c f008 cdbc a146 e2bc e461 fd3a
00000280: 74ca ebbc 0ebe ad3c 41fc 0c3c 6b1c fe3c
00000290: 93f8 653d 5b79 4a3d 1a02 e5bc e529 05bd
000002a0: 44a4 233d e113 bfbc 46ad 87bc 88a3 30b9
000002b0: a14b d83c 4a22 9e3c 9203 22bd 2fe1 a8bc
000002c0: b56b 21bd 48af a1bc 95f0 bfbb 39fc 4dbc
000002d0: c83d 233d 17ce 643c 45a9 0b3d eaa1 993c
000002e0: 1bb2 193d e942 a13c 8ee5 273d d6fe 583d
000002f0: 6ea1 343d 97af e3bb d239 023d 164e 833a
00000300: c697 a23c e771 3d3d 64ac 00bd 8867 023d
00000310: 20c4 5c3c eb86 243d 13f6 2abc cc9b 073d
00000320: 7a7b 2e3d 4652 893d 076e f93c 8251 083c
00000330: 1253 2a3d a833 8c3c ebba 6dbd 2dca 7dbd
00000340: 85b0 383d df13 d5bc ac7e e0bc 492a c5bc
00000350: bdaf 2b3b 6f9e 84bc 750e 75bd b21a 16bd
00000360: 2e3e 5abc 7c19 2d3d ad2c 14bd 747f a93c
00000370: dc14 f03c bf43 c1bb 85f1 f8bc 572e 91bd
00000380: b783 123c bea2 0d3c 32b9 dc3c 9a4a 633d
00000390: 086f 93bc c606 10bd eb6b abbc 2e85 173d
000003a0: b285 623d 0916 8cbc 834e 09bd d6c2 053d
000003b0: 6af1 103d 07a7 babb 9891 473d 3963 293c
000003c0: c01e 30bd c12c c93c 55dc 853c 6ded 073d
000003d0: 89a7 ba3c da65 29bd 001e 3d3c 61c3 27bc
000003e0: e463 5f3d a5df 133d 0ed0 1ebd ad6a 35bd
000003f0: 755d 3ebd 3814 a63c 139f 8abb 02c2 79bd
0.039525382 -0.033290643 -0.035979398 -0.02105425 0.014815905 -0.05206381 -0.0338647 -0.008515525
0.0056289616 0.0062817326 -0.013073555 0.005647293 -0.021210153 0.0406937 0.034581423 -0.024341853
0.02667672 0.0137520125 0.034160797 -0.010218406 0.020601107 -0.0015307028 -0.023011398 0.034526978
-0.041605465 -0.04521027 0.017307548 0.011847192 0.01768793 0.018920386 0.02562395 0.02788002
-0.03146999 0.026514292 0.029269688 -0.017090177 0.020748537 0.037172586 0.016490957 0.0013995785
-0.022489116 0.041843034 0.033910353 0.019767733 -0.027855355 0.014574313 0.010496102 -0.02440799
-0.006193809 -0.046806827 0.06545332 0.03410349 0.032118887 -0.0057801907 0.005865477 0.032368414
0.045415524 -0.000626441 -0.025200617 -0.02201512 -0.003364781 -0.02068761 -0.002657375 0.043414705
-0.04621386 0.020777062 -0.014362902 0.0006576476 -0.029022872 -0.039437942 0.01603231 -0.03944024
0.032282494 -0.00042274562 0.031599082 -0.007609593 0.048173964 0.014107348 0.00286649 0.02030398
-0.037125625 -0.02137328 -0.030851595 -0.018803764 -0.02272105 0.01882522 -0.042997293 -0.0028263216
-0.045443438 -0.020027962 0.01995932 0.020868894 0.05668891 0.00025191164 -0.04091319 -0.023126677
0.03311467 0.016867701 0.017353555 -0.053164154 -0.032088086 0.03407703 0.009974542 -0.029796151
0.014141946 -0.0002842908 0.010991738 0.011207445 0.04117161 0.04442155 -0.02394815 0.046457715
0.026632464 0.028716208 0.021108545 -0.036233112 0.022707796 -0.0026225576 -0.024873774 0.028906032
-0.024855532 -0.01911057 -0.0076504396 0.03983289 0.057583336 0.033054177 -0.0082012145 0.036397252
0.0014195485 0.047404133 0.017424004 0.04090575 0.035012905 -0.051329773 -0.0268143 0.03602234
0.041801214 -0.047089 0.037015595 0.0028523782 -0.04499281 -0.04921194 0.034216456 -0.041497007
0.0030760544 -0.034509204 0.030404039 -0.021208432 -0.020834215 0.040862165 -0.01107267 0.026996328
0.03648077 0.032525554 0.048380733 0.03737657 0.024727393 -0.025028676 -0.02762157 0.0019331542
-0.02878306 0.02120879 0.008605064 0.03101941 0.056145262 0.04943214 -0.027955104 -0.032510657
0.039951578 -0.023324909 -0.016562115 -0.00016845588 0.02640325 0.01930346 -0.039554186 -0.020615188
-0.039409358 -0.0197369 -0.005857537 -0.012572342 0.03985384 0.013965151 0.034096975 0.018753964
0.03752337 0.019685226 0.040990405 0.052977405 0.044099264 -0.006948422 0.031793423 0.0010017778
0.019847762 0.046251204 -0.031414405 0.031837016 0.013474494 0.04016773 -0.010434645 0.033107564
0.042598225 0.067051455 0.030447973 0.008320214 0.04158313 0.017114475 -0.058039587 -0.061960388
0.045090217 -0.026010452 -0.027404152 -0.024068015 0.0026197277 -0.016188828 -0.05982824 -0.036646552
-0.013320489 0.042260632 -0.03617542 0.020690657 0.029306822 -0.0058979685 -0.030388603 -0.07088917
0.008942536 0.008644758 0.026943777 0.055491067 -0.01799728 -0.03516271 -0.020925483 0.036992244
0.055303283 -0.01710035 -0.03352214 0.032656513 0.03538648 -0.0056961807 0.048722833 0.010338598
-0.042998075 0.024557473 0.016340414 0.03318541 0.022784965 -0.0413569 0.011542797 -0.010239453
0.054538622 0.036101956 -0.038772635 -0.044291187 -0.046475846 0.020273313 -0.004230389 -0.060976036

cnn2.bias f4 [32]
00000000: d66c 66bc 7481 e63c fae0 fabb 5fdd 2bbd
00000010: 75b9 163c c868 d1bc 1e37 5bbc 5f07 39bd
00000020: 131c 383d 20da 58bd 28d4 333d e3b3 d33c
00000030: 1f95 9c3c 405f 8abc da85 2c3c c66c c2bb
00000040: 9eb4 cc3c d012 1ebd 48af 483d 1e33 96bc
00000050: c9d6 123d d7a3 e6bc 5b14 953c c2d0 403d
00000060: afca 0b3c 1ef2 28bb 9c2c 44bd 89ce 6fbc
00000070: ae38 53bd 9077 3a3d a5fd dc3c d98d b93c
-0.014064034 0.0281379 -0.007656214 -0.041959163 0.00919949 -0.025562659 -0.01337984 -0.045173045
0.04494865 -0.052942395 0.0439035 0.025842613 0.019114075 -0.016891122 0.01052996 -0.005933377
0.024988469 -0.03859216 0.048995286 -0.018334921 0.035849366 -0.028154297 0.018198183 0.047074087
0.00853221 -0.0025779079 -0.047894105 -0.014636644 -0.051567726 0.04552418 0.026976416 0.022650646

fc1.weight f4 [10, 512]
00000000: 15d1 c1bc c8bb 373b d1c6 c33c 95ab 8bbc
00000010: ccd2 3c3c 04b5 a7bc c26f d1bb 8705 a73d
00000020: 6825 2abd 94ab 16bd aeeb b43c 4ecb 523d
00000030: 33fa 13bd 39d5 69bb 54c9 1bbd 53ae e9bc
00000040: 441e 773c c358 9fbd c1be a33c 16b1 8b3d
00000050: 4ffc d5bc 7ae2 18bd bd6c 133d fcf4 083d
00000060: bb00 073c 210a dcbc ffa2 b1bb 969a 7a3d
00000070: 5b40 e03c 8bdc c23c 1023 813c e1a4 1c3b
00000080: cbd1 adbc ed35 8f3c 115b 233d 0dd2 2abd
00000090: 194e d9bc e265 cfbb 1141 78bd f5f9 74bd
000000a0: 3c46 5ebc 33b8 aebd af4e 25bd cad2 913c
000000b0: 26c5 6a3c 7f63 47bd cdde 273d e983 d53d
000000c0: f392 7a3c 08d7 aebc a3a8 89bd f11f ba3c
000000d0: a16a 053c a62f 243c ce48 27bc 988a 8fbc
000000e0: 7b45 7ebd d767 65bd 401d ad3c aae3 8bbc
000000f0: 5e65 8dbd 9eef 8f3c 4320 14bd 0676 e13c
00000100: 9384 8abc df91 8f3d 42fe 5c3d 0693 9bbc
00000110: 5389 ac3c def2 773d 081b 4cbd 9315 9a3d
00000120: 944a b53a f698 d9bc 3ae3 973c 7de2 6fbb
00000130: 2a35 d4bc fdc3 04bd 2413 40bd dd11 583c
00000140: a7f5 0ebc 42fa a13b 8c05 843d aa34 6dbb
00000150: 6cc5 a93c 3b18 a93c 8882 c1bd d545 8ebd
00000160: 8513 4cbc 6dee fabd ed0d b93c a704 503d
00000170: a5d5 6cbd 8ba5 12bd e1fb 203d dfeb c13d
00000180: d57b 04bc 33d6 0a3d 6909 9b3d 0e64 893d
00000190: 435b 063d dc17 7f3c b654 87bd a049 9eba
000001a0: 4478 21bd 5db9 62bd 61c9 d93c 0b3c 5dbb
000001b0: 230b 18bc 8df8 3cbd 553c 1fbc 0bba 50bd
000001c0: 2540 a4bc f76f a4bc 447f 093d 9a3a be3c
000001d0: 1781 0b3d 374f 53bd bee8 ea3c 05a9 bbbc
000001e0: a4ca 7b3d 6744 7b3d 199b 56bc 7691 68bd
000001f0: 4520 763c a664 603c bc38 5b3d cb76 19bd
00000200: 3f74 fcbb df3f 4dbd 89e4 0c3d 65c2 ed3c
00000210: ba3b 5dbc 0c72 f0bc 2d91 96bd 9806 923b
00000220: f128 07bd 3afc 16bd face a8bc b198 8dbc
00000230: ce14 393c f7c4 8d3c 799a 14bd 168d 173b
00000240: 6e38 fdbb ddfb 2c3d 34c1 a73c d66d 373d
00000250: 8fd7 d4bc b520 76bc e093 93bc 5282 43bd
00000260: dcf4 003d 5c76 e83c 4bcf 0c3d 935e 6ebc
00000270: 8055 383c 2089 7d3c 9c62 123d 2f2f 243d
00000280: cd21 d03b 7105 05bc 763e 7dbd 106a 0e3d
00000290: 4c8b 113d 580f bf3b 65c9 07bd e1d1 913d
000002a0: 8e0d a43d 6d12 8f3d cdda 39bd c648 1c3d
000002b0: b591 9e3d bc06 493d 6575 a63c e8d4 85bd
000002c0: 8cfb 833b 70d7 533c 5816 b03c bb08 343d
000002d0: 2933 12bd 28a5 b73c af45 6f3b 78e6 043d
000002e0: ae71 df3a 621f dbbc 388f 44bd 7327 17bc
000002f0: 540f 8b3b bb1f c33b 3eb0 133d 0b27 cd3c
00000300: d43e a3bc 702d 01bd a680 7e3c a8d8 76bd
00000310: 952f 6ebc 39b5 a03c 7ef0 dabc 1f16 50bd
00000320: 3b16 fa3c 2b5c 153d f386 4bbc 70f5 b5bc
00000330: 167d 29bd 4af2 43bc cda1 113d 76d5 ed3c
00000340: 1526 c1bc 9914 52bd 2d1c a1bb 69f7 ab3c
00000350: 11f1 7b3c 83c2 273d 0d94 ae3b 251c 65bc
00000360: c443 babc 885a b23d 613b b1bc 7ecf dfbb
00000370: d5bf dfbc f764 c0bc 07fd fd3c 7e98 9b3b
00000380: 315f 503c d928 24bc 094e 0ebc bfa3 02bd
00000390: 0851 57bd dd45 543d 3de4 01bc d034 2ebd
000003a0: a53e 3f3d 17ad 343c 5bcb f7bd 0dac 563c
000003b0: 37f8 1bbd 8f65 dcba 232e 243d fca3 0b3d
000003c0: bc66 aa3c 3e1b ffbb 37fa 72bd fe6c e6bc
000003d0: 5b33 f3b9 f920 5cbc 21b9 fe3c b40d 883b
000003e0: 5c6b 9d3c 66da 30bc ab8d 293d bd6f 12bb
000003f0: 808d 5ebd ccd4 7abc be70 903c 6b52 c7bc
-0.023659268 0.002803551 0.023898514 -0.01704959 0.011524867 -0.020472057 -0.0063914964 0.08155351
-0.04153958 -0.036784723 0.022085037 0.051463418 -0.03612728 -0.003568007 -0.0380338 -0.028525507
0.0150828995 -0.07780602 0.01998842 0.06820886 -0.026121287 -0.03732536 0.035992373 0.03343676
0.00823992 -0.026860299 -0.005421042 0.06118258 0.027374437 0.023786804 0.01576379 0.0023901986
-0.021218201 0.017481769 0.03988177 -0.041704226 -0.026526498 -0.006329284 -0.060608927 -0.05980869
-0.01356655 -0.08531227 -0.04035824 0.017800707 0.01432923 -0.04867887 0.040983964 0.104255505
0.0152938245 -0.02134277 -0.06721618 0.022720309 0.008143098 0.010021126 -0.010210229 -0.017522141
-0.06207798 -0.056007233 0.021132112 -0.017076332 -0.069041 0.017570313 -0.03616358 0.027522098
-0.01690892 0.070102446 0.053953417 -0.018991005 0.021061575 0.06053435 -0.049830467 0.07523646
0.001383143 -0.026562195 0.018540967 -0.0036603503 -0.025904257 -0.03241347 -0.046893254 0.013187853
-0.00872556 0.004943163 0.064463705 -0.003619472 0.02072402 0.020641437 -0.09448725 -0.06946913
-0.012455826 -0.12252507 0.022589648 0.050785687 -0.057820935 -0.035802405 0.03930271 0.09468817
-0.0080861645 0.033895683 0.07570154 0.06708537 0.032801878 0.015569653 -0.06607954 -0.0012076385
-0.039421335 -0.055352557 0.026585283 -0.0033757712 -0.009279999 -0.046135474 -0.009718974 -0.050958674
-0.020050118 -0.02007292 0.033568636 0.023221303 0.034058657 -0.051589217 0.028675433 -0.022907743
0.06147255 0.06134453 -0.013098502 -0.056779347 0.015022342 0.013695871 0.053520903 -0.037466805
-0.0077042873 -0.05010974 0.034397636 0.029023359 -0.013503009 -0.029351257 -0.07351909 0.0044563524
-0.03299803 -0.036861636 -0.020606507 -0.017284723 0.011296464 0.017305834 -0.03628013 0.0023124865
-0.007727674 0.042232383 0.020477869 0.044782482 -0.025981693 -0.015022446 -0.018014848 -0.047731705
0.031483516 0.02837675 0.034377377 -0.014548915 0.011250854 0.015474588 0.035738572 0.04008406
0.0063516856 -0.008118973 -0.061827146 0.034769118 0.035533234 0.0058306865 -0.03315105 0.07120109
0.08010398 0.06985936 -0.04537468 0.03815534 0.07742635 0.049078688 0.02031965 -0.06534749
0.0040277895 0.012929782 0.02149503 0.04395364 -0.03569332 0.02241762 0.003651004 0.032446355
0.0017047429 -0.026748363 -0.047988147 -0.009225714 0.0042437706 0.0059547103 0.03605675 0.025043031
-0.01992742 -0.031537473 0.015533602 -0.060265213 -0.014537712 0.019617664 -0.026726004 -0.050802346
0.030528178 0.03646485 -0.012422311 -0.02221176 -0.041379057 -0.011959622 0.035554696 0.02903245
-0.02357773 -0.051289175 -0.004916689 0.020991998 0.015377299 0.040956985 0.0053277076 -0.013983761
-0.022737391 0.08708674 -0.02163476 -0.006830155 -0.027313152 -0.023485644 0.031004442 0.004748403
0.012718008 -0.010019504 -0.008685597 -0.03189444 -0.05256751 0.05182444 -0.007927951 -0.042530835
0.0466906 0.011027596 -0.12099334 0.013102544 -0.038078513 -0.0016814935 0.040083062 0.034091935
0.02080094 -0.00778523 -0.059320655 -0.028128143 -0.00046386835 -0.013435596 0.031094136 0.004152024
0.019216232 -0.010794258 0.04139487 -0.0022344433 -0.054334164 -0.015309524 0.017631885 -0.024331292

fc1.bias f4 [10]
00000000: 105e 3c3d 00a1 943d 32ee 3abd 4dde 863c
00000010: 6ff3 0fbd d347 24bd f8cc dcbb 956c 68bd
00000020: f5e6 c33c 7543 62bb
0.045988142 0.07257271 -0.045637317 0.016463423 -0.035144266 -0.04010756 -0.0067383014 -0.056744177
0.02391384 -0.003452507
