result/mnist/seed12/noniid_0.8/ratio_0.5/final.pt (torch, 75941 bytes, 6 tensors)

cnn1.weight f4 [16, 1, 5, 5]
00000000: 7110 40bd 58bd 0bbe 125e 1dbd 038e 643d
00000010: dce6 263c 26c3 3fbe 6765 aa3c 0a3e bdbd
00000020: cc68 0e3e 6e7d e73d 9771 26be f729 823d
00000030: 0ee7 973d 4db6 cb3d 26ee 8b3c 7a93 1cbe
00000040: cf71 633e c689 343e b656 0fbe 0ed6 d9bc
00000050: df91 c63d 402d 0dbe 248d eebd f598 123e
00000060: 5f7f ed3d 34a4 cebd 36a1 d0bd f2ce 343c
00000070: be99 a53c b5f0 573d b5e8 45bd f695 e93d
00000080: 760c d8bd cdd6 d5bd 64cc a5bd 5200 19be
00000090: 4594 e03c 1e19 17be d8d6 17be a441 093e
000000a0: 8032 9e3d b582 1abe 8207 aebd 370a 1fbe
000000b0: ad59 cd3d a662 fabc 4e77 a53d 015f 24be
000000c0: 6f24 90bd 0fa8 793e a7c5 353e 4a92 7e3e
000000d0: 068c 1c3e 322f 863e 66fd 773e 85b3 2bbe
000000e0: b3df d5bd ff54 993e 0951 583e 24e1 9a3d
000000f0: 5eb6 ec3d 498b 3abe fba9 323e da73 243e
00000100: 1a33 c63d ab42 1ebd d29c f8bd 4d07 193d
00000110: 1678 283e 71a0 a53d 7acc 4dbe c3f2 5ebe
00000120: 355e c0bd b999 30be 233d a0bd f5eb 883d
00000130: bbc6 1dbe 3ff6 493e dcd7 033d a8f9 b83d
00000140: 7b09 983c ef52 13be f58d 0e3e 4e15 82bd
00000150: 2915 aa3b 41be e63d 099f 3e3c 57e2 553e
00000160: 8467 42bc 2844 283e 77d6 453d 5dda 143e
00000170: cf06 403d d4cf 66bd 4ea5 eb3d 8aae 5f3d
00000180: d10c 29be ee7b 37be 3e2a 4dbe 3785 773e
00000190: 5f72 fd3c 5033 253d 6614 3c3d 1b57 c0bc
000001a0: d135 483e 406d 193e dd23 e7bd c1fc fb3d
000001b0: 0486 3e3e 8d96 ff3c f105 883c e600 143d
000001c0: 2e0f 28be 2a5d f4bd ada2 563e 245a 5cbe
000001d0: b3de 363c 0729 53be 6300 90bd 8405 7ebc
000001e0: 51ac 94bc 11e0 f8bd c8a2 8b3d fdb1 113d
000001f0: b900 2bbe 5030 603d 7982 833e e396 723e
00000200: 3795 acbd f6b1 e43d 51d7 febd 9565 7a3e
00000210: 2dcb 073e 3b69 a33d 54f2 19be 966c a7bd
00000220: b1bb 22be 3998 053e 91a5 1abe 4cbf 8cbd
00000230: b4e8 03bd 327e b63d 7923 923d 89fc 983d
00000240: 24c6 2a3e 6464 84bc 1ad1 b6bc ff09 89bd
00000250: 1eb0 2bbd 3071 26be c878 e73d 16b0 683e
00000260: 4d7b 3b3e e328 c93d a5e0 e2bd 9c24 2bbe
00000270: d19f 823e b04b 71bb 3e7c c6bd 050d 52be
00000280: c477 00be 63d4 f13d afd8 1e3e b0e1 57be
00000290: 3347 6ebe 31fb a4bc 2370 d5bd 91f1 283e
000002a0: c460 7cbd 17d8 5fbe 814c 4f3d 7088 323e
000002b0: aeef f73c 1a70 3ebe c5d1 fdbc 9cb2 33be
000002c0: 1d2f df3d b80e 2a3c 1bda 703d 6da2 43bd
000002d0: fec6 38be 4aa8 993d ced0 603e e39d 30bd
000002e0: b395 e3bd b602 2bbe 2dda 473c dd51 793e
000002f0: 7140 63bd 8fae aabd f871 0f3e 9a8b 05be
00000300: 19e3 803c 73b2 47bd 3366 65bc d414 efbd
00000310: ae39 bf3c 3a54 583d 7afb 683d 033c ddbd
00000320: b9d8 3f3d e50f 41be 6e15 8f3c e454 8b3d
00000330: d11d 41bd c6dc e1bc 2ecb f53a a309 313e
00000340: 8aab 833e a91c 3cbe b03e 3b3e fd5f 123e
00000350: 815e b33e 5d04 963e daff 72bd 5e60 7abd
00000360: 4b4b 4d3e 4bfc 673e 92ec 843e f15c 15bd
00000370: 9953 2a3d ab6c bdbd 6322 1dbe d94d 343e
00000380: 7b33 ed3d ee06 7f3e 490b 643e 438b d1bc
00000390: d657 43bc 0f1a 0d3e c3de 7c3e a33a 2abd
000003a0: 5904 a23e 0dda 683e 62b9 a13d ce12 3bbe
000003b0: 716d 6dbd 8ead 243e 26a7 be3d 537f 8a3d
000003c0: 6e0b 64be 7b55 83be fe7d 77be 26b9 4abd
000003d0: 8559 7bbd 13e4 45be 804d b53d 33d3 8ebe
000003e0: 5642 81be 6c82 74be 1f35 f0bd 5801 843c
000003f0: 4ddd f9bc 3a94 f73c 0a6d 1b3e fcde 26be
-0.04689068 -0.13646448 -0.03841979 0.055799495 0.010186877 -0.18726787 0.020800306 -0.09240349
0.13907164 0.11303221 -0.16254269 0.063556604 0.07417117 0.099468805 0.017081331 -0.15290633
0.22211383 0.17630681 -0.13997921 -0.026591327 0.096957915 -0.13786793 -0.11648014 0.14316161
0.1159656 -0.10089913 -0.101869985 0.011035668 0.020214912 0.05271979 -0.04831763 0.11405556
-0.10549252 -0.104413606 -0.08095625 -0.14941528 0.02741445 -0.14755675 -0.1482805 0.13403946
0.07724476 -0.15088923 -0.08497526 -0.1553124 0.1002687 -0.030564617 0.08079396 -0.16051866
-0.07038199 0.24380516 0.1775118 0.24860492 0.1528779 0.26207882 0.24217758 -0.167677
-0.10443058 0.2994766 0.21124662 0.075624734 0.11558221 -0.18217196 0.17447655 0.16059819
0.096777156 -0.0386378 -0.12139286 0.03736048 0.16452059 0.080872424 -0.20097533 -0.21772294
-0.093929686 -0.1724614 -0.07824161 0.0668563 -0.15407841 0.19722842 0.03218828 0.09031993
0.018559208 -0.14387105 0.1392134 -0.0635172 0.005190511 0.11266757 0.011634597 0.20887123
-0.0118655 0.1643225 0.048300233 0.14536424 0.046881493 -0.056350544 0.11506139 0.054609813
-0.16508795 -0.17918369 -0.20035645 0.24171911 0.030938325 0.04033214 0.04591789 -0.023479035
0.1955178 0.14983082 -0.11286137 0.12304068 0.1860581 0.031199718 0.016604396 0.03613367
-0.1641204 -0.11931832 0.20960493 -0.21518761 0.011161494 -0.2062112 -0.07031324 -0.015504245
-0.018148573 -0.12152112 0.068181574 0.035570133 -0.16699494 0.054733574 0.2568548 0.23690371
-0.08426898 0.11166756 -0.12443412 0.24452813 0.13261099 0.079790555 -0.15033847 -0.08175008
-0.15891911 0.1304635 -0.15102221 -0.068724245 -0.032204345 0.089107886 0.07135672 0.07470042
0.16677147 -0.016161151 -0.022316504 -0.0669136 -0.041916005 -0.16254115 0.11302334 0.22723421
0.18308754 0.09822252 -0.11078004 -0.16713184 0.25512555 -0.0036818795 -0.09691666 -0.20512779
-0.12545687 0.11808088 0.15512346 -0.21082187 -0.23269348 -0.020139309 -0.10421779 0.164984
-0.06161572 -0.21859775 0.05061007 0.1743486 0.030265655 -0.18597451 -0.030983815 -0.17548603
0.10897658 0.010379486 0.05880175 -0.047762323 -0.1804466 0.07502802 0.21954653 -0.043119323
-0.11112537 -0.16700253 0.012198013 0.24347635 -0.055481378 -0.08334076 0.1400832 -0.13041535
0.015733289 -0.048754167 -0.014001417 -0.116738945 0.023342934 0.0528147 0.05688045 -0.10802462
0.046837542 -0.1885372 0.017466273 0.06803301 -0.047147576 -0.027571093 0.0018752569 0.17288832
0.2571681 -0.18370308 0.18285632 0.14294429 0.35033038 0.29300204 -0.05932603 -0.06112706
0.20048253 0.22654836 0.2596174 -0.03646559 0.04158363 -0.092492424 -0.15345149 0.17607822
0.11582085 0.24904987 0.2226993 -0.0255791 -0.011922797 0.13779472 0.24694352 -0.041559827
0.31643942 0.2273943 0.07896687 -0.18268892 -0.0579657 0.16081831 0.09309225 0.067625664
-0.22269985 -0.25651154 -0.24169156 -0.049492978 -0.06136467 -0.19325285 0.088526726 -0.27895507
-0.25245923 -0.23877877 -0.11728882 0.016113922 -0.030501032 0.030222047 0.15178314 -0.16296

cnn1.bias f4 [16]
00000000: f0f1 06be 0127 93bc 43fd 11bd bcf6 e43c
00000010: 8d92 b5bd 802f 06bd ffd4 e63d c848 f93d
00000020: 70de eebd 7859 2b3d 2123 1d3e b291 1f3e
00000030: ff6a 8e3b 5ccc 36be 3346 a93d 3942 093e
-0.1317823 -0.017962934 -0.03564192 0.027949683 -0.08865843 -0.032760143 0.112710945 0.12172085
-0.1166352 0.04183337 0.15345432 0.15582922 0.004346251 -0.17851394 0.082653426 0.13404168

cnn2.weight f4 [32, 16, 5, 5]
00000000: b9fc 1e3d 7b8f 1abd fcac 0fbd 1095 d1bc
00000010: 28cb 923c e45c 5dbd 46f7 1cbd d9df ebbb
00000020: 5a10 153c ad73 ce3b 06af 67bc 0006 ef3a
00000030: 4bc9 9dbc 157d 333d 0d81 f13c a81d cebc
00000040: 9679 c43c 006c 6a3c c288 103d 2cbb 36bc
00000050: 0f7a 9c3c c69e c039 556e a3bc fe4d 183d
00000060: 5d6d 38bd 6769 54bd 27e7 793c f03d 993c
00000070: f29f 933c a001 4d3c a8cb a93c ca66 cf3c
00000080: 0232 c2bc 168a b53c 87b3 d83c c621 bfbc
00000090: 1a6a 753c 024c 1a3d 5604 603c a0b3 83bb
000000a0: 34b8 d4bc fd08 173d 1180 043d d6ff 563c
000000b0: 9ff3 13bd 56bf 753c 7f67 a03b fc69 ebbc
000000c0: 9ed8 61bc b10a 4fbd bb3f 4f3d 7a1f 2e3c
000000d0: 61a9 d93c 875f 04bc 05aa 083a 1651 a03c
000000e0: f009 b63c 65e4 27bc 0c00 67bc d651 7bbc
000000f0: d6d7 963a 6734 afbc 1d90 6a3c 3edf 763d
00000100: da5a 77bd 75da 9d3c 1bf4 9ebc 90bc f33a
00000110: 09fc c0bc 8f57 00bd cbdf ff3b aea5 41bd
00000120: 17fd d73c b6ef 0c38 3539 cf3c 0ec1 9dbc
00000130: 3aaa 053d 676c 533c 7d11 fdbb d1a7 df3c
00000140: 8443 32bd 7006 cdbc 3b9c f0bc 5977 c0bc
00000150: aa74 92bc 16c4 9c3c 1fb5 23bd b489 6cb7
00000160: 4462 27bd 2d28 f1bc 9739 a13c 942a 7b3c
00000170: 65a3 563d ba10 05bc 8d4b 3cbd a217 e7bc
00000180: 4aef ec3c c241 a93c a38f 9d3c 1b6d 50bd
00000190: 944a 34bd 8c86 bd3c 39e5 7c3b ef26 0cbd
000001a0: a844 523c 7019 1ebc e35d 76bb 6734 ff3b
000001b0: 21f1 173d ec4c 3d3d cc49 d7bc 25cf 243d
000001c0: a2e2 d43c 4f72 a93c fd06 863c ed24 1fbd
000001d0: 39e5 a83c 4df7 10bb f5ff c5bc 2e7c dc3c
000001e0: 7970 03bd cb42 0abd a072 b1bc 78ef 073d
000001f0: 2711 523d c00a f23c cd46 a9bc 8e96 e13c
00000200: 0c5c 69b9 4da0 0c3d 6d7e 3f3c a7e5 ea3c
00000210: f7c6 9b3c 9b6f 62bd c0fa dabc 0806 0c3d
00000220: 1c20 2a3d d0f7 54bd 5633 213d 52da 39bb
00000230: e68f 3cbd a6c8 4cbd b61e 053d 0d21 0bbd
00000240: 835a f83b 7c56 2bbd d577 c53c 2b40 fbbc
00000250: 5479 cabc 60a0 363d b6ea 7cbc 8218 943c
00000260: 19a6 873c 151c d63c 6340 f83c 3208 cb3c
00000270: df10 333c 0e99 27bd b836 dbbc d32e 903b
00000280: 25b0 19bd c619 ac3c 5832 c93b e7d5 2c3d
00000290: d7c0 5f3d c2af 293d 966f fcbc fe3a f2bc
000002a0: 23d9 403d 2dd6 b5bc f5d9 dbbc b55b 88bb
000002b0: 292c 9e3c 7ac1 643c d49d 0cbd ec69 a6bc
000002c0: c10b 46bd 80b9 c2bc ee7b c6bb 605e a6bc
000002d0: acf9 1d3d ae96 da3b 0313 ba3c ec32 a23c
000002e0: b2c3 0c3d 6b63 893c 5443 0d3d 75cf 343d
000002f0: 90cb 4c3d 2239 28bc 69ba db3c 5ec9 d1bb
00000300: e65e 533c 2ce2 3e3d 8219 f2bc 8687 ac3c
00000310: 6308 b13b 41cb 013d 5eac 23bc 18ae 183d
00000320: 0d0c 023d 5419 1e3d 149a 5d3c 3f57 bb3a
00000330: 130c 553d 34e0 8d3c a71f 69bd c9ce 80bd
00000340: 0dfc 743d ba22 cabc bfe9 b1bc 9783 9fbc
00000350: 764d 173c 021e 9e3b 8a52 87bd 661a 2abd
00000360: 43c5 72bc 6766 333d 0d64 05bd 2741 c23c
00000370: 0cb6 e83c 176b bd39 e228 acbc d2c0 7cbd
00000380: 59cf 303c d0a6 01bc 299a 60ba 97ea 073d
00000390: 713b c7bc 6371 19bd 40ff ffbc e2e5 853c
000003a0: 5723 f33c 6465 f0bc 4501 25bd bb5e e03c
000003b0: be81 e33c f62e 53bc 9aa7 113d 37f1 b3bb
000003c0: ba79 42bd d458 873c 0834 953b ef7a ac3c
000003d0: a760 993c 3fcc 79bd 24e8 77bc 40d9 15bd
000003e0: b98c 0c3d 8e40 953c 8eb2 2ebd c274 48bd
000003f0: a8aa 50bd 1f4e 563c 237c b1bb db33 7cbd
0.038815234 -0.03773449 -0.03507708 -0.025583774 0.017919138 -0.054043666 -0.038321756 -0.0071983156
0.009098137 0.0063004107 -0.01414085 0.0018236041 -0.019261023 0.04382046 0.029480482 -0.025160626
0.023983758 0.014307976 0.035286672 -0.011153024 0.01910117 0.0003673939 -0.019950071 0.037183754
-0.045026172 -0.051858332 0.015252865 0.018706292 0.018020604 0.012512594 0.020726994 0.025317568
-0.023705486 0.022160571 0.026452793 -0.023331534 0.01497891 0.037670143 0.013672909 -0.0040192157
-0.025966741 0.036873806 0.032348696 0.0131225195 -0.036121007 0.014999231 0.00489515 -0.02873706
-0.013784556 -0.050547305 0.050597887 0.010627622 0.026570024 -0.008079416 0.0005213323 0.019569915
0.022221535 -0.010247325 -0.014099132 -0.015339335 0.0011508416 -0.021387292 0.014316586 0.060271494
-0.060389377 0.019269207 -0.019403508 0.0018595625 -0.02355768 -0.031333502 0.0078086606 -0.047277145
0.0263658 3.360185e-05 0.025295833 -0.019257095 0.032633044 0.012904263 -0.007723032 0.0273017
-0.04352142 -0.025027484 -0.029371371 -0.02349441 -0.017877895 0.01913647 -0.039967652 -1.4098758e-05
-0.040865198 -0.029438103 0.019680781 0.015329976 0.05240192 -0.008121664 -0.04597049 -0.028209511
0.028922696 0.020661239 0.01923353 -0.0508853 -0.044016436 0.023135446 0.0038588776 -0.034216817
0.012833752 -0.009649619 -0.0037592582 0.0077882293 0.037095193 0.046215937 -0.026280306 0.04023661
0.025986973 0.02068439 0.016360754 -0.038853575 0.020617114 -0.002212006 -0.024169901 0.026914682
-0.032089684 -0.033755105 -0.021661103 0.03318736 0.05128589 0.029546142 -0.020663643 0.02753761
-0.00022254902 0.034332562 0.011687857 0.02867396 0.019015772 -0.055282217 -0.026730895 0.03418544
0.041534528 -0.051994145 0.0393556 -0.0028358889 -0.04603567 -0.04999604 0.03249999 -0.033967067
0.007579149 -0.041830525 0.024104992 -0.030670246 -0.024716057 0.04458654 -0.015436819 0.018078092
0.016558694 0.026136437 0.03030414 0.024784181 0.010929315 -0.04091745 -0.02675949 0.004400113
-0.0375215 0.021008383 0.0061400346 0.04219618 0.054627266 0.04142738 -0.030814927 -0.029569145
0.047082078 -0.022196854 -0.026837328 -0.004161323 0.019308167 0.013962144 -0.034330204 -0.02031418
-0.048351053 -0.023770094 -0.006057254 -0.020308673 0.038568184 0.0066707944 0.022714144 0.019799672
0.034366317 0.016771039 0.034488037 0.04414316 0.04999882 -0.010267528 0.026822286 -0.0064021787
0.0129010435 0.046602413 -0.029553179 0.021060716 0.005402611 0.03168798 -0.009989826 0.037275404
0.031749774 0.038598374 0.013525505 0.0014292969 0.052013468 0.017318822 -0.05691495 -0.06289441
0.059810687 -0.024674762 -0.021717904 -0.019471927 0.009234777 0.0048253546 -0.0660754 -0.04152908
-0.014817539 0.04379883 -0.03256612 0.023712708 0.02840712 0.00036128677 -0.021015588 -0.061707325
0.010791623 -0.007913306 -0.00085678935 0.033182707 -0.024320336 -0.03746165 -0.031249642 0.016344968
0.029679937 -0.029345222 -0.040284414 0.027388921 0.027771827 -0.012889614 0.035560228 -0.0054914015
-0.04747937 0.016521849 0.0045533217 0.021054713 0.018722845 -0.0609858 -0.01513103 -0.03658414
0.03431389 0.018219259 -0.04265075 -0.048939474 -0.050944 0.013080149 -0.0054164096 -0.06157289

cnn2.bias f4 [32]
00000000: 5833 ecbc 5505 a43c 9966 62bc 8e58 0cbd
00000010: 973b aa3c 9cbc 2ebd ca8a a1bc 7bbc 49bd
00000020: d116 1f3d 6ae6 50bd 41b2 063d 610b c53c
00000030: 644e 1b3c 5310 d9bc e0b9 d73b ffde 36bc
00000040: cc2b 5c3c 8f3b 45bd 3e15 0c3d e58d fabc
00000050: b01d ea3c 89c6 17bd 5df3 773c 99ae 1f3d
00000060: d041 45bb 90cd 7dbc 9496 62bd 283d 47bc
00000070: 029c 8dbd b5fe 133d 35aa c33c a77c c23b
-0.028833076 0.020022074 -0.0138184065 -0.03426414 0.020780368 -0.04266034 -0.0197195 -0.049252015
0.03884012 -0.05100099 0.03288484 0.024053277 0.009479139 -0.026497042 0.0065834373 -0.011161565
0.013438176 -0.048152503 0.034199946 -0.030585239 0.02857861 -0.037054572 0.015133706 0.03898487
-0.0030099042 -0.015490904 -0.055319384 -0.012160577 -0.06914522 0.03613158 0.023884872 0.00593527

fc1.weight f4 [10, 512]
00000000: be62 c2bc 3cd9 1bbc e084 cf3c 4bcc 98bc
00000010: 3a5a 643c 3889 f8bc 1008 0abd 0bf0 ab3d
00000020: 30a8 4fbd 7608 02bd 8dfb bcb9 ed8c af3d
00000030: a5aa aebc 81f7 7fbc 8f18 03bd 5647 b7bc
00000040: 9d75 2b3c d8c1 9cbd 39d5 8f3b 82ac b23d
00000050: acf6 9ebb 2614 51bc c2a1 873c 0b1c 733d
00000060: fc93 dc3c 9b8c a8bc 687d d1bb 344b 3d3d
00000070: 0211 883d b604 c83c 652b ce3c 58d6 913b
00000080: ac5c f1bc 6ca8 5137 1021 3c3d 5ee1 96bd
00000090: 5124 e1bc 316e afbb c4eb 0fbc 4ead 78bd
000000a0: 0f2b b3bb 0c5d 29bd 292e f4bb 7469 103b
000000b0: e4b8 df3c a73f 57bc 8778 333d d979 a83d
000000c0: 352c 9f3d baec f83c e6e1 133c f66c 353d
000000d0: d43f 6d3d 34da a63d 371b a53d 9621 493c
000000e0: 16a9 f03c 5d7b fa3c 834e 8b3d db23 a83b
000000f0: 9f0b 583d 8df4 903d 5825 5d3c 4e14 383d
00000100: 093e 853d 734c ab3d b30d 903d 2fe3 26bc
00000110: d177 833d 49a5 de3d e423 903a d867 d73d
00000120: e82a a73d fcf8 8e3d ae30 a83d 4435 4c3c
00000130: f8ce 583d 2823 b53d 79ef 463d ab89 2e3d
00000140: 134a 313d c29a de3b 60f8 483d 70d7 ec3b
00000150: 64b6 27ba 531b 133d 707c 80bd 4fdd 70bd
00000160: 032b 25bd 4ccc 8bbd e06c fa3c 2e14 d03d
00000170: a699 04bd cf04 c6bc b942 a33c 0aae af3d
00000180: 716a 043d 180a 543d 0352 343d 5250 3c3d
00000190: 98b9 133d b981 a03c 7bf3 99bd eb12 ce3c
000001a0: 3812 27bd c164 62bd 70da 6a3d cfa3 84bb
000001b0: 5afe e0bb fd9d 6bbd 99a3 403c da43 4bbd
000001c0: a8b8 99ba 35be 8e3c 4e77 1a3d 507a 2a3d
000001d0: 8567 1b3d 69d3 44bd 8c22 db3c 9ed9 0abb
000001e0: 967a ad3d f3f4 aa3d 72e9 103c 176e 1ebd
000001f0: 8ee9 903c fd88 493c abbd f03c 19e6 d7bc
00000200: 1589 15bc 85d6 48bd 0b40 693c 08cb 033c
00000210: 2fc4 c6bc 3049 85bc 19ff 84bd 4871 e73c
00000220: 524f 11bd 2d18 49bc 6210 37b8 5dbf e7bc
00000230: 1969 9e3c 72e1 48ba 1f5a 1bbd 6716 babc
00000240: 6dfb 923c 6b47 9b3d 33fd 543d 7653 b13d
00000250: 00e3 c9bc 4ada 133d 2ec3 a13d c9ee e73c
00000260: 26eb 633d 2ad3 9d3d 2fac 663d 831a 853d
00000270: aa69 103c 0127 fb3c 1906 943d e5be 1e3d
00000280: cd17 39bc 2c59 d3bc fe3a 01bd 9526 273c
00000290: adea 403d 5e7e d13b 7af9 1dbd a501 cc3d
000002a0: 6faa 043e 9898 9e3d edc3 91bd 741c 9b3d
000002b0: 223a f63d d3bd b53c 5881 afbc 0d1e 29bd
000002c0: 4118 ab3b 6faa 4e3c 8340 6f3c 0732 2d3d
000002d0: 7430 b0bc 1197 ec3c f7c5 78bb 8da5 673d
000002e0: d1d7 963c e311 15bc 01fb 12bd d0b2 ed3b
000002f0: bc7e a73c aa51 523c 0c5f 613d f1e6 cf3c
00000300: d192 d4bc cb5d 22bd 9afd 3a3c 8757 83bd
00000310: 224f b5bc 28f3 c439 0d2b 1ebd 81a2 90bd
00000320: 08ec b73c 2ed2 9b3c 66c1 87bc 1ee0 13bd
00000330: 6201 1cbd f979 e3bb b295 063d 74e0 a83c
00000340: 591a d3bc 28c8 83bd 89fc e6bc 5639 ab3b
00000350: 31f4 c63c 36f8 523d 1594 3dbc f9fa f0bc
00000360: c90e 893b b3eb 1c3e 379f 21bd ac01 adbc
00000370: 36b1 3fbc c008 ce3c 971d 103d 7e0b 9abc
00000380: edca aabc bf0d 83bb b51a 22bc 134e 85bd
00000390: 1228 a3bc 84f9 f03c 2088 28bc d3ce 69bd
000003a0: 86e1 7e3c 735c 18bc 7c89 2bbe b147 11bc
000003b0: c2bf fabc 06f8 a83c 18be 163d 91e9 933c
000003c0: 9e31 fb3c b35c 0a3c 0886 5cbd de2f 93bc
000003d0: 03cc 6f3c b093 21bb cb04 2b3d 911b 0a3d
000003e0: 8857 973c afa9 5cbb e50d 5b3d c18d 9a3c
000003f0: a19c 10bd 5ccf 9cbb 9275 403c 0f4e 9abb
-0.023728725 -0.009512242 0.025331914 -0.018652102 0.013937527 -0.030338868 -0.033699095 0.08395394
-0.050697505 -0.03174635 -0.00036045574 0.08571801 -0.021321604 -0.015622974 -0.032005843 -0.022372883
0.010465053 -0.0765416 0.004389432 0.087243095 -0.004851183 -0.012761151 0.016556624 0.059352916
0.026926033 -0.020574858 -0.0063931234 0.046214297 0.06643869 0.024416309 0.025167176 0.0044506006
-0.029463135 1.24965845e-05 0.04592997 -0.07367204 -0.027483137 -0.005353712 -0.008784238 -0.06071215
-0.0054677795 -0.041348502 -0.007451792 0.0022035511 0.027309842 -0.0131377345 0.043816116 0.082263656
0.07772104 0.030386318 0.009026026 0.044293366 0.0579222 0.08147088 0.080618314 0.012276074
0.029377501 0.030576402 0.06802084 0.0051312274 0.052745458 0.07077894 0.013497673 0.04494124
0.06505973 0.08364191 0.07033863 -0.010186001 0.064193375 0.108713694 0.0010997024 0.105178535
0.081624806 0.06981084 0.0821241 0.012463871 0.052931756 0.08844596 0.048568223 0.04261176
0.043283533 0.006793351 0.049064994 0.0072278306 -0.0006397723 0.03591473 -0.062737346 -0.058804806
-0.040324222 -0.06826076 0.030569494 0.10160099 -0.032373093 -0.024172215 0.019929277 0.08578117
0.032328073 0.05176744 0.044023525 0.045975037 0.036065668 0.019593107 -0.07517143 0.025155505
-0.04078886 -0.055271868 0.057337224 -0.004047848 -0.0068662586 -0.057523716 0.011757755 -0.049625255
-0.0011728005 0.017424682 0.037711434 0.041620553 0.03794052 -0.04805318 0.026749872 -0.002118684
0.08470647 0.083475016 0.00884472 -0.03867921 0.017689493 0.012300727 0.029387316 -0.026354836
-0.009126921 -0.049032707 0.01423646 0.008044012 -0.02426347 -0.01627025 -0.064939685 0.028252259
-0.035476036 -0.01227383 -4.3645858e-05 -0.028289491 0.019337224 -0.00076629885 -0.037927743 -0.02271576
0.017942155 0.07581981 0.051999282 0.08658497 -0.024644375 0.03609685 0.07898556 0.028312104
0.055644177 0.07706292 0.05631655 0.06499197 0.008814255 0.030658247 0.072277255 0.03875627
-0.011297178 -0.025799356 -0.0315504 0.01020207 0.047098804 0.006393238 -0.038567998 0.09961251
0.1295564 0.07743949 -0.07117448 0.075737864 0.12022807 0.022185242 -0.02142398 -0.041288424
0.005221397 0.012613877 0.014602783 0.042284038 -0.02150748 0.028880628 -0.0037959793 0.056554366
0.018413456 -0.009098503 -0.035883907 0.007253982 0.020446174 0.012836853 0.055022284 0.025378676
-0.025948914 -0.03964023 0.011413002 -0.06413179 -0.02213246 0.000375652 -0.038615275 -0.07062245
0.022451416 0.01902112 -0.016571712 -0.036102407 -0.038087256 -0.0069420305 0.032857604 0.02061484
-0.0257694 -0.06434661 -0.02819659 0.005225341 0.024286361 0.051506244 -0.01157095 -0.029416548
0.0041826707 0.15324287 -0.03945848 -0.021118961 -0.011699965 0.025150657 0.03518447 -0.018804308
-0.020848716 -0.0039994414 -0.009894063 -0.06509032 -0.019916568 0.029415853 -0.010286361 -0.05708201
0.015556699 -0.009299385 -0.16751665 -0.00886719 -0.030609015 0.02062608 0.03680238 0.01805571
0.030663308 0.008444953 -0.05383876 -0.01796716 0.0146360425 -0.002465468 0.041752618 0.033717696
0.018474355 -0.0033670475 0.053480048 0.018866422 -0.035305623 -0.0047854614 0.011746781 -0.0047090123

fc1.bias f4 [10]
00000000: 81ae ac3d 8014 9fbc 1c6f 703c f5e8 17bd
00000010: 130d be3c 35c0 b0bd 3bc4 1c3d 8819 9abd
00000020: 4ca8 df3d 4fdf a4bd
0.084317215 -0.019418955 0.014674928 -0.0370874 0.023199594 -0.086304106 0.038273077 -0.07524401
0.10920772 -0.08050405
