result/mnist/seed12/noniid_0.4/ratio_0.5/final.pt (torch, 75941 bytes, 6 tensors)

cnn1.weight f4 [16, 1, 5, 5]
00000000: cad0 6fbd 4b64 17be 13d8 30bd 89f0 753d
00000010: 76b5 f63b 85a9 4abe 3e5f 803c cef2 acbd
00000020: 0460 253e 69c2 013e e086 2cbe 02f9 993d
00000030: e33d b83d ebc8 e93d 85f4 4e3c ec5a 13be
00000040: a819 753e c5b1 343e f893 1fbe de46 5bbd
00000050: 0cba d93d d946 fcbd f08d 01be 74ee fa3d
00000060: bf4d d73d 52c1 ddbd 87c5 debd 279e e83b
00000070: f603 be3c b805 843d 8681 7ebd faaf c43d
00000080: f458 edbd 2b50 e4bd d9d8 b0bd 17de 27be
00000090: 1098 3e3c b967 1ebe 44e6 1cbe 1abb 033e
000000a0: 2fbb 913d 399f 24be 0640 bbbd 84a5 23be
000000b0: ca49 c93d 3ed5 02bd bbb8 933d b2c3 28be
000000c0: 5306 8ebd aa39 803e 6031 193e eae3 7b3e
000000d0: eb6a 213e c3d0 873e d25a 733e afe0 41be
000000e0: 67b7 d2bd e124 9f3e 300c 643e 4082 a03d
000000f0: 7246 ae3d ab7e 55be f867 163e 8f86 183e
00000100: 79c0 d03d fed9 9abd e95c 20be 34bf 433b
00000110: a6b4 283e c76c ca3d 51a4 74be 7c05 80be
00000120: bcc7 01be 2deb 39be 4b33 57bd 97a6 6f3d
00000130: 3499 20be 993c 453e 8914 d33c 29bd a83d
00000140: 89c7 273b aee2 18be c81f 053e dc5d 98bd
00000150: 8547 f2bb 46f3 df3d 12b0 893c 7d8d 4f3e
00000160: b6a5 a2bc b0f0 233e ebd1 843d bf32 203e
00000170: bf04 223d 9a17 79bd 4125 f73d bc92 443d
00000180: 0749 36be 95d3 44be 3c71 54be 4a0f 783e
00000190: caee 0c3d 5e18 803d cb92 c13d 1719 e23c
000001a0: 7548 663e 010a 2c3e 5b01 a4bd a17a 293e
000001b0: e92c 633e dde2 493d 0c15 4f3c bb5a 033d
000001c0: 15ad 34be 05da 0dbe 2eaf 4d3e 6fed 77be
000001d0: d17d 4bbc b473 6bbe 24f1 d2bd 1fe6 dfbc
000001e0: 1cc2 14bd 433b 07be b867 453d 5cdc 4d3c
000001f0: 4828 32be 9ae0 503d a83a 883e 52f6 823e
00000200: e694 90bd 0b59 f93d f73a 0dbe b0b8 763e
00000210: 35e8 0e3e ac52 ae3d b843 22be 1a16 e4bd
00000220: b633 28be 8919 103e b641 1abe f1c3 a5bd
00000230: 81f7 6abd e129 a93d da63 9f3d 5352 903d
00000240: db81 1f3e e112 cfbc 8005 90bc d050 67bd
00000250: 8603 07bd fb3c 29be f98f e83d f1d6 6b3e
00000260: 10b3 553e a2fe f13d 96d6 d3bd 18ce 26be
00000270: 7503 913e 8de0 013d 4111 b7bd b06f 57be
00000280: 351b 02be 6f04 163e f5ac 3e3e 40c8 58be
00000290: e540 77be bc0d 8fbc 6eb7 a8bd 08e5 313e
000002a0: c33b 95bd d53e 6bbe 96ea 323d 1815 373e
000002b0: ffa4 323d 2e3f 35be 8c0e 97bc 6c85 38be
000002c0: 8b0c de3d 0a6f d03b b1bd 613d 3c2d 4fbd
000002d0: e047 3bbe c251 9b3d 0195 603e a937 30bd
000002e0: d479 edbd 087c 2fbe b423 0f3c 9453 7b3e
000002f0: 0ab2 70bd 5455 b6bd b0eb 043e 9c38 10be
00000300: 2261 173c 1933 50bd c842 97bc cccf 00be
00000310: 592a 543c f30c 433d acee 633d 9a53 d8bd
00000320: 3b86 4b3d 2688 3dbe 49af 3f3c 39b8 623d
00000330: 2c16 82bd 48b6 25bd dbe6 06bc 05b8 353e
00000340: a472 853e 331a 4dbe 91fc 283e 42bd 093e
00000350: 96a6 bd3e 6d2f 9c3e 33ba 9abd e6cd 7bbd
00000360: 070b 423e d8f0 5c3e 5c23 863e 82be 32bd
00000370: 3a03 e03c 7bc5 f7bd c634 3ebe a9e2 2f3e
00000380: 17d3 f83d 3c63 8c3e 31d6 843e 9e38 913b
00000390: a3c6 4fbb 68c5 0c3e 0f22 8d3e 84f3 1b3c
000003a0: 57a8 b03e 12ff 703e 2984 b53d 854f 44be
000003b0: 0cd1 7ebd 408c 0d3e ebb4 933d fb1b 593d
000003c0: 2a00 82be eff6 9abe db46 96be 8f8c b7bd
000003d0: 3135 cdbd b01c 68be caf5 133d 10f7 a5be
000003e0: 9aaa 92be 5da4 89be 2555 f8bd c63b 1f3b
000003f0: bbfa 34bd 82b6 673c 2419 123e 5b3d 2bbe
-0.058548726 -0.14784352 -0.043174814 0.060043845 0.007528956 -0.19791229 0.015670415 -0.08444749
0.16149908 0.12671818 -0.16848326 0.075181976 0.08996179 0.11415275 0.01263154 -0.14390153
0.23935568 0.17645939 -0.1558379 -0.05353438 0.10631189 -0.123182006 -0.12651801 0.122525126
0.10512876 -0.108278885 -0.10877519 0.0070989314 0.023195248 0.06446403 -0.062135242 0.09603877
-0.11589232 -0.11148103 -0.086351104 -0.16393314 0.011632934 -0.15469255 -0.15322214 0.12864342
0.071157806 -0.16076364 -0.09143071 -0.15981108 0.09828527 -0.031941645 0.07212969 -0.16480902
-0.069348 0.25043994 0.14960241 0.24598661 0.15763442 0.2652646 0.23765114 -0.18933366
-0.102888875 0.31082824 0.22270274 0.07837343 0.0850953 -0.20849101 0.14688098 0.1489508
0.10192961 -0.0756111 -0.15660442 0.0029868605 0.16475162 0.09884029 -0.23890807 -0.25004184
-0.12673849 -0.18156119 -0.05253915 0.05850848 -0.15683442 0.19261397 0.025766628 0.082392044
0.002560111 -0.14930221 0.13000405 -0.07439777 -0.0073937797 0.109350726 0.01680759 0.20268817
-0.019854408 0.16009784 0.06485351 0.15644358 0.039555307 -0.060813524 0.120676525 0.0479915
-0.17801295 -0.19221337 -0.2074632 0.24224582 0.034407414 0.06254648 0.09451827 0.027599854
0.22488578 0.16800691 -0.08008071 0.16550685 0.221851 0.04928862 0.012639295 0.03206895
-0.1764415 -0.13852699 0.20086357 -0.24211667 -0.012420134 -0.22993356 -0.102999 -0.02733141
-0.03631793 -0.132062 0.048194617 0.012564745 -0.17398179 0.050995447 0.2660725 0.25578552
-0.0705965 0.12175187 -0.13792025 0.2409389 0.13955767 0.08511862 -0.15846145 -0.11137028
-0.16425976 0.14072241 -0.15064129 -0.080940135 -0.057364944 0.08259941 0.07782717 0.07046952
0.1557688 -0.025277557 -0.017580748 -0.056473553 -0.032962345 -0.16527168 0.113555856 0.23031212
0.20869088 0.118161455 -0.103436634 -0.16289556 0.2832295 0.03170829 -0.08938838 -0.21038699
-0.12705691 0.14650129 0.18620665 -0.2117014 -0.24145849 -0.017462604 -0.082381114 0.17372525
-0.07286789 -0.22973187 0.04368075 0.1787914 0.043614384 -0.17699882 -0.018439554 -0.18019646
0.10842236 0.006360893 0.055112544 -0.05058025 -0.18289137 0.075839534 0.2193184 -0.04302183
-0.115955025 -0.17137158 0.00873654 0.24543601 -0.05876354 -0.08902994 0.12980533 -0.14084095
0.009239467 -0.05082998 -0.018464461 -0.12579268 0.01294955 0.04761977 0.055647537 -0.10562821
0.04968856 -0.18508968 0.011699506 0.05535147 -0.06351885 -0.04045704 -0.008233751 0.17745979
0.26064026 -0.20029525 0.16502596 0.13451102 0.37041157 0.30504933 -0.07555046 -0.061475657
0.18949519 0.2157625 0.26198852 -0.043638714 0.027345289 -0.12098213 -0.18574819 0.17176308
0.12149637 0.2741946 0.25944665 0.004431798 -0.003170409 0.1374718 0.27565047 0.009518508
0.34503433 0.23534802 0.08863098 -0.1917096 -0.06221108 0.13823032 0.07212242 0.0530052
-0.2539075 -0.3026652 -0.29350933 -0.08962356 -0.10019911 -0.22667193 0.036123075 -0.32415056
-0.28645784 -0.26883212 -0.12125615 0.0024297102 -0.044184428 0.014142634 0.14267403 -0.16722624

cnn1.bias f4 [16]
00000000: 9b8b 07be 22ba b6ba 994c 14bd 9730 9d3c
00000010: 7359 90bd bc43 cabc d16a d73d 5bfb f93d
00000020: b9f9 fcbd 6101 7b3d e864 123e ff94 043e
00000030: 95fe 633c bd70 33be 410e d13d a45b f43d
-0.13236849 -0.001394097 -0.03620586 0.019188209 -0.07048311 -0.024690501 0.105184205 0.122061454
-0.12352318 0.061280612 0.14296305 0.12947462 0.013915678 -0.17523475 0.10207797 0.119315416

cnn2.weight f4 [32, 16, 5, 5]
00000000: a695 383d 0d32 04bd a55c 20bd 5845 c7bc
00000010: 3206 bf3c 5bdc 58bd cf63 22bd f556 debb
00000020: bcc5 893c 9340 503c 245e 87bc 39f3 5f3b
00000030: 99d8 86bc d431 433d cd0d f43c 941e ccbc
00000040: fcc1 ce3c cf68 4a3c dffa fd3c bf28 32bc
00000050: a7b9 be3c db8d 053a 42cd c6bc 8c7e 113d
00000060: 3580 45bd 7499 46bd af42 593c 991a 793c
00000070: d8c6 9c3c 26cc 583c f739 ae3c 7811 c33c
00000080: b34e bbbc c218 d13c 738b be3c 08d5 acbc
00000090: b72b 803c 0097 233d c257 723c a765 bebb
000000a0: 3058 cbbc 1dc7 1a3d 4ae6 0a3d 7830 523c
000000b0: 116a 19bd 40b8 733c 09be b83b cee8 eabc
000000c0: 92c0 60bc 8ef3 4dbd b9b6 663d 42df fa3c
000000d0: d70d 093d 0fa1 a83b ad3c 723c f165 ee3c
000000e0: ebb4 f63c 0a94 14bc 523a 7fbc 1abe a5bc
000000f0: 4e7f a6ba dcf0 c0bc d857 1b3c 7848 713d
00000100: 9551 85bd e816 2e3c 6b4a cfbc bb3c 15bb
00000110: c0f1 e9bc 7fa8 25bd b1b2 833a 29a7 5fbd
00000120: feb7 c83c 0116 afbb 526b c23c 646d 53bc
00000130: 5f41 2a3d d1bf 703c d1d3 b6bb b689 fe3c
00000140: 3881 25bd 0cbe c7bc 84bb fabc 05fc a7bc
00000150: 6c46 34bc c279 833c 2853 2ebd e272 bdba
00000160: 71ab 2fbd 0baf f8bc 77e4 5f3c eb01 5b3c
00000170: c570 583d 5223 c9bb 0b8b 30bd a862 fcbc
00000180: e220 c23c e885 833c c6ea 863c 0fbf 65bd
00000190: 0aa9 36bd cf0a d73c 3673 123c bead d9bc
000001a0: 1534 493c 123c 3139 338f 8a3b 2515 de3b
000001b0: 29ce 0c3d 82af 2c3d 353c b2bc e226 283d
000001c0: 469b df3c 1142 ce3c ef70 963c a403 2dbd
000001d0: 9045 953c 0f7a 84bb 06b5 dcbc a03d da3c
000001e0: 78ad 15bd b020 08bd 016c 99bc db30 213d
000001f0: 5080 7d3d 6988 c23c b005 38bc 48ca 073d
00000200: 1846 083b 6e53 543d 6c4c 5d3c 7014 123d
00000210: d416 bf3c 8fa6 5abd b20e 9dbc 6394 133d
00000220: da7a 2b3d bcd0 47bd 950e 383d a62f cf3b
00000230: ef14 59bd d9c1 55bd 12a6 063d 0dcb 05bd
00000240: 0367 9e3b 0aff 42bd 9bfd b83c 9781 02bd
00000250: ce42 cebc f164 323d 1dd4 99bc 215a d13c
00000260: 56f5 c93c ba59 b53c 54d5 4d3d 722c ea3c
00000270: a6c4 8b3c 6e8c 15bd d3c1 adbc 8e3b a13c
00000280: 19c4 10bd ccb8 9c3c c12c 303c 7b6a 673d
00000290: f538 8d3d 3758 163d 296c 05bd 40c4 f6bc
000002a0: c0b0 673d 1fb1 a4bc 5bab 06bd 4d54 bfbb
000002b0: 21ed 8a3c 5048 583c 7bd2 19bd 158b abbc
000002c0: 0dc0 25bd f684 c0bc 720b 01bc 8116 8cbc
000002d0: 3db8 223d 0736 323c c152 b13c 3e43 c03c
000002e0: 9f8c 2e3d 46f5 843c 7ec5 133d 7efc 3f3d
000002f0: 8bbf 673d fd60 babb 7332 d73c 2f6e bbbb
00000300: f199 683c e0d6 4e3d bf19 dfbc 59de bc3c
00000310: 8ef4 fb3b 7daf 073d 8681 1fbc 6a3a 0e3d
00000320: 252d 2c3d 6563 583d f0a8 243c 8630 3e3b
00000330: 8aa6 583d a0f4 9c3c 8881 71bd d519 89bd
00000340: c57a 6f3d 7598 b9bc 9c65 0cbd 5daf dfbc
00000350: 083e 4c36 d355 963b 1ff7 9fbd 9ad5 4fbd
00000360: 4d10 9dbc 7fe5 243d 5584 13bd 9351 993c
00000370: fce9 b53c d976 21bc ce94 eabc e66d 85bd
00000380: fa4c d3bb 057a 72bc 0c74 bb3b 6dc7 303d
00000390: ff8e b8bc 9c99 23bd 907b a7bc 2000 e63c
000003a0: 98a5 123d 00e9 16bd 0e95 4ebd e07b 1a3d
000003b0: 3f5b f63c f88e f3bb 6e44 2b3d 0b8b 42bb
000003c0: cbe5 50bd 7ee1 6c3c 38c5 e63b 5fdd c33c
000003d0: 3ec8 903c 70b9 86bd 2538 58bc 62d7 dfbc
000003e0: 0ee1 553d 1ba7 1d3d dfbb 17bd bc6a 25bd
000003f0: bd61 4dbd 58a9 363c 526d 0cbb 19fa 86bd
0.04506459 -0.032274295 -0.039150853 -0.024325058 0.023318384 -0.052944522 -0.039645966 -0.0067852684
0.01681792 0.012710708 -0.016524382 0.0034172072 -0.016460704 0.04765494 0.029791737 -0.024916925
0.025238983 0.01235409 0.031003414 -0.010873972 0.023281885 0.00050946855 -0.024267796 0.035521075
-0.04821797 -0.048486188 0.0132605275 0.015204095 0.019137785 0.0132322665 0.021267874 0.02381204
-0.022864675 0.0255245 0.023259854 -0.021097675 0.015645845 0.039938927 0.014791431 -0.0058104577
-0.024822325 0.037787545 0.033911027 0.012828939 -0.03745467 0.014875472 0.0056378883 -0.028675463
-0.013717787 -0.0502811 0.0563266 0.030624036 0.033460464 0.005146153 0.014784974 0.029101344
0.030115565 -0.009068498 -0.0155778695 -0.020232249 -0.0012702735 -0.02355235 0.009481393 0.058907002
-0.06509701 0.010625578 -0.02530404 -0.0022771794 -0.028557658 -0.040443894 0.0010047761 -0.054602776
0.024501797 -0.0053431992 0.023732815 -0.012904499 0.04156625 0.01469417 -0.0055794497 0.031071525
-0.040406436 -0.024382614 -0.030606993 -0.020505914 -0.011003118 0.01604927 -0.042559773 -0.0014453793
-0.04288811 -0.030356904 0.01366531 0.0133671565 0.05284192 -0.0061382437 -0.04310135 -0.030808762
0.02369732 0.016055062 0.01646937 -0.05609041 -0.044594802 0.026250271 0.008938601 -0.026572105
0.012280484 0.00016902413 0.0042284965 0.006777423 0.034376297 0.042159565 -0.021757225 0.041052707
0.02729572 0.025177987 0.018364398 -0.0422398 0.018221647 -0.004042871 -0.026941787 0.026640713
-0.036542386 -0.0332343 -0.018728258 0.039353233 0.061889946 0.023746686 -0.011231825 0.033151895
0.0020793732 0.051837377 0.01350699 0.035664022 0.023326315 -0.0533815 -0.019172046 0.036030184
0.041865207 -0.04878305 0.04493578 0.006322819 -0.05299848 -0.05218682 0.03287322 -0.032664347
0.0048340573 -0.047606505 0.022581866 -0.031861868 -0.02517834 0.043553296 -0.018777901 0.025555672
0.024653118 0.022137512 0.050252274 0.028585646 0.017061543 -0.036510877 -0.021210587 0.019681718
-0.035343263 0.019131087 0.010752858 0.056498032 0.06895629 0.036705222 -0.032573853 -0.030122876
0.056565046 -0.02010399 -0.03287826 -0.005838907 0.016958775 0.013200834 -0.037554245 -0.020940343
-0.040466357 -0.0235009 -0.007876264 -0.017100574 0.039726485 0.010877139 0.021645905 0.023469564
0.042614575 0.016230237 0.036077015 0.046871655 0.056579154 -0.0056878314 0.026269173 -0.005719922
0.014196859 0.05049789 -0.027233956 0.023055242 0.0076890653 0.033126343 -0.009735471 0.034723677
0.04203524 0.052829165 0.010050043 0.0029020621 0.0528932 0.019159615 -0.05896142 -0.0669438
0.05846669 -0.022655705 -0.03427659 -0.0273053 3.0434476e-06 0.0045878678 -0.078108065 -0.050740816
-0.019172812 0.040257927 -0.036014874 0.018715655 0.022206299 -0.009854996 -0.028635409 -0.06515102
-0.0064483853 -0.0147996 0.005720621 0.043158937 -0.022529123 -0.039941415 -0.020444661 0.028076231
0.035802454 -0.0368433 -0.05043512 0.037715793 0.030072806 -0.0074328147 0.041813307 -0.0029684927
-0.051000398 0.014458058 0.0070425533 0.023909269 0.017673608 -0.06578338 -0.01319698 -0.027324382
0.052216582 0.038489442 -0.037044402 -0.040384993 -0.05014204 0.011148773 -0.0021427465 -0.06590671

cnn2.bias f4 [32]
00000000: facb d5bc 8f07 953c e472 50bc 14e4 1abd
00000010: d2ee a33c 523b 35bd 4daf 76bc 0c08 54bd
00000020: 0717 263d 7b7e 3cbd 1e2f 083d 7657 c83c
00000030: fac7 cd3b 84d8 f4bc a72b 943b 8ac3 41bc
00000040: 32bd 683c 9083 3ebd ccb5 123d fbbf c8bc
00000050: a875 d53c 56c0 20bd c97b 933c 0874 0e3d
00000060: 7325 e9ba baa0 84bc c779 64bd 00b9 95bc
00000070: efec 94bd 1542 173d 31c6 c53c 0565 1f3c
-0.02609824 0.01819208 -0.012722705 -0.03781517 0.02001134 -0.044246025 -0.015056443 -0.051765487
0.040549304 -0.04601906 0.03324806 0.024455767 0.0062799426 -0.029888399 0.0045218053 -0.011826405
0.014205264 -0.046512187 0.035817906 -0.024505606 0.02605708 -0.039245926 0.018003361 0.034778625
-0.001778765 -0.016189922 -0.0557802 -0.018276691 -0.07271754 0.036928255 0.024142357 0.009728675

fc1.weight f4 [10, 512]
00000000: 41f2 0bbd 6014 14bc 1b4c b63c caa7 9bbc
00000010: ca00 d53b f0e0 12bd 830d 94bc 812a ad3d
00000020: 64eb a0bd 6031 10bd 4874 28bc c58f ab3d
00000030: c756 16bd c46e dabc 72a0 e5bc da76 aebc
00000040: d1bb bd3c ab22 7dbd 961f a938 ea40 b23d
00000050: b2bb ee3b a567 c33a 5d0d bb3c f039 733d
00000060: 9137 ec3c cd95 4c3b 9003 da3c c487 1f3d
00000070: 7ab8 913d e711 223d 8b7f 063d eed0 a2bc
00000080: 2d98 7fbc 1760 fb3a 550d 443d 3e9f a1bd
00000090: dcfc f2bc 543a c5bc 2155 3fbc 6174 81bd
000000a0: 4170 3cbc 9dc2 1cbd ff38 e6bb de56 40ba
000000b0: 0fa3 b7bb e642 cebb 4c4f 763d ae18 bb3d
000000c0: 6d43 273d 2f93 9cbb 79e7 4cbc 09ec 223d
000000d0: 3bcf 113d bba9 0a3d c6d1 383d 4a65 2bbc
000000e0: 8938 dc3b 646a 813c 7027 603d 0237 97bc
000000f0: 855b 69bb ca59 773d 9ffa 9c3c a5e7 463d
00000100: 2020 503d 4beb 843d 062c aa3d b850 2bbc
00000110: ea09 663d f02d c33d c6c3 b9bb 7d47 0c3e
00000120: e9c1 b13d f6f1 843d 16b8 5f3d 7b8a 653d
00000130: ec7f 4f3d eae4 cd3d 06e0 ec3c a2bb 3c3d
00000140: 7cd2 913d 746f 6eba cac8 863d 46ce a23b
00000150: eb94 2c3c 3132 323d 7d6c 3abc 84ff bbbd
00000160: 4285 7dbd e93a 8ebd 7431 0d38 5da2 b63d
00000170: 3013 0fbd 0bca b5bc f6cc 0d3c 6864 9c3d
00000180: 054e 223d 6dcf 593d e5e8 393d 84d6 873d
00000190: 9d37 213d 7f3d c23c cc7d b2bd dd40 ea3c
000001a0: 26d5 3dbd 3c59 7bbd c4f0 763d 06f4 453b
000001b0: 4cbd b23b 1327 4bbd e63e 793c 4124 50bd
000001c0: 4e3d 91bb 9cd4 f83b c173 453d 7e69 283d
000001d0: 8c2f 233d 945b 22bd df94 383d 8128 143c
000001e0: c146 af3d ab8e c33d e545 b13c fbc2 c3bc
000001f0: 1d39 c13c 0fe1 2c3d 0b99 293d f8aa b7bc
00000200: 273d 08bc 8ba4 80bd 5516 00bc c014 333c
00000210: e812 96bc 3d78 b1bc 8996 8dbd 5983 063d
00000220: d75e 30bd be99 0dbd 1224 b9bc 988d 1cbd
00000230: f31b 073d 76f3 89bb 176e 23bd 940e 21bd
00000240: a3bb ab3c 9d7f a93d 4fdf 213d 29cd ad3d
00000250: a9f4 c5bc 99ac 033d 23da 553d 4df3 803c
00000260: 68f3 7e3d 70bc b63d 1f5c 933d b239 963d
00000270: e0ec 0c3c 63e4 063d 1b1d b23d 7f24 3c3d
00000280: aded 57bc e71e 7ebc 3373 cdbc 9b23 113b
00000290: 2ee8 693d dccc 003d 6276 0fbd 1014 9e3d
000002a0: e8b2 093e 4ef4 b13d 75c4 8abd 6894 8d3d
000002b0: 822e ce3d 95e7 333c 74b4 5cbc d3c9 4fbd
000002c0: fcb0 5a3b 532d ec3b d58b 523c 366e 263d
000002d0: e2e5 f3bc ac3d 9c3c 995a 16bc 168c 433d
000002e0: aa26 2b3c 3d9f 93bb cc85 eabc a3b5 0f3c
000002f0: d920 9f3c d113 a13c e08a 653d cce8 d53c
00000300: 9ab7 bbbc 355a 46bd 1c72 04bc 160b 93bd
00000310: 646a 7abc 7fff c73b 6cbf 1abd d3f1 82bd
00000320: 54bc 1e3d 86f8 353d 1b07 cabc 105a 66bd
00000330: eb5a 22bd adbc 923b c766 9a3c 8a77 5c3c
00000340: 92c6 a5bc 1185 92bd 9009 c4bc 0c1b 37b9
00000350: 5f70 d23c b320 f53c 6924 fabb 5429 cebb
00000360: 9376 d93c 7c9b 393e 8038 39bd f2a6 a7bc
00000370: bfa7 c9bb 9c2d 0b3d b853 b23c 8d1b 0abd
00000380: 4f75 2cbc 8551 063c 25b8 03bc dbdc 89bd
00000390: 6711 a03c 0ee8 6b3c ed27 9abb 9881 6fbd
000003a0: fa2c 193c da11 c339 07da 1dbe 4809 c2bb
000003b0: adfb 6bbd 0179 053d 57c8 0b3d 36d4 383d
000003c0: 1fc8 013d efc9 463c a020 79bd 8b64 a8bc
000003d0: 3452 6f3c 6a41 adbb 99e9 ff3c c52d 293d
000003e0: 7537 363c 1083 e63b d1f0 793d 4fe8 283c
000003f0: cc8f 28bd 46e7 7539 aa4f 0b3c f029 503c
-0.03416658 -0.009038061 0.022253087 -0.019000906 0.006500338 -0.03585905 -0.01807285 0.084553726
-0.07857397 -0.035203338 -0.01028163 0.08377031 -0.03670385 -0.026664145 -0.028030608 -0.021296907
0.023160847 -0.06180064 8.064431e-05 0.087037876 0.0072855586 0.0014908208 0.02283352 0.059381425
0.02883509 0.0031217218 0.026613027 0.038947836 0.07115264 0.039567854 0.03283648 -0.019875016
-0.015600246 0.0019178417 0.047864277 -0.07891701 -0.029661588 -0.024075665 -0.011678011 -0.06321026
-0.011501373 -0.038271535 -0.0070258374 -0.0007337163 -0.005604155 -0.006294596 0.060134217 0.09135567
0.040835787 -0.004778288 -0.012506359 0.039775882 0.03559802 0.033853274 0.04512193 -0.010461161
0.0067206067 0.015797801 0.05472511 -0.018458847 -0.0035607528 0.060388364 0.019162474 0.048560757
0.050811887 0.06490191 0.08309178 -0.010456257 0.0561618 0.09530246 -0.00566909 0.13699146
0.086795636 0.06491463 0.054618917 0.05604027 0.050659105 0.100534275 0.028915416 0.046077378
0.07120225 -0.00090955873 0.06581266 0.0049684374 0.010533552 0.043504898 -0.011378405 -0.09179595
-0.061894663 -0.0694483 3.3663076e-05 0.08917687 -0.034930408 -0.022191068 0.0086548235 0.076363385
0.039625186 0.053176332 0.04538812 0.066327125 0.039359678 0.023710964 -0.087154 0.028595382
-0.046345852 -0.061364397 0.060288206 0.0030205264 0.005454695 -0.04959781 0.01521275 -0.050815824
-0.004432357 0.0075937044 0.048206095 0.04111623 0.039840266 -0.039638117 0.04506385 0.00904286
0.08558417 0.09548696 0.021639774 -0.023896685 0.023586804 0.04220682 0.04140572 -0.022420391
-0.008315361 -0.06281384 -0.007817824 0.01093024 -0.018319562 -0.02166378 -0.06913478 0.032840107
-0.043059196 -0.034570448 -0.022600207 -0.03822097 0.03298564 -0.004209931 -0.03989991 -0.039320543
0.020963496 0.082762934 0.039519604 0.08486397 -0.024164515 0.032147024 0.052209985 0.015741015
0.06224385 0.0892266 0.07195305 0.07335223 0.008601397 0.03293265 0.08696958 0.045933243
-0.013179225 -0.015510297 -0.025079345 0.0022146467 0.05710619 0.03144537 -0.035025008 0.0771867
0.13447154 0.086891755 -0.067757525 0.06913072 0.100674644 0.010980506 -0.013470758 -0.050729584
0.003336965 0.0072075515 0.012850721 0.04063245 -0.029772703 0.019072376 -0.009176874 0.04774102
0.01044623 -0.0045050667 -0.028628252 0.008771333 0.019424843 0.01966277 0.056040645 0.026111983
-0.022914696 -0.048425872 -0.008083846 -0.07179849 -0.015284155 0.0061034556 -0.03778021 -0.063937806
0.038753822 0.044426464 -0.024661591 -0.056238234 -0.039637487 0.0044780583 0.018847836 0.013456235
-0.020236287 -0.07154287 -0.023930341 -0.00017462316 0.025688348 0.029922819 -0.007633735 -0.006291548
0.026545798 0.18125719 -0.0452199 -0.020465348 -0.00615403 0.033979043 0.021768436 -0.03371768
-0.010526015 0.008198147 -0.008039509 -0.06731578 0.019539548 0.014398588 -0.0047044666 -0.0584732
0.009349102 0.000372066 -0.15415202 -0.0059215166 -0.057613064 0.0325861 0.034126606 0.045124255
0.03168499 0.012133106 -0.06082213 -0.020555755 0.014607001 -0.005287339 0.031239318 0.041303415
0.01112162 0.007034667 0.061020676 0.010309293 -0.04115276 0.00023451177 0.00850288 0.012705311

fc1.bias f4 [10]
00000000: 4585 943d aef7 b3bb 9061 37bc 652a d5bc
00000010: ab75 f33a 0874 94bd 5d40 af3c 32b2 78bd
00000020: 1592 e33d d634 75bd
0.07251982 -0.005492172 -0.011192694 -0.026021192 0.0018574496 -0.07248694 0.021392995 -0.060716815
0.11111847 -0.05986484
