result/mnist/seed12/noniid_0.8/ratio_0.3/final.pt (torch, 75941 bytes, 6 tensors)

cnn1.weight f4 [16, 1, 5, 5]
00000000: 042b 4cbd 7cad 0dbe f5aa 19bd 61a3 763d
00000010: 780f 983b 110b 3fbe a8ed b33c b12c babd
00000020: 903c 193e d49f 053e d6b7 28be 7a10 8f3d
00000030: f58e 9f3d 98fa db3d f352 f33c c7d4 18be
00000040: 3322 693e 3871 2f3e 6ce7 15be 7c74 1cbd
00000050: 381e cb3d 478f 0fbe 63ae fdbd b190 0b3e
00000060: c47a d53d 1819 c8bd 1c4a cbbd 2768 783c
00000070: b7a0 b63c 88c9 833d 6828 35bd 98f2 f53d
00000080: bddb cfbd 762e d5bd d1d2 a6bd ceaf 15be
00000090: 22ba f93c 1555 16be 8043 17be 877f 063e
000000a0: 6cd3 9d3d 1389 1cbe 5b6f adbd b1c8 1ebe
000000b0: eb43 bb3d 59e5 eabc 6582 a23d ba9d 23be
000000c0: bed9 90bd 4206 763e 2a62 393e d542 8b3e
000000d0: e9e7 493e 91e8 a43e 6911 9a3e ff5b 23be
000000e0: 66e0 acbd 7ba2 ac3e d6eb 823e ba5a 013e
000000f0: fbe3 023e 2972 21be b8ac 5f3e db30 483e
00000100: 17c1 fc3d 03a0 60bc dca6 a5bd 081f ae3d
00000110: 1beb 4e3e aa62 b93d e9f8 2dbe 517b 36be
00000120: b59d 6cbd 65c0 12be 8fb4 98bd bc15 623d
00000130: 31dc 23be 4ef1 4c3e 90c0 393d 6312 cf3d
00000140: 99d7 853c b431 19be e4de 0d3e cafa 79bd
00000150: 8271 e73a 0568 023e 203f be3c 2226 573e
00000160: c342 19bc ea92 273e 0912 703d 2142 123e
00000170: e8b1 133d 4321 68bd 9917 ef3d 05a7 433d
00000180: 02f3 3abe 8911 44be 41a2 4abe 7439 773e
00000190: d285 263d aa1a 733d eac4 9c3d 1240 053c
000001a0: b3b9 683e 665d 1f3e b58d c2bd c641 113e
000001b0: e1fd 4f3e fe25 373d 6ae3 643c 1dcc 193d
000001c0: 02e7 2cbe 7a87 06be 4ef4 4f3e 7beb 5fbe
000001d0: 3de2 1c3c 7146 5dbe d5f9 b1bd 62df d9bc
000001e0: b0da 97bc 7190 f9bd 9647 663d 0d33 9b3c
000001f0: b551 36be 51df 933d 6d43 913e 240d 853e
00000200: cb69 87bd d232 f73d 1339 ebbd ff3b 833e
00000210: e256 123e f7e6 ca3d faba 0ebe 5841 a1bd
00000220: d1e5 1abe d757 0c3e 5554 1abe bb58 78bd
00000230: f795 15bd 253f cb3d a4e3 a53d f6cb 983d
00000240: 0675 323e 8dac acbc 7851 16bc 7d66 6dbd
00000250: c4a9 1cbd 85c1 21be 8573 e93d 718c 713e
00000260: 2809 573e f3f6 e93d 566a d6bd 642a 1dbe
00000270: 084c 933e 7028 2e3d dc75 99bd 85a2 52be
00000280: 696a bfbd cce8 253e 2e38 4f3e 3280 4fbe
00000290: 82c1 6ebe e910 993c 709b 78bd 59a0 4f3e
000002a0: 86ad 5fbd 6263 56be 110f 933d 60c0 563e
000002b0: 76a2 813d 0dab 33be c873 47bc e62e 30be
000002c0: 7b1c ec3d 9879 903c 8a53 963d 3dc2 24bd
000002d0: 0441 32be 9c3a aa3d 73e2 643e 6602 01bd
000002e0: 455f dfbd d846 21be 82c4 b83c 50c2 7b3e
000002f0: 2fa2 7bbd 48b9 b5bd 4094 133e 60cb f6bd
00000300: c8f1 913c aace 58bd 85b7 47bc 5677 efbd
00000310: 89a2 003d 35cf 6f3d dba3 713d 26ff d2bd
00000320: 96fe 523d caf8 33be 1317 513d f813 bd3d
00000330: 15b9 0dbd 1ca9 98bc 3c1d b43c a72f 553e
00000340: 3939 903e 3661 28be 9d4b 3e3e 7b98 273e
00000350: b99d bf3e d342 a23e d3fe 15bd 289e 77bd
00000360: 4abb 533e 4bc8 6e3e 2645 913e e885 78bc
00000370: 1964 123d 9cc8 d3bd 1618 1dbe 0b18 423e
00000380: d189 053e 48aa 973e 108b 883e 0d10 073b
00000390: 9447 9fbb ac69 0e3e cf24 893e aa42 683b
000003a0: 8926 b43e 3410 823e 0558 cb3d 3abb 3abe
000003b0: a28a 3fbd 366d 353e c64c e73d 5a83 b93d
000003c0: fbda 63be 4977 85be 3adc 7cbe bc8c 6bbd
000003d0: 5551 77bd 21af 39be 3d76 b73d 88c3 92be
000003e0: 684c 8cbe 3f57 80be 1729 f5bd 6eaa 18b9
000003f0: e78c 40bd 8ebb e93c 57ac 243e d46e 2abe
-0.04984571 -0.1383571 -0.037516553 0.060214404 0.004640516 -0.18656565 0.02196391 -0.090905555
0.14964509 0.13049251 -0.16476378 0.069855645 0.07790939 0.10741156 0.02970264 -0.14924918
0.22766952 0.17133033 -0.14639062 -0.038197026 0.09917873 -0.140195 -0.12386777 0.13629414
0.10423806 -0.09770411 -0.099262446 0.015161551 0.022293432 0.064349234 -0.044227988 0.12009162
-0.101493336 -0.10409252 -0.08145679 -0.14617845 0.030484263 -0.14680894 -0.14771843 0.13134585
0.07706341 -0.15286665 -0.08468505 -0.15506245 0.09143814 -0.028673815 0.07935027 -0.15978137
-0.07072781 0.24025825 0.18103853 0.27199426 0.19717373 0.32208684 0.30091408 -0.15953062
-0.08441238 0.33717713 0.25570554 0.12632266 0.1278228 -0.15766205 0.2184323 0.19549887
0.123415165 -0.013710025 -0.080884665 0.085020125 0.20206873 0.09052022 -0.16989483 -0.17820479
-0.05776759 -0.14331205 -0.07456314 0.05519651 -0.16001965 0.20013925 0.045349658 0.10110929
0.016338157 -0.14960366 0.13854557 -0.061030187 0.0017657729 0.12734993 0.02322346 0.2101064
-0.009354296 0.16364637 0.05861095 0.14283039 0.036058336 -0.056672346 0.11674423 0.047766704
-0.18256763 -0.19147314 -0.19788457 0.2414301 0.040654965 0.0593516 0.07654746 0.008132951
0.22727089 0.15562972 -0.09499685 0.14185247 0.20311691 0.044713967 0.013970235 0.037548173
-0.16884997 -0.13137618 0.20308039 -0.21867172 0.009575424 -0.21608903 -0.0869023 -0.026595775
-0.018536896 -0.12185753 0.056220613 0.018945241 -0.17804606 0.072203286 0.28371754 0.25986588
-0.06611975 0.1207024 -0.114854954 0.2563171 0.14290956 0.09907334 -0.13938513 -0.078737915
-0.1512673 0.13705383 -0.15071233 -0.060631495 -0.03651997 0.09924153 0.0810006 0.074607775
0.17427453 -0.021078372 -0.009174697 -0.05795907 -0.03824784 -0.15796478 0.11398987 0.2358873
0.20999587 0.11424055 -0.10469501 -0.15348202 0.28768945 0.042519033 -0.07493183 -0.20569809
-0.09346468 0.16202086 0.20236275 -0.20263746 -0.23316005 0.018684821 -0.06069511 0.20276012
-0.054608844 -0.20936349 0.07180608 0.20971823 0.06329815 -0.1754572 -0.0121736005 -0.1720539
0.1152887 0.017636105 0.073401526 -0.040224303 -0.17407614 0.0831196 0.22352009 -0.031496428
-0.10906843 -0.15749681 0.02255464 0.24585843 -0.061433967 -0.0887323 0.14412022 -0.120505095
0.017815486 -0.052931465 -0.012189751 -0.116926834 0.031405006 0.058547217 0.058994155 -0.10302572
0.051512323 -0.17575374 0.051047396 0.09232324 -0.034600336 -0.018635325 0.021986596 0.20818959
0.28168657 -0.16443333 0.18583532 0.1636676 0.3742502 0.31691608 -0.036619972 -0.060453564
0.20676914 0.23318593 0.2837307 -0.0151686445 0.03573999 -0.103409976 -0.1534122 0.18954484
0.13040854 0.29622102 0.26668596 0.0020608932 -0.0048608277 0.13907498 0.26785895 0.0035440126
0.3518565 0.25402987 0.09928898 -0.18235484 -0.04676307 0.17717442 0.1129394 0.090582564
-0.22251503 -0.2606757 -0.24693385 -0.05750726 -0.0603803 -0.18133213 0.08958099 -0.28664804
-0.27402043 -0.25066563 -0.11970728 -0.0001455934 -0.047009375 0.028531816 0.16081367 -0.1664384

cnn1.bias f4 [16]
00000000: d2ef 03be 7a71 8dbc 9de2 a3bc f045 0b3d
00000010: f327 9abd 1289 98bc 2b64 e13d 8886 fa3d
00000020: 16ce dabd 4c66 213b 222a 2f3e b063 393e
00000030: 7e3c b1bb b18a 33be eb67 ae3d 4fef 193e
-0.12884453 -0.017266024 -0.020005519 0.034002244 -0.07527151 -0.018620048 0.11005434 0.12232691
-0.10683839 0.0024627624 0.17105916 0.18104434 -0.0054088226 -0.17533375 0.085159145 0.15032695

cnn2.weight f4 [32, 16, 5, 5]
00000000: 41bf 213d 4dd5 0bbd 12e2 f2bc 1bec 98bc
00000010: 7b34 923c 59f2 5bbd aeda 0cbd c68a a5bb
00000020: c469 d23b 4163 c53b d114 57bc cb0b 9d3b
00000030: 6f7e a7bc 9293 333d 08c8 083d af58 ddbc
00000040: 1ed6 e63c 3de8 833c 4db1 0a3d fc32 3abc
00000050: b50c aa3c 77bf 043c 56c6 8cbc 1e81 0e3d
00000060: 3900 3abd 8844 3fbd cb1a 903c 807a 823c
00000070: 46ae 993c a649 983c 088b c83c 64c8 fa3c
00000080: cb54 eabc 4f4a e43c 29c9 f33c 5d75 a5bc
00000090: 4235 b13c e43b 113d a36b 953c bc97 b139
000000a0: 6490 99bc 6c6f 373d 56e5 053d bc17 943c
000000b0: ae63 f5bc bc72 b23c 00aa 2f3c f9fe d5bc
000000c0: 494b 10bc 84bf 39bd c71a 5f3d bee0 583c
000000d0: a0a8 bf3c fc54 28bb cf45 5e3c de00 003d
000000e0: 2a92 f73c 65dc e1bb 8bf7 acbc 16a1 b0bc
000000f0: 9480 94ba acd9 cbbc efb0 913b 56d0 353d
00000100: a2b7 58bd 9136 a53c cdd8 69bc 8c82 243a
00000110: 38aa 30bd 9430 19bd 46b5 853b d121 28bd
00000120: 00d6 bb3c 1f8b 9dbc 33a6 223c 104c 3abc
00000130: cbb6 373d f94b 693c e10f 05b9 81a2 f53c
00000140: 6390 1bbd 46a0 a2bc 1136 07bd babc 88bc
00000150: faa3 87bc 89ac b33c 556c 1abd b38c 4ebb
00000160: dcab 1cbd fb25 c5bc b687 9e3c 7784 7b3c
00000170: 354c 553d 2838 b2bb 5578 3abd b86f f6bc
00000180: 2661 f53c ce53 ac3c 901b 843c 11b8 5dbd
00000190: 353d 2ebd 97b9 c93c fd56 b73b 8c29 12bd
000001a0: ff1f 303c fcb1 27bc 24be f4b8 95d5 f33b
000001b0: 229d 133d 8048 353d 928b e0bc c060 2e3d
000001c0: de47 b53c 36dd b43c 536a ab3c 47e9 21bd
000001d0: 3a2f aa3c 192e 05bc 01fe d0bc ecb8 023d
000001e0: 5061 09bd 9ecd 03bd b31b c3bc 1a9a ff3c
000001f0: e9b6 4a3d eca5 123d 21a6 77bc df02 d83c
00000200: 64e6 81ba ce8f 303d 81e6 a83c 3b70 133d
00000210: 6746 b53c 6973 53bd 8ddd cbbc d408 263d
00000220: 3b36 243d bb7c 44bd d37a 133d fe5a 9aba
00000230: 416f 27bd 63f9 51bd 39de 143d 0bde 1ebd
00000240: d2c1 b53a f1b4 27bd 1ae8 b53c f458 bfbc
00000250: ec41 d6bc d5cf 113d 21ad 9d39 212a f23c
00000260: 77d2 c33c c39e ee3c baf7 383d 25c0 413d
00000270: d624 d33c d281 10bd afb6 97bc ee09 113c
00000280: 0a06 a5bc d203 a93c 1b1a 6f3c 34af 1e3d
00000290: 14bc 5e3d d5ff 653d 10e8 e1bc 9804 91bc
000002a0: 0d2d 4c3d 2ad3 c4bc b0bb 5fbc d750 443b
000002b0: 4b91 133d cd73 b03c 85f2 12bd 5c57 7ebc
000002c0: 36de 26bd 4d56 a5bc 7a39 9dbb 91b1 58bc
000002d0: d2ee 2d3d 1ad7 343c 95da f63c f659 b73c
000002e0: 18a4 153d 9522 b93c f7ec 203d 5890 5f3d
000002f0: 58dd 3f3d f83e 0bbc 3627 0c3d 2161 10bb
00000300: 94a5 b83c 118b 403d b326 e2bc ec9d e93c
00000310: 5ff4 6b3c 7e8d 343d ce37 4abc ba78 0e3d
00000320: 3d61 3a3d 7962 603d 5117 933c 75bc c43b
00000330: 8505 443d c5fa e93c 999b 7ebd bb45 7fbd
00000340: 066b 413d c428 e0bc d8f1 91bc 7d21 bebc
00000350: 0d6d f33b 1e59 1dbc 9cc8 83bd 74ff 42bd
00000360: e629 a0bc 561c 303d 5065 57bd dd18 823c
00000370: 70e5 7f3c bdd0 063b 78e4 7fbc e01b 95bd
00000380: 3ade 33bb 5723 b4bb 4214 553c ef51 2e3d
00000390: f694 c4bc a771 1abd 13ba 0dbd 0049 b43c
000003a0: 8b96 1e3d 6933 b5bc a3c7 1ebd c8eb e03c
000003b0: 01b6 e33c f07b 2abc e00b 1f3d d1b4 673b
000003c0: c368 43bd 7f73 783c 92aa 9e3b 733c cc3c
000003d0: cf53 b43c ef3c 81bd 3893 29bc 937c 10bd
000003e0: 8921 0b3d 1ac3 353c d187 10bd bb11 33bd
000003f0: 349f 40bd 5058 a03c cdd1 ab3a 64c4 55bd
0.039489035 -0.034138966 -0.029648814 -0.018667271 0.01784729 -0.053697918 -0.034388237 -0.0050519435
0.0064212997 0.006023795 -0.013127522 0.0047926656 -0.02044603 0.043841906 0.03339389 -0.027019827
0.02817827 0.01610195 0.033860493 -0.011364695 0.020758012 0.008102289 -0.017184418 0.034791104
-0.04541037 -0.046696216 0.0175909 0.015927553 0.018759858 0.018589806 0.024480358 0.030613132
-0.028604886 0.027867464 0.029759007 -0.020197565 0.02163184 0.035457507 0.018239802 0.00033873122
-0.018745609 0.044783995 0.032689415 0.018077724 -0.029954758 0.021783225 0.0107216835 -0.026122557
-0.008807012 -0.04534866 0.054468896 0.013237176 0.023395836 -0.002568542 0.013566448 0.031250827
0.030221064 -0.006892728 -0.021114131 -0.021561187 -0.0011329823 -0.024884067 0.004446141 0.044388138
-0.0529095 0.02016762 -0.014272881 0.00062755565 -0.043131083 -0.037399843 0.0040804474 -0.041047875
0.022929192 -0.019231377 0.00992732 -0.011370674 0.04485206 0.014239305 -0.00012689784 0.029984714
-0.037979495 -0.019851815 -0.033010546 -0.016691554 -0.016557682 0.021932857 -0.03770097 -0.0031516969
-0.038249835 -0.024065962 0.019351821 0.015351406 0.05207463 -0.0054388233 -0.045524914 -0.030082569
0.02995355 0.021036055 0.016126424 -0.054130618 -0.04253884 0.024624629 0.0055950866 -0.035684153
0.010749816 -0.010235306 -0.00011670243 0.0074412324 0.036038525 0.044258595 -0.027410302 0.042572737
0.022128996 0.022078138 0.020924723 -0.03952911 0.020774473 -0.008128666 -0.025511744 0.031914636
-0.03354007 -0.032178514 -0.023816919 0.031201411 0.049490843 0.035802767 -0.015115292 0.026368557
-0.0009910581 0.043105893 0.020617725 0.035995703 0.022128297 -0.051623736 -0.024885917 0.040535763
0.04009078 -0.047970515 0.036005806 -0.0011776385 -0.040877584 -0.051263224 0.03634474 -0.038785975
0.0013866967 -0.040944044 0.022205401 -0.023357846 -0.02615448 0.035598595 0.00030074365 0.029561104
0.023904068 0.029128438 0.045158125 0.047302384 0.0257744 -0.035280056 -0.018519728 0.008852465
-0.020144481 0.020631704 0.014593626 0.038741305 0.054378584 0.056152184 -0.027576476 -0.017702386
0.04984765 -0.024026472 -0.013655588 0.002995541 0.036027234 0.021539593 -0.035875816 -0.015523758
-0.04073926 -0.020182753 -0.0047981115 -0.013225929 0.042464085 0.011037612 0.030133525 0.022381764
0.036533445 0.022599498 0.039288487 0.054581016 0.04684195 -0.0084989 0.034217082 -0.002203055
0.022539891 0.047007624 -0.027606344 0.028517686 0.014401524 0.04408025 -0.012342406 0.034783103
0.04550289 0.05478141 0.017955454 0.006003911 0.047856826 0.028561959 -0.06216011 -0.06232236
0.047221206 -0.027363189 -0.017815515 -0.023209328 0.0074287714 -0.009603767 -0.064347476 -0.0476069
-0.019551229 0.042995773 -0.052586854 0.015880996 0.015618667 0.0020571195 -0.015618436 -0.07280707
-0.002744569 -0.005497377 0.013005318 0.042558607 -0.023996811 -0.037706044 -0.034601282 0.022007465
0.038717788 -0.02211924 -0.038764607 0.02745618 0.027796747 -0.010405526 0.038829684 0.0035355578
-0.04770733 0.015164255 0.004842111 0.024931168 0.02201262 -0.0631045 -0.010350041 -0.035275053
0.03396753 0.011093879 -0.035285775 -0.04371808 -0.047026828 0.01957336 0.001310879 -0.052189246

cnn2.bias f4 [32]
00000000: 5f77 8ebc 6915 d33c 9d81 02bc ed64 1abd
00000010: d327 7a3c 2dcc f4bc 52aa 6ebc ded2 3cbd
00000020: 7aba 383d 5c94 3bbd 396c 1a3d 5c2e c33c
00000030: 2357 6a3c de3b adbc dad6 443c e3e3 04bc
00000040: 0f40 db3c 22d0 21bd 8508 423d b36d 99bc
00000050: ae49 203d 932f f3bc 9c12 b43c f226 563d
00000060: ca14 ac3b fd2d d9bb e894 3bbd 3047 26bc
00000070: e8b7 4fbd 2b0e 313d 1e6d e13c 7612 623c
-0.017390905 0.025767045 -0.0079654725 -0.037693907 0.015268284 -0.029882515 -0.014566975 -0.046099536
0.045099713 -0.045795783 0.037700865 0.023825817 0.014303002 -0.021146711 0.012014115 -0.008110973
0.026763944 -0.03950513 0.047371406 -0.018729066 0.039132766 -0.029685771 0.02198153 0.052283235
0.0052515017 -0.0066277967 -0.045796305 -0.010148808 -0.050712496 0.043226402 0.027517851 0.013798347

fc1.weight f4 [10, 512]
00000000: 7aa6 5dbc f08b 2c3a 674a a23c 0659 b4bc
00000010: 8a5d 953b eb91 8cbc a829 14bb abaa 8f3d
00000020: dce8 0abd b24b a9bc 72c4 013d 4550 2b3d
00000030: 6dbc a8bc 7a4b bfbc 8cee 86bc dbe0 1ebc
00000040: 0058 413c 71d8 afbd 2efc 043c 9bba 8e3d
00000050: 2a70 8bbc a0e3 e0bc 43e6 143d 6eac 5b3d
00000060: d433 313d 6804 a5bc 14a9 d2bc 8017 703d
00000070: 0aa4 a53d d861 9eba 73f6 3dbc 64b4 493b
00000080: 6fd6 f4bc b574 eabb bdc4 0f3d 28f5 60bd
00000090: 421b a1bc d173 22bb 6e65 1dbd 63d1 65bd
000000a0: 69e1 50bc 9652 8fbd a4cf 29bd 2c1d 0d3c
000000b0: a170 283c 8362 f8bc 86ed 1d3d 84dc a73d
000000c0: b4f9 9f3c c6fc c5bc 5e34 99bd a81a ac3c
000000d0: fa54 d03b 9786 0cbb 7f58 95bb 086e 03bb
000000e0: 9673 25bd c01d 0fbd 0483 963c d2d5 9fbc
000000f0: 9466 5abd d79a 973b 827e 6fbd e79f 0e3d
00000100: a739 f13c 28ff 293d 8f89 0c3d 59dc d1bc
00000110: 54fd c43c 0ca7 653d 422c 79bd dad9 013e
00000120: ec6f da3c 3a89 af3c 9f96 bd3c 3d1f 0f3d
00000130: 8784 9dbb a8c3 42ba 72c5 90bc 5d3d 093d
00000140: 1efd 103d 0a76 c6bb 677e 0d3d f189 6abc
00000150: ca8d a53c d2d8 c73c e1e7 cebd 9c1a 9cbd
00000160: 1287 12bd 107a fbbd 741e 353c 60df 3e3d
00000170: a29d 65bd 1802 0fbd f29d c63c 8111 893d
00000180: db25 863c e4ab 1f3d 1251 453d 516e 5b3d
00000190: 004a 0e3d c366 d93c 0135 7abd 9ca9 b33c
000001a0: 28bb 04bd 7adf 41bd f55d 3a3d d53a f73b
000001b0: b28a c0ba 9d02 eebc 1f1b dd3a b17e 55bd
000001c0: ba23 11bc 84e1 55bc 85e3 f23c 63fe 5e3d
000001d0: 8ed4 113d a694 71bd 069f df3c d119 0dbc
000001e0: b960 893d 90e9 c83d 45cb 633a 1065 3bbd
000001f0: 5b34 6b3c 5580 443c dd56 1d3d 38b5 e0bc
00000200: bff8 f4bb fd03 50bd 27a7 0c3d 2f13 ce3c
00000210: 515b b1bc 9625 b5bc 42c4 8bbd ec47 d03c
00000220: 3c61 e0bc 3f19 1bbd e404 97bc 7c3b 23bd
00000230: 72c3 c93c 154e c43c 7a7f 38bd e483 c7bc
00000240: 43ac bcbb d23a 473d d8d9 cb3c ded2 663d
00000250: 58e7 e6bc 24df 343c f322 273d 32e9 433c
00000260: 6ebc 323d c0fa 883d 14e1 123d 18da 2f3d
00000270: 11f3 3b3c ad68 ca3c 8f78 1e3d 6531 393d
00000280: 383a 4bbb 47b5 e0bb 5dac 89bd b202 d93c
00000290: 4984 b73c ed31 453c 1e5c 31bd 1b62 783d
000002a0: 22cb b13d 1e42 963d 050b 25bd 10a9 1b3d
000002b0: 4694 b53d 2cd1 0a3d ad49 923c 6fba 86bd
000002c0: 9eea 6f3c c7fa fb3b 7b07 9d3c be2e 343d
000002d0: 03fd f7bc b376 d63c 9b37 813a c782 3f3d
000002e0: 04a0 5eb9 b79d 40bc c242 08bd 9426 1a3b
000002f0: 666e 6e3c e59f 453c c51a 323d b61e cf3c
00000300: 7070 a4bc 7fb5 00bd bd97 a93c d222 1abd
00000310: f265 95bc 5d90 4f3c e582 25bd 852f b8bc
00000320: 6608 bc3c 44ce 0f3d 4e82 98bb f147 8ebc
00000330: c0c1 c9bc 93a9 c3bb c8f8 e13c 5ea3 fb3c
00000340: 9904 a8bc 05f3 32bd 07d0 31bb 2415 103d
00000350: 90f6 af3c 3e66 503d 3229 ad3b 98ab 963c
00000360: c354 83bc c8e2 033e 643d 1bbd 62ac 4e3b
00000370: 498e 6bbc f070 853c e243 c63c 3a10 fdbb
00000380: c4ce eebb 3441 cebc 284c 98ba adb8 5bbd
00000390: 05ef c8bc fd3e 3e3d 5711 cb3b 83fd 53bd
000003a0: 8600 133d 10a1 31bc 42af 21be b883 593c
000003b0: ad6c 47bd 9508 babb cde5 ee3c 915e e53c
000003c0: a7b9 4f3c 7545 60bc 5557 6fbd 0cbc dbbc
000003d0: c006 113c 3224 03bc 8f70 b63c 9729 b3bb
000003e0: 27f4 8e3c 1047 8abb ff39 263d 23df ab3a
000003f0: 2b43 3abd a029 27bc 3e5c 923c 4a80 56bc
-0.013528461 0.00065821316 0.019810868 -0.022015106 0.00455827 -0.017159423 -0.0022607837 0.07014974
-0.03391348 -0.020665977 0.031681485 0.041824598 -0.02059766 -0.02335142 -0.01647117 -0.009697164
0.011800766 -0.08586205 0.008116765 0.06969186 -0.017021257 -0.02745229 0.036352407 0.05363124
0.043262318 -0.020143703 -0.025715388 0.05861616 0.080879286 -0.0012083603 -0.011594403 0.0030777687
-0.029887406 -0.007155026 0.035099734 -0.0549213 -0.019666318 -0.002478827 -0.03842681 -0.05610789
-0.0127490545 -0.06998174 -0.041457787 0.008612912 0.010280759 -0.030320412 0.038556598 0.08196357
0.019528247 -0.024168383 -0.074806914 0.021008804 0.0063577862 -0.0021442526 -0.0045576687 -0.0020054597
-0.040393434 -0.03494048 0.01837302 -0.019511137 -0.053320482 0.0046266126 -0.058470257 0.034820464
0.029446436 0.0415031 0.034310874 -0.025617765 0.024046578 0.05606751 -0.060833223 0.1268076
0.026664697 0.02142774 0.02314311 0.0349419 -0.0048070583 -0.0007429668 -0.017672274 0.033505786
0.03539764 -0.006056552 0.034544375 -0.014315114 0.020209212 0.02439538 -0.10102821 -0.07622263
-0.035773344 -0.12279141 0.011054624 0.046599746 -0.056058533 -0.034914106 0.024245236 0.06692792
0.016375473 0.038982287 0.048173018 0.053572003 0.03473854 0.026538258 -0.061085705 0.021931462
-0.03240505 -0.047332264 0.04549976 0.007544855 -0.0014689772 -0.02905398 0.0016869045 -0.052122775
-0.0088586155 -0.013054255 0.029649505 0.05444182 0.0356031 -0.058979653 0.027297508 -0.008612112
0.067079015 0.098101735 0.00086896523 -0.045750678 0.014355744 0.011993487 0.038412917 -0.027430162
-0.007475942 -0.050785054 0.034339096 0.025155632 -0.021649988 -0.022112649 -0.068245426 0.02542492
-0.027390115 -0.037865873 -0.01843495 -0.03985165 0.024629328 0.023963014 -0.045043446 -0.024354883
-0.00575784 0.04864008 0.02488415 0.056353442 -0.028186485 0.011039529 0.040804815 0.011957454
0.04363673 0.06688452 0.035859182 0.0429326 0.011471526 0.024708116 0.038689192 0.045213122
-0.0031010043 -0.0068575474 -0.06722329 0.026490543 0.022401946 0.012035829 -0.04330074 0.060640436
0.08681323 0.073368296 -0.040293712 0.038003027 0.088661715 0.033890888 0.017857397 -0.06578528
0.014643339 0.007689807 0.019168606 0.04398989 -0.030272013 0.026179647 0.0009858491 0.04675558
-0.0002123118 -0.011756352 -0.03326679 0.002352153 0.014552688 0.012062048 0.04348256 0.025283199
-0.020073146 -0.03142309 0.020702237 -0.037630863 -0.018237088 0.012668696 -0.040408034 -0.022483597
0.022953223 0.03510882 -0.0046542054 -0.017368289 -0.02462852 -0.0059711426 0.027584448 0.030717548
-0.020510005 -0.043688793 -0.002713205 0.03517641 0.021479875 0.050878756 0.005284452 0.01839237
-0.016031628 0.12879479 -0.037900344 0.0031535854 -0.014377185 0.016289204 0.02420229 -0.0077228816
-0.007287832 -0.025177576 -0.0011619376 -0.053642917 -0.024528036 0.04644679 0.0061971354 -0.05175544
0.03588917 -0.010841623 -0.15789512 0.013276033 -0.048687626 -0.0056772926 0.029162312 0.027999194
0.01267854 -0.013688435 -0.058432896 -0.026823066 0.008851707 -0.008004235 0.022270469 -0.0054676044
0.017450405 -0.004219897 0.040582653 0.0013112765 -0.045474213 -0.010202795 0.01786625 -0.01309211

fc1.bias f4 [10]
00000000: cef8 833d 9659 8a3d 2ee2 b0ba 9e99 4dbd
00000010: 5732 debc 803c cebd 9165 413c ab9c a9bd
00000020: a76f 973d b4f5 7e3c
0.0644394 0.067553684 -0.0013495141 -0.05019533 -0.027123613 -0.10070133 0.0118040005 -0.08281835
0.07394343 0.01556151
