result/mnist/seed12/noniid_0.8/ratio_0.02/final.pt (torch, 75941 bytes, 6 tensors)

cnn1.weight f4 [16, 1, 5, 5]
00000000: 6659 3dbd c1df 0bbe fdc0 14bd c8fe 663d
00000010: db1e 5d3c 2fa7 36be ebac f63c 5f5b b9bd
00000020: d7bd 163e 0d67 093e 7c49 16be 0a8c 993d
00000030: ed0a 953d 92a6 dc3d 5a18 3e3d cb6f 17be
00000040: 2dee 5f3e c7a5 343e 2e0f 00be 49b4 a3bc
00000050: 9d14 af3d 5187 13be c4b9 e5bd 49a2 153e
00000060: ea52 ca3d 76c3 cfbd 4967 c8bd 1160 973c
00000070: 1bdf bb3c 2bba 6a3d bbee 49bd 8253 f53d
00000080: 324c cebd a0ec d9bd 8082 b2bd b5ca 1bbe
00000090: a784 e43c 493c 17be 5266 1abe fd24 fb3d
000000a0: 1b77 9e3d a1d1 1bbe ba85 b4bd 7409 24be
000000b0: f5a4 bb3d 8883 98bc f46b bf3d ec9b 1bbe
000000c0: 781b 78bd 194f 813e 9a2d 223e 64e7 7f3e
000000d0: f0c7 383e 3c9f 9e3e 4e3d 933e e572 29be
000000e0: ddbd c2bd f4c9 a63e 896f 803e ef0c 0e3e
000000f0: 8fe7 f53d 2e43 2dbe 85bd 4f3e 8c62 443e
00000100: 0d2a 123e 4f39 adbc 1004 c2bd d16d 833d
00000110: 83ee 333e af2f 973d da6d 28be 1e01 2bbe
00000120: a6df 4bbd d714 1bbe f2fc b1bd 78b0 533d
00000130: 6d1e 2abe 2d0e 3f3e 455c 4e3c a7ec 683d
00000140: 6b6d 173d 3bfb febd e73e 183e e15d 8fbd
00000150: 68b3 a5bc 5620 1b3e 2592 273d 8afc 603e
00000160: fed3 77bc 3547 1c3e 9bb0 973d 8bbd 283e
00000170: 28ad 733d 8ae0 3fbd 7987 e63d 8a03 8e3d
00000180: eed7 1ebe 2b08 2ebe aec6 46be 2611 6b3e
00000190: 6b24 223d df7e 733d 74db a93d ec6f 5f3c
000001a0: cb2a 6b3e 6b33 103e 5e7a d1bd 2de7 173e
000001b0: e4c1 583e baa1 423d 0efd ea3a 03e3 103d
000001c0: 8291 31be 3ce1 0abe a603 443e fc06 60be
000001d0: f66f 1a3c 9614 63be 8052 c7bd 1b9e 2fbd
000001e0: 3ca1 52bc 9cbb f7bd c91f 5e3d 10c3 663c
000001f0: 47b5 38be fc32 9d3d 569d 963e 952e 8a3e
00000200: 897a 7abd c3c2 dc3d ca38 d9bd cc09 8c3e
00000210: 9995 223e cd8d d53d 10a1 1bbe 6940 92bd
00000220: 83c8 17be 57aa 0c3e 3657 19be d3b3 93bd
00000230: 1601 19bd 8020 bb3d 0043 9a3d 37f6 8c3d
00000240: 27f8 263e 43c9 4abc 5224 3bbc a4d8 80bd
00000250: 64ea 3dbd ff02 2abe 6ee5 1c3e cb79 873e
00000260: a99f 573e b0c1 fc3d 4175 adbd d435 f9bd
00000270: 7f21 983e f2c5 023d 6298 91bd 9e52 49be
00000280: 17bf 9dbd 36c8 1c3e 00c8 473e 1e81 3ebe
00000290: 5a04 65be a236 ce3c a041 9dbd 3a72 483e
000002a0: 6ed3 18bd d5bc 4fbe 2832 8e3d a43d 3d3e
000002b0: 467d 053d 8435 44be 2874 fbbc 2fbd 26be
000002c0: 9cae 0c3e 5509 183d 7905 b63d 4698 ddbc
000002d0: 57e1 20be 3e2f d23d 4909 6d3e 571a 47bc
000002e0: 6c8b c0bd 677e 14be 5cca e63c 7983 7b3e
000002f0: ffbc 50bd 91eb aabd 9273 1c3e f7a8 f4bd
00000300: 959e 003c 8e3b 7cbd e1d9 6dbc 54ea d5bd
00000310: bbcd 1d3d 548e 443d 46d1 203d c8b5 f6bd
00000320: 8f27 433d 10a5 37be eb41 5a3d 7d16 cc3d
00000330: b043 1abd 1cca 1cbc fbbe 363d d10c 6f3e
00000340: 5993 9c3e b594 2abe 538c 4f3e 797d 4b3e
00000350: 863c d43e 9653 b63e 56ae a0bc 777f 57bd
00000360: a7d6 733e d9f9 8c3e a0c8 9e3e 8d5c e1bb
00000370: 1135 0e3d 06f1 a7bd 8b40 f8bd 9671 463e
00000380: dabb ec3d 7737 823e e4e2 6e3e 014e c1bc
00000390: 8a1f 21bc c088 123e de21 7e3e 3e88 abbc
000003a0: a174 ab3e aa2d 803e c0cd c23d 5ea3 34be
000003b0: cace 4cbd 3f94 2a3e 0878 d13d 5a0a a73d
000003c0: 62e4 57be 2451 83be aa91 80be d0b5 7cbd
000003d0: dc0b 4fbd 90c2 29be 3b37 d53d a983 8fbe
000003e0: e1ef 86be 9bb9 65be ec97 0cbe c9a2 8cbc
000003f0: 3ef4 8ebd 650b 0f3c 2c48 083e 322a 37be
-0.046227835 -0.13659574 -0.03631686 0.056395322 0.013496126 -0.17837213 0.03011175 -0.09050631
0.14720856 0.13418217 -0.1467647 0.074974135 0.072774746 0.10773958 0.046409942 -0.1478874
0.218682 0.17641364 -0.1250579 -0.019983428 0.085488535 -0.14407088 -0.112170726 0.14612688
0.09879096 -0.10144703 -0.09785325 0.018478425 0.022933533 0.05730645 -0.049299937 0.119788185
-0.10073127 -0.10640836 -0.08716297 -0.15214045 0.027895285 -0.1476909 -0.15078095 0.12262914
0.07737561 -0.15216686 -0.08814569 -0.16019231 0.091623224 -0.018617406 0.09346762 -0.15196198
-0.06057307 0.2525566 0.15837708 0.24990612 0.1804502 0.3098086 0.2875771 -0.16547735
-0.0950887 0.32575953 0.25085095 0.13872121 0.12007057 -0.16920158 0.2028714 0.19178218
0.14273854 -0.02114549 -0.09473431 0.0641743 0.17571454 0.07382142 -0.16448155 -0.16699645
-0.049773835 -0.15144669 -0.086908236 0.051681966 -0.16613169 0.18657751 0.012595241 0.056866314
0.036969583 -0.12450262 0.14867745 -0.07000328 -0.02022715 0.15149054 0.04091086 0.21971336
-0.0151262265 0.15261538 0.07406732 0.16478555 0.059491307 -0.046844997 0.11256308 0.06934269
-0.15512058 -0.16995303 -0.19411728 0.2295576 0.039585512 0.059447166 0.082938105 0.013637524
0.22965543 0.14082114 -0.10228418 0.1483428 0.21167713 0.047517516 0.0017928199 0.035372745
-0.17340663 -0.13562483 0.19142017 -0.21877664 0.009426108 -0.22175822 -0.097325325 -0.04287539
-0.012855824 -0.120963305 0.05422953 0.014084592 -0.18037902 0.0767574 0.29416913 0.26988664
-0.061152015 0.10779335 -0.10606535 0.27351224 0.1587738 0.10427437 -0.15198159 -0.071411915
-0.14822583 0.13736854 -0.14974675 -0.07212033 -0.03735455 0.09137058 0.075323105 0.06882899
0.163056 -0.012377086 -0.011422234 -0.06291321 -0.04636611 -0.16602705 0.15321895 0.26460108
0.21057 0.123416305 -0.0846963 -0.1216847 0.29713055 0.031927057 -0.07109143 -0.19660422
-0.07702463 0.1531075 0.19509888 -0.18603942 -0.22364941 0.025172535 -0.076785326 0.19574824
-0.03731101 -0.20286877 0.0694316 0.18480545 0.032590173 -0.1916104 -0.030695036 -0.16283105
0.13738483 0.037118275 0.088877626 -0.027050149 -0.1571096 0.10262917 0.23148073 -0.012152276
-0.094015926 -0.14501344 0.028172664 0.24561872 -0.05096149 -0.08345712 0.15278462 -0.1194629
0.007850309 -0.061580233 -0.014517278 -0.10445085 0.038526278 0.047987297 0.03926208 -0.12046391
0.047645148 -0.1793406 0.05328552 0.09965227 -0.037662208 -0.009569671 0.044615727 0.23344733
0.30581167 -0.1665829 0.20268373 0.19872083 0.41452426 0.35610646 -0.01961438 -0.052611794
0.23812352 0.2753437 0.3101244 -0.006877488 0.034718577 -0.082002684 -0.121216856 0.19379267
0.11559267 0.2543294 0.2332874 -0.023596765 -0.00983418 0.14309978 0.24817607 -0.020938989
0.33487418 0.2503484 0.095119 -0.17640445 -0.050001897 0.16658114 0.10227972 0.08156271
-0.21083215 -0.25647843 -0.25111133 -0.061696827 -0.05054842 -0.16578126 0.10410925 -0.28030136
-0.26354888 -0.22434084 -0.13729829 -0.017167466 -0.06980179 0.008730744 0.13308781 -0.1788719

cnn1.bias f4 [16]
00000000: ff75 07be 9e5b d1bb 063c e8bc c33a a43c
00000010: 3e71 93bd 2a49 afbc 151f d23d 10c2 003e
00000020: afbe d9bd c8b6 54bc aaec 2e3e 4f0f 1c3e
00000030: 3142 57bc 7b0b 2ebe eb55 ba3d de23 213e
-0.13228606 -0.0063890954 -0.028348934 0.020047551 -0.071993336 -0.021397192 0.10259835 0.12574029
-0.10632073 -0.012983032 0.17082468 0.15240215 -0.01313834 -0.16996567 0.09098419 0.15736338

cnn2.weight f4 [32, 16, 5, 5]
00000000: a09c 2b3d 1996 15bd 87b4 06bd 89f6 91bc
00000010: b258 763c 87a8 5bbd 5c16 0ebd 2da8 11bc
00000020: 93e9 b73a 8177 9a3b 0065 6dbc 522b 493b
00000030: 2908 f2bc 80a6 143d cc9a 0f3d 4692 cabc
00000040: 8edc e93c 5e03 2d3c 1619 0b3d c2be 1cbc
00000050: 69fc b63c e5ef f93b 9105 8fbc f39f 153d
00000060: 7e7f 2dbd 7396 40bd 2848 933c aa0f 533c
00000070: 8ed2 8c3c 796e a23c 9fa0 dd3c 700a e03c
00000080: 5318 02bd 93c2 ec3c 9e8e 033d 47e4 59bc
00000090: 7452 ab3c b1b3 1e3d 3af3 bb3c 417a a73b
000000a0: 64f3 84bc 95e4 383d e175 133d 033f bd3c
000000b0: fdbf cabc 746b aa3c 119a 4e3c 799e c5bc
000000c0: 5314 aebb cb49 28bd 62b3 933d 48a6 fd3c
000000d0: ef41 153d 4d67 f73b 3bef 863c 08c2 2a3d
000000e0: 5655 4b3d 9f58 2c3b d2af 64bc 9576 29bc
000000f0: 1297 23bb ac5a adbc 3f19 80bc 3ff5 2b3d
00000100: 979b 3cbd 8030 733c 3cee adbc 2a09 a5bc
00000110: 791d 44bd a93b 1ebd 899d 3c3c 6d38 09bd
00000120: f846 fd3c 7c8d 65bc 521c 7b3c b61b 61bb
00000130: d449 403d 3ac6 993c a39b f23b 6c58 f83c
00000140: 55f7 13bd 695d b7bc a930 fdbc 7327 b6bc
00000150: 88d1 a5bc abb8 b43c bd98 3abd 3178 3abc
00000160: fc0f 40bd cd25 cebc f525 aa3c e0ed 713c
00000170: bcff 393d 884d cfbb cc90 39bd 9607 bdbc
00000180: addf 223d 9e00 e23c 7c7d b93c 2c38 4fbd
00000190: 0e6d f6bc a8ee 153d 5e98 893c cd7e d0bc
000001a0: b7ec a43c a448 713b 0abb 453c d497 a53c
000001b0: e5c1 473d 456d 603d 923d bfbc 16fb 353d
000001c0: 7539 cc3c ce7f e83c 1f06 b53c 99f5 18bd
000001d0: bdf5 893c 931b 4cbc e866 e6bc a94c f03c
000001e0: f3cb d0bc 099c d2bc 73d3 a3bc 9a5a 023d
000001f0: 849a 513d 4f30 343d 074d d7bb 5661 0d3d
00000200: 12ca d83b b0b7 4f3d f2fb e33c ee7d 413d
00000210: 3b2d 0a3d e4f7 36bd f606 9dbc 7856 113d
00000220: 540e 303d 399a 4cbd 6969 f03c 6d1f f63a
00000230: ab3d 36bd c6ad 5abd 2938 e13c 8403 4cbd
00000240: b244 f13a 47dc 1abd 3ad4 e63c 916b aabc
00000250: 3407 e1bc 21f7 113d 0f27 09ba 934d 063d
00000260: 9887 003d 3642 073d 320e 493d 1f87 3b3d
00000270: ebb8 033d 34d3 c9bc f3f1 d3bc 7470 ec3b
00000280: a12d fdbc 3bf1 c93c a123 e53b 035a a13c
00000290: c107 643d 4650 533d 1659 f9bc c04b fcbc
000002a0: 0a46 0e3d b323 93bc b761 89bc 46bd 3cbb
000002b0: 8b41 fc3c cfe4 c53c e71e 0fbd cd35 82bc
000002c0: 9fcd 2cbd 2186 acbc e4bf 6cbb 5e14 48bc
000002d0: cac3 2a3d 7daa 783c d008 003d 48a3 a93c
000002e0: 8445 1d3d d208 9e3c be19 2c3d ba52 473d
000002f0: c381 1f3d faf5 f7bb b72d fe3c 7d9c ecb9
00000300: 21df 773c 0ba8 263d 1f6e ebbc 4736 f73c
00000310: f09b 843c 5c16 363d c38e 63bc d07d 013d
00000320: 77f6 663d 1208 8d3d 62a3 073d 991d cc3c
00000330: 6ea3 613d b5ca 813c 04d5 61bd 7b83 8ebd
00000340: 915f 1e3d f25f efbc 32cc e9bc 9a15 f5bc
00000350: 3396 94bc 3702 04bd 92d7 81bd 61d2 47bd
00000360: b477 4abc c4f1 073d 6345 57bd 7a7c 7f3c
00000370: dc10 c43c 72ce f33b 686c f4ba 1213 70bd
00000380: 05d7 6e3b 6da1 ae3c 93bd 073d ea1e 883d
00000390: 9936 973a 9d6e a4bc 4342 61bc ae86 393d
000003a0: db3b 853d 2f25 18ba 55b5 9dbc 4c90 023d
000003b0: b110 1a3d 4db9 40ba 9dc0 463d 4209 013c
000003c0: 4e8c 30bd 1fcf 9a3c 29bd 16b9 3566 8f3c
000003d0: 0f83 9c3c fc0d 40bd 7525 cf3b 9f1b bfbc
000003e0: 3ef5 113d 209b 873c 4524 10bd 1cd4 1ebd
000003f0: 806d 3fbd 2b47 c03c 756d 943b fcbd 7abd
0.041897416 -0.036520097 -0.032887008 -0.017817752 0.015035795 -0.053627517 -0.034689292 -0.008890194
0.0014031403 0.004713953 -0.014489412 0.0030695987 -0.029544907 0.0362916 0.035059735 -0.024727952
0.028547551 0.010559885 0.03395947 -0.009566965 0.022337155 0.0076274746 -0.017458709 0.036529493
-0.042357914 -0.04701848 0.017978743 0.012882153 0.017190244 0.019828068 0.02705413 0.027348727
-0.03176148 0.028901374 0.032118432 -0.0132990545 0.02091334 0.038745586 0.022943128 0.0051110093
-0.016229339 0.045139868 0.03600109 0.023101335 -0.02474975 0.02080319 0.0126099745 -0.024123417
-0.0053124814 -0.041086 0.07211949 0.030963078 0.036439832 0.007550156 0.016471496 0.04168895
0.04964193 0.002629794 -0.013957934 -0.010343214 -0.002496187 -0.0211614 -0.015637038 0.04198193
-0.04604682 0.014843106 -0.021231763 -0.020145971 -0.04787967 -0.038631115 0.011512169 -0.033501077
0.03091763 -0.014010783 0.015326576 -0.0034348792 0.046945408 0.01877128 0.0074038072 0.0303156
-0.036124546 -0.022383409 -0.030906992 -0.022235608 -0.020241514 0.022060713 -0.04555582 -0.011381195
-0.046890244 -0.02516451 0.020770052 0.0147661865 0.045409903 -0.006326381 -0.045304105 -0.023074906
0.039764095 0.027588185 0.022642843 -0.05059068 -0.030081298 0.036604553 0.016796287 -0.025451088
0.020132406 0.0036816979 0.012068519 0.020213999 0.048768897 0.054791708 -0.023344789 0.044428907
0.024929741 0.028381255 0.022097645 -0.037343595 0.01684081 -0.012457746 -0.028125241 0.02933343
-0.025487876 -0.025709169 -0.019998288 0.031824686 0.05117275 0.043991383 -0.0065704617 0.034516655
0.0066158855 0.050712287 0.027830098 0.047239237 0.03373454 -0.04467 -0.019168358 0.035482854
0.042982414 -0.049951766 0.029347138 0.0018777676 -0.044492405 -0.05338838 0.0274926 -0.04980804
0.0018407314 -0.03780773 0.02817737 -0.020803245 -0.027469255 0.03563607 -0.00052319554 0.032788824
0.031379312 0.033022128 0.049085803 0.04578316 0.032158773 -0.024636842 -0.025872206 0.007215554
-0.030905547 0.02465116 0.0069927727 0.019696241 0.055671457 0.051590227 -0.030437987 -0.03079784
0.034734763 -0.017961359 -0.016770227 -0.002879934 0.030792972 0.024156956 -0.03494158 -0.015894795
-0.042188283 -0.021060051 -0.0036125118 -0.012211887 0.041690625 0.015177366 0.031258404 0.020707741
0.038396373 0.019291315 0.042016737 0.04866288 0.03894211 -0.0075671645 0.031027658 -0.0004513002
0.015128882 0.040687602 -0.028739033 0.030177249 0.016187638 0.044454917 -0.0138890175 0.031614125
0.05638739 0.06886305 0.0331148 0.024916457 0.0550875 0.015843729 -0.05513479 -0.06958672
0.038665358 -0.029220555 -0.02853975 -0.029917527 -0.018138027 -0.032228675 -0.06339945 -0.048784617
-0.012357641 0.03318955 -0.052556407 0.015593642 0.02393382 0.0074403817 -0.001864803 -0.058611937
0.003644408 0.021317208 0.033139776 0.066465214 0.0011536657 -0.020072276 -0.013748708 0.045294456
0.06505557 -0.00058038806 -0.019251505 0.031875893 0.037613574 -0.0007351831 0.048523534 0.007875742
-0.043102555 0.018897591 -0.00014375582 0.01750479 0.019105462 -0.046888337 0.006321604 -0.0233286
0.03563427 0.016553462 -0.03519084 -0.038776502 -0.046735287 0.023471436 0.00452965 -0.06121634

cnn2.bias f4 [32]
00000000: 7128 1dbc 8d7c 053d 207a cfba d0d8 0dbd
00000010: 6bf0 093c c690 bcbc 3f76 8ebb 12d1 16bd
00000020: 79b8 403d 2f10 2fbd ae09 253d 9cd8 df3c
00000030: bd1b 973c 39d1 84bc 22d8 993c 6b89 7d38
00000040: 698b 053d e835 1ebd 5d1d 523d 896a 69bc
00000050: 5079 223d 4f87 9cbc 2241 b93c f118 4a3d
00000060: 0fdd 933c 9b51 303b 424d 46bd a8ff 7abc
00000070: 7c8d 2bbd 681f 563d f3f5 133d a5a5 f73c
-0.0095921615 0.032589484 -0.0015829243 -0.034630597 0.0084191365 -0.023018252 -0.004347592 -0.03682048
0.047050927 -0.042740043 0.040292434 0.027324967 0.018445844 -0.016213046 0.018779818 6.044788e-05
0.032603655 -0.038625628 0.051297534 -0.014246591 0.039666474 -0.019107489 0.022614066 0.049340192
0.018049745 0.002690411 -0.048413523 -0.015319742 -0.041882977 0.052276045 0.036123227 0.030230353

fc1.weight f4 [10, 512]
00000000: 8960 97bc 49ee 1939 c948 c93c 13f5 afbc
00000010: 7fc3 73bb 110b a7bc 4515 e6bb cc66 913d
00000020: 6094 5abd 2cbe d9bc 6e93 583c 503c 633d
00000030: c23c 1fbd 94ce 3ebc 9e12 26bd 211c ddbc
00000040: b029 a93c 3ca7 89bd 7a66 643c 645a 413d
00000050: 110d ccbc 1f84 34bd 3e3f 2c3d 1329 0c3d
00000060: b055 b23c a72d 29bd c30b 63bc 540d 893d
00000070: 8fa9 2c3d c82f 75bc 3e59 13bc b85d 193b
00000080: ded0 21bd ade1 88ba 3ae8 823d 9389 ccbc
00000090: 9075 fabc 61cd 4ebc 057d 24bd 7820 3bbd
000000a0: 1af8 0bb9 b5ee bfbd e532 24bd d4ce 833c
000000b0: 6d0c 0e3c 22b8 26bd 845b 2f3d fff6 b13d
000000c0: 9f1f b53c 877d 71bc 3fc3 84bd f654 453c
000000d0: e66f 50bc 028b afba 68bf dfbb 446a b93c
000000e0: e7ca 6cbd 7773 77bd ae13 823c 2011 24bc
000000f0: 1a28 7cbd 9b61 75bc 7b9a 86bd 5350 e53c
00000100: 73bf 0f3c c8c2 823d cfd4 783d 4c61 82bc
00000110: fe27 4e3c efeb 4d3d 7047 78bd 2c7d de3d
00000120: 0984 823c eabf c6bc 1d04 603c 1bd1 1b3c
00000130: 3d00 55bb 07d6 b6bc 07d5 f5bc 5580 d93c
00000140: 7a0b d83c 5ef5 db3c 0cb2 193d df8b 0abd
00000150: 7090 a53c c68d f33c 2a80 8dbd 7e4b 81bd
00000160: 33e8 64bc 16a4 d4bd 16dc 873c f3b9 883d
00000170: f486 11bd e5b6 8dbc 4896 703d 0ba1 bf3d
00000180: 4566 923c b97b 153d d2ae 213d 84c2 393d
00000190: e868 003d bb0c 063d f233 7bbd 5065 10bc
000001a0: 8778 55bd f87e 5ebd def7 193d 133c 533c
000001b0: 7f64 95bc 2e42 57bd 5535 2f3b fbdb 37bd
000001c0: 88c0 e0bc d8be edbc 8d97 8d3c 966b 893c
000001d0: a8df 253d 39da 0abd 0671 f23c 7665 57bc
000001e0: 0b5a 863d 6cbd 443d 88db 41bb 4b69 71bd
000001f0: a28b 873c 71fa 6b3c 04c2 0b3d 68a5 20bd
00000200: fe4f 0abc c545 3cbd cb7f 3e3d dc13 0e3d
00000210: 5556 cebc 7b16 ebbc 220c 7dbd 2f3a a63c
00000220: 5aa1 d5bc 0abe b0bc 150f dd3a 13da b6bb
00000230: ce15 b8ba 91d0 263c b1b1 2bbd 7154 ebbb
00000240: e316 04bc edcd f53c ae8e e7bb b064 463c
00000250: cc29 d6bc 8140 d0bb bc8e 0e3c 2716 90bd
00000260: 99b9 0d3d 3c5f 5e3d 61a5 633d 75d5 5dbc
00000270: aaae 9f3c 0b9c 0f3d 0fca a03c 16a7 3d3c
00000280: 12bd e839 534c f739 44f0 12bd 2256 1e3d
00000290: 7829 8d3c 5596 bd3b 6ce1 11bd 4342 3c3d
000002a0: 4b87 863d ee0b 843d e228 71bd f6b9 3a3d
000002b0: d6a3 963d ea70 f23c 6f76 34bc 32e3 69bd
000002c0: 4207 493b 1fa1 633c 3308 ba3c a056 373d
000002d0: 5536 28bd e620 c53c f227 bf3b 1695 193d
000002e0: 3303 88bb 5781 ffbc 4e08 23bd 0f2e acbb
000002f0: 4be5 de3b 4ce9 b63b f166 2b3d e8b2 ca3c
00000300: 631b a8bc c248 12bd 8f8a a53c 0262 07bd
00000310: f868 98bc cfd3 213b d2be 8bbc 685c 31bd
00000320: 1949 2d3d edf3 1f3d 9da7 55bb b0ea 12bd
00000330: ccee dabc d86a 223b e5d7 c83c dc2f c03c
00000340: dafd dabc cb8c 40bd 65b0 823b 1fb7 e53c
00000350: c20f 753c bda2 053d 27c1 2f3c 6ebf 6cbc
00000360: 98fd dfbc 41eb b73d 285f aabc b45f 86bc
00000370: 566e 87bc d82d 623c 1959 d43c 47d8 8dbc
00000380: 6df6 28bb ed66 43bc 3f8f 683c 558b 0ebd
00000390: 983c 2cbd b1dc 423d 503c 023b 2b70 d0bc
000003a0: 7b57 c23c 2770 69bc f6f1 e5bd dc07 f63b
000003b0: dafc 2bbd 0dd5 84bc 55ee 113d aa2e 023d
000003c0: 5078 5b3c 768d 06bc 67fa 71bd d941 8ebc
000003d0: dd64 1a3a 2c60 c2bc 3f1f e53c d733 e93b
000003e0: 5324 9e3c dbd3 47bb 08d4 523d fc5e 94bb
000003f0: 33fa 31bd de43 cdbb d283 113d 34e3 b7bc
-0.018478649 0.00014679985 0.02457084 -0.021479165 -0.0037195382 -0.020391019 -0.0070215785 0.07099685
-0.053364158 -0.026579939 0.013218744 0.05547744 -0.038876303 -0.011645932 -0.0405451 -0.026990952
0.020649761 -0.067213506 0.013940448 0.047205344 -0.024908574 -0.044071313 0.0420525 0.03421886
0.021769375 -0.041303303 -0.013857785 0.06691995 0.04215389 -0.014965005 -0.008993445 0.0023401808
-0.039505832 -0.0010443233 0.0639195 -0.024967944 -0.030573636 -0.012622208 -0.04015829 -0.04568526
-0.00013348498 -0.09371702 -0.0400876 0.016089834 0.008669955 -0.040702946 0.042811885 0.08689689
0.022109805 -0.014739401 -0.06482553 0.012044182 -0.012721991 -0.0013392868 -0.0068282373 0.02263368
-0.05781069 -0.06041285 0.015878525 -0.010013849 -0.06156168 -0.014976884 -0.065724336 0.027992403
0.008773672 0.06384808 0.060749825 -0.015915535 0.012582777 0.050273832 -0.060615003 0.108637184
0.0159321 -0.024261434 0.013672856 0.009510304 -0.0032501363 -0.022318853 -0.030008806 0.026550451
0.02637266 0.026850399 0.037523314 -0.033824798 0.020210475 0.029730689 -0.06909211 -0.06313227
-0.013971376 -0.103828594 0.016584437 0.06676092 -0.035529092 -0.017299125 0.05873707 0.093568884
0.017871032 0.036494944 0.039473362 0.04535152 0.031350046 0.032726984 -0.061328836 -0.008813217
-0.052116897 -0.054320306 0.0375899 0.012892741 -0.018236397 -0.05255335 0.002673467 -0.044887524
-0.027435556 -0.029021665 0.01728418 0.016774934 0.0404965 -0.03389952 0.02959491 -0.013146749
0.06560143 0.04803221 -0.0029580314 -0.058938306 0.016546074 0.014402972 0.034120575 -0.039220244
-0.008441923 -0.045964975 0.04650859 0.034686908 -0.02518765 -0.028697243 -0.06177915 0.020291416
-0.026077915 -0.021574993 0.0016865457 -0.0055801957 -0.0014044584 0.010181562 -0.041917507 -0.007181697
-0.008062097 0.03000542 -0.0070665693 0.012108967 -0.026142977 -0.0063553457 0.008701023 -0.07035475
0.034600828 0.05429004 0.05557764 -0.013539662 0.019492466 0.035060924 0.019627599 0.011575481
0.00044391357 0.00047168377 -0.035873666 0.03865636 0.017231688 0.0057857432 -0.03561537 0.04596163
0.06568774 0.06447588 -0.05887688 0.045587502 0.07355468 0.029594857 -0.011014565 -0.057101436
0.0030674492 0.013893395 0.022708988 0.044760346 -0.04106744 0.024063539 0.0058336193 0.037495695
-0.004150772 -0.031189604 -0.03980284 -0.005254514 0.006802236 0.0055820104 0.04184622 0.024743512
-0.020520872 -0.03571392 0.020207671 -0.033052452 -0.01860474 0.0024692898 -0.017058764 -0.043301016
0.04230604 0.039050985 -0.0032601126 -0.035868347 -0.026725195 0.0024782922 0.024517009 0.023460321
-0.026732374 -0.04700927 0.003988313 0.02804142 0.01495737 0.032625902 0.010727203 -0.014449937
-0.027342603 0.08980418 -0.020797327 -0.016403057 -0.016532104 0.013804875 0.025921391 -0.017315043
-0.0025781647 -0.011926395 0.014194309 -0.034800846 -0.042049974 0.04757375 0.0019872375 -0.02544411
0.023723355 -0.014247931 -0.11227791 0.007508261 -0.041989185 -0.016214872 0.03562768 0.031782784
0.013395384 -0.008212438 -0.059076693 -0.017365383 0.00058896636 -0.023727499 0.027969 0.0071167755
0.01930443 -0.0030491266 0.05147174 -0.0045279246 -0.0434515 -0.006264194 0.035526104 -0.022447206

fc1.bias f4 [10]
00000000: f6e4 1c3d df7e 5e3d 3e49 24bd cb48 713c
00000010: cf55 1fbd 7788 01bd 1c9c a1bb 43de 19bd
00000020: c5c5 de3c cbc4 28bc
0.03830429 0.054320212 -0.04010891 0.014726828 -0.038900193 -0.031624284 -0.0049319398 -0.03756548
0.027193913 -0.010300825
