result/mnist/seed12/noniid_0.4/ratio_0.1/final.pt (torch, 75941 bytes, 6 tensors)

cnn1.weight f4 [16, 1, 5, 5]
00000000: eec8 63bd 4103 16be 62d1 55bd 05c8 383d
00000010: d495 173c 9618 3fbe d1b7 c13c 3c3c c7bd
00000020: e123 133e 4317 113e e3c3 19be d4aa a53d
00000030: f78f a33d 8bdb ee3d ca03 3f3d c7cb 0ebe
00000040: 4bb1 663e 164d 343e 9e60 0bbe 3bbf 0bbd
00000050: 326a c13d e10d 11be 8162 f5bd 462c 083e
00000060: 4352 bb3d c47f d1bd fd9d ccbd 33d6 683c
00000070: 400f a73c 411c 6c3d c9db 55bd 2465 e73d
00000080: 6778 dabd 5267 e2bd c0dd b8bd 29eb 20be
00000090: b414 b93c ec56 1abe abf2 1dbe 0130 f43d
000000a0: 9091 913d 1406 1fbe b065 b8bd ad3b 25be
000000b0: 1313 b33d 4d0f bfbc e5c4 b53d 5361 1cbe
000000c0: bd3a 80bd d5d5 7f3e e1b0 133e ca02 7d3e
000000d0: 2f09 3e3e 0264 a03e 1e6c 953e bdb4 32be
000000e0: fde7 aebd 6602 b53e 71e8 8f3e 3be4 143e
000000f0: 0b41 fb3d 4c86 1abe efa8 613e 5001 4f3e
00000100: 2595 083e 44ab 3dbc dbb5 abbd 9f3f 923d
00000110: 0302 3f3e faf0 a63d 2a02 2cbe 8be9 3abe
00000120: 5852 81bd 5d4f 17be 04fe 99bd 9222 523d
00000130: 095a 2ebe c474 3f3e b551 953c c4a4 8c3d
00000140: 5833 9d3c c7f1 0dbe b58a 173e 1fee 8ebd
00000150: 1d9f 85bc 63ed 0f3e dd51 183d aaad 5b3e
00000160: d607 b4bc d832 1b3e bed6 b13d d10d 273e
00000170: c0bf 2c3d 45d2 80bd 201f f73d 0d9e 9e3d
00000180: 3cc7 21be f6b9 3abe f9ee 49be ab19 773e
00000190: 9f03 1a3d 5203 863d 6b0a c13d 249f e03c
000001a0: e831 753e e004 1c3e 6b01 bbbd 9c3e 243e
000001b0: 453a 613e 0ad5 543d c296 c839 1edc e23c
000001c0: 5d40 37be 8fb8 12be e84c 413e cf72 6cbe
000001d0: 1f0f ac38 dd33 67be b48c d7bd d21d 35bd
000001e0: d62e 9dbc 858d fdbd 5646 5d3d 08d9 383c
000001f0: 4e6a 39be 6003 933d 76ba 973e dc31 903e
00000200: efd3 56bd e406 e73d fd5f d2bd ffd5 8f3e
00000210: 59ce 313e 9162 d83d 2a5b 26be d19d a0bd
00000220: 2ab1 13be caba 193e b09c 15be 3570 aebd
00000230: dde5 3bbd 44cf bd3d c5f3 a63d ecbe 893d
00000240: bc80 193e 62a4 b7bc 63f9 10bc 46c9 58bd
00000250: 4c96 33bd ad0d 2fbe 3796 1e3e 2e8a 8a3e
00000260: 77b5 5b3e 221e f43d 1f1f b4bd 36ff eebd
00000270: d764 9c3e f2b9 113d 4403 9dbd 7bba 50be
00000280: 76ce a1bd 7b73 293e 5b49 4f3e 660c 47be
00000290: 4e94 73be 8125 a13c 9e7a 8dbd 5ca5 4b3e
000002a0: 052c 43bd 5653 5bbe b5ab 7b3d 678a 403e
000002b0: 92a5 3c3d b32d 3abe ec8a d0bc 0a39 2cbe
000002c0: 9616 fd3d 9f82 b23c 7abe 9e3d 8655 06bd
000002d0: fe7a 2dbe c31f b13d 1c83 5c3e 8810 ddbc
000002e0: 01b4 d4bd 12ad 1fbe 7dba ae3c ee5a 723e
000002f0: 3c74 77bd 060e b3bd 86fb 133e 81d6 febd
00000300: 9fc7 283b 0fb3 80bd 0950 9cbc d0c2 f0bd
00000310: dc7e db3c 4f45 3b3d af56 303d eaa2 f0bd
00000320: 8e27 423d 83d1 2abe eef2 8c3d 7c08 cb3d
00000330: 0aee 47bd 9974 1bbd e865 0c3d 3103 793e
00000340: 6fbb 9a3e 4f90 35be bea7 2d3e 89d5 3a3e
00000350: ae1a d73e 2625 b53e 8a79 42bd 194e 88bd
00000360: 0d1a 5a3e fcbc 823e 6514 993e 3a6f f4bc
00000370: 6225 0b3d c2b2 c4bd e97b 0abe ad57 4e3e
00000380: 7ac2 e73d 3c04 8b3e 0b30 813e e2f7 daba
00000390: 20b0 4d39 6b28 1f3e 80d5 883e c273 853a
000003a0: 6991 b43e 5e66 7b3e 25b2 bb3d 1806 3bbe
000003b0: ebf2 66bd 9ab6 203e 7bef a73d cdfa 713d
000003c0: 9183 67be 5817 89be 2547 84be d2ff 90bd
000003d0: ef3b 97bd 050d 32be 1dc1 c93d de0d 8fbe
000003e0: df61 83be 0c99 6abe 88c1 02be 447f 16bc
000003f0: 55ef 6fbd 0f67 603c 94f7 0b3e dcf4 2fbe
-0.055611543 -0.14649679 -0.052201636 0.04511263 0.00925203 -0.18661723 0.02364722 -0.09728286
0.14369155 0.1416903 -0.15016131 0.080892235 0.079864435 0.11662968 0.046634473 -0.13944922
0.2252857 0.17607531 -0.13611075 -0.03411792 0.09444083 -0.1416545 -0.11981679 0.13298139
0.091465496 -0.102294475 -0.099910714 0.014211225 0.020393014 0.057644133 -0.052211557 0.11298588
-0.10667496 -0.11054863 -0.090266705 -0.15714706 0.02259288 -0.1507222 -0.15424602 0.119232185
0.07107842 -0.15529662 -0.0900377 -0.16136046 0.087438725 -0.023322726 0.08875445 -0.15271501
-0.062612034 0.24983914 0.14422943 0.24708095 0.18558191 0.313263 0.2918405 -0.17451759
-0.08540342 0.35353392 0.28107026 0.14540188 0.12268265 -0.15090293 0.220371 0.20215344
0.13338144 -0.011576477 -0.083842956 0.07141041 0.18653111 0.081514314 -0.167977 -0.18253152
-0.06314534 -0.14776368 -0.07519153 0.0513025 -0.17026533 0.18696886 0.018227438 0.06867364
0.019189522 -0.13861762 0.14799006 -0.06979012 -0.016311223 0.140554 0.037187446 0.21452966
-0.021976393 0.15156114 0.08683537 0.16313864 0.042175055 -0.06290106 0.120664835 0.077449895
-0.15798658 -0.18235001 -0.19720067 0.24130885 0.03760111 0.06543602 0.09425815 0.027419634
0.23944819 0.15236235 -0.0913113 0.16039509 0.21994884 0.051960982 0.00038259296 0.02769285
-0.17895646 -0.14328216 0.18876994 -0.23090671 8.204416e-05 -0.22578378 -0.10524884 -0.044217892
-0.019187372 -0.12380508 0.054022156 0.011282213 -0.18106958 0.07178378 0.29634446 0.2816304
-0.05244821 0.11280611 -0.102722146 0.28092954 0.17363872 0.10565675 -0.16245714 -0.07842601
-0.14423051 0.1501266 -0.14610553 -0.085174955 -0.04587351 0.092680484 0.08151964 0.067258686
0.14990515 -0.022417251 -0.008848521 -0.052926324 -0.043844506 -0.1709506 0.1548699 0.27058548
0.21455942 0.1191981 -0.087949984 -0.116697714 0.30545685 0.035577722 -0.076666385 -0.20383637
-0.079007074 0.16547959 0.20242827 -0.19438323 -0.23787042 0.019671204 -0.06908153 0.19887298
-0.047649402 -0.21418509 0.06144305 0.18802796 0.046056338 -0.18181495 -0.025456868 -0.16818634
0.123578236 0.0217908 0.07751174 -0.032796405 -0.16941449 0.08648636 0.2153439 -0.026985422
-0.103858955 -0.15593365 0.021329159 0.236675 -0.060413584 -0.08742909 0.14451417 -0.12443257
0.002575375 -0.06284153 -0.019081132 -0.117559075 0.02679389 0.045720395 0.043051418 -0.117498234
0.047401004 -0.16681485 0.06882273 0.09913728 -0.048810996 -0.037952993 0.034276873 0.24317624
0.30221125 -0.1773083 0.1695852 0.1824552 0.42012542 0.35379905 -0.04747919 -0.06655521
0.21299 0.2553481 0.29898372 -0.029838193 0.033971198 -0.09604408 -0.1352383 0.20150633
0.1131639 0.27151668 0.25231966 -0.0016705955 0.00019615935 0.15542762 0.26725388 0.0010181593
0.3526719 0.24550769 0.09164838 -0.18264043 -0.05638401 0.15694657 0.08199974 0.059077073
-0.22608782 -0.26775622 -0.2583553 -0.07080044 -0.07384478 -0.17387779 0.098512866 -0.27940267
-0.25660607 -0.22909945 -0.12769139 -0.009185616 -0.058577854 0.013696446 0.13668662 -0.1718325

cnn1.bias f4 [16]
00000000: 1d0b 04be 8a84 c3bb 8288 bebc f902 d13c
00000010: 7a28 84bd cac8 92bc 23dd da3d a755 053e
00000020: db8a debd 85fb 8dbb a0b7 2a3e 3e5b 1d3e
00000030: e660 61bc ee21 2fbe 53e1 d13d b0ba 253e
-0.12894864 -0.0059667276 -0.023258451 0.025514113 -0.06453033 -0.01791801 0.1068671 0.13020955
-0.10866328 -0.004332962 0.1667161 0.15366837 -0.013756013 -0.17102787 0.10248055 0.16184497

cnn2.weight f4 [32, 16, 5, 5]
00000000: 85ae 1f3d e896 18bd 447e 0ebd 6059 9fbc
00000010: 072c 703c 4576 5bbd fd53 16bd 3659 03bc
00000020: f927 cb3b 12ed 973b bda0 3ebc 51f6 b43b
00000030: 1c76 cebc 2aac 1b3d ded1 0f3d 170d b7bc
00000040: 4a5e f63c 644b 193c 11b0 093d 505e 00bc
00000050: 9cf2 c83c 3ef6 9a3b bfb3 b1bc 37fd 083d
00000060: 7c08 3cbd f48e 3dbd 57f7 8a3c b323 723c
00000070: 4ec1 8c3c 0f55 9a3c 4316 ec3c bc3b e33c
00000080: 4ebe fcbc 5e3a e83c e258 053d 4012 67bc
00000090: d341 9f3c 2715 193d c183 b73c c6f9 6f3b
000000a0: a57d 99bc f34c 303d 5da0 063d 62ba ad3c
000000b0: 6b64 e2bc a89b 973c 1d6a 4c3c c61d d2bc
000000c0: f83e e7bb 0d6e 33bd 4f26 9c3d 8c1b ec3c
000000d0: 2694 e53c d554 213c 9ad1 7d3c 7cab 1b3d
000000e0: 451b 3e3d f816 9bbb 75d2 d9bc d517 8cbc
000000f0: 07db b2bb d3e0 9fbc ac90 4bbc 2185 0c3d
00000100: 35ef 47bd 9c37 d73c 4981 18bc 3f87 62bc
00000110: 8d00 42bd 9069 07bd f8b4 a63c bb6f fdbc
00000120: fa72 003d 4e07 12bc 3b14 a13c 6f61 c3bb
00000130: 7c32 313d 67c2 963c 3e98 9f3b 4ecf e33c
00000140: 82e8 1ebd a485 d7bc 4536 0ebd 212d 97bc
00000150: 41b3 b3bc c89a ab3c 7a20 30bd 8483 e6bb
00000160: 12f1 36bd 07c2 d5bc 0d9b ba3c a59b b23c
00000170: 0b3d 563d 706d a1bb fa02 29bd 18e1 bfbc
00000180: dfd7 143d efb3 a93c dc1e 9f3c 72b5 5abd
00000190: a6e5 e8bc 4a4c 033d 014a 863c 8ee7 c5bc
000001a0: bc86 b43c 83e5 743b 7f0d 113c e43a 723c
000001b0: 7698 333d 49aa 4f3d d16f cbbc 4a00 2c3d
000001c0: 87f5 be3c d336 e43c 076f b43c 5ede 14bd
000001d0: 5ca9 a63c 60b1 3cbc 8675 d9bc e9c9 fb3c
000001e0: b357 c6bc 33b1 a5bc 9286 75bc ee51 153d
000001f0: 6f4e 6c3d 0839 203d e70c 80bb 12d9 023d
00000200: dcef f83b 3ac9 553d 351b a23c cf07 473d
00000210: 7625 143d f70d 4dbd 78e4 c5bc 2932 023d
00000220: 9b2b 333d cec9 3dbd 4dc8 f83c f176 88ba
00000230: 1c39 38bd eda6 37bd a2c2 0a3d 9007 4cbd
00000240: 8e9e 8738 f307 13bd 5284 043d 8e9d 8dbc
00000250: afd1 c9bc abee 1f3d 830c 05bc 268a 0c3d
00000260: 362d fe3c d158 073d afbd 503d 2b4c 1a3d
00000270: 50e0 ff3c 1aa5 a3bc 426c e5bc f705 a837
00000280: eb4b 13bd bd0e c23c f332 883c 5676 bb3c
00000290: 22b6 503d 66a6 4b3d 5175 a9bc 7b38 e2bc
000002a0: f1ed 043d 7f17 bbbc 571c 34bc dbe6 b63b
000002b0: 71d6 073d 62d1 a93c 11fe 0bbd 422e 8dbc
000002c0: 1154 1dbd 7001 bbbc f1db 1abb fb60 5fbc
000002d0: e213 243d 054b 923c ce1d ff3c 7871 ad3c
000002e0: e9b5 133d 047e a63c f99b 343d 06a9 543d
000002f0: 9900 203d ff47 16bc 5d9d 093d 8ceb 203b
00000300: 716c 923c 3833 1e3d 3f28 e9bc 2715 033d
00000310: dce1 893c a137 2b3d 217b 3ebc 47d6 0d3d
00000320: ad1d 593d 0c84 833d 3185 c53c 24b3 473c
00000330: f8dd 493d 28c4 543c f858 64bd e801 8fbd
00000340: 7a2f 123d 599a 07bd 4631 c9bc c9f4 96bc
00000350: a7ad 03bc 573a 05bd 14a9 7fbd f6db 1fbd
00000360: e7b3 63bb fcd3 1e3d 416b 4fbd 5115 bf3c
00000370: db60 033d e48f 1b3b b3d6 82bc eb87 84bd
00000380: 0e6e 4dbb 7186 933c 45b0 003d 51ee 723d
00000390: 5a95 bfbb b23c babc feed a8bc 1294 1a3d
000003a0: d8ba 723d e814 1bbc 107d f6bc e406 d53c
000003b0: e7fa 073d 7b9c 10bb 0f36 453d 24f7 df3b
000003c0: de4c 34bd 4494 d23c a3b7 0d3c 6ccd d13c
000003d0: d6c7 ab3c b635 39bd 72f5 3e3c 3239 69bc
000003e0: cad8 343d 218f cf3c ac68 34bd 18e0 27bd
000003f0: fc61 3abd 361c 853c caa4 8dbb 737f 86bd
0.038984794 -0.03725329 -0.034788385 -0.019451797 0.014658934 -0.053579587 -0.03670119 -0.008016875
0.0061998335 0.0046364153 -0.011635003 0.0055225273 -0.025202803 0.038005985 0.035112254 -0.022345109
0.030074257 0.009356353 0.033615176 -0.007834986 0.024529748 0.0047290614 -0.021692155 0.03344461
-0.04590653 -0.04627891 0.016963644 0.014779019 0.017182019 0.018839387 0.028819209 0.027738445
-0.030852463 0.028348144 0.03255547 -0.014103472 0.019440567 0.037373688 0.022401692 0.0036617382
-0.01873667 0.043042134 0.032867778 0.021207038 -0.027635774 0.01850684 0.012476471 -0.025648963
-0.007057067 -0.043806124 0.07624494 0.02882173 0.028024744 0.009846886 0.015491867 0.038005337
0.046412725 -0.0047329627 -0.026589612 -0.017101208 -0.005458239 -0.019516384 -0.012424629 0.03430665
-0.04881211 0.026271634 -0.009308168 -0.0138261905 -0.047363807 -0.033059657 0.020349964 -0.030937066
0.03135965 -0.008912874 0.019662967 -0.0059625427 0.043261036 0.018403245 0.0048704436 0.027808812
-0.038795955 -0.026308842 -0.034719724 -0.018454136 -0.02193606 0.020947829 -0.042999722 -0.007034721
-0.044663496 -0.026093496 0.022779012 0.021802733 0.05230431 -0.004926376 -0.041262604 -0.023422763
0.036338683 0.020715682 0.019423895 -0.053395696 -0.028429817 0.032055177 0.01639271 -0.024158265
0.022036903 0.0037368245 0.008853315 0.014784548 0.04384657 0.050699506 -0.024833592 0.041992463
0.023310436 0.027858173 0.022025598 -0.03634488 0.020344429 -0.011516899 -0.026545297 0.030735927
-0.02421174 -0.020226097 -0.014985697 0.036455087 0.057691988 0.03911689 -0.003907788 0.031945296
0.007596953 0.052193858 0.019788364 0.04859143 0.036168538 -0.050062146 -0.024156794 0.031786118
0.043742757 -0.046335034 0.030368948 -0.0010411424 -0.04497634 -0.044836927 0.033877023 -0.0498119
6.466835e-05 -0.035896253 0.032352753 -0.017287042 -0.024636118 0.03904597 -0.008120659 0.034311436
0.031027418 0.033043686 0.050962146 0.037670296 0.03123489 -0.019976187 -0.028005723 2.0029938e-05
-0.035961073 0.023688668 0.016625857 0.022883575 0.050954945 0.049719237 -0.020685824 -0.027614823
0.03245348 -0.022838352 -0.010993085 0.0055817193 0.03316349 0.020729724 -0.034177843 -0.017233972
-0.03841025 -0.022827834 -0.002362963 -0.013633962 0.040058024 0.017858038 0.031142142 0.02117227
0.036062155 0.02032376 0.04409406 0.051919006 0.03906307 -0.009172439 0.03359734 0.002455446
0.017873975 0.038623065 -0.028461574 0.032002594 0.016831331 0.0418011 -0.011626036 0.03462818
0.053006817 0.0642167 0.024111362 0.012188707 0.04928395 0.01298622 -0.05574891 -0.069827855
0.03568981 -0.03310618 -0.024559628 -0.01842727 -0.008037007 -0.03252634 -0.062417105 -0.03902813
-0.0034744681 0.038776383 -0.050639395 0.023325594 0.03207479 0.0023736889 -0.015971517 -0.06471237
-0.0031346115 0.018008443 0.031418104 0.059309307 -0.0058466615 -0.02273402 -0.020621296 0.037738867
0.05926022 -0.009465434 -0.030088931 0.026004262 0.033198263 -0.0022065926 0.048147257 0.0068348814
-0.04401862 0.025705464 0.008649739 0.025610648 0.020969313 -0.04521724 0.011655198 -0.014234828
0.04415206 0.025336804 -0.044045135 -0.040985197 -0.0455036 0.016248804 -0.004322623 -0.06567278

cnn2.bias f4 [32]
00000000: ea68 3cbc e223 c93c afc1 74bb 05e6 12bd
00000010: 8358 fe3b f981 e4bc b16d 21bc 7b54 26bd
00000020: a3a6 383d 8efb 39bd 9189 223d 9f2b e43c
00000030: 4310 873c 03ec 96bc 245b 713c 8389 893a
00000040: f520 d53c 8869 16bd 8b7c 3b3d e264 2fbc
00000050: f71f 183d c88d 9fbc ef2d ae3c d7ce 3e3d
00000060: c1e9 373c 6339 193a 1d3b 49bd 9280 8ebc
00000070: dfc7 31bd 57bc 3a3d 14fb 113d 9d7a e23c
-0.011499623 0.024553243 -0.003734689 -0.035863895 0.0077620163 -0.027894007 -0.009852813 -0.04060791
0.045080792 -0.045405917 0.039681975 0.027852831 0.016487246 -0.018423086 0.014731202 0.0010493252
0.026016692 -0.036721736 0.04577307 -0.010705205 0.03713986 -0.019476786 0.021262137 0.046583977
0.011225165 0.0005845038 -0.04912864 -0.017395291 -0.043403503 0.04558977 0.035639837 0.027646357

fc1.weight f4 [10, 512]
00000000: 808d 99bc 2485 103b ef3c b13c 33d6 aebc
00000010: 7154 a039 f031 cdbc 3286 febb bfe5 893d
00000020: b2f8 63bd 30b5 00bd 9f4f 673b af93 473d
00000030: 01f3 23bd ada3 48bc c6b1 32bd 544c b4bc
00000040: dba0 503c ae0d 97bd 399e c73c 7d00 973d
00000050: d9a5 12bd ae13 1bbd b2e0 1f3d f9f4 ee3c
00000060: 814f ca3c 0d1d 1ebc 6a01 9fbc f640 4e3d
00000070: e200 8b3d 6348 043d 99a1 7dbb 333c 7fbc
00000080: 36b8 e9bc 2eb4 a83b e3b8 4d3d c275 08bd
00000090: cb2b dcbc 2a1d ceba 82da 53bd 0d50 83bd
000000a0: 081b 96bc 6b3c b1bd 07b9 c7bc 6369 b93c
000000b0: bbbe 803c c0f1 ecbc 1b71 113d af6e a23d
000000c0: f1ee b33c f38e 9abc f2b4 89bd 6780 0d3c
000000d0: e413 95bb 3bfa 2f3c 1e3a 6d3a 14de 103c
000000e0: 3ccf a9bd 1ddc 86bd c0d4 143c 64a5 96bc
000000f0: b98c 88bd 7c8a 48bc 9811 6ebd abc3 3b3d
00000100: 1118 1d3c 48eb 853d 6487 263d 5694 ddbc
00000110: fbdc de3c 0d86 6f3d b1bf 8cbd 4492 df3d
00000120: 5f01 1a3d 41b9 afbc 94ec 7b3c 5b56 dc3c
00000130: 2ac8 77bb 052b 1bbd 3cdb 42bd 278b df3c
00000140: 5c71 183d 7358 f43c 8b9b 5b3d d12f adbc
00000150: 2e69 4b3c 71fd 8f3c 98e1 b6bd 4161 89bd
00000160: d95d 44bc 089f d3bd ea74 a43c 14c5 513d
00000170: d464 53bd ac6f d1bc 6460 3c3d bde2 ac3d
00000180: 7658 403c 5b5e 153d 6598 5c3d e2cd 533d
00000190: 1d89 003d f04d 003d 7b8d 72bd 8a3d e7bb
000001a0: f49c 43bd 021c 6fbd e409 193d 133e 403c
000001b0: bed3 92bc b4dc 4abd def3 af3b 2f42 2abd
000001c0: bb67 debc c253 04bd a234 963c 99e6 a43c
000001d0: 2f0a 053d dade e3bc 87d5 093d 9673 61bc
000001e0: 0344 753d ffb8 783d 9645 85ba ff00 4bbd
000001f0: 9f31 7d3c 8126 9c3c 3e38 173d 83b9 27bd
00000200: 964d e5ba 7ee1 1bbd 70d6 2c3d 7f75 093d
00000210: 9363 72bc 531f aebc f405 78bd c581 133c
00000220: 0c8f 1abd 9a88 0fbd d0c6 5ebc 1bb0 a4bc
00000230: 0ae3 fd3b 5da4 8aba 4ca9 32bd abd0 72bc
00000240: beab 0dbb b641 0e3d 3809 b93b 159d ff3c
00000250: 5b02 a5bc 9d04 c5bb 564b 8bbb dfce a7bd
00000260: f451 0c3d f735 6c3d b699 453d bdd6 11bd
00000270: 52a2 cb3c b998 2d3d bb1f 0a3d 44b3 9c3b
00000280: db7d 65bb ddc4 273c 63fd 3cbd f149 d63c
00000290: 7362 063c 1533 4f3c 529a 8bbc a490 143d
000002a0: 26c6 573d 9e00 a73d 044d 06bd 3fb8 093d
000002b0: 788d 803d 05ed 2e3d 0444 813c 3986 8bbd
000002c0: 360d f13b ee2a 613c 3bd3 b93c 9c77 353d
000002d0: bf11 22bd f6cc bc3c 6b37 5c3b 4a42 0c3d
000002e0: 6979 97bb 9c8e 06bd 337d 21bd 6941 8fbb
000002f0: b3a8 193c da72 853a 3392 2d3d b43d ce3c
00000300: 2413 c2bc 5fe8 11bd 8453 c03c 289e 5fbd
00000310: e30c f9bc 3478 c03b e37d d4bc fec3 4abd
00000320: 0a1d d13c c2b3 063d 7980 28bc 6b4b 9bbc
00000330: b3d0 10bd bb12 8dbc 7202 0b3d 2412 053d
00000340: d77f c7bc 7ee4 58bd 3c86 4f3b 29b4 263d
00000350: 0f5e 953c 58ab 1a3d a2fd 0a3c 7d98 823a
00000360: d8d8 c8bc f601 c03d d556 c6bc 7e9b 58bc
00000370: 0fc0 9cbc 5db7 a23c a973 ed3c cdf9 8abc
00000380: 9c75 103a 3af6 87bc c22b 943b 806d 02bd
00000390: 718f 20bd f541 1e3d 3ac0 dfbb bc2d 24bd
000003a0: f6cc 823c 89af 1fbd bc7b e9bd 1692 993c
000003b0: a884 56bd a332 873b 3dde 153d 5153 0e3d
000003c0: f98b 5c3c 75bc 5fbc ab1b 73bd 88ab b2bc
000003d0: 4a51 3e3b 77f3 78bc de0a d13c 1d10 f3ba
000003e0: 2171 433c 18c8 d0bb d72e 493d 6837 8a3b
000003f0: c29f 59bd 1b71 c6bb 1074 063d 6bd6 74bc
-0.01874423 0.0022052014 0.0216355 -0.021342373 0.00030580492 -0.025048226 -0.007767462 0.06733274
-0.055657096 -0.031422794 0.003529526 0.048724826 -0.04002667 -0.012246055 -0.04362657 -0.022009052
0.012733663 -0.07375656 0.024367439 0.0737314 -0.035802696 -0.037860565 0.039032646 0.029169546
0.024696114 -0.009650481 -0.019409854 0.05035492 0.06787278 0.032295596 -0.0038701056 -0.015578317
-0.028530221 0.005148432 0.05022515 -0.033315428 -0.02687635 -0.0015725244 -0.051722057 -0.06411753
-0.018323436 -0.08654102 -0.02438022 0.02263326 0.015715947 -0.02892387 0.035508256 0.079312675
0.021964522 -0.018866992 -0.06723966 0.008636571 -0.0045494903 0.010740812 0.00090494927 0.00884201
-0.0829148 -0.06584952 0.009083927 -0.018389411 -0.06667466 -0.0122400485 -0.058122247 0.0458409
0.009588257 0.06539017 0.040656462 -0.027048271 0.027204981 0.05847745 -0.068725 0.1091657
0.037598964 -0.02145064 0.015376229 0.026896646 -0.0037808516 -0.037882823 -0.04757236 0.027288033
0.037217483 0.029827332 0.053615134 -0.021140965 0.0124152135 0.017576905 -0.08929747 -0.06708003
-0.011985266 -0.10333067 0.02007528 0.05121334 -0.05160983 -0.025565945 0.045990363 0.084416844
0.011739841 0.036466938 0.053856272 0.051710017 0.03138076 0.031324327 -0.059216958 -0.0070568966
-0.047757104 -0.05837632 0.037362948 0.01173355 -0.017923232 -0.049526885 0.0053696474 -0.041567024
-0.027149072 -0.03230644 0.018335644 0.020129489 0.032480415 -0.027816225 0.0336509 -0.013760468
0.059879314 0.0607233 -0.0010167833 -0.049561497 0.015453725 0.019061329 0.03691887 -0.040948402
-0.0017494436 -0.038056843 0.04219669 0.03355932 -0.014794248 -0.02125517 -0.060552552 0.009003107
-0.037734076 -0.035042383 -0.013597205 -0.020103505 0.0077480124 -0.0010577549 -0.043618485 -0.014820258
-0.002161726 0.034730636 0.005646851 0.031202832 -0.020142725 -0.006012513 -0.004250924 -0.081937544
0.034257844 0.057668652 0.048242293 -0.03560518 0.024857674 0.042381976 0.033721667 0.0047821123
-0.0035017643 0.010239807 -0.046140086 0.026158305 0.008202183 0.012646456 -0.01704136 0.036270753
0.052679203 0.081544146 -0.03278829 0.033622976 0.06276983 0.04270651 0.015779503 -0.0681271
0.007356311 0.013743145 0.02268373 0.04430352 -0.039567705 0.023046952 0.0033602368 0.034242906
-0.0046226275 -0.032850847 -0.03942604 -0.004371811 0.0093786 0.0010181323 0.042375755 0.025175907
-0.023690768 -0.035621997 0.023477323 -0.05459419 -0.030401653 0.0058737043 -0.025938934 -0.04950332
0.025526542 0.032886274 -0.0102845365 -0.01895686 -0.03535528 -0.017220845 0.03393788 0.032488003
-0.024352951 -0.052952282 0.0031665703 0.040699158 0.018233327 0.037761062 0.008483322 0.0009963658
-0.024517462 0.09375374 -0.024211327 -0.013220666 -0.01913455 0.019862825 0.028985815 -0.016964817
0.0005510689 -0.016596902 0.004521818 -0.03184271 -0.039199296 0.03863712 -0.006828335 -0.04008268
0.015966874 -0.038985763 -0.114005536 0.018746417 -0.052372605 0.0041259094 0.036588896 0.034747425
0.013461106 -0.0136557715 -0.059352558 -0.021810308 0.0029040151 -0.015194765 0.025517877 -0.0018544231
0.0119288275 -0.0063715093 0.049116936 0.0042180307 -0.053130873 -0.0060559637 0.03282553 -0.014943699

fc1.bias f4 [10]
00000000: f7c8 193d 22d4 3c3d 15fb 23bd 4e9c b33b
00000010: 5330 39bd 5bd0 08bd 7b18 f2bb 6f1a c9bc
00000020: 12fa 0d3d 7e03 09bb
0.03754517 0.046100743 -0.040034372 0.0054812795 -0.0452121 -0.03340183 -0.007388172 -0.024548737
0.034662314 -0.0020906623
