result/mnist/seed12/noniid_0.4/ratio_0.4/final.pt (torch, 75941 bytes, 6 tensors)

cnn1.weight f4 [16, 1, 5, 5]
-0.060081776 -0.14814964 -0.054411247 0.04338236 0.0046931654 -0.2044949 0.01031548 -0.087934904
0.1611722 0.13782687 -0.17349519 0.07830096 0.10530785 0.12611325 0.014039528 -0.12885973
0.25116953 0.18184018 -0.17531721 -0.07486488 0.12701923 -0.12088139 -0.142657 0.09877269
0.08494263 -0.10719333 -0.107668385 0.008103391 0.021653015 0.058901824 -0.055022344 0.10125059
-0.11546228 -0.114537135 -0.088670954 -0.15909424 0.0152646955 -0.15449896 -0.15562314 0.1322436
0.07756477 -0.15747207 -0.09115514 -0.15544893 0.1059069 -0.026520226 0.07346818 -0.16431335
-0.059292942 0.2606127 0.15316977 0.25021386 0.16458645 0.27171123 0.24153072 -0.19899547
-0.111542 0.31755272 0.23099875 0.079721466 0.09203411 -0.19992276 0.15456508 0.15853515
0.10674531 -0.055318367 -0.13994133 0.004910021 0.15298517 0.10333488 -0.22514553 -0.24075265
-0.12393711 -0.18500718 -0.05667384 0.04177154 -0.17775403 0.17785421 0.019359436 0.08379964
-0.007025599 -0.15818441 0.13720892 -0.06437479 -0.009476305 0.11083645 0.031031754 0.22069405
-0.0070925825 0.15326816 0.06803726 0.15678577 0.0334346 -0.0653561 0.11122956 0.055447683
-0.18143056 -0.19440608 -0.20952596 0.24443386 0.027581647 0.0649366 0.10482665 0.03736645
0.2375086 0.15814437 -0.078312956 0.1730051 0.23170424 0.05483988 0.0027721876 0.026456032
-0.18003447 -0.1434457 0.19621177 -0.2485019 -0.016551662 -0.23501423 -0.110782064 -0.037467554
-0.03815598 -0.14033829 0.03727216 0.00077389914 -0.18113677 0.056474846 0.28022504 0.2694512
-0.0709522 0.114005566 -0.13918272 0.24842437 0.1571742 0.09676375 -0.15413137 -0.115010545
-0.16989852 0.14554064 -0.13384329 -0.06468424 -0.07621585 0.067435965 0.07459834 0.07957906
0.16865307 -0.050620254 -0.04245197 -0.07294752 -0.038433596 -0.16676198 0.11066449 0.22389698
0.21027224 0.124123245 -0.112021536 -0.15598747 0.27400157 0.032864295 -0.08342578 -0.22175747
-0.09999323 0.15201151 0.18082455 -0.22038001 -0.24795642 0.013200488 -0.06865382 0.16369563
-0.09625431 -0.2444331 0.07142689 0.19164594 0.018150393 -0.2092757 -0.04054162 -0.1864229
0.0980884 0.011022914 0.07224059 -0.041735567 -0.18276355 0.07452439 0.22163233 -0.043858483
-0.12371145 -0.16014348 0.022569576 0.239874 -0.077581234 -0.09633897 0.13886234 -0.1298564
0.0021377353 -0.06444571 -0.013312456 -0.12555851 0.017859042 0.03955568 0.049839612 -0.102378525
0.05447039 -0.20069553 0.0017182891 0.061979048 -0.058927804 -0.038087513 -0.0073104617 0.18923491
0.27700377 -0.18669575 0.16778079 0.14297558 0.37936646 0.31042957 -0.07461606 -0.076890975
0.1615678 0.19398934 0.24191095 -0.06148772 0.0123797655 -0.1441931 -0.19089566 0.16421486
0.11827669 0.27009514 0.2705198 0.016834147 -0.015102025 0.12861544 0.2614071 0.019844111
0.35419443 0.23384534 0.08098716 -0.19927984 -0.06526673 0.13061227 0.071936935 0.04955681
-0.2519154 -0.31612113 -0.31300968 -0.09644617 -0.10129465 -0.22608873 0.022307929 -0.33881807
-0.29531375 -0.27308652 -0.12976912 -0.010001161 -0.052282687 0.017517915 0.14804617 -0.17082292
00000000: 4f18 76bd 8ab4 17be 54de 5ebd b4b1 313d
00000010: 20c9 993b 1c67 51be 4202 293c 3717 b4bd
00000020: 530a 253e 7d22 0d3e b9a8 31be 415c a03d
00000030: a4ab d73d d523 013e 0c06 663c cef3 03be
00000040: 4b99 803e 5034 3a3e 5b86 33be c252 99bd
00000050: 5411 023e aa90 f7bd ad14 12be 5649 ca3d
00000060: 67f6 ad3d 2d88 dbbd 3e81 dcbd 16c4 043c
00000070: aa61 b13c 0a43 713d 1c5f 61bd 785c cf3d
00000080: 7d77 ecbd 7292 eabd 1e99 b5bd 9ae9 22be
00000090: c618 7a3c fa34 1ebe ac5b 1fbe de6a 073e
000000a0: 47da 9e3d 5c40 21be 8caf babd 012e 1fbe
000000b0: b7e5 d83d f240 d9bc 7c76 963d c241 28be
000000c0: 28dd 72bd 076f 853e 89d8 1c3e 081c 803e
000000d0: 5a89 283e bc1d 8b3e d453 773e 78c5 4bbe
000000e0: 2270 e4bd 4596 a23e f08a 6c3e 0245 a33d
000000f0: 617c bc3d 8db8 4cbe 4f46 1e3e 0a57 223e
00000100: 499d da3d 8395 62bd c84c 0fbe 3ee4 a03b
00000110: 25a8 1c3e 3da1 d33d 8d8c 66be dd87 76be
00000120: bdd2 fdbd 8672 3dbe d422 68bd a218 2b3d
00000130: 2705 36be 6a1f 363e ae97 9e3c 259f ab3d
00000140: ff36 e6bb 18fb 21be 7f80 0c3e eed6 83bd
00000150: 8142 1bbc 38fe e23d 4e36 fe3c 9ffd 613e
00000160: e568 e8bb 54f2 1c3e 1e57 8b3d 738c 203e
00000170: b8f2 083d 6bd9 85bd 53cc e33d 1c1d 633d
00000180: efc8 39be 6312 47be f98d 56be df4c 7a3e
00000190: e8f2 e13c 7bfd 843d 5baf d63d 900d 193d
000001a0: 7435 733e 99f0 213e 8b62 a0bd 4028 313e
000001b0: e043 6d3e c89f 603d 97ad 353b 52ba d83c
000001c0: f55a 38be 6ee3 12be bdeb 483e 4877 7ebe
000001d0: 5a97 87bc 92a7 70be b5e1 e2bd 9477 19bd
000001e0: 7249 1cbd d7b4 0fbe b1aa 183d 7edf 4a3a
000001f0: eb7b 39be 2b52 673d a879 8f3e 82f5 893e
00000200: 634f 91bd c07b e93d ea85 0ebe f562 7e3e
00000210: 46f2 203e 132c c63d 9dd4 1dbe a68a ebbd
00000220: e1f9 2dbe 9b08 153e 370e 09be 2c79 84bd
00000230: 0e17 9cbd de1b 8a3d 04c7 983d 59fa a23d
00000240: 64b3 2c3e 2f57 4fbd 1ee2 2dbd 8265 95bd
00000250: 8c6c 1dbd a7c3 2abe 10a4 e23d 4045 653e
00000260: 9b51 573e 5434 fe3d 8c6b e5bd 2ebb 1fbe
00000270: ef49 8c3e b69c 063d 23db aabd 6414 63be
00000280: 40c9 ccbd e8a8 1b3e 122a 393e 4cab 61be
00000290: 4ae8 7dbe dc46 583c 609a 8cbd d49f 273e
000002a0: fb20 c5bd ac4c 7abe 4348 923d d53e 443e
000002b0: 22b0 943c 5e4c 56be f80e 26bd a5e5 3ebe
000002c0: 92e2 c83d 7499 343c e0f2 933d eaf2 2abd
000002d0: 5e26 3bbe 3ea0 983d 96f3 623e f4a4 33bd
000002e0: 6e5c fdbd a7fc 23be d5e3 b83c 88a1 753e
000002f0: e9e2 9ebd 5e4d c5bd ee31 0e3e 13f9 04be
00000300: 3f19 0c3b 1dfc 83bd 7d1c 5abc 6992 00be
00000310: 204d 923c 2305 223d 9f24 4c3d d5ab d1bd
00000320: 581c 5f3d 2183 4dbe 3738 e13a bedd 7d3d
00000330: 485e 71bd a701 1cbd 998c efbb ccc6 413e
00000340: 70d3 8d3e 2c2d 3fbe bace 2b3e 3168 123e
00000350: 523c c23e a0f0 9e3e 4ed0 98bd 0479 9dbd
00000360: 0872 253e 24a5 463e 81b7 773e 8cda 7bbd
00000370: 80d4 4a3c 5ba7 13be 277a 43be f127 283e
00000380: 0d3b f23d e949 8a3e 9281 8a3e c4e7 893c
00000390: 7c6e 77bc c4b3 033e 27d7 853e 1e90 a23c
000003a0: f958 b53e 2775 6f3e 99dc a53d 0410 4cbe
000003b0: 90aa 85bd 39bf 053e ac53 933d 15fc 4a3d
000003c0: 0efb 80be a1da a1be ce42 a0be 9285 c5bd
000003d0: 9273 cfbd ce83 67be 1ebf b63c 9079 adbe
000003e0: 5d33 97be ffd1 8bbe 32e2 04be e9db 23bc
000003f0: 5f26 56bd bb81 8f3c 6a99 173e 34ec 2ebe

cnn1.bias f4 [16]
-0.1331504 -0.0029164741 -0.040972427 0.01858707 -0.07331858 -0.019502953 0.10510095 0.12155982
-0.11830288 0.049798828 0.1440555 0.12606385 0.019141855 -0.17462951 0.102049015 0.119614385
00000000: 9458 08be 5122 3fbb b4d2 27bd e943 983c
00000010: 0d28 96bd a8c4 9fbc 2b3f d73d 5bf4 f83d
00000020: c848 f2bd dbf9 4b3d 4983 133e e216 013e
00000030: 61cf 9c3c 14d2 32be 13ff d03d 63f8 f43d

cnn2.weight f4 [32, 16, 5, 5]
0.04043331 -0.03637932 -0.034892593 -0.02066654 0.019380264 -0.050315592 -0.039231054 -0.010705567
0.015431212 0.009972086 -0.015130426 0.0012912323 -0.017028708 0.045641173 0.03134023 -0.028516442
0.025693024 0.010901359 0.028771862 -0.0123076355 0.018384358 0.0014399538 -0.021409918 0.034536712
-0.04974942 -0.050405066 0.008669369 0.009487753 0.013792236 0.010277081 0.020775387 0.027269188
-0.029733684 0.023082249 0.023481622 -0.022544606 0.01675653 0.033756558 0.01489907 -0.006948525
-0.023923872 0.039975405 0.03215867 0.01327503 -0.03729287 0.016216869 0.008646718 -0.029221645
-0.012853809 -0.04990564 0.06724903 0.03313711 0.032621928 0.010357989 0.02972737 0.0410652
0.05011252 -0.0016562773 -0.013424314 -0.016233247 0.0012791099 -0.02650225 0.0034792954 0.050146427
-0.067613386 0.01440816 -0.023446465 -0.0059598824 -0.036040932 -0.037517615 -0.0029805624 -0.056850895
0.020953635 -0.012571212 0.011818053 -0.010450334 0.041950393 0.026526837 0.006550507 0.036178157
-0.038722046 -0.019256666 -0.030651867 -0.01869174 -0.015000442 0.016837921 -0.04307736 -0.004661998
-0.042344883 -0.03314037 0.012348585 0.010822795 0.048914377 -0.008909169 -0.044189088 -0.041387167
0.023277625 0.012872912 0.011289 -0.06129068 -0.036919814 0.030005533 0.015145991 -0.021864818
0.015041466 0.0038105662 0.01182781 0.014549084 0.040967073 0.046958547 -0.022755126 0.039064333
0.022032423 0.02116693 0.013869322 -0.043742705 0.014333111 -0.008693714 -0.027134921 0.024360584
-0.03905005 -0.037196446 -0.021971041 0.035249233 0.060206532 0.031446718 -0.009262272 0.029641772
0.006490939 0.053784084 0.017407518 0.04507536 0.036275066 -0.050390977 -0.022798909 0.03953719
0.042576812 -0.05096282 0.037825935 -0.0035365487 -0.049601085 -0.053811308 0.032406963 -0.0369514
0.0053822473 -0.048897523 0.02021802 -0.0302645 -0.026269382 0.03992818 -0.020253764 0.011636827
0.013842767 0.01812329 0.045974888 0.036380485 0.0237848 -0.032628097 -0.020501241 0.014586807
-0.027930716 0.023755979 0.008583867 0.045975648 0.061509397 0.043412168 -0.031520236 -0.029553568
0.047179874 -0.021425975 -0.02788761 -0.0029038372 0.022547053 0.019300483 -0.033708286 -0.024651518
-0.04670801 -0.026300546 -0.011788938 -0.019026753 0.03705998 0.011634576 0.021102138 0.018475363
0.036151927 0.019554485 0.036527067 0.047020834 0.049743883 -0.01123938 0.028520692 -0.004960799
0.015326177 0.045113888 -0.028585259 0.023173656 0.010313129 0.037172057 -0.012437237 0.034035705
0.04501194 0.06478654 0.035696622 0.0073433225 0.06015977 0.021532908 -0.05753445 -0.06809014
0.051302277 -0.031681124 -0.027604075 -0.030519312 0.0054810112 -0.0008146058 -0.071046256 -0.05501953
-0.023575706 0.036933705 -0.045817856 0.016952066 0.004989595 -0.01728245 -0.029319419 -0.07471308
-0.018126208 -0.0016695223 0.026368445 0.052940708 -0.021116113 -0.035766374 -0.018264687 0.035815734
0.0433712 -0.025152033 -0.04131179 0.034801714 0.024254201 -0.013931933 0.035218477 -0.005333461
-0.0505135 0.008693436 -0.0023034369 0.024172653 0.019234339 -0.070921555 -0.018341541 -0.032669865
0.042357348 0.031682465 -0.039539024 -0.044483695 -0.041617677 0.019688273 -0.00018289512 -0.06148259
00000000: 669d 253d 7b02 15bd 89eb 0ebd e04c a9bc
00000010: 5cc3 9e3c b917 4ebd beb0 20bd 6766 2fbc
00000020: 32d3 7c3c f661 233c 9be5 77bc 913e a93a
00000030: ca7f 8bbc 3df2 3a3d 9d5e 003d 509b e9bc
00000040: 2d7a d23c 9d9b 323c f8b2 eb3c f7a5 49bc
00000050: cb9a 963c d5bc bc3a da63 afbc 5e76 0d3d
00000060: 0cc6 4bbd 8b75 4ebd f809 0e3c 8572 1b3c
00000070: d5f8 613c 3461 283c 2531 aa3c a263 df3c
00000080: 0e94 f3bc fc16 bd3c 885c c03c 77af b8bc
00000090: fe44 893c 5144 0a3d 3b1b 743c 74b0 e3bb
000000a0: fffb c3bc 40bd 233d cfb8 033d 837f 593c
000000b0: 69c0 18bd 3dd9 843c f7aa 0d3c 3b62 efbc
000000c0: c898 52bc db69 4cbd dcb9 893d c7ba 073d
000000d0: 929e 053d 8eb4 293c d086 f33c fc33 283d
000000e0: c942 4d3d 7217 d9ba a7f1 5bbc 96fb 84bc
000000f0: cea7 a73a 3f1b d9bc e404 643b 5766 4d3d
00000100: e378 8abd 3410 6c3c cd12 c0bc 1e4b c3bb
00000110: a89f 13bd 12ac 19bd 8a55 43bb 7cdc 68bd
00000120: f5a6 ab3c 7cf7 4dbc 82a0 413c e137 2bbc
00000130: 2dd4 2b3d cf4e d93c a3a5 d63b 8c2f 143d
00000140: 029b 1ebd 28c0 9dbc a019 fbbc 6c1f 99bc
00000150: 6ac4 75bc aeef 893c e371 30bd acc3 98bb
00000160: d471 2dbd 32be 07bd b851 4a3c 1852 313c
00000170: 715a 483d c3f7 11bc 9eff 34bd 9785 29bd
00000180: b8b0 be3c e8e8 523c 7ff5 383c f00b 7bbd
00000190: 3b39 17bd 2ace f53c e426 783c d91d b3bc
000001a0: 7b70 763c b1ba 793b 6ec9 413c 485f 6e3c
000001b0: 17cd 273d 9b57 403d f568 babc ec01 203d
000001c0: 577d b43c 4566 ad3c 273c 633c 8d2b 33bd
000001d0: 6dd5 6a3c 1470 0ebc 0e4a debc d98f c73c
000001e0: f2f2 1fbd 4d5b 18bd 9dfc b3bc 8061 103d
000001f0: 209b 763d 46ce 003d c9c0 17bc 4dd3 f23c
00000200: f1b1 d43b b34c 5c3d 369a 8e3c f1a0 383d
00000210: 2a95 143d c566 4ebd c7c4 babc c0f1 213d
00000220: 0665 2e3d 64be 50bd 5eef 1a3d 71c5 67bb
00000230: 822a 4bbd 3f69 5cbd 2abd 043d 5a5a 17bd
00000240: 905d b03b c548 48bd 43a0 a53c 42ed f7bc
00000250: e332 d7bc bb8b 233d 39eb a5bc 64a8 3e3c
00000260: c6cc 623c 4b77 943c 2a50 3c3d b403 153d
00000270: 57d8 c23c 0aa5 05bd 38f2 a7bc 81fd 6e3c
00000280: f5ce e4bc e69b c23c 59a3 0c3c f650 3c3d
00000290: 47f1 7b3d f5d0 313d 5d1b 01bd 531a f2bc
000002a0: af3f 413d 8785 afbc 8f74 e4bc 4e4e 3ebb
000002b0: 99b4 b83c 0c1c 9e3c b311 0abd fbf1 c9bc
000002c0: e650 3fbd 3e74 d7bc 6426 41bc fedd 9bbc
000002d0: 35cc 173d f39e 3e3c 64de ac3c a559 973c
000002e0: 0b14 143d ba30 a03c 689d 153d eb98 403d
000002f0: 3ec0 4b3d 6025 38bc 3aa4 e93c 338e a2bb
00000300: a51a 7b3c 57c9 383d a22b eabc aed6 bd3c
00000310: 66f8 283c ba41 183d 8ec5 4bbc 0669 0b3d
00000320: 715e 383d ceae 843d 9f36 123d 41a0 f03b
00000330: 176a 763d c865 b03c 3ea9 6bbd d872 8bbd
00000340: 5622 523d 11c4 01bd f121 e2bc a303 fabc
00000350: 0e9a b33b 458b 55ba b380 91bd 295c 61bd
00000360: d721 c1bc cc47 173d 81ab 3bbd 0fdf 8a3c
00000370: c27f a33b ed93 8dbc 472f f0bc 2c03 99bd
00000380: 6a7d 94bc dfd3 daba a302 d83c 5bd8 583d
00000390: b3fb acbc c37f 12bd d39f 95bc 85b3 123d
000003a0: 00a6 313d a30b cebc 8d36 29bd 3e8c 0e3d
000003b0: bfb0 c63c c342 64bc 4041 103d 50c4 aebb
000003c0: 3ee7 4ebd ea6e 0e3c 42f5 16bb ba05 c63c
000003d0: 5591 9d3c 523f 91bd 0041 96bc d6d0 05bd
000003e0: e67e 2d3d 79c5 013d acf3 21bd 8934 36bd
000003f0: 4c77 2abd 4d49 a13c 89c7 3fb9 2bd5 7bbd

cnn2.bias f4 [32]
-0.02817798 0.01894064 -0.011892507 -0.05001801 0.019114237 -0.038632553 -0.014985657 -0.053481754
0.039934456 -0.046609104 0.037955876 0.026982775 0.007227069 -0.027201341 -0.000748353 -0.012413918
0.018623427 -0.045533 0.037304886 -0.021912705 0.02897673 -0.038860466 0.013287287 0.03562241
0.004843084 -0.012549343 -0.05040468 -0.016367419 -0.066140875 0.040903695 0.023177378 0.009027844
00000000: 82d5 e6bc 6729 9b3c cad8 42bc afdf 4cbd
00000010: 7695 9c3c 2b3d 1ebd 6786 75bc af0f 5bbd
00000020: 5092 233d 30e9 3ebd 9f77 1b3d fb0a dd3c
00000030: 0dd1 ec3b 59d5 debc 1f2d 44ba bf63 4bbc
00000040: 2890 983c d080 3abd 02cd 183d 4682 b3bc
00000050: 9b60 ed3c 272c 1fbd ecb2 593c cee8 113d
00000060: bcb2 9e3b c29b 4dbc 2375 4ebd f714 86bc
00000070: de74 87bd a28a 273d 7cde bd3c 86e9 133c

fc1.weight f4 [10, 512]
-0.026556183 -0.00095764303 0.02282874 -0.020067025 0.005204496 -0.033460066 -0.0063561318 0.06597929
-0.047857538 -0.01775854 0.0090330485 0.04928374 -0.035169076 -0.03217025 -0.027072592 -0.015136866
0.0072205644 -0.07238817 0.012413257 0.09112577 -0.018923268 -0.015591214 0.040339164 0.06975838
0.029420484 -0.016168082 -0.006687823 0.0350736 0.07065797 0.02790825 0.008272587 -0.021785857
-0.03238158 -0.004837556 0.05335165 -0.064665414 -0.028905844 -0.0010767494 -0.028268702 -0.06178638
-0.033138476 -0.05431404 -0.008469443 0.0007960269 -0.007513331 -0.027308397 0.036070067 0.08348379
0.012232365 -0.027032206 -0.031566575 0.042580597 0.0065402747 0.012957806 0.047116034 -0.009530846
-0.037867643 -0.0011584538 0.04062934 -0.034425702 -0.048402566 0.017566029 -0.022303574 0.058220822
0.046777613 0.055423938 0.0689344 0.00063964294 0.041742474 0.08621179 -0.01160678 0.16826929
0.07839935 0.048820592 0.053693015 0.055904523 0.010219359 0.052597437 0.039333936 0.043609906
0.056021303 0.023411013 0.056920007 -0.027083874 0.008677846 0.049352173 -0.04008054 -0.090265095
-0.04805636 -0.10948849 -0.00947254 0.05390975 -0.046239175 -0.04438576 0.008491795 0.0643424
0.026835667 0.04841603 0.052819904 0.06374383 0.031001696 0.012579886 -0.07484576 0.033175606
-0.046450634 -0.05715385 0.06691482 0.010567959 0.00745825 -0.029156001 0.017120745 -0.05050536
-0.013800325 -0.0030406474 0.032545924 0.04527484 0.051825847 -0.034141835 0.056263898 0.0042205765
0.0954486 0.10535136 0.014147848 -0.024438584 0.031439733 0.05436518 0.0393385 -0.02404649
-0.022465635 -0.07284192 -0.01373109 0.015523161 -0.019483019 -0.026801914 -0.07834837 0.03566099
-0.041677125 -0.06453061 -0.03194114 -0.0339452 0.022381004 0.003390366 -0.044562507 -0.02374027
0.0033799964 0.070402786 0.022600641 0.06165013 -0.017740583 0.017363844 0.027723124 0.018939367
0.0563502 0.09533191 0.049459077 0.06539031 0.006427624 0.03760188 0.06560268 0.035585023
-0.009201009 -0.0010651409 -0.033340197 0.0071107056 0.04670023 0.02375374 -0.031127684 0.08458521
0.1105611 0.0780446 -0.03348879 0.060400337 0.0886514 0.01639997 0.006427987 -0.06097511
4.636618e-05 0.0040239813 0.015233756 0.040361244 -0.03663503 0.017898219 -0.007262171 0.05257471
0.0011176605 -0.018222783 -0.033516232 0.016711906 0.018044759 0.015011447 0.046103355 0.028255247
-0.024247538 -0.040436458 0.012048012 -0.06397702 -0.021169992 0.023771694 -0.03732718 -0.060133096
0.015448078 0.040428735 -0.0241448 -0.040816836 -0.049500905 -0.0031559595 0.045087483 0.021706048
-0.019145427 -0.05415014 0.00035850832 0.0031136954 0.019053193 0.04012342 0.0030717659 -0.011784485
-0.005558021 0.16758771 -0.0300386 0.0002523728 -0.015673386 0.028822709 0.031526756 -0.018595684
0.009832136 0.00823645 0.010849734 -0.030232986 0.00302409 0.03118534 0.008412923 -0.046265427
0.037201196 0.010179359 -0.10373391 0.0113932 -0.037675034 0.032630548 0.035722733 0.016693017
0.022674935 -0.0027731098 -0.05527135 -0.021859754 0.00791703 0.012896658 0.04145056 0.017837316
0.01645699 0.0090697305 0.058147542 0.005555111 -0.044763934 -0.0039634365 0.021307033 0.008829476
00000000: 5a8c d9bc 560a 7bba 5603 bb3c 9a63 a4bc
00000010: 7a8a aa3b 6c0d 09bd 1947 d0bb 2620 873d
00000020: 4406 44bd 5c7a 91bc 5aff 133c bfdd 493d
00000030: 730d 10bd f4c4 03bd 57c7 ddbc 9e00 78bc
00000040: 7c9a ec3b 4040 94bd f960 4b3c 26a0 ba3d
00000050: f804 9bbc 4b72 7fbc ae3a 253d 7bdd 8e3d
00000060: 3a03 f13c ed72 84bc 8725 dbbb 56a9 0f3d
00000070: 20b5 903d d89f e43c bf89 073c 4178 b2bc
00000080: 8ca2 04bd 5c84 9ebb 4287 5a3d 4d6f 84bd
00000090: f3cb ecbc b721 8dba c493 e7bc b713 7dbd
000000a0: 36bc 07bd 6678 5ebd 6bc3 0abc 76ac 503a
000000b0: 6332 f6bb dcb5 dfbc 35be 133d 8df9 aa3d
000000c0: 426a 483c a572 ddbc f44b 01bd fe68 2e3d
000000d0: cd4f d63b fa4c 543c befc 403d 4427 1cbc
000000e0: 1a1b 1bbd 42d7 97ba f36a 263d f701 0dbd
000000f0: c541 46bd a2e6 8f3c fcb5 b6bc f578 6e3d
00000100: e299 3f3d 3604 633d 7b2d 8d3d b6ad 273a
00000110: 28fa 2a3d cf8f b03d 5d2a 3ebc c94e 2c3e
00000120: d78f a03d 1af8 473d 35ed 5b3d 24fc 643d
00000130: 196f 273c 6970 573d 9f1c 213d 4da0 323d
00000140: 9876 653d 74c8 bf3c f424 693d 00df ddbc
00000150: 862d 0e3c 8125 4a3d 7e2b 24bd e8dc b8bd
00000160: bfd6 44bd 803b e0bd b632 1bbc 78d0 5c3d
00000170: 4a65 3dbd d8cd 35bd 2b21 0b3c f3c5 833d
00000180: 79d6 db3c e34f 463d af59 583d 208c 823d
00000190: 45f7 fd3c de1b 4e3c bc48 99bd 25e3 073d
000001a0: 0543 3ebd 281a 6abd a30a 893d 3c25 2d3c
000001b0: 5664 f43b 91d8 eebc ce40 8c3c b5de 4ebd
000001c0: c21a 62bc 9945 47bb e04e 053d 1c72 393d
000001d0: 5747 543d 4fd8 0bbd f974 663d c34c 8a3b
000001e0: 8e7a c33d 74c2 d73d 60cc 673c 6d33 c8bc
000001f0: f3c6 003d 06ae 5e3d 6821 213d 25fd c4bc
00000200: da09 b8bc 252e 95bd 5ef8 60bc db54 7e3c
00000210: da9a 9fbc b08f dbbc 1c75 a0bd 4211 123d
00000220: a2b5 2abd a028 84bd b6d4 02bd 1f0a 0bbd
00000230: 5e58 b73c e730 5e3b 2d87 36bd f47a c2bc
00000240: ee82 5d3b 562f 903d fb24 b93c d984 7c3d
00000250: b354 91bc 9f3e 8e3c 9b1b e33c bb26 9b3c
00000260: 78cf 663d 603d c33d 9a95 4a3d 5beb 853d
00000270: d19e d23b 6e04 1a3d b35a 863d 9ac1 113d
00000280: d4bf 16bc 339c 8bba bb8f 08bd ec00 e93b
00000290: be48 3f3d 3497 c23c 7cff febc 033b ad3d
000002a0: dc6d e23d d9d5 9f3d 8b2b 09bd 5866 773d
000002b0: dd8e b53d 3b59 863c dda1 d23b 09c1 79bd
000002c0: 4f79 4238 9adb 833b 0197 793c d551 253d
000002d0: 9d0e 16bd 499f 923c 81f7 edbb 9458 573d
000002e0: 777e 923a f247 95bc 5148 09bd 68e7 883c
000002f0: 9ad2 933c 92f2 753c dfd6 3c3d 8c77 e73c
00000300: c6a2 c6bc b3a0 25bd 0665 453c 6206 83bd
00000310: b16c adbc dbbc c23c 63e4 18bd 1f4e 76bd
00000320: ef19 7d3c 9a98 253d 51cb c5bc 8e2f 27bd
00000330: 76c1 4abd 37d4 4ebb a7ad 383d e2d0 b13c
00000340: dfd6 9cbc 8acc 5dbd 2cf6 bb39 240f 4c3b
00000350: 7115 9c3c 7558 243d ae4f 493b b613 41bc
00000360: 0f20 b6bb 1d9c 2b3e 8313 f6bc e750 8439
00000370: 7965 80bc 9a1d ec3c 3322 013d fa55 98bc
00000380: f816 213c 2df2 063c 15c3 313c 2bab f7bc
00000390: d02f 463b 6678 ff3c 5bd6 093c d180 3dbd
000003a0: 4860 183d 53c7 263c 7272 d4bd 8baa 3a3c
000003b0: 2351 1abd 9ca7 053d 0052 123d cbbf 883c
000003c0: c9c0 b93c 10bd 35bb 3664 62bd 3a13 b3bc
000003d0: 6eb6 013c 814c 533c 10c8 293d 901f 923c
000003e0: cfd0 863c 3599 143c 1e2c 6e3d a607 b63b
000003f0: 635a 37bd b7df 81bb 168c ae3c 82a9 103c

fc1.bias f4 [10]
0.0653785 0.002345966 -0.020135144 -0.025018878 -0.02401503 -0.070840664 0.008818151 -0.05064591
0.07892453 0.0063028345
00000000: 2ae5 853d c7be 193b 75f2 a4bc 64f4 ccbc
00000010: 2bbb c4bc e914 91bd 027a 103c 1672 4fbd
00000020: 2fa3 a13d 0288 ce3b
