result/fmnist/seed12/noniid_0.4/ratio_0.2/final.pt (torch, 122111 bytes, 14 tensors)

layer1.0.weight f4 [16, 1, 5, 5]
00000000: 52fe 8ebb 2c23 8fbd 3e05 49bd 4cb8 f03d
00000010: 462b 1c3d 6752 55be ea43 1d3d ccd8 dabd
00000020: 3263 543e 496f 4e3d 42da 89be f993 5e3d
00000030: 9f00 1f3e 20a1 ae3d caa2 97bc 46b0 64be
00000040: c426 8e3e 2f3a 5f3e 1b9c 63be eaf8 11bd
00000050: b1cf 383e a40a 04be 0501 53be ab09 d23d
00000060: 88ad 393d 7896 acbd 8476 a7bc 16be bc3d
00000070: d77a 523d d6c0 903d eaa3 813b d401 0b3e
00000080: 781c bebd 991f e3bd f61d 93bd 307b 25bd
00000090: 300f 523d 0270 5fbe fa2f 55be 48dc 0b3e
000000a0: 6c6a 313e d6ef edbd b84d 18be 579b 68be
000000b0: 1be8 a83d 26b9 353d d036 033e 1ff4 c7bd
000000c0: 1717 95bd fd3c 593e f8a2 123e a5cf 4b3e
000000d0: 6e0d 5c3d 1c68 113e 4268 3f3e 6def 2cbe
000000e0: 8b10 01be b59b 363e cdbc 873d c2e0 e03c
000000f0: 1681 f03d 373d 36be c0da f83d bd8f bf3d
00000100: d8be 8a3d 6521 de3b 01f4 88bd 25e5 3d3d
00000110: 44fa fd3d 62ef 1b3c bd12 f0bd cf24 04be
00000120: 58a6 5abd 2e5c 46be 0f47 0ebe 2e77 323d
00000130: 2882 61be 684c 4a3e 5e75 e7bc b8db 913d
00000140: fc06 ea3c 60f2 40be f281 3f3e 2cce 10be
00000150: 6941 9dba 7e63 023e 23fd 07bd 2cba 5e3e
00000160: 9f8a 2fbe 036f fe3d 0fec 203c 916e a03d
00000170: ceaf 793d 6443 3fbe 3974 a43d 6dd0 8b3d
00000180: 384f 1bbe 5e8e 11be 2622 86be dc51 693e
00000190: 21e0 ed3c 930c ad3d 2ccf 873d 89c9 2dbc
000001a0: fc11 f03d 1659 fa3d ef58 03be b321 ce3d
000001b0: 0219 573e 4602 cdbc bf4c 823b 2265 263d
000001c0: 820a 60be 2980 02be ecbd 943e 47b5 34be
000001d0: 084d aa3c 03ce 93be d206 a4bd 7095 8e3c
000001e0: f0b9 483d b8d1 dabd 54e4 4f3d 912a 843c
000001f0: e3c2 44be 0bd7 8e3b f83d 933e 8127 4d3e
00000200: 91d2 b0bd 136f 1e3e fd43 3dbe d39c 633e
00000210: a1c5 d33d 9c8e ac3d 1c98 17be 5916 0dbe
00000220: 63f5 5fbe 2d20 d23d 9852 2fbe 02df b3bd
00000230: ad4a 91bd f15f 023d ab84 123d 4f28 4c3d
00000240: fd34 263e 78da 44bc 3d73 b0bd bff2 cbbd
00000250: 6368 cebc 68e8 babd 7f45 9f3d 1d48 143e
00000260: 2bbf 133e b1c4 1c3e 8f09 7cbd 01ba 3dbe
00000270: d4f9 403e 939c bfbc 5cd4 74bd 6ab0 43be
00000280: 15a8 1dbe 8d22 443d 7e17 0f3e 9945 3fbe
00000290: b089 7bbe fd49 93bd 202a 1ebe e631 323e
000002a0: 1fcf 95bc bcaf 30be 6397 fa3c cd3e 4b3e
000002b0: 1319 9a3d 863a a4bd 2da1 a93d 9cfc 2ebe
000002c0: 8f27 273e 2287 d7bb 6db1 b13c 2d69 b0bb
000002d0: 9412 64be 7e38 5b3d 08aa 8f3e 3d81 d4bd
000002e0: 1cc0 4dbd aa65 4ebe 0adb c8bc 26ab 953e
000002f0: a38c 80bd c8ba 26bd 3643 393e 3460 49be
00000300: da51 9c3c b512 a33c afa8 9b3c 6ea2 8cbd
00000310: 188c 47bd 5492 c63c c0ee dd3d 1815 b0bd
00000320: 60c8 353d 61c9 39be 499d e4bb 279d 053d
00000330: 7d44 17be 0e19 40bd 97b4 9ebc 9aab 5b3d
00000340: 49f5 2a3e 06de 98be fc96 183e adf5 3f3d
00000350: 15a1 0c3e 39e1 403e 2188 02be 70a1 e2bd
00000360: 332b b73d 4796 453d 1cda 3b3e 9a63 c8bd
00000370: fded 8c3c aeee 9ebd 8c4c 40be 971a fc3d
00000380: f7ea 83bc ff31 383e d170 013e f0f6 fbbd
00000390: 3d6d babd f3f0 413d da4e 353e c248 28be
000003a0: ee43 573e b7ca 0e3e 39bd 7e3b 1c91 43be
000003b0: 0769 c0bd 1667 203e 110d c73d 570f bd3d
000003c0: 50e8 1cbe 8483 31be 9bab 31be 7ec7 d0bc
000003d0: 644b 78bb f243 acbd 3479 503e 34c9 68be
000003e0: b208 6ebe ffe3 3bbe 0f2c cabd ee7c 55bb
000003f0: bafa 46bd 1c89 9e3c 1181 2e3e 5a3a 28be
-0.0043638134 -0.069891304 -0.049077265 0.11753902 0.038127206 -0.20832215 0.038394846 -0.10685882
0.20740965 0.0503991 -0.2692433 0.054340336 0.1552758 0.08526826 -0.018510241 -0.22332868
0.2776395 0.21799539 -0.22227518 -0.035637774 0.18047978 -0.12894684 -0.20605858 0.1025575
0.045331508 -0.08427137 -0.020442255 0.092159435 0.05138668 0.070680305 0.0039563077 0.13574916
-0.09282774 -0.11090011 -0.07183449 -0.040400684 0.051284015 -0.21820071 -0.20819083 0.1365825
0.17325753 -0.11618011 -0.14873397 -0.22715507 0.082473956 0.044366024 0.12813878 -0.09763359
-0.07279795 0.21214671 0.1431998 0.19903429 0.053723745 0.14199871 0.18692115 -0.16888209
-0.12603967 0.17832835 0.06627808 0.027450923 0.11743371 -0.17796789 0.12151098 0.09353588
0.06774682 0.0067788833 -0.06687165 0.046361107 0.1240125 0.0095175225 -0.11722324 -0.12904666
-0.053381294 -0.19371101 -0.13894294 0.04357069 -0.22022307 0.19755709 -0.028254207 0.07121986
0.028567784 -0.18842459 0.18701914 -0.14141148 -0.0011997643 0.12733266 -0.033200394 0.21750706
-0.17142724 0.124235176 0.009821906 0.07833589 0.060958676 -0.18678051 0.0802998 0.068268634
-0.15166938 -0.14214465 -0.26197928 0.22785133 0.029037537 0.08449664 0.06631312 -0.010607132
0.1172218 0.12224023 -0.12826894 0.10065021 0.21005633 -0.025025498 0.003976434 0.04062379
-0.21879008 -0.12744202 0.2905115 -0.17647277 0.020788684 -0.28868112 -0.08009113 0.017405242
0.04900545 -0.10684532 0.05075486 0.016133578 -0.19214968 0.004359131 0.28758216 0.20034601
-0.08633912 0.15472059 -0.18482967 0.22227792 0.10340429 0.08425638 -0.14804119 -0.13778056
-0.21870951 0.10260043 -0.17121351 -0.0878277 -0.070943214 0.031829778 0.035771053 0.04984313
0.16231151 -0.012014978 -0.0861573 -0.099584095 -0.02519626 -0.09126359 0.07776927 0.14480634
0.14428394 0.15309407 -0.061532553 -0.18527986 0.18845302 -0.02339009 -0.059772834 -0.19110265
-0.1539615 0.047884513 0.13973805 -0.18678893 -0.24564242 -0.071918465 -0.15445757 0.17401847
-0.01828724 -0.17254537 0.030589765 0.19848175 0.07524314 -0.08018975 0.08282695 -0.1708855
0.16323684 -0.0065773884 0.021691049 -0.0053836317 -0.22272712 0.053520672 0.2805941 -0.10376213
-0.050232038 -0.2015597 -0.024518508 0.29232138 -0.06276824 -0.040705472 0.18092045 -0.19665605
0.019081999 0.019906381 0.019001333 -0.068669185 -0.04871759 0.024239697 0.108365536 -0.08597773
0.044380546 -0.18143226 -0.0069767577 0.032620575 -0.1477222 -0.046898894 -0.019373221 0.05363045
0.16695131 -0.2985689 0.14901346 0.046865154 0.13733323 0.18835916 -0.12747242 -0.11065948
0.089437865 0.04823902 0.18344921 -0.097846225 0.017203325 -0.07760368 -0.187792 0.12309759
-0.01610325 0.17987822 0.12640692 -0.12302959 -0.09102867 0.047348928 0.1770586 -0.16434005
0.21022007 0.13944517 0.003887011 -0.19098324 -0.093950324 0.15664324 0.09719289 0.092314415
-0.15322995 -0.17335325 -0.17350619 -0.02548575 -0.0037886733 -0.08411397 0.20358735 -0.22733003
-0.23245504 -0.18348692 -0.09871685 -0.0032575685 -0.048578955 0.019352488 0.17041422 -0.1642851

layer1.0.bias f4 [16]
00000000: 9cf0 16be 2ff2 35bd d7f7 aebd 2ce2 be3c
00000010: 43d9 d5bd 8123 70bd 34fd bb3d 91f6 e83d
00000020: 7c34 28be 5e12 77bd 13f2 0d3e 3f47 133e
00000030: 7ebb 29bd e5fc 4bbe 4772 2f3d 0ea1 073e
-0.14740223 -0.044420417 -0.085433654 0.023301207 -0.1044183 -0.05862761 0.09179154 0.11375154
-0.16426271 -0.06032025 0.13861875 0.14382647 -0.041438572 -0.1992069 0.042833593 0.13245031

layer1.1.weight f4 [16]
00000000: 066d 863f 29f1 823f c8c6 693f 2371 843f
00000010: 650f 813f f1c9 7b3f ef02 853f b521 893f
00000020: cf55 783f 4ca6 853f 5e52 663f 58fc 793f
00000030: 25ab 843f 923a 773f 6f5b 813f 6f76 6a3f
1.0502021 1.0229846 0.9131894 1.0347027 1.0082823 0.98355013 1.039152 1.0713412
0.97005934 1.0441375 0.8996943 0.9765067 1.0364729 0.96573746 1.0106028 0.91586965

layer1.1.bias f4 [16]
00000000: 13ff 8bbd a781 30bd 810c fabd eab7 b9bd
00000010: 6027 44bd 2194 82bd 2ac4 16bd 0488 30bb
00000020: 834b 29bd f6dc 28bd 918a d2bd cf09 f3bd
00000030: 1ee5 b1bc fd06 83bd 9df6 5dbd 7501 cabd
-0.06835761 -0.043092396 -0.12209416 -0.09068282 -0.047889113 -0.063759096 -0.03680817 -0.002693654
-0.04133178 -0.04122635 -0.10280336 -0.11867105 -0.021715697 -0.06397817 -0.054190267 -0.09863559

layer1.1.running_mean f4 [16]
00000000: eaa1 0cbe 5ae5 0dbe 7b8b de3c 87a9 ea3c
00000010: 71a9 14be 44de 65bd 6fb2 343d 51f7 9f3d
00000020: 34fd 30be 7901 47be 19ce c93e b235 413e
00000030: 89b3 68be 30db 53be 8b9a ba3b 2732 823e
-0.1373364 -0.13857022 0.027166119 0.02864529 -0.14517762 -0.056120172 0.04411548 0.07810844
-0.1728409 -0.19434156 0.39415053 0.1886814 -0.22724737 -0.20689082 0.0056946925 0.25428888

layer1.1.running_var f4 [16]
00000000: 2588 a83c 6a9d 033d dc74 553d 9601 963c
00000010: a2ca d53c 7ef6 b83c 4a85 103d 2c20 c23c
00000020: 75be 983c 5cfc 4b3d ae05 ac3d 019a 813c
00000030: e33b 493d 07d9 bd3c 491f 283d bc97 e03c
0.020572731 0.032132544 0.0521134 0.018311303 0.0260976 0.022578474 0.035283364 0.023696981
0.018645504 0.049801216 0.08399521 0.015820505 0.049129378 0.023174776 0.04104546 0.027416103

layer2.0.weight f4 [32, 16, 5, 5]
00000000: 38b0 523d 3932 b5bc 6ecd 54bd e363 18bc
00000010: 104a da3c 4042 38bd 3cf3 afbc 3cbe 30bc
00000020: 0b80 273c f690 51bc 8169 aabc ab44 343d
00000030: d849 c3ba 9a8b 6f3d 060d 213d b50c 74bc
00000040: 0910 fc3c 7df7 693c 7049 a53c f45d 83bc
00000050: 3e36 93bc c3f3 cdbb b5dc 3dbc 8659 9db9
00000060: 4059 39bd 58f1 fcbc 1d23 d03b 3ff7 b33c
00000070: 879c b53c 2eb1 053c 86d6 273d 149e a83c
00000080: 025d f7bc 1c40 3d3d 6e81 c93c 2cab c13b
00000090: 00da ad3c 6bad 9f3c 0ea6 033d 452d 573c
000000a0: 9219 0dbd 5e5c 043d 99ed 813c d067 d53c
000000b0: 42d4 9cbc 5fc0 e63c e340 c53b e991 01bd
000000c0: 4770 b1bb ae54 c6bc 2588 3f3d d569 323c
000000d0: af2e 8d3c 847b 8bbc 853f 0fbc 4af1 e93c
000000e0: 0248 253d 71ee 9dbb 1075 30bd b6b8 29bd
000000f0: 19bb 8d3c 2060 0dbb 5bdf c738 9b72 003d
00000100: 2113 49bd ae9f 3a3d ee75 55bc f215 eebb
00000110: 6319 21bd c7f6 3abd 62e6 d93c 19c7 f3bc
00000120: e5aa 0b3d 4bd3 8b3b 7e76 1a3b 50c6 b7bc
00000130: aa9a ac3c 9bb0 073c 315f 5abb 3595 26bc
00000140: c87d 03bd 9ce8 efbc 5c09 35bd 7d0d fdbc
00000150: 1898 81bd 3926 b5bb 0f98 29bd f8d3 70bb
00000160: 6d91 69bd ef8b 40bd 7f6f ca3c 122f 503d
00000170: 4978 943d bef4 b2bc 9d85 37bd 455b c5bc
00000180: 3769 343d c01c 823d cb13 50bb a3f7 63bd
00000190: 356d 10bd 7119 b33c 417c d33a 099c 37bd
000001a0: 060a b93b 332f f6bb 9d84 d03a e6fb 883c
000001b0: 9810 013d 0034 f43c 1457 45bd 5b59 cd3c
000001c0: 85ff 883c d7d8 933c e795 573c c49c 05bd
000001d0: f4f0 463b 4499 81bc 9f66 94bc 1dc9 c23c
000001e0: 56bd 91bc 45f9 fdbc c6ab c5bc e78b 423d
000001f0: 8a12 643d 1b4b 0e3d 3e09 a7bb b56d 143d
00000200: 144f dabb ddd7 463d cfc4 083c bc7f 1f3d
00000210: 700b c53c 511d 55bd ab6b 00bd c415 1d3d
00000220: aad4 303d 68d1 6fbd 072e 063c 5876 9ebc
00000230: 36cc e2bc 193c c9bc bdbe e63c aa2c 57bd
00000240: 9384 953c d0f9 f8bc 9cf3 143d 4f61 c2bb
00000250: 68b9 a1bc 8deb 983d 2e9d b3bb cf71 de3c
00000260: 5dae 8d3c 1f4d 853c b599 263d 4f83 1f3d
00000270: 01a0 ca3c ab5c fcbc d39c 9abc 915f ec3b
00000280: 15db cbbc 8181 b63c 1103 113c cb0a df3c
00000290: ad12 973d 7959 1f3d 2e55 9bbc eaad bdbc
000002a0: 8539 1f3d a31b 093c b857 b0bc d306 a13b
000002b0: 7cf7 4b3d f515 3b3d 7941 c63c 4c23 0ebc
000002c0: 0d95 ebbc 013c e6bc 44dd 9bbc 0a18 1f3b
000002d0: fb0f 053d 44ac a23c 6019 8e3c 8423 033c
000002e0: d35b 0e3d a88b cf3b c658 3c3d e75b 853d
000002f0: 4af6 053d e960 663c e5b2 b13c 5c88 8cba
00000300: b679 a23c d320 853c f390 39bc 74c2 8d3b
00000310: 52b3 18bc 0c65 2f3d 513c 11bd 2ae5 2b3d
00000320: 26c7 133d ba45 813d afee aa3c 452e a13b
00000330: 4cfe 3a3d 34ee dd3c 18b8 0dbd 318e 59bd
00000340: 4f5e 803c 8311 72bd 2ccd 2dbd 05ef 22bd
00000350: 2a52 8abb 8d67 8dbb a267 5fbd 33f2 11bd
00000360: 6304 bfbb 5ba7 663d b3cc 56bb f6b3 5c3d
00000370: e749 4db9 bd96 d3bb 88bc a33b 0adc cbbc
00000380: c5f9 b93c 5989 4d3b b008 d23c 8840 853d
00000390: 070c ee3a cd73 24bd 0459 eabc 039e 093d
000003a0: 8f48 7c3d b86a 91bc 4368 29bd c4c3 6c3c
000003b0: cbeb 8d3c c9b3 8abc 2a76 153d 28e2 b9b8
000003c0: d8de 19bd 02a3 d33b e297 cebb 1614 c33c
000003d0: cfb8 8b3c 7524 20bd 68af 71bb 4c48 c8bc
000003e0: 0b01 d03c ea8c 2f3c ff41 16bd 120b ddbc
000003f0: 9065 22bd 95e5 933c 74d4 34bc 8990 19bd
0.051437587 -0.022118675 -0.051953726 -0.009301159 0.026646644 -0.044985056 -0.021478288 -0.010787543
0.010223399 -0.012790909 -0.020802261 0.0440108 -0.0014899326 0.058482744 0.03931906 -0.014895608
0.030769365 0.014280197 0.02017662 -0.016036011 -0.0179702 -0.006285162 -0.011588265 -0.00030012074
-0.04525113 -0.0308768 0.006351842 0.021968482 0.022169365 0.008159919 0.04097607 0.02058319
-0.030195717 0.046203718 0.02459785 0.005910298 0.021222115 0.019491872 0.032140784 0.013133352
-0.034448214 0.03231465 0.015860366 0.026050478 -0.019144181 0.028167902 0.006019698 -0.03163329
-0.005414996 -0.0242103 0.046760697 0.01088949 0.017234175 -0.01702667 -0.008743172 0.028557438
0.040351875 -0.004819684 -0.04308039 -0.04143592 0.01730113 -0.0021572188 9.530663e-05 0.031359296
-0.04909051 0.04556244 -0.013028605 -0.0072657997 -0.03933085 -0.0456455 0.026599113 -0.029758023
0.034098525 0.0042671314 0.0023569162 -0.02243343 0.021069843 0.008281852 -0.0033320899 -0.01016741
-0.032102376 -0.029285721 -0.04419838 -0.03089022 -0.06327838 -0.005528238 -0.04140478 -0.0036747437
-0.057023454 -0.04700845 0.024711369 0.05082614 0.07249505 -0.021845218 -0.044805158 -0.024091372
0.044045653 0.0635314 -0.0031750079 -0.055656087 -0.035260398 0.021862717 0.0016135053 -0.04482654
0.005646947 -0.007512951 0.0015908662 0.016721677 0.031509966 0.029809952 -0.048178747 0.025067022
0.016723404 0.018047733 0.013158298 -0.032620206 0.0030356022 -0.015820153 -0.01811534 0.023777539
-0.017790478 -0.03100265 -0.02412976 0.047496703 0.055681743 0.034739595 -0.0050975373 0.036237437
-0.006662259 0.048545707 0.008347704 0.038940176 0.024053305 -0.05202991 -0.03135268 0.038350835
0.043171562 -0.058549315 0.008189685 -0.01934354 -0.027685266 -0.02456479 0.028167123 -0.05253283
0.018251693 -0.030392557 0.036365137 -0.0059320102 -0.019741729 0.07466803 -0.0054813838 0.027153878
0.017295057 0.016272126 0.04067393 0.038943585 0.024734499 -0.030805906 -0.018873608 0.007213541
-0.02488474 0.02227855 0.008850829 0.027226826 0.07376609 0.038903687 -0.018961515 -0.023154218
0.038873214 0.0083684055 -0.021526203 0.0049141436 0.049796566 0.045675237 0.024201142 -0.008675408
-0.028757596 -0.028104784 -0.019026406 0.0024275803 0.032485943 0.019857533 0.017346084 0.008004073
0.03475554 0.006333787 0.0459831 0.065116696 0.032705583 0.014061191 0.021691749 -0.0010721791
0.019833427 0.016251003 -0.0113260625 0.004326159 -0.009320097 0.042820975 -0.035457913 0.041966595
0.036078595 0.063121274 0.020865766 0.004918846 0.045652673 0.027091123 -0.034599394 -0.05311412
0.01566997 -0.05909873 -0.042431995 -0.039778728 -0.0042212205 -0.0043153227 -0.05454219 -0.03563137
-0.0058293804 0.056311946 -0.003277582 0.05388256 -0.00019577854 -0.0064571784 0.00499684 -0.024885196
0.022702107 0.0031362383 0.025638908 0.06506449 0.0018161543 -0.0401495 -0.0286069 0.033597957
0.061592635 -0.017751083 -0.041359197 0.014450971 0.017324349 -0.016931431 0.036489643 -8.863612e-05
-0.037566036 0.006458641 -0.006304727 0.023813289 0.017055897 -0.039097268 -0.0036878232 -0.024448536
0.025391122 0.010714749 -0.036684033 -0.026982818 -0.03964764 0.01805381 -0.011036981 -0.037491355

layer2.0.bias f4 [32]
00000000: f351 bebc 4fa9 173d 3d4e fcbb 3f26 12bd
00000010: 60b3 d43c ead1 97bc a6a2 48bc 5cdc 06bd
00000020: a78b 303d 77da 04bd 69bd 193d 5266 df3c
00000030: 8d52 d93b b539 9cbc 2969 1b3d ad9e 843b
00000040: aed5 323d c0ac ffbc bae6 1e3d c9f5 4a3c
00000050: 2d9a 153d 8c2e feba 9621 d33c 5529 463d
00000060: 60de 523c a1b5 2c3c a0e7 38bd 4993 86bb
00000070: a647 2abd fb58 3e3d c90c 213d 94db 863c
-0.023232436 0.0370267 -0.0076997564 -0.035681006 0.025964439 -0.018532712 -0.01224581 -0.032924995
0.043101933 -0.032434907 0.03753415 0.02727047 0.0066321553 -0.019070486 0.037942085 0.004047236
0.043660812 -0.031210303 0.038794257 0.012387701 0.036523987 -0.0019392534 0.025772851 0.04837926
0.012870401 0.010541351 -0.04514277 -0.004106913 -0.041572236 0.046471577 0.039318834 0.016462125

layer2.1.weight f4 [32]
00000000: f8d6 533f 3eb1 4d3f 8335 573f 669b 4a3f
00000010: 3f69 563f 69a1 563f 7399 4e3f 122b 513f
00000020: f906 543f d3ab 5d3f 4018 543f a348 4c3f
00000030: 3d8a 523f 0144 4e3f a868 5a3f 5257 4f3f
00000040: 096b 573f a42a 4c3f 8fac 593f 00c3 523f
00000050: a3bb 573f bc54 533f ae48 503f 122c 4b3f
00000060: 8dca 4e3f 52de 433f 08ea 563f d734 5c3f
00000070: f126 5a3f 371c 583f a835 4b3f 6b1d 563f
0.8274989 0.80348575 0.8406603 0.7914337 0.8375434 0.8384004 0.80702895 0.81706345
0.8282314 0.8659031 0.828495 0.79798335 0.82242185 0.80572516 0.8531594 0.80992615
0.841477 0.79752564 0.8502893 0.82328796 0.84270686 0.8255117 0.813609 0.7936412
0.8077782 0.7651111 0.83950853 0.8601813 0.8521567 0.8441805 0.7937875 0.8363864

layer2.1.bias f4 [32]
00000000: 812e a0be f4ff a2be f3d1 aabe e5c4 a2be
00000010: db78 98be e86f 8dbe 9685 91be 96bb a2be
00000020: e07f a5be 8b79 9fbe 1722 98be 39ea a0be
00000030: 4a60 9abe 5df7 9ebe eeb0 a8be f830 a7be
00000040: abb5 a6be fe70 a9be d692 9dbe a813 9ebe
00000050: 441f 96be f970 95be fc96 a1be 3383 9bbe
00000060: 6d09 98be 985c a2be 1fb9 a0be 2bbb 9dbe
00000070: ee88 99be c7f2 abbe bf1e a2be 03b3 a3be
-0.3128548 -0.31835902 -0.33363304 -0.31790844 -0.29779705 -0.2762444 -0.2842223 -0.31783742
-0.32324123 -0.31147417 -0.29713508 -0.31428698 -0.30151588 -0.31048098 -0.32947487 -0.32654548
-0.32560477 -0.3309402 -0.3077609 -0.30874372 -0.2932073 -0.29187754 -0.31560504 -0.30373535
-0.2969469 -0.31711268 -0.31391236 -0.3080686 -0.29987282 -0.33583662 -0.31664082 -0.31972513

layer2.1.running_mean f4 [32]
00000000: 62e0 b6bc 695d a8be 05cb 28be 4e57 58be
00000010: 9cc6 e43e 681d dabe 556b c7be 6a55 4bbf
00000020: d643 44be 96ab 343e 6405 60bd 9e35 f2bd
00000030: 3d6c 8cbe 0cc6 783d 9c6a c63d c9a6 c53e
00000040: 8dbd c63e 8b8b 133e b8a1 c93e 4182 2b3d
00000050: 0783 8e3e fe10 67bd bca8 3ebe b4ed 5bbe
00000060: af99 69be 6cd4 6c3f 1e85 b9be b168 59be
00000070: 0e73 1ebe 5a75 1b3d cb93 d9be 9562 fa3e
-0.022323791 -0.32883766 -0.16483696 -0.21127054 0.44682777 -0.4260056 -0.38949075 -0.79427207
-0.19166502 0.1764358 -0.05469264 -0.11826633 -0.2742633 0.060735747 0.09688303 0.3860381
0.3881649 0.144087 0.39381194 0.041872267 0.2783434 -0.05641269 -0.18619055 -0.21477395
-0.22812532 0.9251163 -0.36234373 -0.21231343 -0.15473577 0.037953712 -0.4249557 0.48903337

layer2.1.running_var f4 [32]
00000000: 8065 a03e dce1 713e 3e9c 8b3e aaa9 ad3e
00000010: b207 bd3e 85da 203f 4505 eb3e d532 003f
00000020: c9ab a93e 4c60 3d3f 8c69 883e aedc 6c3e
00000030: 3d99 9f3e 402c 8d3e 2c14 b53e c2fd 9f3e
00000040: 1867 dd3e ddf3 a93e 0d1f e13e 9eac f03e
00000050: a7f4 823e 476c 1a3f 7a58 953e be8d d33e
00000060: bd5e b63e 4e2d f73e 0628 813e 12f7 b23e
00000070: b817 a63e c03f a13e 76d0 bb3e 4f3b da3e
0.31327438 0.23621315 0.2726764 0.33918506 0.36919934 0.62833434 0.45902458 0.50077564
0.33138874 0.7397506 0.26643026 0.23131058 0.311716 0.27572823 0.35366952 0.3124829
0.43242717 0.33193865 0.43969002 0.47006696 0.2557728 0.6032147 0.29169065 0.41319078
0.35619155 0.48276752 0.25225848 0.34954125 0.3243997 0.3149395 0.3668248 0.42623374

fc.weight f4 [10, 1568]
00000000: c3fd 5d3b 7305 283c bee1 cb3a 80ff 08bd
00000010: 7b52 2f3c 2719 2b3c 28a3 13bc b048 753d
00000020: 5737 19bd 48ed b13c f389 273d 4102 783d
00000030: 493f b23c a7c3 c83b e882 1fbc 2170 34bd
00000040: 0cac 4e3c 3961 48bd 8795 1f3d d4d6 0d3c
00000050: bf2f 4ebd 18a3 8dbb 2b1e 613c 83c4 173d
00000060: 1bc2 1cbc 6603 0bbc b349 4a3c 1f12 3f3d
00000070: 0a92 d5bb 4781 bf3c df30 973c 5e1a 59bc
00000080: b7a0 cabb 40e9 61bc 2798 b43c 81d3 1abd
00000090: 631d 833b 2b64 f9bc e6a8 edbc a83e 0ebd
000000a0: 8757 43bc acba 08bd f80e 5e3c ad35 b6bb
000000b0: c130 8bbc b9e3 a7bb af09 503c 7c67 6abc
000000c0: ac88 daba 53a3 1d3d d4f2 ecba 7305 4dbc
000000d0: 0b16 bc3c b2f6 45bc 307f 60ba d370 8a3c
000000e0: 9535 0c3c a8be ed3c acf6 d33c 5728 0bbd
000000f0: 295a c63c 7b75 453c 44e2 08bd d65d 653b
00000100: 8722 5cbc cfb5 133d bb70 ed3c 8257 0fbd
00000110: 55b2 c3bb 14c8 0d3d c7a7 9dbc f4c1 0f3d
00000120: 50f1 afbc a9c4 15bb 051a aeb9 bcce 8ebc
00000130: 05d6 c8bc 60c3 a0bc 96fc b33c a980 b0bc
00000140: 6616 203d 3ebc d1bc a6da d53b 4475 1c3c
00000150: 7e48 0ebd 1ea3 0a3d dfee 30bd 3c47 b23b
00000160: dbc1 7fbc c392 42bd 3864 1ebc 071c 62bb
00000170: b88e cabb a45e b33c 6449 103d 33a5 293d
00000180: 7b26 34bc 9db4 1a3b 054d a33c 2453 023d
00000190: cb15 8e3b 6b63 c8bc b22e 063d 233f 063d
000001a0: cc2d ccbc 3b87 f7bc 252e 7d3d a9b7 d9bc
000001b0: 4290 bbbc bd23 103c fdc4 143c ca63 c2bc
000001c0: 5ee9 acbc eada 373d 3ada 28bb 017e a5bb
000001d0: 3797 143d bf1e e43a c35f 073d c4f0 1d3c
000001e0: 2c08 08bc 4059 f8b9 c140 bbbb eb98 82bc
000001f0: 6eaa debc b5d3 82bc 61b7 833c 4a9a 6abd
00000200: 0461 933c 4e12 bbbc 1988 d93c 1e0a 58bb
00000210: 1c74 15ba 4829 b2bc 8cd4 6dbd 54b3 16bb
00000220: dd99 9bbc d1d7 24bd a7f1 ffbb 02a8 af38
00000230: 1077 03bd 4da4 61bb 8d1f ac3c d80e a73b
00000240: d71d e2bb 07ba ad3c 38b9 88bc b93f f13c
00000250: 5e85 db3b 145b d5bc 1859 9b3c f471 46bb
00000260: c971 243d cca7 c83a 847b 1d3d 09bd 8c3c
00000270: 7e12 2f3d 05d2 813b 05cb 493d 4cbd f33b
00000280: 950e b5bc a475 47bb 95e2 51bd ef57 dcbc
00000290: 78f3 b7ba a0af 82bc f50b babc 784c a1bc
000002a0: 7e2a b53b 262d 643b e57e aabc 2693 eb3c
000002b0: 9888 a23c 8c94 9a3b 9ec7 ba3c b1a7 c1bc
000002c0: d052 b1ba 4fd8 313c 7eb9 723c 41c1 263d
000002d0: d246 d8bc 20fe ae3c 2458 89bc 0a64 183c
000002e0: 08a0 17bb 5c66 7dbc 0672 c0bc 14c8 3ebc
000002f0: 87eb ad3b 377e 79bc c077 a23c 186a c83c
00000300: 4cb3 eb3b 18a0 cebc 9efd 7dbb b1ae 48bc
00000310: 9425 34bc 7725 a6bb 5866 483c 7302 403c
00000320: 074b 4f3d 18bc 41bc 4626 34bb b4b4 ddbc
00000330: 7208 35bd 9a96 bd3c e9e5 743c 38bb 553d
00000340: b94f 67bc e175 eebc 3b3f 783c 3103 a7bb
00000350: f3b5 3f3b baf0 1d3d e777 a53c a071 3d3c
00000360: 5805 4bbc 728c 9f3d eb6f 343d d6cf 0fbb
00000370: 71ab 97bc 9c3f 743c 08bc 5b3d 1ba8 613a
00000380: 0ea0 3e3d c7c2 9dbc 57ad d7bc aea7 c2bc
00000390: e41f eabc e95e 0e3d be72 9d3c 66a1 6a3c
000003a0: 5e5e aebc e804 373b 8fb5 dcbc 2f23 49bd
000003b0: 2c72 cdbb f30f f03a 03d5 80bb 8af4 e7bc
000003c0: 620d e73c f52f 313c cb26 8dbc 2bb1 e0bb
000003d0: de78 983c c30e e9bc cf9d 893c 8e06 5b3b
000003e0: 20cd 713c 0899 f13c c39e b33c d302 a23c
000003f0: ed1d 213c 1e65 953c 4b1a 75ba 2825 263c
0.0033873178 0.010255205 0.0015554947 -0.03344679 0.010700817 0.0104430085 -0.009011067 0.059883773
-0.03740629 0.02171959 0.040903043 0.060549024 0.021758692 0.006126839 -0.0097358 -0.044052247
0.012614261 -0.048920844 0.03896096 0.008657176 -0.050338503 -0.004322421 0.013740103 0.037052643
-0.009567763 -0.008484697 0.012346673 0.04664814 -0.0065176534 0.023377074 0.01845592 -0.013250915
-0.0061837095 -0.013788521 0.022045208 -0.037799362 0.004001306 -0.030443272 -0.029011201 -0.034727722
-0.011922724 -0.03338115 0.0135533735 -0.005560598 -0.016991021 -0.005123582 0.012697621 -0.014306899
-0.0016672811 0.038485836 -0.001807774 -0.012513506 0.02295973 -0.0120827425 -0.0008563874 0.016899502
0.008557697 0.029021576 0.025874458 -0.033974018 0.024212914 0.012051935 -0.03341891 0.0034998558
-0.013435966 0.036062058 0.028984418 -0.034995563 -0.0059721866 0.034614637 -0.019245042 0.035097077
-0.021477371 -0.0022852814 -0.00033207252 -0.017432563 -0.024516115 -0.019624412 0.021971028 -0.021545725
0.03908386 -0.025602456 0.006526309 0.009549443 -0.034737103 0.033846967 -0.043196555 0.0054406207
-0.015610184 -0.047503244 -0.009667449 -0.003450157 -0.006181564 0.021895714 0.03522624 0.041417312
-0.010995503 0.002360619 0.019934187 0.03181757 0.004336094 -0.024461469 0.032759376 0.032775056
-0.024924181 -0.03021585 0.061811585 -0.026576834 -0.022895936 0.008797583 0.009080169 -0.023729224
-0.021107372 0.044886507 -0.0025764839 -0.005050421 0.036277022 0.0017404183 0.03305031 0.0096399225
-0.00830273 -0.00047368743 -0.0057145064 -0.015942058 -0.027180877 -0.01597009 0.016078653 -0.057276048
0.017990597 -0.022835877 0.026554154 -0.0032965015 -0.00057012006 -0.0217482 -0.05806403 -0.0022995071
-0.018994266 -0.04024488 -0.0078107896 8.375944e-05 -0.03209597 -0.0034430206 0.021011138 0.005098205
-0.00690053 0.021206869 -0.016689882 0.02944933 0.006699248 -0.026044406 0.018963382 -0.0030280324
0.040147576 0.0015308796 0.03844787 0.017179983 0.042742245 0.003961804 0.04926588 0.0074383374
-0.02210168 -0.003043511 -0.051241476 -0.026897399 -0.0014034351 -0.015952885 -0.02271078 -0.019689783
0.005528747 0.003481695 -0.020812461 0.02875669 0.019840524 0.004717415 0.022800263 -0.023639532
-0.0013528708 0.010854795 0.014814733 0.040711645 -0.026400957 0.02136141 -0.016765662 0.009301195
-0.0023136158 -0.015466299 -0.02349187 -0.011644382 0.005307618 -0.015227846 0.019832492 0.024464652
0.0071930047 -0.025222823 -0.0038755904 -0.012248681 -0.010995287 -0.005070384 0.012231432 0.011719334
0.05060866 -0.01182463 -0.0027488633 -0.027063705 -0.044197507 0.023143101 0.014947393 0.0521805
-0.014118128 -0.029108943 0.015151794 -0.005096816 0.0029252737 0.038559653 0.020198775 0.011562735
-0.012391411 0.0779046 0.044052046 -0.0021943948 -0.018514367 0.014907744 0.053646117 0.00086081185
0.04653936 -0.019257916 -0.026327772 -0.023761597 -0.02857966 0.034758482 0.019219752 0.014320707
-0.021285232 0.0027926508 -0.026942043 -0.04910582 -0.006269714 0.00183153 -0.003931643 -0.028314847
0.028204624 0.0108146565 -0.017230412 -0.0068570576 0.018612321 -0.028449422 0.016798882 0.0033420655
0.014758378 0.029491916 0.02192629 0.019776737 0.009833795 0.018236693 -0.0009349926 0.010140695

fc.bias f4 [10]
00000000: fac2 3bbb 6aff ebbb 428b 0ebc edcb 42bc
00000010: 23a0 233c bc67 e63b 3487 df3c fa85 983b
00000020: f42b 3f3a 6692 a4bc
-0.002865015 -0.0072020786 -0.008700194 -0.01188944 0.00998691 0.007031409 0.02728615 0.004654643
0.00072926213 -0.02008934
