result/fmnist/seed12/noniid_0.4/ratio_0.05/final.pt (torch, 122111 bytes, 14 tensors)

layer1.0.weight f4 [16, 1, 5, 5]
000000 08 02 64 3d 8f 06 e7 bd ca f7 10 bd b7 b4 93 3d
       0.055666 -0.11280548 -0.03539256 0.07212203
000010 9e 1b 0f 39 11 a3 1f be bb 2e 1d 3d 52 d2 29 be
       0.00013647831 -0.15589549 0.038374644 -0.16584137
000020 b2 80 6f 3e 3c 62 1e 3d eb 87 a7 be 1b 86 01 3d
       0.23388937 0.038667902 -0.32720885 0.031622034
000030 44 40 2b 3e b5 0b c4 3d 8c a2 ff 3b d9 a6 9a be
       0.16723734 0.095725454 0.0078013595 -0.3020542
000040 fd 4b 86 3e c1 c8 87 3e cd 23 4b be 34 6a 5b bd
       0.2622985 0.2652035 -0.19837876 -0.05356808
000050 f0 ee 63 3e 19 17 28 be eb bf 80 be dc ff 34 3e
       0.22259116 -0.16415061 -0.25146422 0.17675728
000060 a0 3f 8d 3b 37 f5 a5 bd 15 a6 59 3c e5 25 01 3e
       0.004310563 -0.08103412 0.013284226 0.12612112
000070 6f 2c 3d 3d a9 79 03 3d 19 93 ae 3c ff 37 08 3e
       0.046184953 0.032098446 0.021310376 0.13302611
000080 7a 65 e7 bd 18 ad 0d be f9 fd 89 bd d7 58 1f bd
       -0.11298652 -0.13835561 -0.067378946 -0.038903084
000090 1a 96 71 3d 94 9d 6d be 65 d4 55 be 0c 5a 16 3e
       0.05898104 -0.23204643 -0.20881803 0.14682788
0000a0 cf b2 36 3e 30 5d 1b be 38 74 28 be bd 60 70 be
       0.17841648 -0.15172267 -0.16450584 -0.23474403
0000b0 79 f2 b2 3d b1 b5 7b 3d 26 c9 c6 3d 2c 96 1d be
       0.08737654 0.06145257 0.09706335 -0.15389317
0000c0 86 91 f6 bc 1d f2 81 3e f2 f1 30 3e 6d 3e 52 3e
       -0.030098688 0.2538003 0.17279795 0.20531626
0000d0 6b ea 71 3d cf fc fd 3d b8 0b 42 3e d8 33 1d be
       0.05906145 0.12401735 0.18949783 -0.15351808
0000e0 70 7c 12 be 3c 89 35 3e 0b 7c a2 3d de bc 57 3d
       -0.14305282 0.17728132 0.079338156 0.052670352
0000f0 a6 09 d0 3d af 3b 4d be 0b f9 d3 3d b9 9b b3 3d
       0.1015809 -0.20042299 0.103502356 0.08769936
000100 5d 4f b1 3d 12 c6 af bc 78 60 bd bd 68 b3 cc 3c
       0.086577155 -0.021456752 -0.092469156 0.024987891
000110 cb 75 04 3e b7 05 25 3d da be 03 be b7 99 1c be
       0.1293556 0.040288653 -0.12865773 -0.15293013
000120 25 28 90 bd e8 6e 3b be 43 1e d5 bd 2f 12 7b 3d
       -0.07038907 -0.18304026 -0.104061626 0.061296638
000130 40 be 55 be 38 83 7b 3e bb d5 12 bd 6a b0 91 3d
       -0.20873356 0.24561775 -0.03584836 0.071137264
000140 7f 12 1a 3d 9b 2a 68 be bd f8 08 3e 92 76 53 be
       0.037615295 -0.22672503 0.13376136 -0.206507
000150 66 0f 31 bd 4d b8 16 3e b3 cb 2f bd ac e4 70 3e
       -0.043227576 0.14718743 -0.042918872 0.23524731
000160 b5 25 21 be 9e c2 17 3e 18 ad 92 bc 9f 07 0d 3d
       -0.1573704 0.14820334 -0.017904803 0.034431096
000170 d8 2f 29 3d 66 a8 82 be 48 15 00 3e fc b9 d7 3d
       0.041305393 -0.25519103 0.12508118 0.105335206
000180 9f 47 1c be dc ba 3c be fa 2a a6 be 79 e9 61 3e
       -0.15261696 -0.18430656 -0.32454664 0.22061719
000190 8c 80 20 3c 21 a6 aa 3d 3a cf d4 3d af b9 da 3b
       0.009796273 0.08332468 0.10391088 0.0066749672
0001a0 c5 64 bf 3d 89 ea c6 3d 0c 22 36 be 0d e5 c4 3d
       0.09345392 0.09712703 -0.17786425 0.096140005
0001b0 23 5e 77 3e bf 54 9d bb 51 01 29 bd b3 a6 fd bc
       0.24157004 -0.0048013623 -0.04126102 -0.030963277
0001c0 ad 63 50 be 93 03 c8 bd 13 88 81 3e 58 eb 45 be
       -0.20350523 -0.09766307 0.2529913 -0.19328058
0001d0 56 d9 13 bd 83 c1 8b be f6 4a cf bd d3 73 8a bc
       -0.03609594 -0.27296075 -0.101217195 -0.016900932
0001e0 02 da 2c 3c 48 c6 06 be da a3 a3 3d c8 50 f8 3c
       0.010550024 -0.13161576 0.079902366 0.030311957
0001f0 e2 81 31 be 4a a1 70 3d 10 85 97 3e ad 25 81 3e
       -0.17334703 0.058747567 0.29593706 0.25224057
000200 f7 8d 8c bc ef 74 2b 3e 63 00 26 be f4 62 41 3e
       -0.017157538 0.16743825 -0.16211085 0.18885404
000210 da 46 80 3d 8a 03 9c 3d 70 46 42 be be 52 a6 bd
       0.06263514 0.076178625 -0.18972182 -0.081212506
000220 c0 c0 70 be 65 d1 f3 3d 13 32 21 be a4 f6 b3 bd
       -0.23511028 0.11905173 -0.15741758 -0.08787277
000230 31 f5 7d bd 34 37 91 bd 11 10 e6 bc 69 62 e9 3c
       -0.06200141 -0.07090607 -0.028083833 0.028489308
000240 0c e5 17 3e dd ef 30 3c 64 6f 1a be b5 c2 1c be
       0.14833468 0.010799375 -0.15081555 -0.1530865
000250 e1 46 da bb 24 26 ba bc 4b 3b cb 3d 4f ed 05 3e
       -0.0066612815 -0.022723265 0.099234186 0.13078807
000260 22 23 34 3e 4c c1 cc 3d 2c 49 85 bd 48 6c 46 be
       0.17591527 0.09997806 -0.06508097 -0.19377244
000270 dc 3a 36 3e 65 01 88 3d 1f 78 d3 bd 13 e2 2e be
       0.1779589 0.06640891 -0.10325646 -0.17078428
000280 6b 92 4c be 1b c5 40 3d d7 cd 35 3e c7 fc 55 be
       -0.19977729 0.047062974 0.17754303 -0.20897208
000290 70 22 61 be 9e 02 bb bd 26 d8 0e be c5 37 4e 3e
       -0.21985793 -0.091313586 -0.13949642 0.20138462
0002a0 47 b2 62 bd 71 13 25 be 5c 3e 41 3d 9d 59 82 3e
       -0.0553458 -0.16120698 0.04717861 0.25458995
0002b0 59 e7 9a 3d 6b 05 dc bd 14 4b e1 3d fc 77 2a be
       0.07563657 -0.10743221 0.11000648 -0.16647333
0002c0 be 62 3b 3e 4c ca a0 bd 29 9f 23 bd d0 54 c7 3c
       0.18299386 -0.07851085 -0.03994671 0.024332434
0002d0 c7 1f 7e be 12 90 92 3d f8 ef 8e 3e 7b cb 1b be
       -0.2481681 0.071563855 0.27917457 -0.1521434
0002e0 e7 6d 78 bc 59 c5 63 be ea d1 5a bd 00 84 95 3e
       -0.0151629215 -0.22243251 -0.053422846 0.2920227
0002f0 7a d0 75 bd 25 03 ba 3c 00 0d 49 3e 3a e1 7a be
       -0.060013272 0.022706578 0.19633865 -0.2449998
000300 04 fe ac 3c d2 13 48 bc 88 a3 44 3d 90 f3 a9 bc
       0.021117218 -0.012211757 0.048007518 -0.020746022
000310 18 d2 b3 bd 10 77 88 bc f5 1a 74 3d 14 26 ad bd
       -0.087803066 -0.016658336 0.05959602 -0.084545285
000320 3e 16 a2 3d 58 ec 36 be 92 74 99 3a 92 73 9e 3b
       0.079143986 -0.17863595 0.0011707714 0.0048355544
000330 18 33 0a be e7 6d 25 bd a1 d4 a6 bd be 9e 11 3d
       -0.13496053 -0.040388014 -0.081460245 0.03555178
000340 e3 a8 1d 3e df 10 8e be 84 07 3f 3e c5 eb 16 bd
       0.15396456 -0.27747247 0.1865521 -0.03684594
000350 d2 21 10 3e ac 7a 66 3e 6e be 10 be 31 3e b0 bd
       0.14075401 0.22507733 -0.14135143 -0.08605612
000360 4a 1f 0a 3c de e0 6a 3d c4 20 89 3e 07 4c b0 bd
       0.008430311 0.057343356 0.2678281 -0.08608251
000370 3a 4d a7 3c c6 9b 11 be 5b cd 4a be 8f 56 07 3e
       0.020422567 -0.14219579 -0.198049 0.13216613
000380 d2 60 d7 3c eb da 29 3e 4c 2a 07 3e 4a 05 0c be
       0.026291285 0.16587417 0.13199729 -0.13673893
000390 9f ab cb bd 1d b4 0e 3d 27 d8 34 3e 35 3a 39 be
       -0.099448435 0.03483974 0.1766058 -0.1808861
0003a0 7e 7f 59 3e 2c c8 08 3e 7d df 48 bc e4 92 42 be
       0.2124004 0.1335761 -0.012260315 -0.19001347
0003b0 c9 0b e8 bd 9e eb 30 3e 5a 58 d7 3d b0 a0 d5 3d
       -0.11330373 0.17277381 0.105148986 0.10431039
0003c0 93 4a 25 be af 83 25 be 40 d3 12 be 10 09 0f bc
       -0.16141729 -0.16163515 -0.14338398 -0.008730188
0003d0 0a 7d fe bb 3f 51 f4 bd a1 0c 4a 3e 4e e2 72 be
       -0.0077663707 -0.11929559 0.1973138 -0.23719141
0003e0 77 ff 66 be 76 b3 37 be 62 c1 ed bd 49 7d c2 bb
       -0.2255839 -0.17939553 -0.116091505 -0.0059353453
0003f0 59 ea a2 bd af 82 18 ba a8 0b 46 3e 7a 9a 1f be
       -0.079548545 -0.0005817813 0.19340384 -0.15586272

layer1.0.bias f4 [16]
000000 9c f0 16 be 2d f2 35 bd 56 f8 ae bd bc e1 be 3c
       -0.14740223 -0.04442041 -0.0854346 0.023300998
000010 46 d9 d5 bd e1 23 70 bd dc fc bb 3d 3e f7 e8 3d
       -0.10441832 -0.058627967 0.091790885 0.11375283
000020 15 34 28 be 61 12 77 bd d7 f1 0d 3e 06 47 13 3e
       -0.16426118 -0.060320262 0.13861786 0.14382562
000030 fd bb 29 bd 26 fc 4b be d0 72 2f 3d e1 a0 07 3e
       -0.041439045 -0.19920406 0.042834103 0.13244964

layer1.1.weight f4 [16]
000000 0f 73 87 3f ba 33 82 3f 08 2d 62 3f 31 f7 86 3f
       1.0581988 1.0172036 0.8834996 1.0544187
000010 c5 38 81 3f 70 cd 74 3f f2 0f 86 3f 11 d1 8d 3f
       1.009545 0.9562597 1.0473616 1.1079427
000020 f2 18 79 3f 32 c0 84 3f 8e e3 58 3f a1 67 70 3f
       0.9730369 1.0371153 0.8472222 0.93908125
000030 ec c5 87 3f cd 73 7f 3f ae ff 7f 3f f5 d2 66 3f
       1.0607276 0.9978607 0.9999951 0.90165645

layer1.1.bias f4 [16]
000000 63 09 e3 bd fb 21 89 bd 08 42 27 be bf 29 c7 bd
       -0.11085775 -0.066959344 -0.16333783 -0.09724759
000010 e6 b5 df bd ca ce b2 bd 29 70 36 bd 41 7e b4 bc
       -0.10923366 -0.08730848 -0.044540558 -0.022032859
000020 bf 63 85 bd ea 36 75 bd 94 a7 2e be f7 ce 00 be
       -0.06513166 -0.059866823 -0.17056113 -0.12578951
000030 e9 70 45 bd 2e 4e 76 bd 42 f8 a0 bd 93 77 28 be
       -0.048203383 -0.06013315 -0.078598514 -0.16451864

layer1.1.running_mean f4 [16]
000000 54 a9 1f be 81 f1 0d be 72 cd cb 3c 68 45 23 bd
       -0.15591937 -0.13861658 0.024878237 -0.039861113
000010 67 81 56 be 7f 75 81 bd 41 a7 8d 3d ca 0d 98 3c
       -0.209478 -0.06321239 0.06916667 0.018561263
000020 fd d2 36 be d0 7d 54 be da 00 98 3e e7 84 53 3e
       -0.17853923 -0.20751119 0.2968815 0.20656167
000030 ce c3 96 be 1e 3d 4f be 2c 9a 8f 3c 84 df 4f 3e
       -0.29446262 -0.20238158 0.01752957 0.20300108

layer1.1.running_var f4 [16]
000000 81 93 c1 3c 7f a4 18 3d ce cd 64 3d 54 a6 fd 3c
       0.023629906 0.03726625 0.055860333 0.0309631
000010 21 4e 29 3d 57 1c ed 3c 1a c1 28 3d 65 e4 a0 3c
       0.041334275 0.028944178 0.04119978 0.019640157
000020 4d d6 ae 3c c5 33 4a 3d 21 17 27 3d 6d 3e 7c 3c
       0.021342421 0.049365778 0.04079354 0.015395743
000030 c2 c9 9f 3d 84 96 d4 3c 68 10 1f 3d 2e e0 ab 3c
       0.07802154 0.025950678 0.038834006 0.02098092

layer2.0.weight f4 [32, 16, 5, 5]
000000 db 8f 6e 3d a5 2c 87 bc 96 8c 21 bd 48 18 04 bd
       0.05824266 -0.01650078 -0.039440714 -0.03224972
000010 e6 fb 51 bb 61 aa 3b bd 71 ef af bc 83 1c 0b bc
       -0.0032041012 -0.045816783 -0.02147648 -0.008490684
000020 f5 8f ba bc 28 e9 df bc 80 18 0e bd 23 46 a3 3c
       -0.022773722 -0.027332857 -0.034691334 0.019930905
000030 5c 1e 96 bc 5a 91 57 3d 38 88 fd 3c 74 78 c2 bc
       -0.018325023 0.052628852 0.030948743 -0.023739077
000040 b5 9b 9d 3c 9d ee 37 3b 49 e5 ee 3c 9c 87 16 bd
       0.019239286 0.0028065809 0.029162066 -0.03675042
000050 8c 7c b3 bb ca a2 89 bc b0 0c 24 bc e0 05 d3 3b
       -0.0054774936 -0.016801257 -0.010012791 0.0064399093
000060 b2 55 47 bd 20 b1 ff bc d5 67 08 3b d9 5a 83 3c
       -0.04866571 -0.03121239 0.0020813842 0.01603453
000070 76 ef cf 3c 15 99 7e 3c b4 6f 80 3d f2 f2 f2 3c
       0.025382739 0.015539427 0.06271306 0.029656861
000080 75 8a d4 bc a1 66 1a 3d 13 08 31 3c db 52 fe 3b
       -0.025944928 0.03769553 0.010805148 0.007761342
000090 35 a6 c3 3c bc 30 12 3d 8d a3 e5 3c 69 a0 89 3b
       0.023882965 0.035691008 0.028032089 0.0042000306
0000a0 59 32 eb bc 3a e8 0f 3d 51 8d a1 3b ba a6 30 3d
       -0.028710531 0.035133578 0.0049301763 0.043127753
0000b0 7c 6a 45 bc 02 35 b4 3c b3 ba f8 3c 54 ff 0b bd
       -0.012049314 0.021997932 0.030362463 -0.034179047
0000c0 cc 5f 61 3b cd 36 a3 bc e9 d9 75 3d d3 d4 fb 3b
       0.0034389375 -0.019923592 0.06002227 0.0076852827
0000d0 d3 ef 30 3b ec 96 07 bd 82 2d da bc 64 21 2e 3d
       0.0026998415 -0.033102915 -0.026633028 0.042512313
0000e0 36 80 13 3d ed ed 91 bc 42 b9 6a bd 98 45 59 bd
       0.036010943 -0.017813647 -0.057305582 -0.053044885
0000f0 da 48 ae 3c b5 11 1f bc 93 3e 86 bc 9d 15 81 3c
       0.021274973 -0.0097088115 -0.01638726 0.015757376
000100 c5 2e 4f bd 85 d9 15 3d ce 5c bd bc 8e f5 b6 bc
       -0.050581712 0.036584396 -0.023115542 -0.022333886
000110 69 f1 32 bd 36 a3 0d bd c8 9a b8 3c f6 ad ee bc
       -0.043687258 -0.03457948 0.022534743 -0.029135685
000120 a6 fc 0a 3d 5d b6 18 bc ea 7d 8f 3c 57 84 d1 bc
       0.03393235 -0.009320823 0.017516095 -0.0255758
000130 a6 ee ed 3c c1 d6 05 3d c4 e0 f2 bb ec 1d 19 bc
       0.02904446 0.03267551 -0.007412048 -0.009345513
000140 8e 4c f9 bc c2 70 d0 bc 03 e2 2d bd 0a be e7 bc
       -0.030432012 -0.025444392 -0.04245187 -0.02828886
000150 a4 b3 65 bd 02 ff 0e b9 b6 58 77 bd 16 3f 49 bc
       -0.05607952 -0.00013637173 -0.060387336 -0.012283107
000160 a2 cb 17 bd 72 15 af bc 77 10 de 3b 78 07 d8 3c
       -0.037059434 -0.02137253 0.006776865 0.026370749
000170 d2 4c 7f 3d ec 28 10 3c 8b 32 cd bc d9 54 fe bc
       0.06232912 0.008798819 -0.025048515 -0.031046318
000180 27 ba 3f 3d f5 bf 4a 3d 4f 60 05 3c 40 4d cd bc
       0.046808388 0.04949947 0.008140638 -0.02506125
000190 0a 89 1f bd da 28 0a 3d 76 d8 1c 3c c2 b4 4e bd
       -0.03894905 0.033730365 0.009573093 -0.050465353
0001a0 d5 89 21 3c 1f c0 18 bb 50 92 64 3c 1b b8 a8 3c
       0.009859522 -0.0023307872 0.013950899 0.0205956
0001b0 a8 59 06 3d 23 28 16 3d 34 5c 38 bd 82 67 07 3d
       0.032800347 0.03665937 -0.045009807 0.033057697
0001c0 72 86 ce 3c 1c f0 70 3c a0 64 53 3c 1e f0 58 bd
       0.025210593 0.014705684 0.012902409 -0.05296337
0001d0 ce 7d c3 3a f6 f9 80 bc 03 fd 9a bc 17 5b e6 3c
       0.0014914812 -0.01574419 -0.018919474 0.028119607
0001e0 92 8c e4 bc 9d 97 9f bc aa 31 c7 bc 8b 58 2f 3d
       -0.02789906 -0.019481475 -0.024315674 0.04280905
0001f0 ae 65 a4 3d ae 80 31 3d 5f f9 44 bc 2c 5c d3 3c
       0.08027206 0.04333561 -0.012022345 0.025800787
000200 32 e8 27 bc 2e 4b 0e 3d 6a 22 9b 3c 7d 94 1d 3d
       -0.010248231 0.034739666 0.018937308 0.038471688
000210 a7 86 10 3d a6 bd 77 bd 57 06 13 bd 59 69 06 3d
       0.035284664 -0.060483597 -0.035894718 0.03281531
000220 4e 2d 2c 3d 34 f7 32 bd b1 1a 16 3b 2c d6 49 bc
       0.042035393 -0.043692783 0.0022904093 -0.012319129
000230 47 84 0a bd 0e 53 14 bd d0 4e 02 3d 87 55 09 bd
       -0.033817556 -0.03621202 0.031813443 -0.03352883
000240 24 71 c8 3c 78 2e ed bc 66 e8 30 3d d0 28 17 3c
       0.024468012 -0.028952822 0.043190382 0.009226039
000250 3e 13 01 3b 0c 32 ac 3d 69 5c d8 3a 83 eb 5c 3c
       0.0019695307 0.08407983 0.0016507033 0.013483885
000260 d4 72 d9 3c 5a 25 0e 3c e9 68 d3 3c c9 64 53 3d
       0.026544012 0.0086758975 0.025806861 0.051609788
000270 2f 77 88 3c 1b 90 ed bc 87 22 d2 bc 49 f4 ac 3a
       0.016658394 -0.028999379 -0.02565123 0.0013195361
000280 8e 5a f6 bc 26 91 96 3c 50 ac bc 3c 60 0f eb 3c
       -0.030072477 0.018379759 0.023031384 0.028693855
000290 fb f7 98 3d d3 33 57 3d d1 83 f5 bc c3 45 3c bc
       0.074691735 0.052539658 -0.029970082 -0.011491242
0002a0 a1 ff 87 3d a8 b4 76 3c 2c f4 e5 bb 5e ae a5 3b
       0.06640554 0.01505772 -0.007017633 0.0050561866
0002b0 24 85 88 3d 91 bf 80 3d 5e b1 87 3c e3 6c 35 bc
       0.066660196 0.062865384 0.016564067 -0.011073324
0002c0 4a 8c 00 bd a5 98 c8 bc c8 bb db bc 1b dc 80 3c
       -0.03138379 -0.02448685 -0.02682294 0.015729954
0002d0 88 76 2a 3d 56 a0 b4 3c fd 1b 81 3c 95 bc 0d 3c
       0.041616946 0.02204911 0.015760416 0.0086509185
0002e0 7a 50 7d 3d 6c 84 1f 3b a9 f8 17 3d eb fb 48 3d
       0.061844327 0.0024340404 0.037102375 0.049068373
0002f0 58 c9 05 3d 43 da 1e 3d db 2f f7 3c f3 6a 1d bb
       0.03266272 0.03878237 0.030174186 -0.0024020046
000300 c9 22 90 3c e5 75 1b 3d 5c 2b 13 bc 90 51 d9 3c
       0.017594712 0.03795423 -0.008982506 0.02652815
000310 82 9f 9d bb ed 0e 6b 3d 38 a1 50 bc 65 74 30 3d
       -0.0048102746 0.05738728 -0.01273375 0.043079752
000320 79 17 09 3d 3e 28 89 3d 05 a8 a5 3c 43 08 69 3b
       0.03346965 0.06697129 0.02022172 0.0035557903
000330 26 ee 00 3c 40 6a 6d 3c 97 b2 1f bd 3f 28 a6 bd
       0.007869279 0.014490664 -0.038988676 -0.08113145
000340 0c d5 d4 3c 9c ba 61 bd 19 18 25 bd d6 4d f3 bc
       0.025980495 -0.055109605 -0.040306184 -0.029700201
000350 08 f5 df bc df 5e 45 bc 9c fb 0c bd 9d 46 18 bd
       -0.02733852 -0.012046545 -0.03441964 -0.037176717
000360 27 54 be bc 33 26 44 3d 52 23 73 bc 9c ef 55 3d
       -0.023233486 0.047887992 -0.014839964 0.052230462
000370 cb 14 bc 3b 98 21 78 bc ce fd 4b 3c 90 8d 28 bd
       0.0057397834 -0.015144728 0.0124506485 -0.04115063
000380 e7 ca 5e 3c 20 38 7e 3c 8d 93 2d 3d 0f 03 ab 3d
       0.01359818 0.015516311 0.042377044 0.08350193
000390 fd f5 86 3c c9 3b c1 bc a5 c1 5f bc 96 4e 41 3d
       0.016474718 -0.023588078 -0.013657008 0.047194086
0003a0 59 e6 95 3d b3 95 ef ba fc c5 cf bc ac e3 01 3d
       0.07319326 -0.0018278867 -0.025362961 0.031711265
0003b0 2f ae 08 3d a2 ee b4 3a 9c 2e 5f 3d 5e cd 17 bb
       0.03336924 0.0013804028 0.05448781 -0.002316318
0003c0 a8 d2 01 bd d0 e3 ae 3c 48 b6 05 bb 37 78 b2 3c
       -0.031695038 0.021348864 -0.0020402838 0.021785839
0003d0 3f 28 02 3d 42 59 14 bd 4d f2 38 3c b2 97 7f bc
       0.031776663 -0.036217935 0.011288238 -0.015600132
0003e0 99 35 24 3d 47 8d f8 3c fa a2 dd bc 63 bd 02 bd
       0.040090177 0.030340804 -0.027055252 -0.031918894
0003f0 d2 07 2f bd 3c 9d 61 3c 03 e8 12 bc b1 72 33 bd
       -0.042732067 0.013770398 -0.008966449 -0.04381055

layer2.0.bias f4 [32]
000000 f0 51 be bc f7 a8 17 3d 69 4f fc bb fe 25 12 bd
       -0.02323243 0.03702637 -0.007699896 -0.035680763
000010 71 b3 d4 3c f1 d1 97 bc a6 a2 48 bc 1c dc 06 bd
       0.02596447 -0.018532725 -0.01224581 -0.032924756
000020 a3 8b 30 3d b0 da 04 bd 8b bd 19 3d 4e 66 df 3c
       0.043101918 -0.03243512 0.037534278 0.027270462
000030 a6 52 d9 3b b8 39 9c bc a8 68 1b 3d a5 9e 84 3b
       0.006632167 -0.019070491 0.037941605 0.004047232
000040 20 d5 32 3d bf ac ff bc fa e6 1e 3d 34 f6 4a 3c
       0.043660283 -0.031210301 0.038794495 0.012387801
000050 29 9a 15 3d d1 2d fe ba ff 21 d3 3c 53 29 46 3d
       0.03652397 -0.0019392316 0.025773047 0.048379254
000060 65 de 52 3c a4 b5 2c 3c fd e7 38 bd ad 93 86 bb
       0.012870406 0.010541353 -0.045143116 -0.00410696
000070 a6 47 2a bd f8 58 3e 3d f1 0c 21 3d 89 db 86 3c
       -0.041572236 0.046471566 0.039318983 0.016462104

layer2.1.weight f4 [32]
000000 51 4f 40 3f 7d 92 42 3f 5f 64 47 3f f2 b1 42 3f
       0.7512103 0.76004773 0.7788753 0.76052773
000010 36 19 47 3f 98 72 4d 3f 64 d6 49 3f a0 10 48 3f
       0.77772844 0.8025298 0.7884276 0.7815037
000020 23 e2 53 3f 46 99 4d 3f 69 e3 44 3f a6 06 46 3f
       0.8276693 0.80312 0.769095 0.77353895
000030 85 83 44 3f a0 3b 40 3f 49 d2 4e 3f db e5 43 3f
       0.7676318 0.7509098 0.8078962 0.76522607
000040 58 4b 42 3f f3 86 3e 3f d9 7a 58 3f 7f 16 4b 3f
       0.75896215 0.74424666 0.8456245 0.793312
000050 61 02 4b 3f 25 d4 49 3f d4 c9 43 3f 23 cc 43 3f
       0.79300505 0.7883933 0.7647984 0.7648336
000060 a7 c6 42 3f cb a0 26 3f f5 64 48 3f b8 2e 51 3f
       0.7608437 0.650891 0.7827905 0.8171191
000070 51 18 4f 3f 07 24 4d 3f f6 99 4f 3f 2e 2f 42 3f
       0.8089648 0.801331 0.810943 0.7585324

layer2.1.bias f4 [32]
000000 a4 fe cc be 7d 1f cd be 89 a6 da be 55 c8 c3 be
       -0.40038025 -0.40063086 -0.4270518 -0.3823878
000010 db c6 cf be 5b 45 af be 53 fa bb be c7 4c d3 be
       -0.40581402 -0.34232602 -0.3671442 -0.41269514
000020 d8 67 cc be 3c fb d3 be 16 42 be be 1c ad c5 be
       -0.39922976 -0.41402614 -0.37159795 -0.38608634
000030 40 bf bb be 7e ab c7 be 45 28 e1 be a0 14 d2 be
       -0.3666935 -0.38998026 -0.43976036 -0.4103136
000040 0a e3 dc be 63 4b d8 be b1 2b d1 be 65 aa cc be
       -0.43141967 -0.42245016 -0.40853646 -0.3997375
000050 fc 70 b7 be 7e b4 c2 be bb b9 d5 be 5c e9 bd be
       -0.35828388 -0.3802833 -0.41743264 -0.37092102
000060 de 29 bc be 4e 11 bc be ee 90 c1 be 4d fd cd be
       -0.36750692 -0.36731952 -0.37805885 -0.40232316
000070 85 ac ce be ed af e2 be 1c ab d0 be e6 1f df be
       -0.40365997 -0.44274846 -0.40755546 -0.43579024

layer2.1.running_mean f4 [32]
000000 42 41 a3 3d 97 37 37 be 25 6c 47 be 9f 33 c0 be
       0.07971431 -0.178923 -0.19474848 -0.37539384
000010 c7 0d c9 3e e6 75 36 bf bf f9 94 be ab e6 28 bf
       0.39268324 -0.7127365 -0.2909679 -0.6597697
000020 3d 8e 8a be 89 61 7a 3e 29 5b b5 bd a7 99 c4 be
       -0.27061644 0.24451269 -0.08855278 -0.38398477
000030 92 12 ee be 40 7a 23 be 59 5d a0 3e 6e 7b 08 3f
       -0.46498543 -0.15964603 0.3132122 0.5331334
000040 f2 3f ec 3e 23 a9 19 3f 4b b4 cb 3e 70 51 26 3c
       0.46142536 0.6002371 0.3978599 0.010151252
000050 7e 1f 96 3e b7 f7 9c bd 41 c1 38 be 03 23 b6 be
       0.29320902 -0.07664435 -0.1804247 -0.35573587
000060 64 ab 00 bf bf ce df 3f c5 8b 2b bf f2 00 88 be
       -0.5026152 1.7484969 -0.67010146 -0.2656322
000070 ef 49 37 be 99 3e 90 3d a7 66 ab be bd 07 48 3f
       -0.17899297 0.070431896 -0.33476755 0.7813681

layer2.1.running_var f4 [32]
000000 f1 43 0f 3f 77 50 86 3e f9 17 0e 3f af 51 1a 3f
       0.55963045 0.26233265 0.5550533 0.6028089
000010 9a b3 e7 3e 3d 60 29 3f f2 5f f1 3e de 19 de 3e
       0.45254213 0.6616247 0.47143513 0.4337911
000020 a4 b5 c2 3e 3f ce 85 3f f2 16 f8 3e 12 92 99 3e
       0.38029206 1.0453566 0.48455006 0.29994255
000030 64 bd b1 3e 46 49 c3 3e 1c df 02 3f 62 05 f5 3e
       0.34714806 0.3814184 0.5112169 0.4785567
000040 34 f4 fb 3e bf 6a f4 3e 2c bf 04 3f be 3b ee 3e
       0.4920975 0.4773769 0.51854205 0.46529955
000050 26 8d c4 3e cd b5 41 3f 64 08 ca 3e 63 61 f2 3e
       0.38388938 0.7566803 0.39459527 0.47339925
000060 85 70 d7 3e e3 68 95 3f a7 b9 d0 3e 2b 94 00 3f
       0.42078033 1.1672634 0.40766641 0.50226086
000070 83 40 e1 3e b1 26 c0 3e ee b0 b4 3e ce b7 ff 3e
       0.4399453 0.3752952 0.35291237 0.4994492

fc.weight f4 [10, 1568]
000000 d0 a8 06 3c 1c b5 01 bc 0f ff d0 3c 87 ec 08 bd
       0.008218959 -0.007916715 0.025512246 -0.033428695
000010 27 ab 36 3d f3 10 72 bc 87 57 f1 bb 9d 20 68 3d
       0.044596817 -0.014774549 -0.0073651704 0.056671727
000020 dd be e9 bc ca b8 1e 3c 58 74 c0 3c 0b 70 4b 3d
       -0.028533394 0.009687612 0.023492977 0.0496674
000030 58 6d b1 3c e7 fb f2 3b 27 fe 85 bc 88 ed 15 bd
       0.021658584 0.007415283 -0.01635654 -0.03660348
000040 d9 40 2f 3b 93 f4 47 bd 29 a4 97 3c be 5d 9f 3c
       0.0026741533 -0.04881723 0.018510895 0.01945388
000050 3b 02 0c bd 47 2c 2d 3b 40 40 0b 3d e5 35 6b 3d
       -0.034181815 0.0026424096 0.03399682 0.057424445
000060 0e cd 82 bc 99 73 cd bc 57 c9 37 3d c6 93 8a 3d
       -0.015966918 -0.025079535 0.044869747 0.06766467
000070 8d 4f cb bc 37 6e c0 3c e7 cb 61 bb ef ff c9 bc
       -0.024818206 0.023490055 -0.003445381 -0.024658171
000080 e1 b7 c7 bc 6e b5 3d bc 65 91 cb bc 1b 85 63 bd
       -0.024379672 -0.011578901 -0.024849603 -0.05554686
000090 31 b6 0a bc 55 9d 4a bc 1d e3 00 bd 7e 89 41 bc
       -0.008466289 -0.012366612 -0.031466592 -0.011812566
0000a0 8d 0d 60 bc 0c 8b 41 bd 03 c2 be 3c b9 46 9e bb
       -0.013675106 -0.047251746 0.023285871 -0.004830208
0000b0 da 81 3e bb 7b 03 0f bc 08 cd 8e 3c 74 28 c5 ba
       -0.0029069097 -0.008728857 0.01743175 -0.0015041963
0000c0 7f 8a cc 3c 92 53 31 3d e7 9b 08 3c 02 78 ad bb
       0.024968384 0.04329259 0.008337951 -0.005293847
0000d0 68 a9 08 3c bb 8b 96 bc e5 85 91 3c 79 fa df bb
       0.008341171 -0.018377176 0.017764041 -0.0068352786
0000e0 15 39 ec bc f3 79 11 3c bd 7f a1 3d c5 78 bf bc
       -0.028835813 0.008879173 0.07885692 -0.023373017
0000f0 79 0e cd 3c d9 ac 82 3c da 79 19 bd cc e0 c8 bc
       0.025031315 0.01595156 -0.037469722 -0.024521254
000100 fe 8a 02 bd db 14 14 3d 68 db b2 3c f2 d2 b3 bc
       -0.031870835 0.0361527 0.021833137 -0.021951173
000110 99 97 02 bd 1b 00 de 3b 16 85 60 3c 5d 27 96 3c
       -0.031882856 0.006774915 0.013703605 0.018329317
000120 09 d5 b4 3a b7 13 59 bc 0b 06 8a 3c cc 90 10 bb
       0.00137964 -0.013249329 0.016848585 -0.0022058962
000130 f5 f4 5a bd bf a2 63 bc 4e ce 9f bc 06 11 e0 bb
       -0.053456265 -0.013893782 -0.019507553 -0.006837967
000140 d4 8d 87 3c e0 38 c6 3b dd 7e b5 3a 9b 56 cc 3b
       0.016547121 0.0060492605 0.0013847012 0.00623591
000150 b0 d3 71 bd ea e4 23 3d 0d 98 85 bd 45 e8 84 3c
       -0.05903977 0.04001323 -0.06523142 0.016224036
000160 14 4d 0d 3a 7d 93 14 bd 21 a4 b3 3c 9d ee 54 3c
       0.00053902087 -0.03627347 0.021928849 0.012996343
000170 d8 1d 97 3c 8e 3c ff 3c 51 fd 87 bb d5 30 bc b8
       0.018446848 0.031156804 -0.0041500707 -8.973634e-05
000180 87 e0 a2 3b 04 11 3c 3d 36 56 dc 3c 1c 19 14 3c
       0.0049706134 0.045914665 0.026896577 0.00903919
000190 34 c9 a0 bc 73 bf 62 b9 bf 74 dd 3b 90 ba 60 3c
       -0.019627191 -0.0002162436 0.006758302 0.013716355
0001a0 d7 16 95 bc 42 7a 11 bd 98 57 53 3d e0 ae 40 ba
       -0.018199367 -0.035516985 0.051597208 -0.0007350277
0001b0 4b 74 5d 3c c3 c5 58 3b 8a 41 ea 3c b1 36 d1 3c
       0.013516496 0.003307686 0.028595705 0.025538774
0001c0 52 70 44 bc 0c 7b 10 3c 6e b4 c3 3b 71 67 9b bc
       -0.01198967 0.008818399 0.0059724366 -0.018970223
0001d0 0a 33 a8 bb 3d 7e fe 3c 7c a4 61 3b a8 2a 4b 3c
       -0.0051330375 0.031066054 0.0034430316 0.012400307
0001e0 33 8a d8 3c b3 a8 4f bb 81 d8 8b bc 03 3d 25 bc
       0.026433086 -0.0031686246 -0.01707101 -0.010085347
0001f0 2c 62 4c bd a7 1d 98 bc c5 be 1f 3d f5 bf 34 3c
       -0.04989831 -0.018568827 0.03900029 0.011032094
000200 24 f5 0c bc 8c 46 91 bc bb d4 82 3d ca 21 fa 3c
       -0.008603368 -0.017733835 0.06388231 0.03053369
000210 ba 55 47 3d 68 ce 88 bb 43 68 45 bc f3 f1 83 bc
       0.04866574 -0.004174996 -0.012048784 -0.016106581
000220 7f c5 30 bd d5 65 d6 bb 17 83 e9 3c 56 44 54 3c
       -0.043157097 -0.006542901 0.028504891 0.012955746
000230 bf ad 58 bb ee 26 e7 bc dd ba e7 3c 6c 46 b4 bb
       -0.0033062545 -0.028216805 0.028287346 -0.005501559
000240 21 f1 97 3c 08 af 16 3d 13 75 37 3c db dc e7 3c
       0.018547596 0.036788017 0.011197346 0.028303554
000250 33 03 a0 3c 46 69 d9 bb 9f 39 02 3c 29 57 74 3c
       0.019532776 -0.006634864 0.007948308 0.014913359
000260 92 66 62 3c ec de dc 3c bf fa aa 3c 81 f1 e6 3b
       0.0138184 0.026961766 0.020871518 0.0070478325
000270 15 b3 3a 3d 2f e3 b3 bb 8d 92 87 3d b4 e8 99 3c
       0.045580942 -0.005489729 0.06619749 0.01878772
000280 4c ae f5 bc d3 89 15 bc 30 ea 14 bd a2 ae e1 bc
       -0.029990338 -0.009127098 -0.03635615 -0.027549092
000290 44 79 57 3a 56 40 a0 bc 66 45 34 bc be b0 e3 39
       0.0008219669 -0.019561928 -0.011002874 0.00043428497
0002a0 97 66 1d 3c 68 18 9b 3b 1c a6 04 bb 06 ee b3 3c
       0.009606979 0.004733134 -0.002024061 0.021964084
0002b0 94 d7 a9 3c e5 d5 b4 bc b2 07 24 3c 76 6b 9b bc
       0.020732678 -0.02207465 0.0100116 -0.01897214
0002c0 62 4d cb bb bf 3a 87 bb c4 09 31 bb 74 ce ed 3c
       -0.006204293 -0.004126876 -0.0027013877 0.029029109
0002d0 c1 44 d5 bc 1c 93 76 ba d8 ab af bc a8 e3 8f bb
       -0.026033761 -0.0009406076 -0.021444246 -0.0043911524
0002e0 a6 e3 d9 3b 15 e7 57 bc 74 45 3e bc 51 f6 24 bc
       0.0066494523 -0.013177653 -0.011613239 -0.010068492
0002f0 25 bb ad 3a 9d a3 a0 bc 1b 9f 0c 3d b2 9d 98 3c
       0.0013254626 -0.019609267 0.034331422 0.018629882
000300 e7 6e 82 3c ba fe 18 bd 96 72 e8 3c 8c 29 0a bd
       0.015922023 -0.0373523 0.028374951 -0.03373103
000310 76 75 16 bc 14 d6 0d 3c 9c c2 01 3c eb ac ea 3c
       -0.009183278 0.008656997 0.007919934 0.028646907
000320 2e 8e 4d 3d 2f 5b 88 bc 80 87 c9 3c ad bf 0a bd
       0.05018442 -0.016645042 0.024600744 -0.033874203
000330 91 43 b1 bc 01 b2 4c 3c e8 ea 3d bc 62 f3 64 3b
       -0.021638663 0.012493611 -0.011591651 0.0034935107
000340 a0 14 ad bc 72 c1 37 bd ee d0 e5 3b f5 47 d3 bc
       -0.021127999 -0.04486222 0.0070134318 -0.025791148
000350 1e e4 2f b9 fa c3 0b bc 6b 39 9a bc 9e 53 2e bc
       -0.00016774281 -0.008530611 -0.018826207 -0.010640053
000360 46 7e 04 bd 4f 5c bd 3d 0c 3c 97 3d 70 33 9c bc
       -0.032346986 0.09246122 0.073845 -0.019067496
000370 06 6e 32 3b 79 2f b8 3c 1b 16 a0 3d b5 01 b1 3c
       0.0027226224 0.022483574 0.07816716 0.02160726
000380 8a 10 84 3d 0c 5d 44 bd c0 48 89 bc b8 14 9b bc
       0.06448467 -0.0479403 -0.016758323 -0.018930778
000390 5e 38 6a bd 3d 30 6a bb 31 e7 06 3b 45 fd e2 3c
       -0.057182662 -0.0035734319 0.0020584578 0.027708659
0003a0 77 97 ab bc e8 ce 18 3d bd e9 94 3c 2c 59 97 3b
       -0.020946248 0.037306696 0.018177861 0.0046187844
0003b0 d1 ee 00 3c 6f 5c 02 bb 6c 17 07 3d ba 9d d0 3a
       0.007869438 -0.001989152 0.03298132 0.0015916147
0003c0 96 a1 45 3d 6d db 7b ba 68 de af bb ae eb 1f 3c
       0.048249803 -0.0009607587 -0.005367089 0.00976078
0003d0 2f 69 a9 3c e9 45 89 bc 5a 44 d7 bb cc ae a0 bb
       0.020680038 -0.016756969 -0.0065694274 -0.00490365
0003e0 61 5a b3 3c 84 8f 16 bc 29 ae b1 3c 17 62 e6 3c
       0.021893682 -0.00918949 0.021689491 0.028122945
0003f0 8a 5b 87 3c 7b b9 7d 3c 54 e6 47 ba de e3 6f bc
       0.016523141 0.0154861165 -0.0007625569 -0.01464173

fc.bias f4 [10]
000000 a6 32 73 bb f4 df 32 bc c3 1a 79 3b df e9 0c bc
       -0.0037109046 -0.010917652 0.0038010336 -0.008600681
000010 67 e7 25 3c d3 45 37 3b 9a 4a f2 3c 10 bf e5 3b
       0.010125971 0.0027965202 0.029576588 0.007011302
000020 8f d3 75 bb d1 5e e0 bc
       -0.0037510132 -0.027388962
