result/mnist/seed12/noniid_0.4/ratio_0.2/final.pt (torch, 75941 bytes, 6 tensors)

cnn1.weight f4 [16, 1, 5, 5]
000000 83 a1 59 bd 88 28 15 be 63 45 37 bd 9f 2a 59 3d
       -0.053132545 -0.14566243 -0.044743907 0.053019162
000010 f8 fb 4b 3c ee 7a 40 be 47 91 a6 3c 0f f7 b5 bd
       0.012450211 -0.18796894 0.020332946 -0.08885013
000020 42 13 1f 3e f6 3d 16 3e f2 99 22 be 8a 4e 98 3d
       0.1553469 0.14672074 -0.15879038 0.07436855
000030 f5 74 ad 3d 00 ec f0 3d 84 21 23 3d a7 5d 11 be
       0.084695734 0.117637634 0.039826885 -0.14195882
000040 21 93 6c 3e df 86 31 3e 86 d2 18 be 72 1a 30 bd
       0.23103 0.17336605 -0.14924058 -0.04299397
000050 f6 f8 ca 3d 4b a2 0c be a2 49 03 be b3 e2 f8 3d
       0.09910767 -0.13733785 -0.12821057 0.121526144
000060 ea 28 b6 3d 99 b7 cf bd 4d 99 ce bd b3 62 34 3c
       0.088945225 -0.1014244 -0.100878336 0.01100986
000070 a1 94 ab 3c 60 3e 83 3d 36 b4 58 bd 3f e3 e0 3d
       0.020944895 0.064083815 -0.052906238 0.10980844
000080 8e 17 da bd 59 12 dd bd 9a 14 ad bd d2 6d 20 be
       -0.10649024 -0.10794515 -0.08451195 -0.15666893
000090 f1 42 bd 3c 4b e2 18 be d2 6d 1b be af f6 01 3e
       0.02310321 -0.14930074 -0.15178612 0.12691759
0000a0 02 30 94 3d 50 d1 1c be 6b a0 b1 bd 2e 8d 23 be
       0.07235719 -0.15314221 -0.086731754 -0.15971825
0000b0 8b a5 b8 3d 58 39 b9 bc 69 4b b3 3d d0 86 22 be
       0.0901595 -0.022610351 0.08754618 -0.1587174
0000c0 a2 d0 94 bd 75 ab 79 3e 46 0f 12 3e 7f 6c 80 3e
       -0.07266356 0.24381812 0.14263639 0.25082776
0000d0 b5 14 45 3e ab f6 a5 3e ed b9 96 3e 0b c4 3f be
       0.1924618 0.32414755 0.29438725 -0.18727128
0000e0 82 bf b7 bd 02 c4 b4 3e b4 06 92 3e bf 8c 10 3e
       -0.08972074 0.35305792 0.2852074 0.1411619
0000f0 51 df ef 3d da 62 23 be 81 bc 5c 3e df a0 54 3e
       0.11712516 -0.15955678 0.21556284 0.20764492
000100 bc 35 06 3e 6f 9c 14 bd 6e d3 e2 bd 72 ff 74 3d
       0.13106436 -0.036282 -0.11075483 0.059813924
000110 e9 4e 46 3e e9 5e b9 3d 97 88 46 be 89 68 4e be
       0.1936604 0.09051306 -0.19388042 -0.20157064
000120 cf 73 96 bd ab 91 12 be d0 01 77 bd 53 66 48 3d
       -0.073463075 -0.1431338 -0.060304463 0.04892571
000130 c3 3a 36 be 61 c0 38 3e f6 5f b2 3c 8e 95 99 3d
       -0.17795853 0.18042137 0.021774273 0.074992284
000140 f4 cf a8 3b 0e 23 1e be d5 05 12 3e 77 04 8b bd
       0.005151743 -0.1544306 0.14260037 -0.06787961
000150 e8 1e 93 bc 94 70 fc 3d 96 85 06 3d 1d aa 60 3e
       -0.017959073 0.1232616 0.03284224 0.21939893
000160 8f 4e ba bc ff a3 15 3e be db a6 3d ce fb 26 3e
       -0.022742538 0.14613341 0.08147381 0.16306993
000170 f6 db 1e 3d c8 e4 8c bd 6e 69 ed 3d f8 5b 97 3d
       0.03878399 -0.06879574 0.11592375 0.073905885
000180 08 b2 29 be 72 38 3e be 61 14 4d be 06 cb 7d 3e
       -0.1657182 -0.1857622 -0.20027305 0.24784479
000190 8a 2c 23 3d 70 c3 8f 3d 46 c0 c1 3d 92 c7 e1 3c
       0.039837398 0.070196986 0.094605014 0.027560983
0001a0 8a fe 77 3e b0 49 29 3e b2 86 a4 bd 7d cd 28 3e
       0.24218193 0.16532016 -0.080335036 0.16484638
0001b0 75 bb 5f 3e b5 a4 5c 3d 02 3b 2f 3b cc 38 ec 3c
       0.21848853 0.053868014 0.0026738052 0.028835677
0001c0 9a a3 39 be 01 ec 15 be 9e a5 44 3e d3 88 70 be
       -0.18128815 -0.1464081 0.19203803 -0.23489694
0001d0 f4 b3 ef bb a0 ac 70 be 43 43 de bd 48 bc 29 bd
       -0.0073151533 -0.23503351 -0.10852673 -0.041439325
0001e0 f4 6e b2 bc a9 08 08 be 74 d2 39 3d 29 c9 07 3c
       -0.021781422 -0.13284554 0.04536672 0.008287706
0001f0 7e 68 3c be 97 bb 9b 3d c3 19 a0 3e fb 9c 96 3e
       -0.18399236 0.07604139 0.31269655 0.29416642
000200 e5 5c 3f bd 4d 41 fc 3d ab 8a dc bd 86 96 8f 3e
       -0.04671945 0.12317143 -0.10768636 0.28044528
000210 15 d8 30 3e 72 7d d2 3d b0 e0 22 be 58 95 ba bd
       0.17269929 0.10277833 -0.15906024 -0.09110516
000220 fd 8f 17 be a1 df 16 3e 50 13 1a be 45 74 a6 bd
       -0.14801021 0.14733745 -0.1504643 -0.081276454
000230 c7 90 7b bd 01 92 ae 3d 0c ef 9f 3d 31 d7 7b 3d
       -0.061417367 0.08523942 0.078092664 0.06148452
000240 f7 6f 1b 3e cd d8 00 bd b3 4d 72 bc a9 b7 6b bd
       0.1517943 -0.031456757 -0.014789033 -0.0575482
000250 d2 5a 46 bd 96 b7 2f be d4 e6 0a 3e 96 ff 85 3e
       -0.048426457 -0.17159876 0.13564616 0.2617156
000260 87 76 64 3e aa c4 fb 3d 3a 5b c0 bd ae 60 0c be
       0.2231084 0.1229337 -0.093924 -0.13708755
000270 10 db 99 3e 5d c0 15 3d 1f 34 a9 bd ba d8 5a be
       0.30049944 0.036560405 -0.082618944 -0.21371737
000280 8f 70 b0 bd d5 6a 2f 3e 1a cb 4f 3e 36 66 51 be
       -0.08615219 0.17130597 0.20292321 -0.20449147
000290 1a 9b 79 be d9 ee 4a 3c d0 62 78 bd d2 b9 4d 3e
       -0.24375573 0.012386047 -0.06064111 0.20090416
0002a0 cb fe 7e bd b1 e5 64 be 9a c6 6a 3d dc 4f 48 3e
       -0.06225471 -0.22353245 0.057318307 0.19561714
0002b0 8f 37 55 3d 38 dd 41 be b9 34 e2 bc 55 15 38 be
       0.052054938 -0.18932045 -0.02761303 -0.17976888
0002c0 57 53 f3 3d 2a 0f b1 3c ae 8f 98 3d ac 6d 29 bd
       0.1188113 0.021613676 0.0744928 -0.041364357
0002d0 14 b6 3a be 40 7a a7 3d 16 fa 60 3e 94 54 04 bd
       -0.1823352 0.08177614 0.219704 -0.032307222
0002e0 49 32 e3 bd 42 a7 25 be 30 ae a0 3c 95 a5 7b 3e
       -0.110935755 -0.16177085 0.01961431 0.24574883
0002f0 bb 96 70 bd 65 87 b2 bd 36 0d 11 3e 4e b3 fd bd
       -0.058737498 -0.08717231 0.14165196 -0.12387715
000300 c3 31 57 3c 81 93 59 bd 99 07 55 bc 4c 82 f7 bd
       0.013134423 -0.053119186 -0.0130023 -0.12085399
000310 24 d5 d9 3c 01 85 57 3d 3d bb 59 3d 13 3d e3 bd
       0.026590891 0.052617077 0.05315708 -0.11095633
000320 07 a8 25 3d 53 94 26 be 2e 08 99 3d e5 75 cd 3d
       0.040443446 -0.16267519 0.07472263 0.10032252
000330 da 12 50 bd 7b f9 46 bd ba 09 05 3d 7f dd 77 3e
       -0.05079923 -0.048577767 0.03247998 0.24205588
000340 1b b3 9a 3e 34 67 37 be c6 50 1f 3e 97 b7 2f 3e
       0.30214772 -0.17910463 0.15558156 0.17159878
000350 94 9b d0 3e 5e 3e ad 3e 66 3d 4e bd 77 aa 9c bd
       0.40743697 0.33836645 -0.050351523 -0.07649701
000360 92 f3 4c 3e a6 d6 71 3e 8c 0d 90 3e 45 d7 10 bd
       0.2001479 0.23617038 0.28135335 -0.035361547
000370 21 08 06 3d 87 cc c6 bd e9 7f 0c be 61 6f 49 3e
       0.032722596 -0.09706979 -0.13720669 0.19671394
000380 f3 10 f3 3d d1 9d 99 3e 70 7f 90 3e 43 73 bb 3c
       0.11868467 0.30003217 0.28222227 0.02288211
000390 ed 13 89 3c a4 06 23 3e c1 09 94 3e c7 bb ac 3c
       0.016733134 0.15920502 0.28913692 0.021085633
0003a0 36 6b bd 3e 1b be 87 3e 78 6c c4 3d 98 f9 3b be
       0.36995858 0.26512226 0.09591001 -0.18356931
0003b0 72 d0 7e bd cb 7b 1f 3e 6c 9b af 3d 40 ef 76 3d
       -0.062210508 0.15574567 0.08574566 0.06028676
0003c0 35 0a 76 be 88 7e 94 be 85 b0 8b be e7 e8 a7 bd
       -0.24027331 -0.29002786 -0.2728311 -0.081987195
0003d0 21 d1 b3 bd 41 d8 42 be b7 b8 9a 3d f0 40 95 be
       -0.087801225 -0.19027807 0.07554763 -0.29151106
0003e0 74 5b 8c be f2 10 80 be ae c5 01 be 54 a5 40 bb
       -0.27413523 -0.25012928 -0.12673065 -0.0029395418
0003f0 f6 39 2b bd 45 f7 f2 3c 11 31 1b 3e c9 b7 39 be
       -0.041803323 0.029658923 0.15155436 -0.18136515

cnn1.bias f4 [16]
000000 40 db 04 be 5f 2f 2d bc f4 fd a4 bc 59 d0 ef 3c
       -0.12974262 -0.010570376 -0.020140626 0.029274153
000010 a2 27 6d bd 07 68 2d bc f1 ee d7 3d d9 3c 04 3e
       -0.057899125 -0.010583884 0.10543621 0.12913837
000020 a6 1b d9 bd b0 0a 2c 3c 33 0d 2a 3e 70 f1 16 3e
       -0.10600977 0.010500595 0.16606598 0.14740539
000030 45 c0 7e bc 87 c6 2e be 81 34 c4 3d 01 00 1d 3e
       -0.01554877 -0.1706792 0.09580327 0.15332033

cnn2.weight f4 [32, 16, 5, 5]
000000 02 f1 17 3d 58 a1 0d bd 19 dd f5 bc ff 70 80 bc
       0.037095077 -0.034577698 -0.030012654 -0.01567888
000010 35 fb 85 3c c0 d5 5a bd 8b 69 0b bd 49 56 08 bc
       0.016355136 -0.053426504 -0.0340362 -0.008321353
000020 de 74 02 3c ec 95 a3 3b b3 8c 48 bc 9b 30 4a 3b
       0.007962434 0.0049922373 -0.012240577 0.0030851725
000030 c8 d7 e4 bc 80 ef 19 3d c3 09 0d 3d e3 d9 c2 bc
       -0.027934924 0.03758192 0.034433138 -0.023785537
000040 20 df e7 3c 79 e5 25 3c 81 e5 06 3d e8 b7 2f bc
       0.028304636 0.010125511 0.032933716 -0.010724999
000050 35 a1 b0 3c 9a 2b fe 3b 9d 34 98 bc 7f eb 09 3d
       0.021561245 0.0077566626 -0.018579775 0.033671852
000060 12 75 3a bd 5a 08 38 bd a0 d6 88 3c d8 d0 7b 3c
       -0.045521803 -0.04492984 0.016703904 0.015369616
000070 38 6e 8d 3c 03 38 96 3c 6b 0f e2 3c e6 05 d6 3c
       0.01726447 0.018337255 0.027595242 0.02612586
000080 af 48 fc bc 7f 48 e3 3c c7 9a fb 3c f2 03 6e bc
       -0.030796377 0.02774453 0.030713452 -0.014527308
000090 49 8c a8 3c 94 cf 1c 3d ea 81 ac 3c 40 9f 52 3b
       0.020574706 0.0382839 0.021058042 0.0032138377
0000a0 26 f6 93 bc a2 f4 36 3d a9 cd 09 3d c7 a0 ae 3c
       -0.018061709 0.044666894 0.0336434 0.021316899
0000b0 01 02 db bc 21 55 b4 3c d5 1e 50 3c a9 f9 d7 bc
       -0.026734354 0.022013249 0.012702663 -0.026364164
0000c0 bd f9 fa bb d5 f1 35 bd 48 18 83 3d df c1 a5 3c
       -0.0076591657 -0.044420082 0.06401116 0.020234047
0000d0 db fc b0 3c 80 43 fa 3b 00 a3 dc 3b df 79 11 3d
       0.021604946 0.007637441 0.0067332983 0.035516616
0000e0 04 d9 35 3d 3d 06 37 bc ee eb b8 bc bb 5a ae bc
       0.044396415 -0.011170921 -0.022573438 -0.021283498
0000f0 c6 0b 8a bb 2e c6 7b bc 36 91 0d bc 36 15 21 3d
       -0.0042128293 -0.015367074 -0.008640578 0.03932687
000100 79 b1 3c bd a5 a2 c0 3c 00 3e 2f bc ec 0b 65 bc
       -0.04606769 0.023515055 -0.010695934 -0.013979893
000110 d1 eb 5f bd e5 3a 36 bd 48 6b 9b 3c ef 10 d4 bc
       -0.05466825 -0.04448976 0.018972054 -0.02588698
000120 21 67 12 3d 37 fc 86 bc 59 ba 42 3c 6e d1 c8 bb
       0.035742883 -0.016477687 0.011885249 -0.0061284816
000130 28 84 24 3d 33 9f a7 3c 8f ce a9 3b a9 10 dc 3c
       0.040165097 0.020461654 0.0051820944 0.026863413
000140 e2 7e 1c bd f3 1b c8 bc 04 05 04 bd b4 a9 81 bc
       -0.038206942 -0.02442739 -0.032231346 -0.015827991
000150 c0 a0 a2 bc c9 7b b8 3c d2 31 29 bd a0 4e eb bb
       -0.019852042 0.022519963 -0.041307278 -0.0071810037
000160 60 34 3e bd 8a 7b d5 bc d0 68 db 3c e6 79 ce 3c
       -0.046436667 -0.026059885 0.026783377 0.02520461
000170 c8 e1 58 3d 5d 4a 9a bb db 00 39 bd 00 77 c2 bc
       0.052949697 -0.004708572 -0.04516683 -0.023738384
000180 22 2e 1f 3d 29 a7 b9 3c 2a ac a6 3c e6 42 5b bd
       0.038862355 0.022662716 0.020345766 -0.053530596
000190 8a 7a 05 bd 44 fc d8 3c c6 72 49 3c ef 01 f0 bc
       -0.032587565 0.026487477 0.0122954305 -0.029297797
0001a0 6f 72 70 3c 7c 14 7b 3b 14 ea d8 3b 42 cb 58 3c
       0.014675721 0.003831177 0.006619701 0.013232054
0001b0 c1 f1 33 3d 42 d3 48 3d 40 1f ab bc aa f3 3c 3d
       0.043931726 0.049029596 -0.020888925 0.046130814
0001c0 e0 6b db 3c 9c 08 ff 3c 90 a8 d4 3c 3c 8d 0e bd
       0.026784837 0.031132035 0.025959283 -0.03480266
0001d0 6e 8c a7 3c 9d e8 26 bc 6e 9a e6 bc bd d6 f3 3c
       0.020452704 -0.010187295 -0.02814981 0.029765481
0001e0 64 dc b1 bc ce 06 86 bc ff d6 50 bc b4 49 0e 3d
       -0.021711536 -0.016360667 -0.012746572 0.034738258
0001f0 5a 93 5b 3d 0c b4 06 3d 7a 6b d9 bb aa b7 f5 3c
       0.053607322 0.03288655 -0.0066351267 0.029994804
000200 b9 62 e1 3b 63 b2 5a 3d f3 b9 8c 3c 8b 1c 3a 3d
       0.0068782237 0.05339278 0.017178511 0.045437377
000210 98 15 07 3d e4 85 5b bd bf 12 a5 bc de 5a 01 3d
       0.032979578 -0.053594485 -0.02015054 0.0315808
000220 7d c6 39 3d 66 e0 31 bd d6 5d 09 3d da 4c 8d 3a
       0.04535531 -0.043426894 0.033536755 0.001078035
000230 92 a4 31 bd c6 e7 43 bd c0 4c 08 3d d6 7e 51 bd
       -0.043369837 -0.04782846 0.03327632 -0.05114635
000240 3b 1d 70 bb 86 48 01 bd fe a4 11 3d 8e 96 5a bc
       -0.0036638516 -0.031563304 0.03555774 -0.013341559
000250 c0 c9 cd bc c9 0e 07 3d 1a 7d 4c bc b1 85 02 3d
       -0.025120616 0.032973085 -0.012480998 0.03186578
000260 3d d7 f0 3c ba 8b 07 3d 19 7a 6c 3d 24 7e 0c 3d
       0.029399509 0.033092238 0.05773363 0.034299985
000270 f1 91 ec 3c a4 d1 bb bc d6 15 e1 bc f8 e1 db 3b
       0.028878184 -0.022927113 -0.027476232 0.006710287
000280 a8 7b 06 bd 5a 00 c7 3c 92 f4 99 3c 1b d7 db 3c
       -0.03283277 0.02429216 0.018793378 0.026835969
000290 10 c9 55 3d a6 5d 54 3d c0 5c e0 bc 81 95 d1 bc
       0.0521937 0.051847123 -0.027387977 -0.025583984
0002a0 80 e5 13 3d 74 e2 cc bc 77 0f b6 bb 4f c3 0c 3c
       0.03610754 -0.025010325 -0.005556043 0.008591487
0002b0 8f 5b 1b 3d 0f ae c3 3c 8a 54 25 bd db 7b 94 bc
       0.037929114 0.023886709 -0.040363826 -0.018125465
0002c0 e0 39 16 bd 5d 79 b6 bc 9c c2 a7 ba 1b b2 33 bc
       -0.036676288 -0.022274667 -0.0012799087 -0.010967757
0002d0 03 fa 20 3d e5 c6 a2 3c 67 6b ff 3c 59 86 a3 3c
       0.03930093 0.01987023 0.031179143 0.019961523
0002e0 d8 23 1c 3d f0 7f a9 3c d8 b6 39 3d be db 56 3d
       0.03812012 0.020690888 0.04534039 0.052455656
0002f0 e9 5a 2a 3d 0a 7e f1 bb 75 a0 06 3d 50 95 a2 39
       0.041590605 -0.0073697614 0.032867867 0.00031010294
000300 fd 96 9e 3c 6f be 29 3d 6f 93 f4 bc 2b c6 06 3d
       0.019359106 0.041441377 -0.029855458 0.03290383
000310 24 18 9d 3c c1 e8 3f 3d 3e b2 23 bc 31 6d 0a 3d
       0.01917655 0.04685283 -0.009991227 0.03379554
000320 12 d8 34 3d 0b c7 7f 3d 37 be 8f 3c d4 81 48 3c
       0.044151373 0.06244568 0.017546756 0.012237985
000330 5d 68 45 3d 62 2e 34 3c 9f 60 49 bd 17 55 8b bd
       0.04819523 0.010997387 -0.04916441 -0.06803339
000340 3f 19 24 3d 0a 3a db bc 82 09 bd bc aa e1 a4 bc
       0.04006314 -0.026761074 -0.023075823 -0.020127136
000350 4e dc 33 bc 70 84 11 bd f9 a6 88 bd f9 d8 0e bd
       -0.010977818 -0.035526693 -0.066724725 -0.03487489
000360 1f e5 36 3a 0b 0a 3a 3d 27 48 58 bd 93 7a 5b 3c
       0.0006976891 0.045419734 -0.052803185 0.013395923
000370 ab 2b bd 3c b0 9f 0b 3c 4f dc b5 bb a9 b9 80 bd
       0.023092112 0.008521959 -0.0055499445 -0.06285412
000380 f4 fa 79 ba ea 25 55 3c ba 7d bf 3c 06 91 46 3d
       -0.0009535991 0.013009528 0.02337538 0.04847815
000390 9f 6a 4f bc e7 42 ff bc 00 d6 8a bc 06 d4 1b 3d
       -0.012659698 -0.031159831 -0.016947746 0.038044
0003a0 b8 90 66 3d 9e 5a 04 bc d5 9d e8 bc 02 aa f9 3c
       0.05629036 -0.008078245 -0.028395573 0.030476574
0003b0 b6 40 1d 3d c6 70 a1 3b 8e 45 67 3d ad d1 45 3c
       0.03839179 0.0049267737 0.056462817 0.012073916
0003c0 3f 59 2d bd 7b 83 d2 3c e0 6c 24 3c 64 82 b9 3c
       -0.04232144 0.02569746 0.010035723 0.022645183
0003d0 68 d0 89 3c 6a df 32 bd 87 38 73 3c c9 ab 44 bc
       0.016823009 -0.043670096 0.01484502 -0.012003847
0003e0 22 05 35 3d a1 5d b1 3c 51 c0 3f bd 72 0d 2a bd
       0.04419435 0.021651091 -0.046814267 -0.04151673
0003f0 2c 89 35 bd 96 17 9b 3c 87 7d 8f 3a 72 a3 86 bd
       -0.04432027 0.018932145 0.0010947444 -0.065741435

cnn2.bias f4 [32]
000000 7a 2f 42 bc 24 90 d1 3c 1c 0c fb bb ae cf 04 bd
       -0.01185214 0.025581427 -0.0076613557 -0.03242462
000010 d4 08 54 3c 18 c7 06 bd cf 7f 27 bc 12 d3 13 bd
       0.012941558 -0.032904714 -0.010223343 -0.036089964
000020 4a d8 44 3d 30 05 4d bd 31 44 1b 3d 89 cd e6 3c
       0.04805783 -0.050053775 0.03790683 0.028174179
000030 93 27 62 3c 6f b3 9c bc 60 7a 8f 3c a9 18 86 38
       0.013803381 -0.01912853 0.017514408 6.394211e-05
000040 89 56 f1 3c a0 14 1f bd 4a 11 3d 3d 16 f9 23 bc
       0.029460208 -0.03883803 0.046159066 -0.010008117
000050 18 05 15 3d 8e 15 b6 bc 25 e5 c6 3c 3f d2 3d 3d
       0.03638181 -0.022227075 0.024279187 0.046343084
000060 4d 43 30 3c 69 4a 0a 3a 92 25 48 bd 1c bf 7b bc
       0.010758233 0.000527537 -0.048863955 -0.015365388
000070 ff cf 46 bd cf 1e 3b 3d 47 f4 00 3d e9 e8 bc 3c
       -0.048538204 0.04568368 0.03148296 0.023060279

fc1.weight f4 [10, 512]
000000 a4 a2 9c bc 0d 36 a7 3b 1b bf bb 3c ff 09 ce bc
       -0.019120522 0.005102879 0.022918275 -0.02515125
000010 a9 47 b7 ba eb ba ef bc 84 b2 87 3a 66 2a 60 3d
       -0.0013983148 -0.029263934 0.0010352884 0.054727934
000020 49 50 6f bd 7e 70 f4 bc 7a e8 53 3c ea 03 19 3d
       -0.058426175 -0.029838797 0.012933845 0.03735725
000030 f6 8b 13 bd f6 23 57 bc 63 58 10 bd b5 0a 87 bc
       -0.03602215 -0.013131132 -0.035240542 -0.016484598
000040 d6 35 dd 3b 18 bc a7 bd 0e b3 e8 3b 17 74 9c 3d
       0.0067508025 -0.08190173 0.007101423 0.0763933
000050 32 89 30 bd 76 ba cb bc 81 cd 12 3d 79 d1 1f 3d
       -0.04309959 -0.024869185 0.035840515 0.039018128
000060 52 54 e8 3c 6d fe 80 bb 5b 15 ff bb ed 2d 33 3d
       0.02836052 -0.00393658 -0.007784528 0.04374497
000070 6a 02 94 3d 14 f8 b6 3c fa 01 5b bc 9f 7b ab bc
       0.07227023 0.02233509 -0.0133671705 -0.02093297
000080 5c 50 dc bc f0 a8 f8 3b 12 7b 40 3d 9f 43 6f bd
       -0.026893787 0.0075884983 0.04699237 -0.058414098
000090 6a 24 e9 bc fd 47 69 3b 43 02 34 bd d6 a4 8c bd
       -0.028459746 0.0035595887 -0.04394747 -0.068673775
0000a0 3a e4 80 bc dd b6 66 bd 8f f8 34 bc 44 66 7f 3c
       -0.015733827 -0.056326736 -0.011045589 0.015588347
0000b0 fb d0 f6 bb e0 b4 e2 bc 68 df 34 3d d4 88 99 3d
       -0.0075322366 -0.027674139 0.04415837 0.07496801
0000c0 b5 be a1 3c df 38 7e bc ee 8d 80 bd e9 03 b5 3b
       0.019744257 -0.015516489 -0.06277071 0.005524148
0000d0 4f 46 42 bc d4 7a 42 3c f8 9e 68 3c 93 f3 6e 3a
       -0.011857583 0.011870105 0.014198057 0.0009115275
0000e0 51 a2 90 bd ce 10 28 bd 86 a5 72 3c a6 1c d6 bc
       -0.070622094 -0.04103165 0.014809972 -0.026136708
0000f0 81 9f 7d bd 34 02 03 bc d2 d5 30 bd 92 eb 55 3d
       -0.061919693 -0.007996131 -0.043172665 0.05222661
000100 d4 21 97 39 59 32 7e 3d ef 40 26 3d 14 a8 e9 bc
       0.00028826168 0.062059734 0.04058927 -0.028522529
000110 8f f4 08 3d 4f 26 92 3d c4 d2 8e bd 87 4e f8 3d
       0.033436354 0.07136213 -0.06973794 0.12124353
000120 5e ef 09 3d 6f 55 ac bc 3a 62 5e 3c 6e f3 a5 3c
       0.033675544 -0.021036832 0.013573224 0.020257678
000130 66 2b 29 bc 87 56 66 bd 15 83 42 bd e6 aa 0f 3d
       -0.010325288 -0.056234863 -0.04748829 0.03507509
000140 c0 0c 30 3d 49 a9 c3 3c b2 f7 5d 3d 7f 45 ed bc
       0.04298091 0.023884432 0.0541913 -0.028963802
000150 71 08 65 3c e1 4e b1 3c c0 bc b3 bd 91 0f ab bd
       0.013979063 0.021644058 -0.087762356 -0.083525784
000160 aa d5 09 bd b7 03 ff bd 55 bd 5c ba 48 eb 5e 3d
       -0.03365103 -0.124518804 -0.00084205467 0.0544236
000170 45 d3 69 bd 02 d7 c4 bc 00 04 a1 3c a9 55 85 3d
       -0.057086248 -0.024028305 0.019655228 0.06510479
000180 ea 01 35 3c 50 6a 22 3d 82 ab 67 3d 5d 58 68 3d
       0.01104782 0.03965217 0.056560047 0.056724895
000190 14 40 04 3d 4c 1d 19 3d 83 42 7e bd 3a 01 2b bc
       0.032287672 0.037381455 -0.06207515 -0.010437304
0001a0 9b 26 2f bd 0b 9e 74 bd 03 36 16 3d cf 3e 1f 3c
       -0.042761426 -0.059721034 0.036672603 0.009719565
0001b0 9a a0 ed bb 32 57 0f bd 36 92 35 3b 86 cf 36 bd
       -0.007251811 -0.034995265 0.0027705557 -0.044631504
0001c0 79 95 a2 bc d2 06 f3 bc a9 44 ea 3b 35 d0 20 3c
       -0.019846665 -0.029666338 0.007149298 0.009815265
0001d0 2e da 35 3d 9d ec 4a bd 5e ed ed 3c a5 d8 eb bb
       0.044397525 -0.04954206 0.02904385 -0.007197457
0001e0 56 5d 36 3d fd dc 88 3d b5 28 3e 3c 58 3c 45 bd
       0.044522606 0.06682775 0.011606385 -0.04815325
0001f0 e0 42 19 b8 2c 05 9a 3c a3 1e 41 3d b5 db 04 bd
       -3.6540325e-05 0.018801294 0.047148358 -0.03243609
000200 f8 8c f2 bb 32 4d 25 bd c5 22 e0 3c 8a 37 6d 3c
       -0.0074020587 -0.040356822 0.02736033 0.014478574
000210 3e f1 1f bc 78 ee eb bb c1 ce 83 bd 68 14 92 3a
       -0.009762106 -0.0072000585 -0.064359196 0.0011144998
000220 00 f2 07 bd c4 b1 07 bd d0 d8 18 3b 6e 60 ad bc
       -0.033189774 -0.033128515 0.002332259 -0.021164145
000230 56 58 0e 3c da 8f 4f 3c 67 42 de bc 64 1a 6c bc
       0.008688053 0.012668574 -0.027131272 -0.014410589
000240 2a 8c a8 39 ec 0f 19 3d c9 d6 13 3c 4e b1 45 3d
       0.00032147887 0.0373687 0.009023377 0.048264794
000250 7d a1 b4 bc 56 37 7d bb 81 c7 48 bc 15 b3 93 bd
       -0.02204966 -0.003863772 -0.012254597 -0.072118916
000260 6c de 18 3d 25 db aa 3d 9a bf 55 3d 21 ab fc bb
       0.037321493 0.0834258 0.05218468 -0.00771083
000270 c0 5d 01 3d c7 ca 46 3d d8 cd 96 3c 42 38 03 3c
       0.031583548 0.048533227 0.0184087 0.008009018
000280 aa 70 71 bc f1 a0 f1 bb 9e 53 4a bd 8c 4b 8f 3c
       -0.014736334 -0.007373922 -0.04939615 0.017492078
000290 d0 2c 4e 3c c1 50 ce 3c 6a 04 a7 bc b8 c4 11 3d
       0.012583926 0.02518499 -0.020387847 0.035587996
0002a0 ab be 8e 3d 37 31 c0 3d b0 d7 f8 bc a4 11 b9 3c
       0.06969961 0.09384387 -0.030376285 0.02259142
0002b0 f5 d8 9b 3d 55 9f 35 3d 31 1d aa 3c ec 7f 8a bd
       0.07609741 0.044341404 0.020765873 -0.067626804
0002c0 0c dc 40 3c 2a 9a 3c 3c 23 0f b8 3c 1c d9 32 3d
       0.011771213 0.011511365 0.022468155 0.043664083
0002d0 c3 3d 2c bd 45 e6 95 3c 6d 5f e1 39 2d df 20 3d
       -0.042051088 0.018298278 0.00042986442 0.039275337
0002e0 f5 cf bd bb 62 21 c0 bc bb 76 18 bd bc ee bc b9
       -0.0057926127 -0.023453418 -0.037222605 -0.00036036025
0002f0 ac ce 3c 3c ee 84 0d 3c 6e f8 38 3d f7 27 da 3c
       0.011523884 0.00863765 0.045158796 0.026630385
000300 cf bb 91 bc 4e a0 11 bd 7f 0a 16 3c e2 5a 7b bd
       -0.01778975 -0.03555327 0.009157776 -0.06136597
000310 18 c1 76 bc 37 78 3a 3c fe 98 05 bd f6 06 3f bd
       -0.015060686 0.0113812005 -0.032616608 -0.046637498
000320 0b 80 3a 3c 4f 26 f9 3c 34 b2 cf bc 93 fb 93 bc
       0.011383067 0.030413775 -0.025353529 -0.018064296
000330 bc d9 37 bd a9 a1 9b bc 0f 1f 52 3d 31 36 31 3d
       -0.044885382 -0.018997984 0.05129915 0.04326457
000340 6b 48 cb bc 11 37 4d bd 62 e8 d0 bb 99 83 21 3d
       -0.024814805 -0.050101344 -0.0063753584 0.039432142
000350 1a a5 b6 3c f6 20 20 3d 17 ea e0 3b c5 99 9d 3c
       0.022295523 0.039093934 0.006863843 0.019238362
000360 82 16 80 bc ec 8e e0 3d 20 e6 0e bd be a2 b3 3b
       -0.015635733 0.1096476 -0.034887433 0.005482047
000370 db 1a 5b bc 0b cb b6 3c 21 13 be 3c 57 19 39 bc
       -0.013373102 0.022313615 0.02320248 -0.011297545
000380 26 51 83 bc 57 2c d2 bc 21 b1 8a bb 03 c4 40 bd
       -0.016029906 -0.025655909 -0.004232541 -0.04706193
000390 1f 8b 05 bd b7 a8 d8 3c 03 bd a3 bc 66 bd 23 bd
       -0.03260338 0.026447637 -0.019987589 -0.039975546
0003a0 72 33 20 3d be d2 dc bc 5b 74 03 be 13 41 96 3c
       0.039111562 -0.026955958 -0.12837355 0.018341577
0003b0 c1 49 49 bd 09 f6 8a bc 56 3e ca 3c d4 ae fe 3c
       -0.049142603 -0.016963022 0.024687927 0.031089224
0003c0 d8 b2 94 3c ee 97 80 bc 5c e9 81 bd 34 e2 c0 bc
       0.018151686 -0.015697446 -0.06343338 -0.023545362
0003d0 c5 ec da ba 0f 0f 4e bc b2 67 c8 3c d2 96 0d 36
       -0.0016702643 -0.012576832 0.024463508 2.1098426e-06
0003e0 3d 25 68 3c 17 21 18 bc 5d 8f 44 3d b7 8b 6c 3a
       0.014169035 -0.009285233 0.047988284 0.00090235047
0003f0 f8 ec 44 bd e2 5b 38 bc 25 55 f8 3c 8f b2 7a bc
       -0.048077554 -0.011252375 0.030314038 -0.015301361

fc1.bias f4 [10]
000000 3f 8c 25 3d 54 d9 34 3d 0d f3 e4 bc 09 95 95 bc
       0.040416952 0.044152573 -0.027947927 -0.018259542
000010 8c f6 30 bd da 3d bd bc 34 d0 3c bc 16 25 1c bd
       -0.043203875 -0.023100782 -0.011524249 -0.038121305
000020 6b 74 53 3d 2d 8d 3f bb
       0.051624697 -0.0029228434
