result/fmnist/seed12/noniid_0.8/ratio_0.1/final.pt (torch, 122111 bytes, 14 tensors)

layer1.0.weight f4 [16, 1, 5, 5]
00000000: 4708 2abc f894 a2bd 6c8b 3c3b 9355 a63d
00000010: abc2 143c bb7c 3ebe 2138 693d b0c9 cbbd
00000020: ed59 293e c2a5 a63d be56 5fbe 84a4 563d
00000030: 0036 ba3d 6725 be3d 82e6 8dbb 74ae 52be
00000040: 5069 623e c7a5 483e a54b 34be f4ad b8bc
00000050: 1c84 183e 2b19 12be 507a 14be 6767 eb3d
00000060: 27bc 183d e7ac 62bd 2196 0fbd 91fe 9e3d
00000070: 41c5 e83c d34c 343d 463a d63c b65b 1c3e
00000080: ee04 9bbd 772a e2bd 1fbd abbd dc60 55bd
00000090: 3622 4c3d 7091 44be 5513 3dbe ca6e fd3d
000000a0: 6bf4 143e f13e edbd 2387 edbd 8944 40be
000000b0: 5616 c43d 5abb 2c3d c531 003e 0e16 e3bd
000000c0: fe69 87bd 7887 643e 2816 193e 8cf6 513e
000000d0: 4155 5f3d 1352 1a3e 6822 453e ff35 1ebe
000000e0: 6ac7 f2bd 4ff7 403e 11de a03d bb80 343d
000000f0: 49aa 0a3e d2c3 1bbe deb0 0f3e 4529 c93d
00000100: b7e0 9d3d 7131 803c af48 3abd 3545 863d
00000110: 62c4 083e ebb9 a93c d946 e5bd 597f dfbd
00000120: 6cf1 dabc cecc 2bbe 38c7 fcbd 9cf0 663d
00000130: b6c8 39be 2490 3e3e 33b6 4ebc b8aa b03d
00000140: 5a74 fe3c fa10 23be eafc 0f3e 84ea ecbd
00000150: a2f2 803c 0664 cd3d c183 b5bc 8f72 2f3e
00000160: 06fc 0fbe 2914 fd3d 3f2f 973c d6b5 d63d
00000170: dd98 143d 88ab 1bbe aca2 6e3d 2f69 463d
00000180: b5ab 0dbe 7b7e 1bbe 649f 6ebe d6fa 453e
00000190: b6c5 333d 2f54 a23d ca1e 943d 90a7 efbc
000001a0: 28eb ef3d 3258 f73d 8589 08be 1256 b03d
000001b0: 7855 423e ac2f 85bc 2ed0 c83c 6eef 893d
000001c0: ac25 4bbe 4bef f8bd 610e 773e c72a 25be
000001d0: d379 723d 22b0 6ebe 47a4 9dbd cc56 5eba
000001e0: 0380 ac3c 3950 f2bd 2cf4 243d 915b 5f3c
000001f0: 1898 4ebe f35f 563c 060b 703e 9dec 3c3e
00000200: e547 acbd 55ea 063e 570f 26be 6642 5b3e
00000210: 0e48 c93d a25c 9e3d d11a 00be 4338 d1bd
00000220: 5ca7 51be 8d37 d83d 8da1 36be 8ba0 82bd
00000230: 8848 5dbd ec38 363d eb90 0c3d 4300 813d
00000240: 458d 213e e547 72bc 6fbe 8cbd 5c20 04be
00000250: ed8f 19bd 8d16 06be 4123 b63d 1967 153e
00000260: 1990 013e cb81 fc3d 71c7 8dbd b2d2 40be
00000270: 4667 3b3e 243b 9bbc c461 39bd 8831 31be
00000280: a348 0bbe 5252 603d 0ba8 263e 9df7 2cbe
00000290: b711 49be 243f 16bd ed9d 23be c16e 483e
000002a0: 687e 70bb b7d8 21be dbf0 573d fd29 3a3e
000002b0: c40a 9e3d 45d7 e8bd 47ee 7a3d ec5d 2fbe
000002c0: 374a 173e 0993 81bc 247a e73c c345 80bc
000002d0: 75c4 57be e708 643d 44b2 6f3e e814 24bd
000002e0: e1c3 75bd cdcd 4bbe 1c07 bbbc dd00 7a3e
000002f0: 9ef3 2bbd 0a84 45bd b6e0 103e a1cf 23be
00000300: 923f b73c 22ba 81bb e396 533c 6675 d7bd
00000310: 41e4 633b 3f54 3c3d a977 c13d 531d d8bd
00000320: 7803 f73c a136 42be ae74 0dbc 7dde 853c
00000330: 9e71 b7bd 99ef c6bc 3629 3cbc abab 9b3d
00000340: 0bf5 273e b299 59be 8ac3 173e a7bc 553d
00000350: df6f 273e 293f 353e 8af8 a6bd 98f5 c0bd
00000360: d88a de3d bbd3 b83d b011 2b3e 10c2 babd
00000370: 675c 303d b674 b5bd 868f 29be 1673 ef3d
00000380: 2ebf 823c 318a 323e 7bf5 033e cd89 d8bd
00000390: 232e 97bd 965a 783d 3eae 303e 4fba 1cbe
000003a0: 5620 5a3e 5bc0 0f3e d9c4 eaba 72d1 32be
000003b0: 7419 9fbd 4eaf 1d3e 203e b53d 7b3e 823d
000003c0: b502 23be 3fdc 3cbe 0a95 37be 3037 88bc
000003d0: 01fd 93bc 6f31 afbd d01c 4a3e 7f77 58be
000003e0: 87d1 51be 9526 2bbe 5d89 d0bd 55c9 89bb
000003f0: c5b1 5abd 531d b73c f10f 2e3e a8f4 23be
-0.01037795 -0.0793857 0.0028769625 0.08121791 0.009079616 -0.18602268 0.056938294 -0.09950578
0.1653821 0.081370845 -0.21810433 0.052402988 0.09092331 0.09284478 -0.004330457 -0.20574361
0.22110486 0.19594489 -0.17606981 -0.022543885 0.14894146 -0.14267413 -0.14499784 0.11494332
0.03728881 -0.055340674 -0.035055283 0.077633984 0.02841437 0.044018578 0.026150834 0.1526936
-0.075693 -0.11043256 -0.08385681 -0.052094325 0.049837314 -0.19196105 -0.18464406 0.12374647
0.14546363 -0.11584271 -0.11598041 -0.18776144 0.09574573 0.04217086 0.12518986 -0.11088191
-0.06612013 0.22317302 0.14949858 0.20504206 0.054524664 0.15070371 0.19251406 -0.15450285
-0.118544415 0.1884434 0.07854856 0.04406808 0.13541521 -0.15211418 0.14032313 0.09822325
0.077088766 0.015648575 -0.045479473 0.06556169 0.13356164 0.020718535 -0.11195154 -0.109129615
-0.026726447 -0.16777346 -0.123426855 0.056381807 -0.18142971 0.18609673 -0.012616682 0.08626312
0.03106134 -0.15924445 0.14061323 -0.11568168 0.015740696 0.100288436 -0.022157552 0.17133544
-0.14060983 0.12357361 0.018455146 0.10483901 0.036278594 -0.15202153 0.058260605 0.048440155
-0.13835032 -0.15184967 -0.2330299 0.19333968 0.043889724 0.07926213 0.07232435 -0.029254705
0.11714774 0.12077369 -0.1333371 0.086101666 0.18977916 -0.016258083 0.02451333 0.06735121
-0.1983859 -0.121550165 0.24126579 -0.161296 0.059198212 -0.23309377 -0.07697349 -0.00084815617
0.021057134 -0.118317075 0.040271923 0.013632671 -0.20175207 0.0130843995 0.23441705 0.18449636
-0.0841215 0.13175328 -0.16216789 0.21412048 0.098281965 0.07732512 -0.1251023 -0.10215809
-0.20473999 0.105574705 -0.17835064 -0.063782774 -0.05402425 0.04448788 0.034317892 0.06298878
0.15776546 -0.014787649 -0.0687226 -0.12902969 -0.037490774 -0.1309454 0.08893443 0.1459011
0.12652625 0.123294435 -0.06922806 -0.18830374 0.18301114 -0.018949099 -0.045259252 -0.17304051
-0.13601927 0.054766007 0.16275041 -0.16891332 -0.19635664 -0.03668131 -0.15978213 0.195735
-0.0036696438 -0.15805326 0.052719932 0.1818008 0.07716897 -0.113691844 0.061262395 -0.17125672
0.14774404 -0.015817182 0.028256483 -0.015658265 -0.21071036 0.055672552 0.23407847 -0.040059
-0.060001258 -0.19902726 -0.022830538 0.24414392 -0.04198038 -0.048221625 0.1414822 -0.15997173
0.02236918 -0.0039589563 0.012914392 -0.10520439 0.00347735 0.04597878 0.094466515 -0.10552468
0.030153021 -0.18966152 -0.008633776 0.016341442 -0.08957218 -0.024284171 -0.011484435 0.076011024
0.1640207 -0.21250036 0.14820686 0.052181866 0.16351269 0.17699875 -0.08152874 -0.09421843
0.10866326 0.090247594 0.16705966 -0.09119046 0.04305687 -0.088601515 -0.16558656 0.11691873
0.015960302 0.17435528 0.12886612 -0.105731584 -0.07381847 0.060633264 0.17253968 -0.15305446
0.21301398 0.14038222 -0.0017911448 -0.1746271 -0.07768527 0.15398905 0.0884974 0.063595735
-0.15919001 -0.18443392 -0.17927948 -0.016627878 -0.018064978 -0.085543506 0.19737554 -0.21139334
-0.20490085 -0.16713937 -0.1018245 -0.004204909 -0.05339219 0.02235285 0.16998269 -0.16011298

layer1.0.bias f4 [16]
00000000: dcf0 16be 61f2 35bd fdf7 aebd 1ee2 be3c
00000010: 28d9 d5bd 6423 70bd 06fd bb3d 4ff7 e83d
00000020: 4d34 28be 7812 77bd dff1 0d3e 9047 133e
00000030: d5bb 29bd 99fc 4bbe a972 2f3d f2a0 073e
-0.14740318 -0.044420604 -0.08543394 0.02330118 -0.1044181 -0.0586275 0.0917912 0.11375295
-0.16426201 -0.060320348 0.13861798 0.14382768 -0.041438896 -0.19920577 0.042833958 0.1324499

layer1.1.weight f4 [16]
00000000: bad9 843f 5007 803f 6c25 753f 5b69 833f
00000010: f80d 833f 5198 7e3f c7e2 823f c40b 853f
00000020: 4bd0 763f a9c6 843f 21f9 723f a4c0 793f
00000030: 829a 813f 9d78 763f b430 813f 419b 753f
1.0378945 1.0002232 0.95760226 1.0266527 1.0238638 0.99451166 1.0225457 1.0394216
0.9641158 1.0373126 0.9491139 0.9755957 1.0125277 0.9627779 1.0092988 0.95940024

layer1.1.bias f4 [16]
00000000: f41f 23bd ca24 00bd 262a 95bd 465b b4bd
00000010: 943d 26bd 1606 12bd 5b76 00bb 9d85 7dbb
00000020: 3ccd 50bd 8618 83bc a823 93bd 5262 97bd
00000030: 9737 2dbc 5c70 29bd 5568 2dbd c872 7dbd
-0.039825395 -0.031285085 -0.0728343 -0.088064715 -0.04058607 -0.035650335 -0.0019601795 -0.0038684376
-0.050976977 -0.016002905 -0.07184535 -0.073918 -0.010572336 -0.04136692 -0.042335827 -0.061877042

layer1.1.running_mean f4 [16]
00000000: 6881 06be 2720 f4bd b02d f83d e98f 413d
00000010: e009 0fbe 3a24 7ebd a4a8 a03d b175 813d
00000020: 1908 90bd 841b 38be f76e bd3e 18d5 773e
00000030: e066 80be 82b4 53be 4422 a23c f613 8c3e
-0.13135302 -0.11920195 0.12118089 0.047256384 -0.13968611 -0.062046267 0.07844666 0.06321276
-0.070327945 -0.17979246 0.36998722 0.24202383 -0.25078487 -0.20674327 0.01979173 0.2735898

layer1.1.running_var f4 [16]
00000000: 0b88 9f3c 078b c43c f577 a23d 8d15 843c
00000010: 6ac0 ae3c 5630 9f3c 83bb fa3c 6df5 963c
00000020: 0505 d83c 335a 363d 543d 883d 307b 9f3c
00000030: 4896 683d 5d99 d13c e251 0e3d 130f fd3c
0.01947405 0.023992075 0.07933036 0.016123557 0.021331985 0.019432228 0.03060699 0.018427575
0.026369581 0.044519614 0.066523224 0.01946792 0.056783944 0.025585825 0.03474606 0.030890977

layer2.0.weight f4 [32, 16, 5, 5]
00000000: 3061 4f3d 6930 c2bc 93f1 26bd d1de 90bc
00000010: 5f2b 923c 6734 45bd 4762 d8bc 9229 91bb
00000020: 6733 283b 9726 12bc 1576 fbbc f78d 9b3c
00000030: 8ce6 69bc 508b 463d b920 f13c 78d0 d0bc
00000040: d9bd 1e3d d5a8 c23c 032c 013d 42e0 95bc
00000050: fe9d 883b cc49 083c 349e d6bb 2172 8b3c
00000060: ca40 38bd 1523 10bd 4157 093b 3961 a63c
00000070: 7d56 513c 85dd fb3b b8c5 363d c219 b53c
00000080: 0d16 c5bc 14fb f83c 95e5 cb3c 8f4a f73b
00000090: afc4 733c b9bc e63c ea0d 813c 81cd 173b
000000a0: 463d 4ebc 45ac 2a3d 933d 143d 8eee fc3c
000000b0: 1a6d 5fbc eb45 d63c f36e 993b fd7e b2bc
000000c0: cf56 e3bb 5877 f3bc f96e 493d 5d07 1a3c
000000d0: 089b b23c 1dc9 4fbc 8fa3 cabb 5d25 fc3c
000000e0: 0af4 223d 2858 85ba b033 26bd fd3e 22bd
000000f0: bbe5 053c a1b0 c6bb e5f6 a7bb cb89 f43c
00000100: e352 51bd 89fa 1a3d d800 3bbc dcce 29bc
00000110: 88e9 1fbd ed5e 34bd b6c2 853c 379e 0ebd
00000120: bf26 103d 85b1 423b 86c3 393c a466 6ebc
00000130: 2dd2 8c3c 0a0a 70bb f5c2 8cbc dca6 4839
00000140: b05e d4bc a719 09bd 6335 3ebd da05 10bd
00000150: 4742 52bd e1f7 8d3c 941f 39bd 38f3 43bc
00000160: 5667 37bd 9206 f5bc cdec db3c 3adc f23c
00000170: 527f 753d e180 6cbc 3625 45bd fc0e dcbc
00000180: 93b9 373d ef37 3b3d cd3b a73c 205f 32bd
00000190: 7a6a e9bc 4589 ba3c ccca 8c3b 0485 39bd
000001a0: 0036 733c dd73 ed3b 509d 143c 30a7 653c
000001b0: 630e c53c 5a87 033d 264d 15bd a337 d23c
000001c0: 81f7 6b3c 4ef2 673c bcc1 223c 4b11 e5bc
000001d0: fd5a 1e3c 586b 84bc f87a 0fbd 854d 593c
000001e0: 5998 c7bc 5ba3 04bd d592 cebc 767f 123d
000001f0: 87a7 3f3d b7bf 2a3d 23e9 6ebb ee10 d53c
00000200: 550c 5dbb ef60 2b3d 58b0 933c bc90 3b3d
00000210: 47e7 e73c 0d1d 39bd 1ee5 02bd 76ec 073d
00000220: db93 383d 3c85 53bd 9577 ad3c 0853 30bc
00000230: 8c8e ddbc 6821 a0bc 0483 1a3d 2aa3 2ebd
00000240: d1fe 5c3c e39f 1bbd 829b cf3c 20ac 78bc
00000250: a3a0 acbc e227 833d f00e fabb 4887 d93c
00000260: d77a 9c3c e417 f23c 6c5c 343d ee28 333d
00000270: 7789 c83c be25 ffbc a2fc a4bc 654c cd3b
00000280: 2bb8 c0bc a832 b83c 0be0 ea3b a955 e33c
00000290: f743 823d c1a0 443d 7d8f c3bc 0794 adbc
000002a0: 985f 653d 0d66 b53c 1d7b c6bc 5c1c 6dbc
000002b0: 77ee 2c3d a05e 2d3d c1e6 243c 9414 04bc
000002c0: 4aa5 f7bc 6576 f3bc 6b00 09bc 03cd eebb
000002d0: 5bc1 223d f1d9 d63c dff7 ad3c 0a6a 7f3c
000002e0: ce28 0c3d 7f3a 733b 0237 343d e0a9 443d
000002f0: 53d9 0f3d f708 883b 143b cd3c 3b95 b73b
00000300: 6b7a b83c a587 1c3d 3034 86bc d18d 503c
00000310: 4d32 c13a 669d 393d ed22 8dbc 8025 3f3d
00000320: 5d25 273d 0857 7e3d 5696 013d bacb 143c
00000330: aa63 ce3c 77d8 0e3d c2d9 0ebd 48bc 31bd
00000340: 3942 0c3d bd15 68bd 238a c3bc ea27 9cbc
00000350: 2c8e e738 f909 75bc 3ec5 62bd c74a 1dbd
00000360: e45b 54bc a279 293d 608d debc df23 f93c
00000370: b8e7 863c cccc 5cbb 5922 583b ee4f 11bd
00000380: 5146 9b3c fe61 0f3c 4562 a63c ac8d 603d
00000390: cf1a 0dbc 4645 fbbc 72b8 bfbc 0ebf 133d
000003a0: 7093 5a3d 17f4 e0bc e350 30bd 6ccf 4a3c
000003b0: 4955 8a3c a99e aebc a7ed 043d ee3e d2b9
000003c0: 6a24 21bd 86cd 613c e027 03bc 0ead 0e3c
000003d0: 72d3 d83b a374 2ebd 3ae5 c8bb a1b5 0cbd
000003e0: 2302 c53c 9a47 1a3c 79d6 1fbd 0b37 fdbc
000003f0: db66 34bd 312c 873c c139 52bc ce9e 3dbd
0.050629795 -0.023704724 -0.040757727 -0.017684372 0.017842947 -0.048145678 -0.02641405 -0.0044300044
0.0025665404 -0.008920333 -0.030695954 0.018988593 -0.014276158 0.048472703 0.029434549 -0.02549003
0.03875527 0.023762146 0.031536113 -0.018295411 0.0041692248 0.008318376 -0.006549621 0.017022194
-0.044983663 -0.035189707 0.0020956548 0.020310031 0.012776968 0.0076863193 0.044622153 0.022107009
-0.024058366 0.03039316 0.024889747 0.00754673 0.014878436 0.028166162 0.015753705 0.0023163261
-0.012587851 0.041668195 0.036191534 0.03087547 -0.013636852 0.026156386 0.0046824156 -0.021789068
-0.0069378386 -0.029719993 0.049178097 0.00940117 0.02180244 -0.0126822265 -0.0061840485 0.030779535
0.039783515 -0.0010173367 -0.040576637 -0.03961085 0.008172448 -0.0060635363 -0.0051258677 0.029850861
-0.051104438 0.037836585 -0.011413775 -0.0103642605 -0.039041072 -0.04403584 0.016328197 -0.034818854
0.0351932 0.002970786 0.01133812 -0.014550839 0.017190063 -0.0036627077 -0.017182807 0.00019135646
-0.025924057 -0.03347173 -0.046437632 -0.03516183 -0.05133274 0.017330112 -0.04519613 -0.011959843
-0.044776283 -0.02991036 0.026846314 0.029646028 0.059935875 -0.014435024 -0.04813119 -0.026862614
0.04485471 0.04570764 0.020414257 -0.04354775 -0.028493155 0.022770533 0.004296636 -0.04529287
0.014844418 0.007246478 0.009070709 0.014016911 0.024054712 0.032111503 -0.036450528 0.025661295
0.014402271 0.014156891 0.009933885 -0.027962347 0.009665248 -0.016164467 -0.03502938 0.013263111
-0.024364637 -0.03238235 -0.0252165 0.035766087 0.046790626 0.04168674 -0.0036454878 0.02600905
-0.0033729274 0.04184049 0.018028423 0.045792326 0.028308524 -0.04519372 -0.031956784 0.03318449
0.04506288 -0.051640734 0.021175185 -0.010761984 -0.02704551 -0.01954718 0.037722602 -0.042636074
0.013488487 -0.037994277 0.025342707 -0.015177757 -0.021072691 0.064040914 -0.007631175 0.026553765
0.019101543 0.029552408 0.044033453 0.043740205 0.02447961 -0.031145927 -0.020139996 0.0062652105
-0.023525318 0.022485092 0.0071678213 0.027750807 0.063606195 0.04800487 -0.023872131 -0.021188749
0.05599937 0.022143388 -0.024228627 -0.014472093 0.042219605 0.04232657 0.010064782 -0.008061547
-0.030230183 -0.02971954 -0.008361916 -0.007287623 0.03973518 0.02622697 0.021236358 0.0155892465
0.034218602 0.0037113724 0.043997772 0.048013568 0.035119366 0.0041514593 0.025052585 0.0056025065
0.022519311 0.0382153 -0.016382307 0.012729124 0.0014739722 0.045316122 -0.017228568 0.046666622
0.040807117 0.06209472 0.031637512 0.009081775 0.025194008 0.034874406 -0.03487564 -0.04339245
0.034242842 -0.056661356 -0.02386958 -0.019062001 0.0001104142 -0.014955991 -0.055363886 -0.03840139
-0.012961362 0.041375764 -0.027167022 0.030412612 0.016467914 -0.0033691404 0.0032979457 -0.035476618
0.018954428 0.0087513905 0.02031053 0.05482261 -0.008612349 -0.03067268 -0.02340338 0.036070876
0.053363264 -0.027460141 -0.04304589 0.012378555 0.01688637 -0.02131589 0.032453205 -0.00040101208
-0.039341368 0.013781911 -0.008005112 0.008708252 0.006617003 -0.042591702 -0.0061308416 -0.034352902
0.02404887 0.009416485 -0.039022896 -0.030910036 -0.044043403 0.016500564 -0.012831152 -0.046294026

layer2.0.bias f4 [32]
00000000: fc51 bebc e9a8 173d 544e fcbb 2f26 12bd
00000010: 25b3 d43c 15d2 97bc c3a2 48bc 53dc 06bd
00000020: fb8b 303d 95da 04bd b5bd 193d 3266 df3c
00000030: ff52 d93b a539 9cbc ae68 1b3d 999e 843b
00000040: 6cd5 323d cbac ffbc cbe6 1e3d 87f6 4a3c
00000050: 519a 153d 3b2e feba 6921 d33c f128 463d
00000060: cdde 523c adb5 2c3c 10e8 38bd 5493 86bb
00000070: b147 2abd b958 3e3d 360d 213d 85db 863c
-0.023232453 0.03702632 -0.007699767 -0.035680946 0.025964329 -0.018532792 -0.012245837 -0.03292496
0.043102246 -0.03243502 0.037534434 0.02727041 0.0066322084 -0.019070456 0.037941627 0.0040472266
0.043660566 -0.031210324 0.03879432 0.012387878 0.03652412 -0.001939244 0.025772767 0.04837889
0.012870503 0.010541362 -0.045143187 -0.0041069183 -0.041572277 0.04647133 0.03931924 0.016462097

layer2.1.weight f4 [32]
00000000: 195c 523f 2e28 4c3f 5c46 583f b596 4f3f
00000010: 469d 513f 5350 5b3f df83 543f b3e7 503f
00000020: eb42 503f c196 5b3f d6b5 523f edce 4a3f
00000030: 9627 503f 0bd7 4d3f 6931 573f 56ed 4e3f
00000040: 6a73 4f3f c411 4c3f 985c 563f eabc 563f
00000050: e785 523f 0b58 573f 0eed 4e3f a9a2 4f3f
00000060: 026d 4f3f 0403 433f 7c39 523f 41a5 563f
00000070: ac59 593f d05b 573f 2955 4f3f d536 563f
0.8217178 0.7974881 0.8448236 0.81089336 0.81880605 0.8566944 0.8301372 0.81603545
0.8135211 0.8577691 0.8230871 0.79221994 0.81310403 0.80406255 0.8405977 0.80830896
0.8103548 0.7971461 0.83735037 0.8388201 0.8223557 0.8411872 0.80830467 0.81107575
0.8102571 0.76176476 0.82118964 0.8384591 0.84902453 0.8412447 0.8098932 0.8367742

layer2.1.bias f4 [32]
00000000: 6a63 85be eb8b 8bbe 1456 8dbe b7c5 88be
00000010: e762 88be e3e6 70be 3a72 78be ec21 88be
00000020: 53a6 8abe 8f49 88be c04b 85be d589 8bbe
00000030: 9d46 8abe a4da 8cbe 9c27 8cbe 3254 90be
00000040: a180 8fbe 6f5a 8dbe 526a 86be b721 80be
00000050: e3bb 85be a5d4 7dbe 555d 88be 9174 84be
00000060: 4764 83be ccbb 89be 17c6 89be c56b 86be
00000070: e7ac 84be 0bfb 8bbe 5355 8bbe 1833 88be
-0.2605241 -0.27255186 -0.27604735 -0.26713344 -0.26637957 -0.23525576 -0.24262324 -0.2658838
-0.2708002 -0.2661862 -0.26034355 -0.27253595 -0.27007 -0.2751056 -0.2737397 -0.28189236
-0.28027824 -0.27608058 -0.2625299 -0.25025722 -0.2611991 -0.24788149 -0.26633707 -0.25870183
-0.25662443 -0.2690109 -0.26908943 -0.26254097 -0.25913164 -0.27339968 -0.27213535 -0.2660148

layer2.1.running_mean f4 [32]
00000000: 8a81 76bc ae7c c4be f744 4bbe 3db4 a2be
00000010: 739e ab3e f5e0 abbe 3e37 02bf c889 68bf
00000020: 08b8 c9be b89d 283e a618 a7be 52ee 97be
00000030: 0eda c2be babb e4bb b0d6 f43d abfb dc3e
00000040: 35ce a63e 0dc1 ee3d f687 6b3e 847c 30bd
00000050: 2e71 ef3d 09c5 293c d7fe 28be f818 e3be
00000060: 0b82 74be 2692 6c3f ae14 debe 76c3 93be
00000070: a824 99be 6915 febc 6d3d afbe dde1 843e
-0.015045533 -0.38376373 -0.19850527 -0.31778136 0.33519325 -0.33570066 -0.5086554 -0.9083524
-0.39398217 0.16466415 -0.32635993 -0.2967401 -0.38056988 -0.0069803866 0.11955011 0.43160757
0.32579198 0.11657915 0.23001084 -0.043087497 0.11691509 0.010361918 -0.16503464 -0.44354987
-0.23877732 0.92410505 -0.43375152 -0.28860062 -0.2991078 -0.031016069 -0.34226552 0.2595357

layer2.1.running_var f4 [32]
00000000: 3507 b73e b545 513e d39d 753e 0945 b03e
00000010: 9b93 8e3e 2e23 043f 71a9 fd3e 1ae5 063f
00000020: 649d 963e 9c5f 0c3f 11f8 a53e 689d 443e
00000030: 7477 813e 5c51 953e 8443 953e c703 aa3e
00000040: d283 a93e 8d73 8f3e 8160 b93e ef27 f13e
00000050: 39a5 823e abdd 023f d79f 773e 8324 013f
00000060: bac0 8b3e 0821 fa3e f235 473e 32a7 a53e
00000070: e0d8 903e e304 873e e704 723e 3139 c13e
0.35747686 0.20436747 0.23985986 0.3442767 0.2784699 0.5161618 0.49543336 0.5269333
0.29416955 0.5483339 0.32415822 0.1920067 0.25286448 0.29163635 0.29153073 0.33206007
0.33108383 0.28017846 0.3620644 0.4710078 0.2551668 0.5111949 0.24182068 0.5044634
0.27295476 0.48853326 0.19454172 0.32354122 0.28290462 0.26370916 0.23634683 0.37738946

fc.weight f4 [10, 1568]
00000000: ba7d 313c 79b9 b43c 9757 ac3c a45c a2bc
00000010: fbe3 a63c edce 9b3a 1522 c2bc 6123 493d
00000020: 9a70 dabc 1d0a 46bc 0bef b73b e4d0 ad3c
00000030: 0e65 853c 8516 22bb 3412 bfbc 0e07 76bc
00000040: 03a3 b03b c761 f0bc f01f a03c ce70 3d3c
00000050: 8d89 5dbd 7686 e0bb 4ea8 db3c ed93 f13c
00000060: f59c 53bb 0813 d6bb b49b c63c d3d6 353d
00000070: 726c 5dbb 615c 4b3c 68b6 0d39 b8d0 35bc
00000080: 7454 25bc 33d2 95ba 2856 543c 7fae 05bd
00000090: 705d 783c 95de bfbc a0e5 f2bc 977c f8bc
000000a0: a085 73bc 7462 04bd 9eb6 803c 46f8 3cbc
000000b0: ad54 a3bc e713 64bc 4ad4 7c3c a98f 01bc
000000c0: 8b0a debb 370d a53c 39d3 a4bc 0e52 903b
000000d0: 3e72 5f3c 0227 92bb 7e09 7bbc 7f77 013c
000000e0: c516 3cbc fb97 493c dcf7 c03c aa0f e5bc
000000f0: 9e20 333c 8107 693c 3b90 38bd 5329 5a3c
00000100: 212d 78bc 4562 003d 56b9 4d3d 721c 39bc
00000110: f2f0 33bc 3a5e 123c 6d74 f53a 1c36 1c3c
00000120: 2d6e 20bd 2545 183a 4acd 5a3c d543 89bc
00000130: 6a5d 12bd b3e1 8dbb e57d 3d3c 6a79 8e3b
00000140: b14d bf3c 42e5 91bc cd7d 013c 8854 113c
00000150: 9154 1cbc d377 193d af76 56bc 4624 04bc
00000160: 1ff7 c4bb 2936 29bd c010 0b3c 72d3 6c3b
00000170: 4d97 60bc 6431 0c3d 2b7e 153c f134 073d
00000180: 878b 28bb 3aa0 573c 19a8 1a3c 41c8 ea3c
00000190: 02af 663c d765 25bc c412 4cbc 5115 e23c
000001a0: 8a14 cfbc 7cef a5bc 4f8e 2e3d 27e2 d4bc
000001b0: 8e03 0ebc c650 17bd 9c6e 143c a0e1 c0bc
000001c0: ced1 9ebc aba4 333d 1526 d73c c9d5 e1bb
000001d0: 7dc1 8f3c 7bd1 ee3c 39ca 643c 2b65 ee3b
000001e0: 5776 2cbc 112e 04bc 9fe0 9cbc 0c3d 9bbc
000001f0: 023a afbc 2647 f1bc 1a34 00bc e4f3 16bd
00000200: d1e4 1f3b 9761 bbbc cbce dd3c c9e0 a9bc
00000210: 69eb 9abc a593 c4bc 5a66 2bbd 51ce 223c
00000220: 56c8 b0bc 7f44 4ebc 61a4 80bc f4d8 45ba
00000230: 2880 ffbc 6aa9 853b 79f4 2e3c d162 a1b9
00000240: 3e7c 32bc 5928 adbb 76a0 03bc bfeb 133d
00000250: c151 8e3c 85b3 acbc dd8a f43a 905a 7d3a
00000260: 38cd 073d e646 d63b e29a 453d beb5 a53b
00000270: 4735 6b3c 1c4d 9bbc ca5b 583d 71e6 913c
00000280: b49c 34bc b13c 523b ae73 32bd baa9 85bc
00000290: 64a9 87bc f365 b8bc 9835 18bd 17ea 83bc
000002a0: 7cc9 ea3b 2a79 773c 35b9 22bc d3a4 ad3c
000002b0: d3ad 053d cdcc 92bc 9cd6 833c 21b9 7abc
000002c0: 5a30 acba bcd0 9a3c 0a78 963c e445 093d
000002d0: d1f9 0bbd f41a 563c 1b4f 6abc 3270 8f3c
000002e0: ecdd 183b a3d0 d3bc 4af3 7ebc 3784 08bc
000002f0: fa3f c73a 6a69 94bc c4e4 f33c 4e95 433c
00000300: c2b0 a4bb 6b1b c2bc 68a0 06ba bad7 4fbc
00000310: 1a25 1cbc 3ad4 88bc 30df 0d3c 99f3 ef3c
00000320: 28b7 5c3d 8e23 2bbc b999 4cb9 c112 b1bc
00000330: 97fe d7bc 4cfa a33c 13bb 1c3c e08e f73c
00000340: 7505 d6bc 665a cebc a94f 0d3b 2cd0 4cbc
00000350: 0bc3 a33b 61b9 fb3b 7074 b939 7fdd a4bc
00000360: 1e1e a4bc b5b5 6f3d 8c96 ff3c 2ef1 febb
00000370: d89a 29bc 16a9 633c bbf0 393d 1102 a43b
00000380: bbab b23c 594b fcbc 7a96 f1bb 48cc 98bc
00000390: 0463 b6bc 0e7c ba3c 5a84 d83b 9cd0 6e3c
000003a0: 82ef acbc 4cd0 9a3b 92d8 11bd 5258 99bc
000003b0: 1df3 cbbb 97d6 0abc dcdf 88bc aab1 60bc
000003c0: bf61 b63c 204c 4c3c 7845 bebc fb84 85bc
000003d0: 74d1 4b3c 8c86 a7bc 88b7 b53b 2f7a 853c
000003e0: f2de 583c 745f 463c 1183 cb3c 0a12 8a3c
000003f0: f02e cb3b 023b 773c 35ee 24bb eee9 303c
0.010833198 0.022061097 0.02103786 -0.019819565 0.020372381 0.001188723 -0.023697892 0.049106006
-0.02666502 -0.012087372 0.005613213 0.02121777 0.016283538 -0.002473266 -0.02332411 -0.01501633
0.0053905263 -0.029343499 0.019546479 0.011562539 -0.054086257 -0.0068519665 0.026813652 0.029489482
-0.0032289599 -0.0065330304 0.024244167 0.044394325 -0.0033786562 0.012412162 0.0001351476 -0.011097126
-0.010090936 -0.0011430442 0.012959994 -0.032637116 0.015158996 -0.023421565 -0.02965051 -0.030332847
-0.014863402 -0.032320455 0.015712079 -0.011533802 -0.019937837 -0.013920761 0.015431473 -0.007907786
-0.006776159 0.020147903 -0.02012025 0.004404313 0.013638077 -0.0044602165 -0.015322087 0.007902025
-0.011480038 0.012304301 0.023555689 -0.02796157 0.0109330695 0.0142229805 -0.045059424 0.0133155165
-0.015147478 0.031343717 0.05022558 -0.011298286 -0.010982739 0.008933598 0.0018726714 0.009534385
-0.03916757 0.0005808643 0.013354609 -0.016755978 -0.035733618 -0.004329884 0.01156566 0.00434797
0.023352476 -0.017809514 0.007903528 0.0088702515 -0.009541647 0.03746779 -0.01308982 -0.008065289
-0.0060109044 -0.041311417 0.00848788 0.0036136773 -0.013707948 0.03422679 0.009124319 0.033009473
-0.002571793 0.01316076 0.009439492 0.028659942 0.014079811 -0.010095081 -0.012455646 0.027598055
-0.025278348 -0.020255797 0.042616185 -0.025986744 -0.00866784 -0.036942266 0.009059574 -0.023545086
-0.019387152 0.04385821 0.026263276 -0.0068919403 0.017548317 0.029152622 0.013964229 0.0072752438
-0.010526261 -0.008067624 -0.019150076 -0.018950008 -0.021389965 -0.029452872 -0.007824922 -0.036853686
0.002439786 -0.022873683 0.027076146 -0.020737069 -0.01891108 -0.023996184 -0.041845657 0.009936885
-0.021579903 -0.012589573 -0.015703382 -0.0007547282 -0.03118904 0.0040790336 0.010678404 -0.00030781937
-0.010893879 -0.005284351 -0.008033862 0.036113497 0.017372968 -0.021081695 0.0018657107 0.0009664679
0.033154696 0.0065392135 0.04824341 0.0050570657 0.014355964 -0.018957667 0.052821912 0.017810078
-0.011023689 0.0032079632 -0.043567352 -0.016316283 -0.016560264 -0.02250955 -0.037160486 -0.016102834
0.007165132 0.015104571 -0.009931852 0.021196758 0.032636475 -0.017919922 0.016093545 -0.015302927
-0.0013136968 0.01889836 0.018367786 0.03351392 -0.03417379 0.01306795 -0.014301087 0.017509554
0.0023325635 -0.025856322 -0.015560934 -0.008332304 0.0015201562 -0.018116672 0.02977217 0.0119374525
-0.005025954 -0.023694715 -0.0005135597 -0.012685711 -0.00953033 -0.01670276 0.008659169 0.029290961
0.05388561 -0.010445489 -0.00019512222 -0.021615388 -0.026366515 0.020016812 0.009566086 0.030219495
-0.026125649 -0.02518959 0.0021562374 -0.012500804 0.004997616 0.007682011 0.00035372702 -0.020125149
-0.020033892 0.0585229 0.031199716 -0.0077802157 -0.010351859 0.013895294 0.045395594 0.005005129
0.021810403 -0.030797647 -0.0073726745 -0.018652096 -0.022264011 0.022764232 0.0066075744 0.014576104
-0.0211103 0.004724538 -0.03560693 -0.018718872 -0.0062240497 -0.008474014 -0.016708307 -0.013714233
0.022263406 0.0124693215 -0.023226485 -0.016298762 0.012440074 -0.0204499 0.0055455603 0.016293613
0.013236748 0.012107719 0.02484277 0.016854305 0.0062006637 0.015089752 -0.0025166397 0.010797961

fc.bias f4 [10]
00000000: 8d43 9dbb 503f 77bb 635b 14bc d9d6 5ebc
00000010: dfd7 353c bfa2 913c 5c71 363c 6e05 563a
00000020: ba68 873b 3454 72bc
-0.0047993124 -0.0037726946 -0.009054991 -0.013601028 0.011098831 0.017777799 0.011135425 0.0008164261
0.0041323574 -0.014790583
