result/fmnist/seed12/noniid_0.4/ratio_0.03/final.pt (torch, 122111 bytes, 14 tensors)

layer1.0.weight f4 [16, 1, 5, 5]
00000000: d619 f43c 0006 1ebd c732 4fbd f926 743d
00000010: a12f fb3c c821 42be 1549 e03c 9bc2 06be
00000020: 8147 5e3e 7e2a 483d 3c31 84be af97 933b
00000030: f4e3 383e 256c 033e d226 ccbc 501d 76be
00000040: 465c 863e 2cb3 6b3e 15a8 48be 8272 f8bc
00000050: cca6 663e 8d42 2abe 7e08 76be 5c3b 0c3e
00000060: 701a 893b dc4f 9ebd c187 ac3b a948 fb3d
00000070: ccbf 3e3d 52cc 003d 1033 363d 1e85 4d3e
00000080: 378b 8cbd 1b6a 05be 8ba6 ecbd ce8e a6bd
00000090: 96a8 333d a87b 61be b49f 4abe 97dd 033e
000000a0: 1d72 3d3e 7719 0fbe deab 1dbe b91b 44be
000000b0: 11ed de3d b50a 9e3d 7144 213e b56d c2bd
000000c0: b2d8 08bd 3e60 833e 859f 1c3e 86b3 343e
000000d0: fc27 343d bb09 143e 7907 383e 4dec 28be
000000e0: 81bb 12be 2625 303e ebaa a83d 5bfe 203d
000000f0: 8428 ee3d d564 4cbe a800 d43d 7d12 dd3d
00000100: 3c5d bf3d 1835 88bb d12e b1bd ccb1 c13c
00000110: ea8d 043e ee41 d83c 5b23 fcbd c925 21be
00000120: 21b8 c7bd 3c82 38be b7f6 e3bd 4ca8 263d
00000130: 70ab 46be bc8b 783e c817 9ebd 2c08 8c3d
00000140: de8a 203d 6172 2bbe b693 4b3e d29d 1abe
00000150: 5fd3 093c 4936 fd3d 32fa 48bd e58d 413e
00000160: ee06 37be 2968 1e3e 6293 5c3c ef6a 8d3d
00000170: a842 97bc 631e 5dbe 4567 173e 7e90 ae3d
00000180: 746f fabd f21c 36be 24c3 83be 0ede 803e
00000190: 3254 e9bb c542 493d 750b 4a3d a493 3bbc
000001a0: 4d7e fe3d d64f b73d bdf3 1cbe 462b bf3d
000001b0: 69dc 483e d9a0 22bc 7506 0dbd 72ec 373c
000001c0: 8010 45be 153e 0fbe fb05 763e b2a7 2fbe
000001d0: 1f21 0dbc f260 86be 0fba 9cbd 34af 83bc
000001e0: f060 c53c 79e7 fabd 852d ef3c 31d9 033c
000001f0: 78f8 5fbe 15bb a1bb 5251 803e 4536 533e
00000200: 1888 85bd 5df6 fc3d c474 42be 8ef2 583e
00000210: cb0f c93d 9b2d c63d 0772 2abe cb65 0abe
00000220: f888 56be e0b1 e83d 6d2a 16be 6822 cdbd
00000230: 5112 bebd 5132 a13b f8c5 e33c f871 463d
00000240: 2cd2 113e 088d dfbc bb7f d4bd 8655 05be
00000250: 3a34 0ebd ed79 dabd 6703 c73d 79f2 313e
00000260: af94 183e 81c4 1d3e 8302 e4bc 02e2 5abe
00000270: 37f5 453e 52ac cabc 79bd bdbd 3f12 31be
00000280: e87d 37be 9142 6d3d a8cd 173e 7650 60be
00000290: 1415 6fbe 2aab 7bbd 1de1 0fbe fb8d 453e
000002a0: 3235 adbc afa4 16be 201e 4f3d a99b 5f3e
000002b0: 6a1c ad3d 2f63 ebbd d91e e23d 24c3 0dbe
000002c0: 112d 4a3e 7ab3 26bd 9b2f e5bc c4cd c33c
000002d0: 52d8 55be a1fd 693d 7762 a53e eb00 13be
000002e0: 2f3e 5abd c7e2 52be 20ac 74bd eacb 9f3e
000002f0: 161c 26bd 9c6d 2ebc da41 5e3e d7b5 86be
00000300: f744 ca3a 14d5 1b3d a514 383d 024e 38bc
00000310: 8522 3fbd cff2 173a fce3 b83d 3ab4 9cbd
00000320: 342a 813d 843e 26be 4bb3 36bc b1bb 853c
00000330: 2f99 eabd fd46 1fbc 47ba e2bc 3a9c 523d
00000340: 1e9b 2b3e 0e99 98be 4bfe 373e b0e6 bb3c
00000350: 6c3a 173e ee09 373e f26f 12be 4d28 c9bd
00000360: 0fba 283d a355 d53d 6d6e 423e ca97 c4bd
00000370: 1f20 893c bd59 34be 7c02 45be d265 e83d
00000380: 80e8 6b3b ab2f 203e c11d 013e 1037 14be
00000390: e91b fbbd 3132 073d 31a5 323e 045b 2abe
000003a0: 8048 743e 0c8c 173e dbe7 5cba f011 4dbe
000003b0: 6662 d2bd e58b 3f3e 7e0d 033e b031 f03d
000003c0: 5b3b 31be a718 08be 6ba5 35be 24b1 ecbc
000003d0: 9ab2 99bc 535e 95bd 9101 883e e0ab 61be
000003e0: eea6 54be c186 28be 5fd7 d5bd 8dd7 133c
000003f0: c595 6fbd 472b 16bc a72a 163e c46d 19be
0.029797476 -0.03857994 -0.050585534 0.05960748 0.03066236 -0.18958199 0.027378598 -0.13160174
0.21706964 0.04886865 -0.25818813 0.004504166 0.18055707 0.12834223 -0.024920855 -0.2403462
0.26242274 0.23017567 -0.19595368 -0.03032804 0.22524565 -0.1662695 -0.24026677 0.13694519
0.00418406 -0.07730076 0.0052652066 0.12269718 0.04656963 0.031444855 0.04448229 0.20070311
-0.068624906 -0.13028757 -0.11555203 -0.081327066 0.043861948 -0.22019827 -0.19787484 0.12877499
0.18500562 -0.13974558 -0.15397593 -0.191512 0.108850606 0.07716886 0.15748765 -0.09493581
-0.03340978 0.25659364 0.15295227 0.17646608 0.043983445 0.14456837 0.179716 -0.16496392
-0.1432934 0.17201671 0.08235725 0.039305072 0.116288215 -0.1996034 0.10351688 0.10794542
0.09343955 -0.00415672 -0.08651508 0.02364435 0.12944761 0.026398625 -0.12311431 -0.1573707
-0.09751917 -0.1801843 -0.111310415 0.040687844 -0.19401336 0.24272054 -0.0771938 0.06837496
0.039194934 -0.16742851 0.19880566 -0.15099266 0.008412211 0.1236387 -0.04906673 0.18901785
-0.17873737 0.15469421 0.013462873 0.069051616 -0.018464401 -0.21593623 0.14785488 0.085236534
-0.12228289 -0.1778448 -0.25734818 0.25169414 -0.0071206326 0.049135942 0.049327333 -0.0114487745
0.12426434 0.08950774 -0.15327354 0.09334426 0.1961533 -0.009926044 -0.034429986 0.011225807
-0.19244576 -0.13988526 0.24025719 -0.17153814 -0.008613854 -0.26245838 -0.07652675 -0.016074754
0.024094075 -0.12251181 0.02919651 0.008047388 -0.21872127 -0.004935632 0.25062042 0.20626171
-0.065200984 0.123516776 -0.18989855 0.21186277 0.098174654 0.09676667 -0.1664506 -0.13515393
-0.20950687 0.11362052 -0.14664622 -0.10016328 -0.09280837 0.0049193283 0.02780436 0.048448533
0.1424033 -0.027288929 -0.10375925 -0.13020906 -0.034717776 -0.10667787 0.09717446 0.17377652
0.14900468 0.15406992 -0.027833229 -0.21375278 0.19331823 -0.024740372 -0.09264655 -0.17292117
-0.17919123 0.05792481 0.14824545 -0.21905693 -0.23347884 -0.06144253 -0.14050718 0.19292443
-0.02114353 -0.1471126 0.05056584 0.21836723 0.08452685 -0.11493527 0.1104104 -0.13843971
0.19743754 -0.040698506 -0.027976802 0.023901828 -0.20883301 0.057126645 0.32301685 -0.14355819
-0.05328196 -0.20594321 -0.059734464 0.31210262 -0.04055413 -0.01064625 0.21704808 -0.26310608
0.001543193 0.038045004 0.044941563 -0.011249067 -0.04666378 0.0005796374 0.090278596 -0.07651563
0.06306878 -0.16234785 -0.011151145 0.01632485 -0.11454999 -0.009721515 -0.027676715 0.05141852
0.16758391 -0.2980427 0.17968099 0.022937149 0.1476838 0.17874882 -0.14300516 -0.0982214
0.041193064 0.104167245 0.18987437 -0.09599264 0.01673895 -0.17612357 -0.19239229 0.11347546
0.0035996735 0.15643184 0.12609006 -0.1447413 -0.12261183 0.03300685 0.17445828 -0.16636282
0.23855782 0.14799517 -0.0008426883 -0.20026374 -0.10272674 0.1870571 0.12798116 0.11728227
-0.17307799 -0.13290654 -0.17738883 -0.028893061 -0.018761922 -0.072933815 0.26563695 -0.22038221
-0.20766804 -0.16457655 -0.104414694 0.009023559 -0.05849244 -0.009165592 0.14664708 -0.14983279

layer1.0.bias f4 [16]
00000000: def0 16be ccf1 35bd dbf7 aebd 1ae2 be3c
00000010: 40d9 d5bd e323 70bd 90fc bb3d 1cf7 e83d
00000020: c033 28be 5612 77bd 04f2 0d3e a847 133e
00000030: cbbb 29bd a7fc 4bbe 8a72 2f3d 41a1 073e
-0.14740321 -0.04442005 -0.085433684 0.023301173 -0.10441828 -0.058627974 0.09179032 0.113752574
-0.16425991 -0.06032022 0.13861853 0.14382803 -0.04143886 -0.19920598 0.042833842 0.13245107

layer1.1.weight f4 [16]
00000000: 5419 873f 4d23 813f 6cef 673f 850c 853f
00000010: 6af7 813f a31d 7a3f 26f7 853f 625c 8a3f
00000020: 125e 7d3f ae0f 873f d38c 5d3f 621e 763f
00000030: be90 853f aefc 763f 3cd2 7e3f 583f 6d3f
1.0554605 1.0088898 0.90599704 1.0394446 1.015363 0.9770147 1.0466049 1.0809443
0.98971665 1.055166 0.86543006 0.9614011 1.0434797 0.9647931 0.9953954 0.9267478

layer1.1.bias f4 [16]
00000000: ebcb 97bd ceda 13bd 3f0e f8bd 75d6 c8bd
00000010: 634c b0bd d7ed 87bd cae3 13bc 657f 0d3c
00000020: 3e9d 6dbd 1f90 10bd 46af 09be 03b6 03be
00000030: 9e53 27bd be8e 41bd dcf6 0ebd 6c91 e8bd
-0.07411941 -0.03609734 -0.12112092 -0.098065294 -0.086083196 -0.06637161 -0.009026477 0.00863633
-0.058011286 -0.035293695 -0.13445768 -0.128624 -0.040851228 -0.04725527 -0.034903392 -0.11355862

layer1.1.running_mean f4 [16]
00000000: 47b1 0fbe d5e5 9abd 72e3 853b 4ce9 023d
00000010: faea 79be d306 e2bd 7923 a13d 3156 da3d
00000020: 36b9 2abe 4faa 24be 65b2 b53e 41d0 393e
00000030: 4cfe 92be 02b3 58be 82b4 e2bb ff91 223e
-0.1403247 -0.07563368 0.0040859515 0.03196077 -0.24406043 -0.11036458 0.07868094 0.10660971
-0.16672215 -0.16080593 0.35487667 0.18145849 -0.28709638 -0.21162036 -0.006918491 0.15876006

layer1.1.running_var f4 [16]
00000000: ecb1 9f3c 8911 be3c 42ac 553d e200 a23c
00000010: 8513 363d 9821 d73c b007 113d 319d 823c
00000020: a4df 973c 32dd 0e3d e2f3 7f3d 9d99 7f3c
00000030: 0c77 9a3d 8130 983c 7799 2c3d a4a0 983c
0.01949402 0.02320172 0.05216623 0.019775812 0.04445221 0.026261136 0.035407722 0.015944095
0.018539257 0.034878917 0.062488444 0.015600589 0.07542238 0.018577816 0.042138543 0.018631287

layer2.0.weight f4 [32, 16, 5, 5]
00000000: cf39 613d cad6 febc 8649 48bd d317 8cbc
00000010: ab12 f73b 0d34 40bd 85bb cebc effc 9dbc
00000020: 47fe b939 479e 8bbc c41a e2bc 04f6 343d
00000030: a275 603b d6a7 843d fd56 273d f1ae 0cbd
00000040: e91c 4c3d ff3a 1dbc c160 ad3c 9101 b0bb
00000050: b4bb 01bd 6511 fc3a f26c 84bc 5630 1ebc
00000060: 4e9d 24bd 59df 00bd e20a eb3b b421 053d
00000070: 7d79 833c 77a2 873c 1eb3 393d 431b bd3c
00000080: fdeb febc 6bdc 113d e374 783c 5909 eb3c
00000090: d4b3 083d e543 8a3c 3fd0 f43b 7830 463c
000000a0: fd3b 73bc 5518 c53c 86d7 953c 899f a43c
000000b0: fc7e 92ba 17f8 413d b264 4d3c 1eb9 1abd
000000c0: 4f42 a5bc 190b c3bc 470e 913d 027c 903c
000000d0: 3210 893c 9b2f 85bc e28a a6bc 8f01 1d3d
000000e0: 6556 2e3d 9649 85bc 43ec 5bbd 7380 55bd
000000f0: 36b5 a73c 6b73 57bb 5749 fbbb a50b 0a3d
00000100: d52a 4bbd f8e8 143d 6d77 babc d13b d4bc
00000110: f86d 0cbd 0e7c 22bd 0eea b33c 8562 fbbc
00000120: f205 c63c c7fa 7a3b f78b 1e3c b79e e9bc
00000130: b4a7 c93c 3ad0 b73c 46cc 5ebb d7ac ffbb
00000140: 8f8c 0cbd fb3a 0fbd c29b 5abd 2a23 00bd
00000150: 9528 83bd 53c5 403a c2cf 3bbd 3cda 2cbc
00000160: d819 71bd 4761 14bd 545d 743c 17ae 2d3d
00000170: a927 933d e561 a7bc 845d babc d20e 16bd
00000180: 446e 503d 4d22 7e3d 9d51 733c a792 35bd
00000190: e511 b3bc 84ac 193d 1d32 dc3c 2e26 21bd
000001a0: 986b c83b 0a5a 0dbb 388e 2e3c 7345 e03c
000001b0: 9048 fb3c b439 953c c542 23bd f999 cc3c
000001c0: b987 0f3c 7731 703c 1613 f3bb bedf 2bbd
000001d0: 5e49 333c 1888 dabb e1bf 89bc 87fc c83c
000001e0: 6391 a5bc d4ba bbbc 0d9a b0bc 033a 443d
000001f0: 1bb0 5b3d 63fd 583d f052 cc3b a81e 1b3d
00000200: cf02 223c 9c54 473d d280 893c 7036 313d
00000210: be60 b23c eb99 57bd abb8 21bd db15 bc3c
00000220: 0a14 223d b18d 48bd 7605 0d3c d4c8 babb
00000230: 0b07 fbbc 7b8a 6dbc 20bc 5b3d fdda 23bd
00000240: 0642 d63c 9e3f 30bd ccf7 0a3d 52ab 1e3c
00000250: a76e e4bc 6fff 893d 1c50 8d3c 7bac c13c
00000260: 5080 033d d582 213d 06ff 353d 68d7 5d3d
00000270: 4f82 813c 0b9c cabc 859e 71bc c8f1 20bc
00000280: a9b1 b5bc b8e0 d239 08a3 f93c e550 db3c
00000290: a88d 3d3d 30fe 4b3d 6263 3bbd 54b4 82bc
000002a0: 8c95 3e3d 97c1 febb 3155 8dbb ee91 27bc
000002b0: 7839 6e3d 999f 1e3d 7620 a9ba 20fb f83b
000002c0: 8798 eebc 70de 2cbd 833c afbc f768 5dbb
000002d0: 3ebb 243d c1e0 e23c c042 64ba 4703 863b
000002e0: 3911 fd3c 3425 18bc d8c4 3a3d 8b73 703d
000002f0: a940 213d af81 9e3c 6f3a 683c a534 9fbb
00000300: 9e7d 283c ab7f 2d3d e289 96ba fc64 b8bb
00000310: aad2 82bc e3e5 d13c d0b4 0bbd 681c 563d
00000320: 7666 e63c a36d 5f3d a9dd 113d d754 103c
00000330: b31c be3c f528 4b3c 3a1f 2cbd cf45 4fbd
00000340: 3289 b03c e32e 80bd eb3a 58bd b6a8 40bd
00000350: e238 1dbc a92a a5bc 5b5e 9ebd c551 4fbd
00000360: b5d8 28bc fea6 493d 0a35 e5bb 1acf 003d
00000370: c219 d0bb bc6c bbbb bee9 8e3b a098 17bd
00000380: a8cd 303a fa43 ca3c c4e0 233d 86ac 8a3d
00000390: 94a0 0f39 43c9 09bd 629d 6bbc 3186 2a3d
000003a0: 3641 693d c051 90bc ae5f 34bd f1d1 883c
000003b0: 6d23 5c3c b10a ddbc b5d7 ef3c 9a2c 783b
000003c0: 7ce6 2bbd 3ade c23b bb9f 31bc 53eb 083d
000003d0: ee2a 1a3d 7cd8 38bd 27a6 b93b 2fdb c9bc
000003e0: 3370 ed3c ec66 ed3c dfdb 1abd d47e b5bc
000003f0: 80a3 28bd 478e 523c 38a5 62bc f1b7 1abd
0.05498677 -0.031108279 -0.048898242 -0.017101204 0.007540067 -0.04692464 -0.0252359 -0.019285647
0.000354754 -0.017043246 -0.027600653 0.04417993 0.0034249802 0.06477325 0.040854443 -0.034346525
0.04983226 -0.009596585 0.0211643 -0.0053712805 -0.03167315 0.0019231258 -0.01616523 -0.009655079
-0.04018908 -0.031463 0.007172928 0.032502845 0.016049141 0.016556961 0.045336835 0.023084288
-0.031118387 0.035610598 0.015164587 0.02869098 0.033374622 0.016878078 0.007471114 0.012096517
-0.014845845 0.024059454 0.018291246 0.020095604 -0.001117676 0.047355738 0.012536215 -0.037774198
-0.02017322 -0.023809003 0.07082801 0.017637257 0.016731355 -0.016258052 -0.020329896 0.038331565
0.04256286 -0.01627044 -0.053692114 -0.05212445 0.02047215 -0.003287519 -0.007668655 0.03370251
-0.049601395 0.03635499 -0.022762025 -0.025907429 -0.034284562 -0.03966909 0.021962192 -0.030686626
0.024172757 0.0038296448 0.009676925 -0.028518064 0.0246161 0.022438157 -0.0033996268 -0.0078025865
-0.034313735 -0.034968358 -0.0533712 -0.031283535 -0.06404225 0.00073536223 -0.04585243 -0.010550078
-0.058862537 -0.036225583 0.014914829 0.042402353 0.07185299 -0.020432422 -0.02274967 -0.036635228
0.050886407 0.06204443 0.014851001 -0.04432931 -0.021859119 0.03751804 0.026879365 -0.03934305
0.006116342 -0.002156856 0.010654025 0.027376866 0.030674249 0.018215992 -0.0398586 0.024975764
0.008760386 0.014660231 -0.0074180467 -0.041961424 0.010942785 -0.0066690557 -0.016815128 0.024534477
-0.020210927 -0.022916235 -0.021557832 0.047906887 0.053634744 0.052976023 0.006235473 0.037871033
0.009888365 0.048664674 0.01678506 0.043264806 0.021774646 -0.052637022 -0.039482754 0.02295964
0.039569892 -0.048963252 0.008607259 -0.00570021 -0.030643007 -0.014498348 0.053646207 -0.040003765
0.02615453 -0.04302942 0.033927724 0.009684401 -0.027884794 0.06738173 0.017250113 0.023641815
0.03210479 0.03943141 0.044432662 0.054160506 0.015809206 -0.02473261 -0.014747267 -0.00982327
-0.022179442 0.0004022175 0.030473247 0.026771972 0.046277672 0.04980296 -0.045749076 -0.015955128
0.046529338 -0.0077745426 -0.004313134 -0.010227663 0.058160275 0.038726423 -0.0012903351 0.007598296
-0.029125465 -0.04220432 -0.021391159 -0.0033784488 0.04021763 0.027695062 -0.0008707456 0.004089746
0.030892001 -0.009286214 0.04559788 0.05870394 0.039368305 0.019348947 0.014174088 -0.0048585706
0.010283856 0.04235808 -0.0011485184 -0.0056272727 -0.015969593 0.025622314 -0.034107983 0.052273184
0.028125029 0.054547917 0.035611782 0.00880929 0.023207044 0.012399902 -0.042021967 -0.050603684
0.021549795 -0.06258943 -0.052790564 -0.047035895 -0.009596081 -0.020161944 -0.077328406 -0.05061509
-0.010305573 0.04923152 -0.006994848 0.031447507 -0.006350727 -0.0057197493 0.0043613603 -0.03701079
0.00067445124 0.024690617 0.040009275 0.067711875 0.00013697363 -0.033639204 -0.014380785 0.04163188
0.056946956 -0.017617106 -0.04403656 0.01670167 0.013436181 -0.026982637 0.029277662 0.0037868381
-0.041967854 0.0059469016 -0.010841305 0.033427548 0.037638597 -0.04512833 0.005665559 -0.024640648
0.028984165 0.028979741 -0.03780734 -0.022155203 -0.04117155 0.012851304 -0.0138333365 -0.037773076

layer2.0.bias f4 [32]
00000000: f651 bebc fda8 173d e14e fcbb 7426 12bd
00000010: 88b3 d43c 03d2 97bc b8a2 48bc 58dc 06bd
00000020: ea8a 303d 92da 04bd a8bd 193d e765 df3c
00000030: 2f52 d93b b439 9cbc 1369 1b3d 929e 843b
00000040: 6cd5 323d bfac ffbc 98e6 1e3d 4bf7 4a3c
00000050: 239a 153d ee2d feba 4e22 d33c f128 463d
00000060: 6cde 523c 9fb5 2c3c 90e7 38bd a993 86bb
00000070: ed47 2abd ff58 3e3d ea0c 213d fcdb 863c
-0.023232441 0.037026394 -0.007699833 -0.035681203 0.025964513 -0.018532759 -0.012245826 -0.03292498
0.04310123 -0.032435007 0.037534386 0.02727027 0.0066321115 -0.019070484 0.037942003 0.0040472234
0.043660566 -0.031210301 0.03879413 0.012388061 0.03652395 -0.001939235 0.025773194 0.04837889
0.012870412 0.010541349 -0.04514271 -0.004106958 -0.0415725 0.046471592 0.039318956 0.016462319

layer2.1.weight f4 [32]
00000000: bde8 533f 27b1 503f 718d 5c3f af57 4b3f
00000010: 1239 583f c4fe 5a3f 690d 503f 3c62 563f
00000020: 96ff 543f 021f 5f3f ee54 523f a42f 493f
00000030: 8476 4e3f d5b3 4f3f 2642 583f 15c1 4e3f
00000040: 4127 563f a4cf 493f a929 5e3f c21c 573f
00000050: ede8 553f 8821 553f 0a79 503f b032 4e3f
00000060: 973a 4d3f 53dd 443f 5586 4f3f 7fc2 5b3f
00000070: 4106 563f bf97 523f 75db 563f 7a1f 543f
0.82777005 0.81520313 0.8615332 0.7943067 0.8446208 0.8554499 0.8127046 0.83743644
0.83202493 0.8715669 0.8216084 0.7858832 0.8064959 0.81133777 0.84475935 0.8076337
0.83653647 0.7883246 0.8678232 0.84028256 0.8355854 0.8325429 0.8143469 0.80546093
0.80167526 0.76900214 0.8106435 0.8584365 0.8360329 0.82262796 0.83928615 0.8286053

layer2.1.bias f4 [32]
00000000: 7fcc a6be e755 a9be ebc3 bcbe d238 a2be
00000010: 5d0f a8be 92e6 92be 57f7 9bbe 23b0 a9be
00000020: 81a6 afbe 6fff acbe b8de 9bbe 61ca a5be
00000030: d4fa 9fbe 4a19 a9be 8c2a b5be fafd acbe
00000040: ae6b b1be df83 b4be 02e2 aabe 7793 a4be
00000050: d7b7 a2be 903e a8be 5949 a4be 0593 a1be
00000060: 6d81 9bbe d005 acbe 5bbf 9ebe 95a4 aabe
00000070: f0ad a4be 255a b4be 72b3 b0be 8c0c acbe
-0.32577893 -0.3307335 -0.36868224 -0.31683975 -0.3282422 -0.28691536 -0.30462143 -0.33142194
-0.3430672 -0.3378863 -0.30443358 -0.32380965 -0.31246054 -0.33027107 -0.35384023 -0.3378752
-0.34652466 -0.3525686 -0.33375555 -0.32143757 -0.31780884 -0.3286023 -0.3208721 -0.3155748
-0.30372182 -0.33598185 -0.31005368 -0.3332869 -0.32163954 -0.35225025 -0.34511906 -0.33603323

layer2.1.running_mean f4 [32]
00000000: c2f6 703c 8bb1 b9be cd46 fdbd d7ed b1be
00000010: 35fd 893e bed5 91be 0406 83be dc30 6dbf
00000020: aae7 a4be 75d5 603e c615 f4bd 3b13 c4be
00000030: d272 9abe 092d 003d e432 433e dc9c 043f
00000040: 8127 b63e ba41 a53e 84cf b03e be72 833d
00000050: 171b ab3e 6e81 653e 9a45 41be 9bbb acbe
00000060: 8c92 95be b788 b43f 3118 3ebf 96fa 5abe
00000070: 09b1 35be ffd9 a5bc 4c57 bfbe a008 d93e
0.014707269 -0.36268267 -0.1236702 -0.3475177 0.26950994 -0.28483385 -0.25590527 -0.9265268
-0.32207996 0.21956427 -0.119182155 -0.38295922 -0.30165726 0.03129295 0.19062382 0.5180185
0.35577014 0.32276708 0.34533322 0.0641837 0.33419105 0.22412655 -0.18874207 -0.33736882
-0.2921337 1.4104222 -0.74255663 -0.21384653 -0.17743315 -0.02024555 -0.3737129 0.42389393

layer2.1.running_var f4 [32]
00000000: 33f7 bd3e 3f2a 963e c16e 8c3e ed86 d23e
00000010: d096 b73e 2670 023f 82c7 c43e 821e 193f
00000020: 0286 853e e3ce 243f 1cef bb3e 3972 953e
00000030: cec2 9c3e fa24 8e3e 6b0c e93e 194e a83e
00000040: 3e60 db3e 0ca9 d13e 213b 0d3f a0c1 f23e
00000050: 973c 963e bcb9 0d3f 8e8b a33e b7d3 a33e
00000060: 824a c03e b9c1 433f f263 ae3e 931c d53e
00000070: 873b 913e ee2d af3e afb6 9a3e 6dcd c63e
0.3710266 0.29329106 0.2742825 0.41118565 0.35857248 0.50952375 0.38433462 0.59812176
0.26078802 0.64378184 0.36705863 0.29188707 0.30617374 0.27762586 0.45517287 0.32872084
0.42846864 0.40949285 0.5516835 0.4741335 0.293431 0.55361533 0.3194241 0.31997463
0.37556845 0.7646747 0.34060627 0.41623363 0.28365728 0.3421473 0.30217502 0.38828602

fc.weight f4 [10, 1568]
00000000: ab05 953c df71 a6bb 1a9e 4c3d a1c3 e1bc
00000010: 63ec 723c 661b 03bc b13a e1bb 6ac0 593d
00000020: 8f9a 28bc 783c 053d 3621 883d a668 693d
00000030: 6e52 0dbc fd3c 0d3c 1434 4bbc 7c5c 0fbd
00000040: 979c 803c 6272 30bd 9a67 463d 619c c83c
00000050: e16f 1ebd 3853 28bc 6b66 9f3c e28e 293d
00000060: 4b6e f6bc e6d7 7dbb 65bc fc3c 55fa 1e3d
00000070: f5e1 51bc 2ff6 d3b8 4068 e23c c558 40bc
00000080: 8b27 16bb ee69 d8bc ea1b 1dbb ac30 30bd
00000090: e7ce e3bb 73b8 02bc 66fd 2abc 56c1 34bb
000000a0: 7d45 24bc 2229 33bd bf87 b33c 5e07 53bc
000000b0: 400d 4dbc ab70 0dbb a9a3 973c 2623 3fbc
000000c0: 0a17 e43b 36aa 383d 6e9c 49bd 0d66 e53a
000000d0: 03ef 10bc ad67 a33b 8f54 8cbc b94c a1bb
000000e0: e3a4 5ebc fcb0 4d3d 2f3b b73c 0a58 b5bc
000000f0: e719 093d e133 5e3b 94c7 93bd 349c 83bb
00000100: fbfe 9a3c adca 263d 1efd babb 2d36 973b
00000110: 2c07 0b3a 0449 903c b36c 09bd 4bde 873c
00000120: d035 61bd 502b 36bc 80fe 213d 68fd 62bd
00000130: b24b 3bbd 9cd6 8abc c5bc 983c 54ec b3bc
00000140: f8ae 6cbb caee 0c3d 9c73 e7bc 9b78 453c
00000150: 1019 1bbd efff 953d bfc3 afbc 94ec f2ba
00000160: 628f 97bc bb8a 8ebd 63b0 7c3c 6f25 52bc
00000170: 3df2 b8bc 8b8b bf3c 95c4 b5bc c227 6c3c
00000180: 8097 1e3c 18bd 8ebc e65a 333d 3c65 433c
00000190: cc48 3e3c 647c 81bc 12ea 2f3d 96fd 7e3c
000001a0: b715 5abc f4bb 7dbc 5159 673d 0354 76bb
000001b0: 4a05 4ebd b7e2 9e3c 4ceb bf3c a77e 0c3c
000001c0: 7054 1ebd 525a d83c 72c5 c6bb 7358 00bb
000001d0: 5d73 073d fb00 bb3c 18a5 413d 35f5 513c
000001e0: 31e4 40bd d0ec f5bc ad6a d4bc 1114 06bc
000001f0: a971 bbbc 9373 8abd e1ee bb3b 1217 75bd
00000200: c99e f43b 625e 10bd db6e 17bc def3 23bc
00000210: d389 cfbc 51df 3bbc a72e be3b 42cf 1a3d
00000220: f25b 89bc b86f 10bd 0fe9 d6bc 0aaf 9f3c
00000230: 34cf 91bc de18 4cbc 97f0 a63c fd53 5dbb
00000240: 658c f9bb 9edb 723c a5ed 65bc a027 d13c
00000250: 26b6 183c 7221 cdba c178 3abc a53e bf3a
00000260: a96b 073d e523 c13b 8798 363d 13ad ba3c
00000270: 0b4b 1e3d 735a 5cbb 2a2b 403d 6409 ab3c
00000280: deb6 26bc 83e4 153c 2d45 33bd 12ca edbc
00000290: 52da 6cbc 9bd5 2cbc 1dd3 89bc a143 adbb
000002a0: 43ca 35bc b884 ed3a 6753 31bd 8f7e 263c
000002b0: bd5c 343d eba1 e0bc a2c8 f3bb 3ca5 c5bc
000002c0: 6469 4bbb 32c0 e33c 03b4 3a3b 0bcf c83c
000002d0: a75d afbc 8e55 07bb a8ae 98bc 325c be3c
000002e0: 3046 913c ee25 98bc 62b5 ddbc ffd2 92bc
000002f0: f690 0ebb 6a6b c9bc 34f1 1f3c 2101 0b3d
00000300: 04d5 663b b17b 2cbd 40e4 a93b 1824 80bc
00000310: c016 aabb 4c7f bfbc 2f30 12bb 897f a23c
00000320: 2a50 7b3d 277a d43b 9a2f 36bb 21ff 55bd
00000330: 9332 58bd 310f c93c 4c5e fd3c 8f3b eb3c
00000340: 6c7a 1dbc c012 c4bc 2d28 cf3c c33b 20bc
00000350: 2d9f 61bc 2a32 733c 0e68 c83c 301a aabb
00000360: 0a82 14bc 7d91 9c3d 40c3 3e3d e2bd 14bc
00000370: ea59 f8bc c98e b73c dba5 773d eb52 863c
00000380: 4dd4 e63c eea0 57bd 298d c4bc df24 82bc
00000390: 120f 5cbc 94bb 353c 2a03 0cbc 8070 583b
000003a0: d603 bdbc f35f 4d3c 33a2 80b9 bda9 e9bc
000003b0: 9440 debc 35d4 91bb a3ac f83c 1702 94bc
000003c0: 07ff 3e3d 1d34 8a3c 06e8 12bd 745c 3f3a
000003d0: d73a 9b3c 5c31 8fbc 8362 41b9 e376 95bc
000003e0: f503 263b b2ad 8f3c 90f1 a43c be11 963c
000003f0: 0d2f 09bc 4a30 163d 47fa b43c e5db 85bb
0.01819118 -0.0050794925 0.049955465 -0.027559103 0.014826867 -0.008002138 -0.0068734516 0.053162016
-0.010290756 0.03252837 0.066469595 0.056984566 -0.00862561 0.008620498 -0.012402553 -0.03500031
0.015699668 -0.043077834 0.048438646 0.02448863 -0.038680915 -0.010273747 0.019458016 0.04139603
-0.030081889 -0.0038733422 0.030851552 0.038812954 -0.01281022 -0.00010107119 0.0276376 -0.011739914
-0.0022911753 -0.026417699 -0.0023972937 -0.043015167 -0.006952155 -0.007978546 -0.010436391 -0.0027581058
-0.010026333 -0.0437404 0.021915315 -0.012880174 -0.012515366 -0.0021582048 0.018510656 -0.011666095
0.0069607543 0.0450842 -0.04922145 0.0017501727 -0.008846047 0.0049867244 -0.017130164 -0.004922476
-0.013589117 0.050217614 0.022367088 -0.022136707 0.033471968 0.0033905434 -0.07215801 -0.0040164236
0.018920412 0.04072063 -0.0057064435 0.0046146126 0.0005303498 0.017612942 -0.03355093 0.01658549
-0.05498296 -0.011118725 0.03954935 -0.05541745 -0.045726486 -0.016948037 0.0186447 -0.021963276
-0.0036115032 0.034407414 -0.028253369 0.01205268 -0.0378657 0.07324206 -0.021455644 -0.001853364
-0.018500987 -0.069600545 0.015422913 -0.012826308 -0.022576446 0.023381969 -0.022188464 0.014413776
0.009679675 -0.017424151 0.04378786 0.011925992 0.011614036 -0.015806384 0.042947836 0.015563389
-0.013310841 -0.015486706 0.056481663 -0.0037586696 -0.050298013 0.019395215 0.023427628 0.008575118
-0.038654745 0.026410256 -0.006066018 -0.001958397 0.033069003 0.022827616 0.047276586 0.01281481
-0.04709262 -0.030020148 -0.025929773 -0.008183495 -0.022881346 -0.06760325 0.0057352637 -0.059836455
0.0074652177 -0.03524626 -0.009242739 -0.010006873 -0.025334274 -0.011466817 0.0058039012 0.037795313
-0.016767476 -0.035262793 -0.026234178 0.019492645 -0.017798997 -0.012457101 0.020378394 -0.0033771985
-0.0076156133 0.014822869 -0.01403371 0.02553159 0.009320771 -0.0015650226 -0.011381329 0.0014590813
0.033061657 0.0058941715 0.044579055 0.022787606 0.038645785 -0.0033623248 0.046916164 0.020878501
-0.010175435 0.00914872 -0.043767143 -0.029027019 -0.0144563485 -0.010548974 -0.0168243 -0.005287603
-0.011095586 0.0018121218 -0.04329243 0.01016201 0.044033755 -0.027420959 -0.007439689 -0.024126641
-0.003103816 0.027801607 0.0028488643 0.024512788 -0.021406962 -0.002065036 -0.01863797 0.023237322
0.017733663 -0.018572774 -0.02706403 -0.017922876 -0.0021753884 -0.024587352 0.009762097 0.033936623
0.0035222182 -0.04211015 0.00518468 -0.01564221 -0.0051907003 -0.02337613 -0.0022306552 0.019836204
0.061355747 0.0064842883 -0.002779937 -0.052245263 -0.052782606 0.024543377 0.030928753 0.028714923
-0.009611707 -0.023934722 0.025287712 -0.009779873 -0.013770861 0.014843503 0.02446368 -0.00519111
-0.009064207 0.07644937 0.046572924 -0.009078475 -0.030316312 0.022406952 0.060460906 0.01639696
0.028177405 -0.05264371 -0.023993092 -0.015886722 -0.013431327 0.011092085 -0.008545676 0.003302604
-0.023073118 0.012535083 -0.0002453491 -0.02852332 -0.027130403 -0.004450346 0.030355757 -0.018067403
0.04662993 0.016870553 -0.035865806 0.00072998484 0.018948955 -0.017479591 -0.00018442613 -0.018245166
0.0025331948 0.017538879 0.020134717 0.018319007 -0.008373034 0.036667146 0.022091998 -0.0040850514

fc.bias f4 [10]
00000000: 7059 93bb a4dd 82bc 4527 313b 344a ffbb
00000010: 2bb6 8d3b 1aab c13b 84c7 023d be63 8e3b
00000020: 8ccd d0ba 1c3c a7bc
-0.0044967458 -0.015974827 0.0027031463 -0.007790828 0.0043246946 0.0059102895 0.031928554 0.0043453863
-0.0015930398 -0.020414405
