result/fmnist/seed12/noniid_0.4/ratio_0.4/final.pt (torch, 122111 bytes, 14 tensors)

layer1.0.weight f4 [16, 1, 5, 5]
000000 bf bf 88 3b e1 4f 67 bd 9e be e7 bc 4c e8 97 3d
       0.0041732485 -0.056472663 -0.028289136 0.07417354
000010 77 82 aa 3c 98 b1 46 be 43 ed 94 3d f8 88 06 be
       0.020814164 -0.19403684 0.072718166 -0.13138187
000020 3e b5 2b 3e ba d8 87 3d a5 09 8a be 2d 18 b1 3d
       0.16768357 0.06633134 -0.26960483 0.08647189
000030 ca 51 26 3e af 38 8a 3d 59 37 b5 bc 03 70 8b be
       0.16242138 0.06749093 -0.022121118 -0.27233896
000040 c5 37 90 3e 1b 83 67 3e 1f 43 61 be 25 e5 89 bc
       0.2816755 0.22608607 -0.21998261 -0.016832897
000050 f0 fc 2d 3e 4e ec e2 bd c5 eb 45 be bc 69 bd 3d
       0.16991019 -0.11080228 -0.1932822 0.09248683
000060 88 fc ba 3c c9 91 8f bd e3 da 51 bc f9 86 b2 3d
       0.022825494 -0.07010228 -0.012808534 0.0871715
000070 a5 f9 9a 3c 9e ea 66 3d 09 30 ca 3b f3 bd 0e 3e
       0.018917868 0.056376092 0.006170277 0.13939647
000080 37 1e 9a bd aa 9d 02 be 55 44 9f bd ab 25 b2 bc
       -0.07525294 -0.12755457 -0.07776705 -0.021746477
000090 07 e9 83 3d 80 38 4f be 8a 3c 4f be e5 45 f7 3d
       0.06440931 -0.20236397 -0.20237938 0.12073878
0000a0 7f 58 39 3e c4 54 07 be d8 1b 08 be b3 3a 72 be
       0.18100165 -0.1321593 -0.13291872 -0.23655204
0000b0 18 53 b1 3d 12 24 2e 3d 0d 9e e3 3d ef 9c bf bd
       0.08658427 0.042514868 0.1111413 -0.093561046
0000c0 73 37 90 bd 92 06 62 3e 9f 58 1f 3e a6 89 5b 3e
       -0.07041826 0.22072819 0.1556115 0.21439227
0000d0 a2 a9 47 3d f0 9a 0d 3e 32 34 44 3e ae fd 20 be
       0.04874576 0.13828635 0.19160536 -0.15721771
0000e0 51 99 e5 bd b2 b1 37 3e a7 4b 96 3d 61 7e 1a 3d
       -0.112108834 0.17938879 0.07338648 0.03771818
0000f0 82 8f 08 3e ad b1 1f be b4 3a ff 3d f9 a0 db 3d
       0.13335994 -0.15595122 0.124623686 0.107240625
000100 35 9b 8e 3d 04 05 8c 3c d4 1f 23 bd cb 77 70 3d
       0.06963197 0.017092235 -0.039825276 0.058707993
000110 e0 d1 0c 3e 7d 9d 53 3c 37 f8 e7 bd 34 19 df bd
       0.13751936 0.012915966 -0.1132664 -0.10893479
000120 f7 cb 33 bd f9 c4 37 be c4 73 07 be 4e 93 8f 3d
       -0.043895688 -0.17946233 -0.13227755 0.07010518
000130 06 38 1a be ee fe 4e 3e 36 d0 da 3b a3 37 e9 3d
       -0.15060434 0.20214435 0.0066776527 0.11387565
000140 2d 1b f3 3c 6a 63 1b be 64 00 fe 3d 26 1c 04 be
       0.029676044 -0.15174642 0.12402418 -0.12901363
000150 26 d2 be bc f6 f4 fc 3d 2d ed eb bc 9f 2b 23 3e
       -0.023293566 0.1235141 -0.028799618 0.15934609
000160 38 58 f2 bd 20 3c f0 3d 5d be 3d 3d 78 1b cb 3d
       -0.11833233 0.11730218 0.046324123 0.099173486
000170 58 6d aa 3c 6d eb 11 be 96 10 91 3d 97 9f 9c 3d
       0.020804092 -0.14249964 0.07083242 0.07647627
000180 29 94 0a be 2f 78 29 be 15 cf 4f be ad bc 5f 3e
       -0.13533081 -0.16549753 -0.2029384 0.21849318
000190 11 59 1d 3d a2 9a 9c 3d 06 1d 91 3d 60 37 04 bd
       0.03841502 0.07646681 0.07085614 -0.032279372
0001a0 2a 70 12 3e ca 3c 13 3e 69 ba fc bd be e5 de 3d
       0.143006 0.14378658 -0.123402424 0.108836636
0001b0 e7 71 49 3e e9 f7 a2 bb 63 8d 16 3d 0d 90 c3 3d
       0.19672357 -0.004973401 0.03675593 0.0954896
0001c0 cc 35 31 be 9b 28 d2 bd 8d 01 89 3e be b4 2c be
       -0.17305678 -0.10261651 0.26758996 -0.16865823
0001d0 a9 73 6e 3d 93 ac 88 be e1 cd a6 bd 12 3a 87 bc
       0.05821577 -0.26694164 -0.08144737 -0.016507182
0001e0 8e da d4 3c b3 0b f7 bd 7e 27 3e 3d 6c 7f d7 3b
       0.025983121 -0.12062778 0.04642438 0.006576469
0001f0 0b 7d 64 be e1 40 9a bc c6 79 8b 3e 9e f1 35 3e
       -0.22313325 -0.018829765 0.27241343 0.17767951
000200 97 76 8a bd 6c 26 1f 3e 67 c0 3d be 26 f8 73 3e
       -0.067609005 0.15542 -0.18530427 0.2382513
000210 99 a4 ce 3d db ee c0 3d 6b 36 12 be e8 bf 1f be
       0.10089988 0.09420558 -0.14278571 -0.1560055
000220 b0 8d 3c be 63 81 e5 3d b4 02 26 be 43 fd a6 bd
       -0.18413424 0.11206319 -0.16211969 -0.081537746
000230 8f f5 bf bd ce 53 5b 3d 4e 6c 34 3d ef b3 60 3d
       -0.093730085 0.05354672 0.0440486 0.054859098
000240 d9 df 32 3e 32 f8 6f bd 0b 37 96 bd 78 d8 ba bd
       0.17468204 -0.058586307 -0.07334717 -0.091233194
000250 d9 d6 81 bc d8 0e be bd 21 1f b4 3d c4 6c 30 3e
       -0.015849518 -0.09280175 0.08795 0.17228991
000260 f9 b5 0c 3e 55 61 14 3e fe 9c 87 bd b2 fc 37 be
       0.13741292 0.14490254 -0.06621741 -0.1796749
000270 96 c2 3a 3e 24 1f fc bc 1a 62 2f bd df c3 3e be
       0.18238291 -0.030776568 -0.042818166 -0.18629406
000280 9f 41 0a be fa 11 65 3d cf 79 15 3e 5a d8 38 be
       -0.13501595 0.055925347 0.14597248 -0.18051282
000290 c1 c3 7b be f5 ff 73 bd 1e 1b 14 be e5 41 3a 3e
       -0.24586393 -0.05957027 -0.1446347 0.181892
0002a0 af 2f bb bc 09 8a 4e be 12 1b 08 3d 65 54 54 3e
       -0.022849886 -0.20169844 0.03322894 0.20735319
0002b0 f8 05 a4 3d 93 77 d4 bd 64 ab 90 3d f5 99 20 be
       0.08008951 -0.103743695 0.0706394 -0.1568373
0002c0 52 8e f4 3d 0e f0 17 bd ad c4 d6 3c b0 24 de bc
       0.11941208 -0.03709417 0.02621683 -0.027117103
0002d0 54 16 61 be 5d 76 3a 3d 00 c7 80 3e b3 9d c0 bd
       -0.21981174 0.045523036 0.25151825 -0.09405079
0002e0 0f 29 8f bd 01 0b 56 be bd 19 03 bd 8c 71 89 3e
       -0.06990253 -0.20902635 -0.032006968 0.26844442
0002f0 e8 83 a7 bd 1a 11 1a bd e0 4f 2a 3e 34 bf 46 be
       -0.08179456 -0.037613966 0.16632032 -0.19408876
000300 0e f2 9c 3c 3b 44 1c bd 47 f0 d3 3c 78 6e ac bd
       0.01915839 -0.038151007 0.02587141 -0.08419508
000310 d8 d5 51 bc a4 79 d6 3c 90 37 0c 3d e7 14 c7 bd
       -0.012807332 0.02618105 0.034232676 -0.09720784
000320 dd 5b 48 3d 62 b1 36 be f7 8c 42 bc de 32 f0 3c
       0.048915733 -0.17841104 -0.011874429 0.02932113
000330 3d 02 bc bd d6 d8 97 bc 4e e1 2f bc 4b f4 8a 3d
       -0.091801144 -0.018536013 -0.010734869 0.067848764
000340 78 23 28 3e 27 68 6b be d6 e6 0a 3e 78 74 03 3d
       0.1641978 -0.2298895 0.1356462 0.032093495
000350 48 24 0d 3e d4 b6 39 3e ec c0 ba bd 4e 0f 03 be
       0.13783371 0.1813615 -0.09118828 -0.12798807
000360 19 ca 74 3d 14 fa 85 3d 42 17 33 3e d2 f1 c7 bd
       0.059763048 0.06541839 0.17489341 -0.097629204
000370 86 4a a3 3c eb 60 c5 bd 47 b7 23 be ee 0d 15 3e
       0.019932996 -0.09637626 -0.15987884 0.14556095
000380 2e a6 1e 3d df 8a 26 3e 79 9b fd 3d 9c ee e3 bd
       0.0387327 0.16263913 0.1238317 -0.111294955
000390 2e 7c bd bd 3d 97 3e 3d 34 ba 30 3e 9b ff 37 be
       -0.09252201 0.04653095 0.17258531 -0.179686
0003a0 2b f7 5a 3e 95 fa 2b 3e 3a 82 44 3c e5 cf 29 be
       0.2138335 0.16794808 0.011993939 -0.16583212
0003b0 2b 28 b6 bd 51 8f 30 3e 5a 48 00 3e fe bf d3 3d
       -0.0889438 0.17242171 0.125276 0.10339354
0003c0 a7 e6 21 be d0 72 29 be 09 d5 2c be 47 ef e5 bc
       -0.15810643 -0.16547704 -0.16878141 -0.028068198
0003d0 51 46 7c bc 75 1e cf bd 79 4e 48 3e 8b 28 67 be
       -0.015397624 -0.10113231 0.19561185 -0.2257406
0003e0 12 17 6f be a2 d8 32 be 81 79 bb bd 04 8f 24 3b
       -0.23348644 -0.17465451 -0.091540344 0.0025109658
0003f0 bc fb 25 bd ec 40 de 3c 21 5f 2f 3e b7 55 16 be
       -0.040523276 0.027130567 0.17126133 -0.14681135

layer1.0.bias f4 [16]
000000 c0 f0 16 be 10 f2 35 bd f2 f7 ae bd 41 e2 be 3c
       -0.14740276 -0.044420302 -0.085433856 0.023301246
000010 53 d9 d5 bd 26 24 70 bd e7 fc bb 3d df f6 e8 3d
       -0.10441842 -0.058628224 0.09179097 0.11375212
000020 7c 34 28 be 5e 12 77 bd 29 f2 0d 3e 5f 47 13 3e
       -0.16426271 -0.06032025 0.13861908 0.14382695
000030 c7 bb 29 bd d7 fc 4b be 89 72 2f 3d e9 a0 07 3e
       -0.041438844 -0.1992067 0.04283384 0.13244976

layer1.1.weight f4 [16]
000000 fa 0a 8b 3f 9d 46 84 3f 2c a1 6a 3f 08 f0 86 3f
       1.0862725 1.033405 0.9165218 1.0542002
000010 63 de 7d 3f 56 33 7c 3f e6 46 84 3f 97 12 87 3f
       0.9916746 0.9851583 1.0334136 1.0552548
000020 73 77 6d 3f b7 26 85 3f 6c 42 6a 3f e8 5c 74 3f
       0.9276039 1.040244 0.915076 0.95454264
000030 be 57 81 3f 50 cd 76 3f 5d f7 83 3f 24 c8 6c 3f
       1.0104902 0.9640703 1.0309864 0.9249289

layer1.1.bias f4 [16]
000000 09 44 c7 bd 66 06 66 bd 3e b7 fc bd 82 6e 03 be
       -0.097297736 -0.056158446 -0.12339638 -0.12835124
000010 1c 11 bc bc 6b 2f 8c bd 7d 54 8f 3d 3e 4e 97 bc
       -0.022957377 -0.06844982 0.06998537 -0.018469926
000020 85 29 9f bd 1c 7c 30 bd c8 dd ec bd 6b 18 fa bd
       -0.07771591 -0.04308711 -0.11565739 -0.122116886
000030 f8 8b 3a bd 0d 8d 3d bd 8d 71 8e bd 9f d1 ce bd
       -0.04554364 -0.046277095 -0.06955252 -0.10098576

layer1.1.running_mean f4 [16]
000000 49 8e 10 be 1d 37 0c be 4f 93 c4 3d ac 11 be 3d
       -0.14116777 -0.13692899 0.095984094 0.092807144
000010 f7 3a de bd 26 8e 43 bd 22 1d 5e 3d 49 cc bf ba
       -0.108510904 -0.047742985 0.054227002 -0.0014633025
000020 d0 74 d8 bd f9 3e 33 be 9b bd d8 3e 55 79 6a 3e
       -0.10569155 -0.17504491 0.42332157 0.22897847
000030 44 20 4f be fa 82 54 be 3b 96 0e 3c 93 54 b0 3e
       -0.20227152 -0.20753089 0.00870281 0.34439525

layer1.1.running_var f4 [16]
000000 bb 0d 94 3c 50 76 05 3d 7b 3e 90 3d e9 34 06 3d
       0.018072953 0.032583535 0.07043167 0.032765303
000010 a4 91 c8 3c c9 08 c9 3c 1b 2a 55 3d a0 83 4e 3d
       0.02448351 0.024540322 0.052042108 0.050418496
000020 a9 41 a2 3c a5 30 3b 3d 73 51 c8 3d 0a dc 96 3c
       0.0198067 0.045700688 0.0978116 0.01841547
000030 1d 82 34 3d 22 06 01 3d 41 77 41 3d 43 8e 62 3d
       0.0440694 0.03149999 0.04723287 0.055311453

layer2.0.weight f4 [32, 16, 5, 5]
000000 07 0e 29 3d 78 60 1f bd a6 af 62 bd 92 95 94 bb
       0.041273143 -0.03891036 -0.055343293 -0.0045344317
000010 d6 fe 11 3d 4b 75 4d bd a7 4b 06 bd 04 d2 b0 bc
       0.03564342 -0.050160687 -0.03278699 -0.021584518
000020 d7 01 23 3b a9 f3 eb ba c5 99 d5 bc c0 e6 cd 3c
       0.0024872923 -0.0018001694 -0.0260743 0.025134444
000030 84 6c 62 bc 65 a9 40 3d 62 9b 11 3d 7c cf 9d bc
       -0.013819817 0.047036547 0.035548575 -0.019263975
000040 35 8c 1e 3d 70 30 bc 3c 13 21 ff 3c 6b 70 43 bc
       0.03870793 0.022972316 0.0311437 -0.011928658
000050 28 91 b9 bb b1 1d 2d bc ca 64 a7 bc fc 72 e6 3b
       -0.005663056 -0.010566161 -0.020433802 0.00703275
000060 0a 72 4f bd 44 e1 ea bc 93 a9 0f 3c 51 42 39 3d
       -0.050645865 -0.028671868 0.008768457 0.04522926
000070 3d 79 ee 3c be ff 55 3c c0 7c 41 3d 17 92 fd 3c
       0.029110545 0.013061462 0.04723811 0.03095345
000080 9b 20 1b ba 39 fe 55 3d c0 b2 08 3d 29 d8 75 3c
       -0.00059176394 0.0522444 0.033373594 0.01500515
000090 ac 55 d8 3c e2 24 3f 3d 1e 29 e9 3c 10 73 8f 3c
       0.026408039 0.046666034 0.028461989 0.01751092
0000a0 88 72 96 bc 20 84 07 3d d8 9e fc 3c fe 7b cf 3c
       -0.01836516 0.03308499 0.030837461 0.025327679
0000b0 c3 a5 2f bc b4 b2 b8 3c 1a eb 18 bc 3a 8c f5 bc
       -0.010720673 0.02254615 -0.009333396 -0.029974092
0000c0 f8 86 63 bc 24 dd d4 bc e2 83 2d 3d d3 e9 e6 3b
       -0.0138871595 -0.025984354 0.0423621 0.007046917
0000d0 e7 53 97 3c b8 83 07 bc 5d 6e 6e bb 14 63 fe 3c
       0.018472625 -0.00827115 -0.00363817 0.031053104
0000e0 16 1a 29 3d 8b 64 0e bc df 31 29 bd ff 0d 1f bd
       0.041284643 -0.0086909635 -0.041307326 -0.038831707
0000f0 24 a6 97 3c 8c cd 0e ba 69 5c 1c bc 4b d8 d5 3c
       0.01851184 -0.0005447499 -0.009543517 0.026104113
000100 27 6a 5e bd 1b 1b 3c 3d 06 52 2c bc 2f 9d a7 bc
       -0.054300454 0.045924287 -0.010517603 -0.020460693
000110 6b 69 2d bd 8a 92 4d bd 49 75 8d 3c c6 20 08 bd
       -0.042336863 -0.05018858 0.01726784 -0.03323438
000120 fd 26 fd 3c 12 52 15 3b 3c 34 b5 3a 4b 63 c7 bc
       0.03090238 0.0022784513 0.0013824771 -0.024339339
000130 56 d9 0e 3c 4c 31 cb 3b e8 39 73 bc 8b d9 85 b9
       0.008718809 0.006200945 -0.014845349 -0.0002552982
000140 46 b6 1c bd 5c 11 2b bd 3d 80 36 bd 87 21 3e bd
       -0.038259767 -0.041764602 -0.04455589 -0.046418693
000150 d9 e3 69 bd 70 8c 00 b9 ae ea 56 bd 0b 3a 25 bc
       -0.057102058 -0.00012259348 -0.0524699 -0.010084639
000160 20 f0 84 bd 78 6b 44 bd 9d 3f b4 3c 60 ba 09 3d
       -0.06491113 -0.047954053 0.02200299 0.033625007
000170 0e 43 76 3d ef 46 f0 bc d6 ab 62 bd 8e 0a b9 bc
       0.060122542 -0.029330699 -0.055339657 -0.02258804
000180 a4 dc 4f 3d 0b 95 64 3d 9e 30 35 3c 31 4d 55 bd
       0.05074753 0.0558062 0.0110589545 -0.05207557
000190 08 d0 20 bd 1f fe 2c 3c de 0f f5 3a 66 49 0c bd
       -0.039260894 0.010558634 0.0018696745 -0.034249686
0001a0 0e 70 6e 3c 35 60 a7 bb 73 94 9c bb c6 1c 78 3c
       0.014553083 -0.0051079043 -0.0047784387 0.015143579
0001b0 69 50 14 3d c5 a1 fb 3c c9 7d 16 bd 52 e0 0a 3d
       0.036209498 0.030716786 -0.03674105 0.033905335
0001c0 7c 0a c4 3c a0 07 b0 3c 56 0c 57 3c 58 e4 c0 bc
       0.02393078 0.02148801 0.0131255 -0.023546383
0001d0 3c e8 87 3c 0d 81 f0 bb 02 fa a4 bc 83 48 bc 3c
       0.01659023 -0.007339603 -0.020138744 0.022983795
0001e0 ef 98 86 bc 45 be c3 bc 00 78 a3 bc 02 ba 14 3d
       -0.016430346 -0.023894439 -0.019954681 0.036310203
0001f0 a2 7d 52 3d 97 26 ca 3c dd 65 b0 bc 87 2b ba 3c
       0.051389344 0.024676604 -0.021532947 0.022725834
000200 af f0 c4 3b b6 2e 58 3d 28 e6 22 3c 08 eb 1c 3d
       0.006010137 0.052778922 0.009942569 0.03831008
000210 c8 c9 d4 3c 02 f2 11 bd de 0a 95 bc 31 3b ff 3c
       0.025975123 -0.035631187 -0.018193658 0.031156154
000220 ee df 1d 3d 4f e6 68 bd 81 1e 46 3c 99 26 ac ba
       0.038543634 -0.056860264 0.012092234 -0.0013134062
000230 92 b7 c2 bc 2f 4c b9 bc b2 55 f8 3c bb af 4a bd
       -0.023769174 -0.022619335 0.0303143 -0.049483996
000240 bf 48 ea 3c b5 9b f2 bc 4a a5 e6 3c be b2 9c bc
       0.028599141 -0.029615263 0.028154988 -0.0191282
000250 10 8d bb bc 63 9d 8e 3d d2 f3 bf bb 53 94 d6 3c
       -0.022894412 0.06963613 -0.005857923 0.026193773
000260 81 af ef 3c 8f 6d a4 3c 83 36 d1 3c f0 5f 1b 3d
       0.029258491 0.020071773 0.025538689 0.03793329
000270 b0 4e c5 3c fd 12 3f bc 04 11 2a bc e0 ce e5 3a
       0.024085373 -0.011662242 -0.010380033 0.0017532967
000280 4f d9 cf bc 1e b0 50 3c 37 f2 cf 3c 05 d9 08 3d
       -0.025372175 0.012737302 0.025384052 0.03341009
000290 a1 4f 82 3d f1 5c 14 3d cd b6 03 bd 72 3a d5 bc
       0.06362844 0.03622145 -0.032156754 -0.026028845
0002a0 d5 a3 4a 3d 05 58 bb 3c 27 15 de bc 1b 28 40 bc
       0.04947265 0.02286912 -0.027109696 -0.011728312
0002b0 35 59 0c 3d 9c eb 2b 3d 98 a3 8d 3c 72 51 69 bc
       0.034264762 0.04197274 0.017289922 -0.0142406095
0002c0 f1 8f e8 bc 91 b5 06 bd 62 41 88 bc 5e a2 47 bc
       -0.02838895 -0.032888 -0.01663274 -0.012184707
0002d0 c5 5e 17 3d 17 1b b8 3c a2 42 9b 3c cc 45 52 3c
       0.036955614 0.022473855 0.018952671 0.012834024
0002e0 fb c2 df 3c f6 64 1f 3b d5 4b 3b 3d 3c 11 81 3d
       0.027314654 0.0024321652 0.045726616 0.06302115
0002f0 48 62 eb 3c 0a 20 d2 37 0d e5 93 3c 79 51 c4 bb
       0.028733388 2.504887e-05 0.018053556 -0.0059911576
000300 c4 03 b6 3c 00 59 b6 3c df ef 69 bc 4d 03 80 ba
       0.022218592 0.022259235 -0.014278381 -0.0009766609
000310 7e 77 58 bc 8b b9 04 3d af e5 27 bd 0c 02 13 3d
       -0.013212083 0.03240351 -0.040990528 0.035890624
000320 88 13 1e 3d d8 1a 77 3d 52 52 eb 3c 0b 6d c8 39
       0.038592845 0.060328335 0.028725777 0.00038228216
000330 51 5d 08 3d 60 54 04 3d 47 bc 16 bd c9 01 40 bd
       0.03329212 0.03230703 -0.03680065 -0.046876702
000340 d6 43 b6 3c 42 c8 71 bd 37 41 ee bc fe c0 c6 bc
       0.022249144 -0.05902887 -0.029083831 -0.024261948
000350 2b 7b a1 3a f3 7a 39 bc 71 99 8d bd 37 a4 30 bd
       0.0012320032 -0.011320817 -0.06914032 -0.043125357
000360 d4 02 37 bc e6 ae 46 3d 69 7f 6f bc 99 4a e0 3c
       -0.011170108 0.04850664 -0.014617779 0.027379321
000370 5a a7 e5 3a a1 ae 6b bb 13 5c 36 3b c1 63 d2 bc
       0.0017521188 -0.0035962241 0.0027825877 -0.025682332
000380 ff 32 f0 3b b9 2b 1a 3c 72 3b 9c 3c c0 68 70 3d
       0.007330298 0.009409838 0.019071314 0.058693647
000390 d0 a0 6e bb 8f b0 f6 bc 00 73 e5 bc 09 9e c8 3c
       -0.003641177 -0.030113487 -0.028008938 0.02448942
0003a0 9d ff 44 3d ba 44 df bc 45 ea 2d bd db 2f 66 3c
       0.048095334 -0.027254451 -0.042459745 0.014049496
0003b0 34 aa 5f 3c 53 89 80 bc 5a 31 0a 3d d0 8f 52 bb
       0.013651419 -0.015690481 0.03373847 -0.0032129176
0003c0 6a 92 1e bd 28 ed 17 3c 2b 9b 56 bc a6 c5 4c 3c
       -0.03871385 0.009272851 -0.013098518 0.012498295
0003d0 cb 33 50 3c 5a aa 3b bd 79 fe e7 ba e2 75 05 bd
       0.012707661 -0.045816757 -0.001769974 -0.032583125
0003e0 32 19 c2 3c 9d d9 23 3c 99 46 10 bd 20 bc 01 bd
       0.023693655 0.0100006135 -0.035223577 -0.03167355
0003f0 86 fd 46 bd 2a ad 6a 3c 0e ef fa bb 61 f5 11 bd
       -0.048581623 0.014323512 -0.007657892 -0.035634402

layer2.0.bias f4 [32]
000000 9b 51 be bc 57 a9 17 3d 87 4e fc bb 89 26 12 bd
       -0.023232272 0.03702673 -0.007699791 -0.03568128
000010 75 b3 d4 3c f0 d1 97 bc 92 a2 48 bc 79 dc 06 bd
       0.025964478 -0.018532723 -0.012245791 -0.032925103
000020 a0 8b 30 3d 13 da 04 bd 89 bd 19 3d f4 65 df 3c
       0.043101907 -0.032434534 0.03753427 0.027270295
000030 da 52 d9 3b c2 39 9c bc 02 69 1b 3d 8e 9e 84 3b
       0.006632191 -0.01907051 0.03794194 0.0040472215
000040 83 d5 32 3d b2 ac ff bc f8 e6 1e 3d 19 f6 4a 3c
       0.043660652 -0.031210277 0.038794488 0.012387776
000050 5b 9a 15 3d 3d 2e fe ba 84 21 d3 3c e2 28 46 3d
       0.036524158 -0.0019392442 0.025772817 0.048378833
000060 62 de 52 3c ae b5 2c 3c d0 e7 38 bd 12 94 86 bb
       0.012870403 0.010541363 -0.04514295 -0.004107007
000070 c5 47 2a bd a2 58 3e 3d 20 0d 21 3d b1 db 86 3c
       -0.04157235 0.046471246 0.039319158 0.016462179

layer2.1.weight f4 [32]
000000 ae f0 42 3f 71 c1 39 3f ed 01 4b 3f 90 ce 3f 3f
       0.761485 0.72560793 0.79299814 0.74924564
000010 4e e1 3d 3f 31 5f 48 3f 1f 52 44 3f 06 f2 42 3f
       0.7417191 0.7827025 0.76687807 0.7615055
000020 b5 4b 48 3f 09 49 4b 3f a9 b8 41 3f fc 8a 41 3f
       0.7824052 0.7940832 0.75672394 0.756027
000030 95 67 44 3f 83 e3 44 3f ef 7f 50 3f 7d 08 42 3f
       0.76720554 0.76909655 0.8144521 0.757942
000040 c4 e4 45 3f 35 48 45 3f c1 0f 4c 3f 9b 0d 47 3f
       0.77302194 0.77063304 0.7971154 0.77755135
000050 1d 27 45 3f d2 96 47 3f 23 7c 43 3f f9 bb 40 3f
       0.7701281 0.7796451 0.7636129 0.75286824
000060 2a d1 43 3f 74 30 33 3f ac 32 43 3f 5b 78 51 3f
       0.76491034 0.6999581 0.76249194 0.8182427
000070 88 b7 48 3f 5e ee 4b 3f 2e 17 40 3f 20 55 4a 3f
       0.78405046 0.79660594 0.7503537 0.7903614

layer2.1.bias f4 [32]
000000 6e b9 c2 be 4d 70 c9 be 7c 81 d9 be ab 93 c5 be
       -0.38032097 -0.3934349 -0.424816 -0.38589224
000010 60 a9 bd be 36 05 a5 be 70 64 ad be 82 c6 c9 be
       -0.37043285 -0.32230538 -0.3386569 -0.39409262
000020 72 e7 c1 be 9a b7 c9 be 9c b8 bf be cd 6c c3 be
       -0.3787189 -0.3939789 -0.37445533 -0.38168946
000030 b0 41 c4 be 09 14 bf be e0 28 cd be 43 b5 c8 be
       -0.38331366 -0.37319973 -0.40070248 -0.39200792
000040 2a 45 ca be 0f 99 cb be 57 7a c2 be 82 c2 c1 be
       -0.39505893 -0.39765212 -0.37983963 -0.3784371
000050 b7 fc c2 be 51 55 ae be 79 e6 be be f7 cb b7 be
       -0.3808343 -0.34049466 -0.37285212 -0.358978
000060 74 07 bb be dc 3f c0 be 90 f0 bd be 31 42 c6 be
       -0.36529124 -0.3754872 -0.37097597 -0.38722375
000070 fe bb c7 be 26 74 cf be 21 57 c1 be 40 f3 c1 be
       -0.39010614 -0.40518302 -0.37761787 -0.37880898

layer2.1.running_mean f4 [32]
000000 7b 64 7e bd 4a 0d 81 be 2c f8 c0 be 40 b5 95 be
       -0.062107544 -0.2520545 -0.3768934 -0.29239845
000010 ea bf ab 3d 1f b4 25 bf cb af ca be b5 4e 06 bf
       0.08386214 -0.6472797 -0.39587244 -0.5246385
000020 3e df 5d be b7 06 2f 3e 51 48 3e be 39 64 82 be
       -0.21667191 0.17092405 -0.18582274 -0.2546709
000030 b4 63 8b be 43 88 c3 3c 23 c2 1f be 3f 34 9c 3e
       -0.27224505 0.023868686 -0.15601401 0.3050861
000040 15 cf 3b 3e 3b 73 f3 3d 0a 88 9a 3d 8b f3 5f be
       0.18340714 0.11887213 0.07545479 -0.21870248
000050 90 d0 61 3e e7 20 53 be 8d 09 93 be 8f 52 b2 be
       0.22052217 -0.2061802 -0.28718224 -0.34828612
000060 ff bb 1b be 85 eb 1f 3f e2 fd a6 be 49 57 b6 be
       -0.15208434 0.6246875 -0.32615572 -0.35613468
000070 d4 48 ea be 3d 33 4d be 37 27 bf be d0 7a b8 3e
       -0.45758688 -0.20039077 -0.37334606 0.36031199

layer2.1.running_var f4 [32]
000000 2c 28 eb 3e 7a 9c 9e 3e 0f 2b fd 3e e1 70 f2 3e
       0.45929086 0.30978757 0.49446914 0.47351745
000010 d1 ff bf 3e 3a ca 5c 3f 33 5d 22 3f 8f 00 fb 3e
       0.3749986 0.86246073 0.6342346 0.49023864
000020 57 1f 06 3f 10 df 35 3f 22 93 d1 3e 1d 42 a6 3e
       0.5239157 0.7104349 0.40932566 0.32472315
000030 f3 ce a7 3e 3e 7f b7 3e 93 b4 ea 3e 1e bc fb 3e
       0.32775077 0.35839266 0.45840892 0.4916696
000040 cc 74 f4 3e 08 8a e0 3e ad 8b 08 3f 4d 35 2e 3f
       0.4774536 0.4385531 0.5333813 0.6805008
000050 36 df bb 3e ec d5 49 3f c6 33 d9 3e 23 a4 0c 3f
       0.36693734 0.78842044 0.42422312 0.5493795
000060 24 82 b6 3e 91 9d 02 3f 5e 67 ab 3e bb 2e f3 3e
       0.35646164 0.5102168 0.334773 0.4749659
000070 77 8a 1a 3f 59 b0 01 3f 98 95 bd 3e ce e0 20 3f
       0.6036753 0.5065971 0.37028193 0.62843025

fc.weight f4 [10, 1568]
000000 dd 4e b1 b9 6b 27 03 3d 60 ed 57 3c 84 ce 93 bc
       -0.00033818829 0.032020014 0.013179153 -0.01804281
000010 08 cc c5 3c ee f3 2c bc 82 53 fc bc ba 14 60 3d
       0.024145141 -0.010556204 -0.030801538 0.054707266
000020 b3 3a 73 bc fb 7e ba 3b 52 ee f1 3c 45 7b 72 3d
       -0.014845538 0.005691407 0.029532585 0.05919959
000030 84 6c 9e 3c 4a 1b 9f bb 53 03 a2 bc 8a 22 4c bd
       0.019338854 -0.004855548 -0.019776976 -0.049837627
000040 a5 4a cc 3a f7 13 10 bd 14 92 ee 3b 05 51 7e bb
       0.0015586211 -0.03517529 0.0072805975 -0.0038805616
000050 34 f9 51 bd ad bb c9 bc 13 0c fa b9 77 e4 eb 3c
       -0.05126305 -0.024625624 -0.00047692712 0.028795464
000060 49 ab 5b bc 27 99 e7 bc 74 30 27 bb 7f 97 d6 3c
       -0.013407537 -0.02827127 -0.0025511058 0.026195286
000070 c9 a1 d9 bc 5c f5 5c 3b 23 b8 cc 3c 6e 7b e5 b9
       -0.026566403 0.0033715582 0.024990147 -0.00043770246
000080 5c f4 00 bd 8c 64 57 bc 04 b4 f9 3b 01 1b 79 bd
       -0.03148304 -0.013146531 0.0076203365 -0.06081677
000090 d1 d8 6f 3c 3d bc 37 bc b3 4d d3 bc 04 31 27 bd
       0.014639095 -0.011214313 -0.025793886 -0.04081823
0000a0 5e 48 86 39 7c 35 27 bd 66 51 f1 bb 57 14 5c bc
       0.0002561239 -0.04082249 -0.00736444 -0.013432584
0000b0 1d 37 d4 bc 1b 6e 21 bd 18 c2 54 bb e7 70 db bc
       -0.025905186 -0.039411645 -0.0032464322 -0.026787234
0000c0 99 69 69 bc 21 2a e5 3c 37 fb 54 bc 2f 8d 14 b9
       -0.014246368 0.02797419 -0.012999347 -0.00014166975
0000d0 67 96 8c 3c 27 14 08 3c a0 4d 22 bc a9 1d e7 bc
       0.017161561 0.008305586 -0.009906203 -0.028212385
0000e0 7e 27 28 bc 1e f3 40 3c 18 68 56 3c 70 88 f1 bc
       -0.010263322 0.011776714 0.013086341 -0.029484004
0000f0 25 81 92 3b 37 cb b2 3c ab 5b 54 bd 95 72 fa 3c
       0.0044709616 0.021825416 -0.051845234 0.030572215
000100 94 87 83 bc ff eb a0 3c 03 3d da 3c 1e 78 43 bc
       -0.01605586 0.019643782 0.02664042 -0.011930494
000110 f5 0c de 3b 8e 93 8e 3b 04 8b 84 bb cb 7e 43 3d
       0.006776447 0.004351086 -0.0040448923 0.04772834
000120 f0 c5 b8 bc 27 43 ff bb 48 22 c7 3c b9 f5 85 bb
       -0.022555321 -0.0077899876 0.024308339 -0.0040881303
000130 73 5f 40 bd 30 9a cd bb 2b cf 52 3d 4b af 45 bc
       -0.046966027 -0.006274484 0.051467102 -0.012065719
000140 5f 75 8c 3c 5e 60 33 3a c5 a5 71 3c d0 63 9b bc
       0.01714581 0.0006842668 0.014748995 -0.018968493
000150 2b 65 f6 bc e9 cf 6b 3d cc 42 ce bc ee c9 82 bc
       -0.030077538 0.057571325 -0.025178336 -0.015965428
000160 e2 45 eb ba 2e ac 29 bd 2f 07 4d bc 2f 1e 18 3c
       -0.0017949904 -0.04142397 -0.01251392 0.00928454
000170 d5 95 63 3b e2 c3 59 3c 29 27 d7 3b 1f 66 d6 3c
       0.0034726758 0.013291331 0.0065659476 0.026171742
000180 f9 c4 ba bc 21 d8 3d bb 21 18 1f bc 07 e4 6f 3d
       -0.022799002 -0.0028967934 -0.009710343 0.058567073
000190 72 f1 3e 3d 70 5a a4 3b 92 dc d2 3c ed f1 0d 3d
       0.04661698 0.005015664 0.025739942 0.034654547
0001a0 54 12 1a bd b1 6a e7 bc f1 3a 8e 3d d6 00 50 bb
       -0.037615135 -0.028249117 0.06944836 -0.003173878
0001b0 ac 60 b9 3b 97 fa d2 3a bc 63 e5 3c 61 3d 08 bd
       0.005657276 0.001609641 0.028001659 -0.03326166
0001c0 3a ed e8 bc a8 0f 4a 3d cf 6a 05 3d 21 38 a6 3b
       -0.028433431 0.049331337 0.032572564 0.005072609
0001d0 ca 6b c4 3c 82 b1 3b 3d bc e7 19 3c 38 44 ba bc
       0.02397718 0.04582358 0.009393629 -0.022737607
0001e0 e2 10 39 bc c1 bc f7 b9 c6 56 5f bc 8c 38 d1 bc
       -0.011295529 -0.00047252144 -0.013631528 -0.025539659
0001f0 9f 71 ac bc 62 c8 21 bd 21 c1 c2 bb 02 63 5f bd
       -0.021050273 -0.03949774 -0.005943433 -0.05453778
000200 79 ea c6 3b b5 23 2b bc f8 71 69 3c 25 85 bb bc
       0.006070432 -0.010445525 0.014248364 -0.022890637
000210 f0 ec 0a bd 61 5b ea bc b7 68 50 bd f9 06 bc 3c
       -0.033917367 -0.028608026 -0.050881114 0.022952544
000220 3d b1 85 bc c3 20 97 bc 6f a2 0b bc bf 6f 2a bc
       -0.016319865 -0.01844824 -0.008522614 -0.010402619
000230 70 81 08 bd 91 ab dd bc fa 22 1d 3d b6 15 63 3a
       -0.033326566 -0.027059348 0.038363434 0.0008662598
000240 97 d6 a7 3c 37 ba f3 b9 b6 96 78 bc 7e 13 14 3d
       0.020488067 -0.00046487313 -0.015172651 0.0361514
000250 e6 83 db 3b 7d 56 53 bd e5 71 66 3c 3a c5 c5 3b
       0.006699073 -0.051596154 0.0140652405 0.006035474
000260 ca 2b e8 3c 04 43 b4 bb 6d 78 34 3d 50 6a b8 ba
       0.028341193 -0.005501153 0.04406016 -0.001406977
000270 d3 88 bf 3c 75 cb 60 3c ae 38 89 3d 44 2d 96 bb
       0.023380673 0.013720383 0.06700264 -0.004583033
000280 d3 39 3e bc 2b 99 60 bc 45 64 47 bd c7 ad 81 bc
       -0.011610466 -0.013708393 -0.04867961 -0.015829934
000290 1c 66 57 bc 43 f9 0f bc 68 e8 1e bd a2 ce 8a bc
       -0.013146903 -0.008787456 -0.03879586 -0.016944233
0002a0 9f 2a 99 bc d8 3f 98 3b 8b c8 47 bc 57 62 b5 3c
       -0.018697081 0.0046462826 -0.012193809 0.022141619
0002b0 1a 9d d7 3c f4 22 fe bc 3e fd 03 3c 98 e6 11 bd
       0.026320029 -0.031022526 0.008055983 -0.035620302
0002c0 49 52 6a 3c 67 59 f6 3c a6 c1 33 3c ec f4 cc 3c
       0.014301845 0.030071927 0.010971462 0.025019132
0002d0 bf 25 11 bd c3 88 1d 3c f8 97 f5 bc be 73 c5 3c
       -0.035436388 0.009615126 -0.02997969 0.024103042
0002e0 43 80 99 3a c8 a7 d5 bc eb ea 01 bd 8e a5 8f bc
       0.0011711199 -0.02608098 -0.031718176 -0.017534997
0002f0 98 e2 cf bb 26 47 4a bd 47 da 8e 3c de 51 80 3b
       -0.0063441508 -0.04938426 0.017438067 0.0039160093
000300 af 84 c8 bc 3d 31 46 bd 82 0f 47 bc e7 9c da bc
       -0.024477331 -0.0483868 -0.012149693 -0.026686145
000310 91 2b ec bc c6 54 8f bd c5 de b2 bc 5b 72 70 3c
       -0.028829368 -0.06998591 -0.02183474 0.014675702
000320 56 8e 5e 3d ea 36 67 bc 56 f4 8e bc a5 8e 22 bd
       0.05433496 -0.014112214 -0.017450493 -0.039686818
000330 2f 13 6d bd 73 64 78 3c 30 18 5f 3c cd be 05 3d
       -0.057879623 0.015160668 0.013616607 0.032652665
000340 76 28 c8 bc 01 bc 15 bd 55 3c 00 3c 84 78 96 bc
       -0.024433356 -0.036556248 0.007826884 -0.018368013
000350 f7 5a 49 bc 17 c0 94 3a ea 71 7b 3c 22 18 a8 bc
       -0.012289754 0.0011348751 0.015346983 -0.02051932
000360 01 1b e6 bc 3b 98 50 3d 67 c1 22 3b ed a4 29 bc
       -0.028089048 0.05092643 0.0024834515 -0.010354263
000370 02 f5 5d bc 0f cc d1 3c 16 3c 18 3d af dc d2 bb
       -0.013547184 0.025609998 0.037166677 -0.006434999
000380 90 22 1b 3d 24 2e da bc 45 74 7d bc f6 c2 4c bc
       0.03787476 -0.02663333 -0.015469615 -0.012497654
000390 63 26 23 3b 64 18 1d 3d d9 e7 6d 3a eb 72 f0 3c
       0.0024894706 0.03835334 0.00090753805 0.029351672
0003a0 09 ce 8c bc 38 4d 96 3b 29 19 17 bd 05 bd 2e bc
       -0.017188089 0.004586842 -0.03688923 -0.010665183
0003b0 11 f9 cd b9 da 55 1a bc 10 07 32 3c f0 b8 de bc
       -0.00039286216 -0.009419883 0.010865942 -0.027187794
0003c0 08 3a 42 3c 8b 5a 60 3a 07 e4 11 bd 2e 44 17 bc
       0.011854656 0.0008558414 -0.035617854 -0.009232564
0003d0 f6 9b 4e 3c 39 bb da bc aa 67 1c 3d 87 8c a3 3c
       0.012610426 -0.026700603 0.0381848 0.01996447
0003e0 33 13 ab 3c ca 41 01 3c 02 cc c0 3c fe 79 05 3d
       0.020883178 0.0078892205 0.023534779 0.032587044
0003f0 42 ce 39 bc 4c 5f 89 3c 13 c5 ef bb c8 e4 81 3b
       -0.01134068 0.016769074 -0.0073171942 0.0039640404

fc.bias f4 [10]
000000 77 67 4d bc c0 ef 88 bb 77 27 a9 bc 72 79 bc bc
       -0.012536875 -0.004178971 -0.020648701 -0.023007128
000010 f6 3e ea bb 8e d0 fd 3b a5 25 64 3d 42 3b 15 3c
       -0.007148619 0.007745809 0.055699963 0.009108366
000020 63 f3 41 3c 6f e0 92 bc
       0.011837813 -0.017929284
