result/fmnist/seed12/noniid_0.8/ratio_0.2/final.pt (torch, 122111 bytes, 14 tensors)

layer1.0.weight f4 [16, 1, 5, 5]
-0.031116659 -0.091637544 0.00044409322 0.114166066 0.019883804 -0.1942052 0.06275277 -0.109692164
0.17061184 0.09914646 -0.21150342 0.05775549 0.08202092 0.08469966 0.01567234 -0.20434442
0.22694176 0.18015839 -0.16221565 -0.026917255 0.09671669 -0.13898581 -0.12394583 0.14513612
0.050851498 -0.04107965 -0.023568429 0.058588654 0.018066112 0.05559916 0.015332928 0.15543997
-0.08630163 -0.10331816 -0.057129152 -0.07287003 0.041641105 -0.20171788 -0.17868125 0.13503681
0.12431289 -0.13049415 -0.12886088 -0.17774977 0.10141387 0.0059620254 0.09956613 -0.12337427
-0.049489968 0.24465093 0.13271512 0.1942463 0.0610908 0.1551007 0.1892041 -0.16846356
-0.120205 0.1935369 0.09640374 0.04581264 0.12463351 -0.15040125 0.14373626 0.112697296
0.07667638 -0.0015624629 -0.044967614 0.069182634 0.1380321 0.012343262 -0.12110236 -0.105289795
-0.017115276 -0.1573591 -0.12420738 0.056609206 -0.13910143 0.2037398 0.0027743536 0.09704884
0.01927409 -0.14560086 0.11850791 -0.11480549 -0.015635414 0.09239215 -0.030124154 0.14042138
-0.11677128 0.0977804 0.012419698 0.09149555 0.0069879773 -0.13532038 0.046894263 0.06913126
-0.111657776 -0.14788797 -0.19158113 0.19985549 0.046161797 0.089460045 0.08175642 -0.025358489
0.15184702 0.12468209 -0.11155059 0.118252985 0.18693562 -0.010848423 0.013166615 0.060989525
-0.17769922 -0.13307633 0.22629738 -0.17123461 0.038323037 -0.23083934 -0.072096094 -0.01972033
-0.003106309 -0.13673463 0.027564185 0.005034561 -0.21359757 0.024374532 0.24019364 0.1971474
-0.07024835 0.17283025 -0.13678202 0.22322349 0.09653055 0.105316244 -0.07797015 -0.09116898
-0.18060878 0.09893378 -0.16491328 -0.035841122 -0.06299224 0.039754163 0.0076599945 0.023934271
0.16116168 -0.030032929 -0.07837262 -0.1336635 -0.07766179 -0.12679629 0.098568186 0.16319732
0.12116367 0.11243546 -0.07680389 -0.14809364 0.20835042 -0.035136808 -0.060817156 -0.17642102
-0.1139407 0.069639355 0.15552536 -0.17509292 -0.2056964 -0.02195751 -0.13865308 0.1964931
0.009204279 -0.15424699 0.06453491 0.19022205 0.06134006 -0.11767097 0.06525669 -0.17231296
0.13833262 -0.015797868 0.025952462 -0.014211909 -0.20344968 0.06680088 0.23140632 -0.07385057
-0.057643916 -0.20348923 -0.004472565 0.2745998 -0.059291385 -0.05729558 0.14583541 -0.16645461
0.03430832 -0.019584844 0.028492864 -0.10679884 0.0018768682 0.042320464 0.07824419 -0.08702297
0.057476375 -0.16887352 0.008676974 0.02778861 -0.049251594 0.0017894217 0.0053486554 0.103423364
0.18229079 -0.16348284 0.17029847 0.07399578 0.19121279 0.18792963 -0.04672059 -0.07099289
0.13530897 0.114119105 0.17218162 -0.06262234 0.061299622 -0.058876894 -0.14670075 0.12626863
0.053765677 0.18617363 0.13903499 -0.11879342 -0.080131516 0.06800564 0.1737251 -0.15764406
0.21384847 0.14698589 0.013888034 -0.18157707 -0.07732806 0.14509358 0.078184515 0.063748404
-0.1634611 -0.17965963 -0.1810919 -0.019438703 -0.013591683 -0.09736613 0.19766788 -0.20905675
-0.2000331 -0.15573576 -0.096709356 -9.230073e-05 -0.044813514 0.025455365 0.16419142 -0.15353045
00000000: 5de8 febc 77ac bbbd 2fd5 e839 e6cf e93d
00000010: 5ce3 a23c badd 46be 8684 803d 49a6 e0bd
00000020: dfb4 2e3e 4d0d cb3d 5a94 58be 0591 6c3d
00000030: 96fa a73d 0477 ad3d 4763 803c aa3f 51be
00000040: 6c63 683e 717b 383e dc1b 26be 9381 dcbc
00000050: 6613 c63d 4c52 0ebe 50d7 fdbd 909e 143e
00000060: a949 503d 2343 28bd 9412 c1bc a8fa 6f3d
00000070: 62ff 933c f2bb 633d f636 7b3c a82b 1f3e
00000080: e9be b0bd 7998 d3bd 4200 6abd e23c 95bd
00000090: dd8f 2a3d 228f 4ebe 38f8 36be 1747 0a3e
000000a0: c297 fe3d 42a0 05be 1bf4 03be 0904 36be
000000b0: 13b2 cf3d 185d c33b 54e9 cb3d a6ab fcbd
000000c0: feb5 4abd c685 7a3e 79e6 073e 81e8 463e
000000d0: 593a 7a3d b8d2 1e3e b8be 413e b681 2cbe
000000e0: 0a2e f6bd 8a2e 463e 536f c53d 09a6 3b3d
000000f0: db3f ff3d c902 1abe 992f 133e d7cd e63d
00000100: 8208 9d3d 8ecb ccba f62f 38bd a0af 8d3d
00000110: 4958 0d3e 653b 4a3c 8404 f8bd 2da2 d7bd
00000120: 5635 8cbc be22 21be 7060 febd 0edf 673d
00000130: 9b70 0ebe 2ba1 503e eed1 353b 8bc1 c63d
00000140: b2e4 9d3c 6418 15be 46b4 f23d 241f ebbd
00000150: d715 80bc 1838 bd3d eec6 f6bc 9fca 0f3e
00000160: c825 efbd 1741 c83d fd7b 4b3c 0562 bb3d
00000170: 67fb e43b 6d91 0abe 3314 403d b194 8d3d
00000180: d5ac e4bd f26f 17be d82d 44be eba6 4c3e
00000190: 2714 3d3d d436 b73d e96f a73d 9bbc cfbc
000001a0: c97d 1b3e 5359 ff3d a374 e4bd 9f2e f23d
000001b0: 0d6c 3f3e 95bd 31bc c9b8 573c 27d0 793d
000001c0: c9f6 35be 2945 08be 80ba 673e 2058 2fbe
000001d0: 9ef8 1c3d 2661 6cbe 1ea7 93bd 888c a1bc
000001e0: 3893 4bbb 2a04 0cbe 49ce e13c f5f8 a43b
000001f0: 52b9 5abe 19ad c73c 52f5 753e 02e1 493e
00000200: 5ede 8fbd 6afa 303e 9610 0cbe b394 643e
00000210: cfb1 c53d 0bb0 d73d d0ae 9fbd cdb6 babd
00000220: 82f1 38be cb9d ca3d 07df 28be 24ce 12bd
00000230: 1302 81bd 43d5 223d b100 fb3b ce11 c43c
00000240: 9107 253e 9e07 f6bc d381 a0bd 16df 08be
00000250: 250d 9fbd e3d6 01be 1ede c93d 331d 273e
00000260: a924 f83d 9044 e63d 5c4b 9dbd dca5 17be
00000270: d059 553e 9deb 0fbd 691b 79bd b6a7 34be
00000280: be59 e9bd 149f 8e3d 0a42 1f3e 8f4b 33be
00000290: 14a2 52be 3ce0 b3bc 13fb 0dbe 7d35 493e
000002a0: 8bcd 163c ecf2 1dbe e12a 843d 92c9 423e
000002b0: b73f 7b3d 7afd f0bd 4da5 853d cf72 30be
000002c0: 11a7 0d3e 886a 81bc 429a d43c 11d9 68bc
000002d0: 1d55 50be e6ce 883d c7f5 6c3e f83e 97bd
000002e0: 071c 6cbd 7b5f 50be 988e 92bb 5898 8c3e
000002f0: 86db 72bd c5ae 6abd e155 153e 1473 2abe
00000300: e286 0c3d 6570 a0bc de69 e93c 5ab9 dabd
00000310: 3f01 f63a 3958 2d3d 7d3e a03d 1939 b2bd
00000320: 596c 6b3d 2eed 2cbe de29 0e3c f0a4 e33c
00000330: 0abc 49bd 078b ea3a c643 af3b a1cf d33d
00000340: 70aa 3a3e 0c68 27be b962 2e3e 198b 973d
00000350: 49cd 433e a070 403e 175e 3fbd b864 91bd
00000360: 6f8e 0a3e 47b7 e93d 6150 303e 2440 80bd
00000370: 5015 7b3d e628 71bd b938 16be 904c 013e
00000380: 6639 5c3d 4da4 3e3e 305f 0e3e f749 f3bd
00000390: fe1b a4bd 8a46 8b3d fee4 313e 726d 21be
000003a0: 18fb 5a3e 7883 163e a38a 633c 57ef 39be
000003b0: 2d5e 9ebd 6993 143e 341f a03d 868e 823d
000003c0: 5962 27be b2f8 37be 2870 39be ea3d 9fbc
000003d0: a6af 5ebc e567 c7bd 7369 4a3e f912 56be
000003e0: 7ad5 4cbe 3279 1fbe 8e0f c6bd 9491 c1b8
000003f0: 608e 37bd c587 d03c cc21 283e 1637 1dbe

layer1.0.bias f4 [16]
-0.14740312 -0.044420257 -0.085433714 0.023301205 -0.10441828 -0.058627922 0.09179083 0.1137531
-0.16425972 -0.060320426 0.138619 0.1438265 -0.04143881 -0.19920579 0.042833697 0.13244991
00000000: d8f0 16be 04f2 35bd dff7 aebd 2be2 be3c
00000010: 40d9 d5bd d523 70bd d5fc bb3d 63f7 e83d
00000020: b333 28be 8d12 77bd 24f2 0d3e 4147 133e
00000030: bebb 29bd 9afc 4bbe 6372 2f3d f3a0 073e

layer1.1.weight f4 [16]
1.0613229 1.0107625 0.95473313 1.0423946 1.0260067 0.9969273 1.0080814 1.046624
0.9549119 1.029644 0.95246047 0.9680614 1.0080956 0.96125597 0.98474556 0.9566419
00000000: 6ed9 873f aa60 813f 6469 743f 306d 853f
00000010: 3054 833f a136 7f3f d008 813f c6f7 853f
00000020: 1b75 743f 60cb 833f 73d4 733f dfd2 773f
00000030: 4709 813f df14 763f 4918 7c3f 7ce6 743f

layer1.1.bias f4 [16]
-0.019520856 -0.031832673 -0.085586056 -0.1036923 -0.049350493 -0.031473093 0.07639175 -0.0008077434
-0.06320023 -0.024183067 -0.067714915 -0.07855041 -0.013892771 -0.0425637 -0.039585184 -0.065894894
00000000: 34ea 9fbc fa62 02bd be47 afbd a15c d4bd
00000010: be23 4abd eee9 00bd 4773 9c3d bebe 53ba
00000020: 1f6f 81bd 911b c6bc 1eae 8abd 0adf a0bd
00000030: 819e 63bc 4657 2ebd 1324 22bd e7f3 86bd

layer1.1.running_mean f4 [16]
-0.1204906 -0.13303071 0.11029264 0.05920765 -0.14386651 -0.03097841 0.1066191 0.0584315
0.08156055 -0.17306699 0.38467762 0.28375274 -0.24441694 -0.22349721 0.009117117 0.3827057
00000000: c7c3 f6bd 3439 08be 1ce1 e13d b983 723d
00000010: be51 13be 6fc6 fdbc 1d5b da3d de55 6f3d
00000020: 3809 a73d 7938 31be 77f4 c43e 0a48 913e
00000030: 6f48 7abe 74dc 64be f65f 153c 00f2 c33e

layer1.1.running_var f4 [16]
0.0240178 0.028498404 0.08022746 0.019024406 0.027237248 0.026988892 0.037093103 0.02408683
0.08517078 0.043959912 0.07794732 0.030044941 0.058580194 0.03109446 0.034553424 0.07344185
00000000: fac0 c43c 7c75 e93c 4b4e a43d 12d9 9b3c
00000010: a620 df3c cf17 dd3c f0ee 173d be51 c53c
00000020: 056e ae3d 4f0f 343d d8a2 9f3d cf20 f63c
00000030: c9f1 6f3d cfb9 fe3c e487 0d3d ae68 963d

layer2.0.weight f4 [32, 16, 5, 5]
0.050833676 -0.02506378 -0.038818073 -0.004870769 0.020543216 -0.048449654 -0.02299983 0.0030569395
0.0090628965 -0.008934871 -0.02463812 0.028951168 -0.008303421 0.04368136 0.023451589 -0.026159868
0.046904963 0.030372027 0.03046961 -0.019709531 0.005187449 0.0145269465 -0.00015283789 0.0274091
-0.043779723 -0.033781238 0.010296019 0.034939736 0.020185819 0.0051807226 0.042783152 0.02918281
-0.010721938 0.03093811 0.017690765 -0.0017104436 0.022744995 0.042880993 0.013910587 0.005963912
-0.018674012 0.049272444 0.03864756 0.020335255 -0.017544061 0.025076361 0.006556677 -0.02014891
-0.010451153 -0.02958105 0.039905608 -0.0004335501 0.012889509 -0.015985757 -0.0079367 0.027768264
0.035417106 -0.008425538 -0.040205643 -0.040719494 0.013667566 -0.005346908 -0.012304665 0.031279564
-0.05282933 0.04087369 -0.01456705 -0.015166576 -0.039765216 -0.04465245 0.020737592 -0.033091135
0.032844026 0.0012841888 0.0036960284 -0.020230895 0.009699219 -0.008761811 -0.022732804 -0.0075180572
-0.036330923 -0.041864805 -0.045992725 -0.038996812 -0.060982753 0.010392627 -0.042605266 -0.01310659
-0.052085824 -0.038895044 0.015527139 0.022933966 0.050582115 -0.015714763 -0.053387746 -0.027805923
0.03296247 0.03363796 0.019179828 -0.046668567 -0.03355755 0.020242132 0.005150957 -0.04098342
0.012805104 -0.0051373066 -0.006796416 0.0064340015 0.026871698 0.032915737 -0.039809693 0.024464345
0.01726884 0.020700665 0.011046226 -0.026988475 0.013809414 -0.002874014 -0.027962547 0.02125345
-0.019458205 -0.024689216 -0.013882915 0.035168532 0.050924323 0.021931658 -0.014749248 0.019547563
0.0005011427 0.043425135 0.012681413 0.046405535 0.027444992 -0.042142086 -0.025822688 0.025105143
0.04331238 -0.049426135 0.022747302 -0.0055519706 -0.028342623 -0.01903244 0.03977029 -0.041813053
0.017073557 -0.024264943 0.038161676 -0.0082018515 -0.014644195 0.060632166 -0.004347085 0.03075081
0.024835024 0.029286735 0.046342827 0.045480922 0.03252592 -0.020075472 -0.014750407 0.013125743
-0.03152275 0.02086216 0.015423233 0.034966946 0.06838379 0.042073797 -0.020813677 -0.019709252
0.06404849 0.022361044 -0.021801773 -0.0012414386 0.04677825 0.05119937 0.011284117 -0.009252354
-0.021680515 -0.027486272 -0.009606485 0.0036601524 0.03856787 0.030061036 0.027754564 0.016852533
0.032436777 -0.0026937742 0.044199694 0.056861762 0.040154368 -0.005336126 0.017961577 0.0030722735
0.027955592 0.044313103 -0.02080998 0.012443331 0.004145827 0.04759623 -0.01373672 0.04087741
0.046995558 0.060897667 0.026183652 0.0064167017 0.027948348 0.04172553 -0.033529695 -0.04947313
0.03318588 -0.05128144 -0.009600824 -0.008460901 0.00066139176 -0.021765865 -0.06425522 -0.0326742
-0.010498825 0.042548105 -0.03325018 0.019007092 0.011832474 -0.0046899025 -0.0022841443 -0.043638814
0.004436911 0.0055413665 0.017975735 0.05515718 -0.007803911 -0.02632199 -0.035041533 0.01785672
0.044353917 -0.029972484 -0.038374808 0.012446198 0.009561016 -0.023202032 0.03540677 0.003945921
-0.033766307 0.009151739 -0.007495008 0.013185039 0.011434571 -0.034381766 -0.0003479644 -0.0275393
0.029665472 0.0136207305 -0.040173873 -0.034340024 -0.0520364 0.014458122 -0.014475485 -0.04118264
00000000: f936 503d 8e52 cdbc b3ff 1ebd f99a 9fbb
00000010: 3f4a a83c 2573 46bd 246a bcbc ef56 483b
00000020: 8b7c 143c 9163 12bc e2d5 c9bc 002b ed3c
00000030: 120b 08bc 3aeb 323d 8c1d c03c 384d d6bc
00000040: 6b1f 403d c2ce f83c 679b f93c e275 a1bc
00000050: 7afb a93b 6e02 6e3c 1c43 20b9 0d89 e03c
00000060: 5e52 33bd 325e 0abd a2b0 283c f81c 0f3d
00000070: bb5c a53c 0dc3 a93b 633d 2f3d ca10 ef3c
00000080: 11ab 2fbc eb71 fd3c 39ec 903c f730 e0ba
00000090: b653 ba3c fba3 2f3d 3be9 633c eb6c c33b
000000a0: 3efa 98bc e7d1 493d e74c 1e3d 1f96 a63c
000000b0: 90b8 8fbc f16c cd3c 65d9 d63b 540f a5bc
000000c0: 503b 2bbc f553 f2bc 1074 233d 1c4e e3b9
000000d0: 852e 533c 90f4 82bc ef08 02bc 457a e33c
000000e0: 8711 113d 450b 0abc acae 24bd 7cc9 26bd
000000f0: eded 5f3c 1d35 afbb 8199 49bc 001f 003d
00000100: 9163 58bd 2c6b 273d a3aa 6ebc 3b7d 78bc
00000110: dae0 22bd 7de5 36bd e2e1 a93c 928a 07bd
00000120: 7587 063d 3a52 a83a 1139 723b 43bb a5bc
00000130: 79e9 1e3c b38d 0fbc 253a babc 095a f6bb
00000140: bccf 14bd 6e7a 2bbd de62 3cbd 1fbb 1fbd
00000150: 0dc9 79bd d645 2a3c dc82 2ebd 06bd 56bc
00000160: f257 55bd 6950 1fbd 8b65 7e3c 03e0 bb3c
00000170: 312f 4f3d 3fbc 80bc 1cad 5abd 3fc9 e3bc
00000180: a803 073d f5c7 093d 041f 9d3c 8a27 3fbd
00000190: a473 09bd d4d2 a53c 5cc9 a83b 3bde 27bd
000001a0: 80cc 513c da56 a8bb 78b4 debb 51d4 d23b
000001b0: 0922 dc3c a7d2 063d 7d0f 23bd 7369 c83c
000001c0: 6277 8d3c 7194 a93c 3bfb 343c ef16 ddbc
000001d0: e140 623c f459 3cbb b611 e5bc b71b ae3c
000001e0: d066 9fbc 0a41 cabc 2a75 63bc e10c 103d
000001f0: 0696 503d 05aa b33c d4a6 71bc 3622 a03c
00000200: 1e5f 033a 8ede 313d b4c5 4f3c bb13 3e3d
00000210: 52d4 e03c 2e9d 2cbd 1a8a d3bc 4da9 cd3c
00000220: 5268 313d 0f73 4abd 8d58 ba3c 4eed b5bb
00000230: ca2e e8bc ebe9 9bbc 2ce6 223d 2a44 2bbd
00000240: d8dd 8b3c 46c7 c6bc 6b4f 1c3d 0f61 06bc
00000250: 35ee 6fbc 6f59 783d fe71 8ebb 1fe9 fb3c
00000260: d272 cb3c bcea ef3c fad1 3d3d 344a 3a3d
00000270: e639 053d 5175 a4bc b1ab 71bc 5b0d 573c
00000280: 001e 01bd 1fe7 aa3c bab1 7c3c 8039 0f3d
00000290: cd0c 8c3d 9355 2c3d 7281 aabc 4c75 a1bc
000002a0: db2b 833d 822e b73c a299 b2bc c4b7 a2ba
000002b0: 8d9a 3f3d 6eb6 513d 04e1 383c 2f97 17bc
000002c0: 569b b1bc e42a e1bc 8564 1dbc 2bdf 6f3b
000002d0: 58f9 1d3d 9042 f63c 8a5d e33c 530e 8a3c
000002e0: 6ddc 043d 088a 30bb bd0a 353d e1e7 683d
000002f0: e878 243d abda aebb 2824 933c 3258 493b
00000300: 2003 e53c a881 353d b179 aabc 1ddf 4b3c
00000310: b8d9 873b 44f4 423d fb0f 61bc 126f 273d
00000320: 6a7e 403d d56f 793d 197f d63c 3243 d23b
00000330: eff3 e43c 64e8 2a3d 6f56 09bd 56a4 4abd
00000340: ebed 073d 7d0c 52bd c64c 1dbc 979f 0abc
00000350: 4061 2d3a 544e b2bc 3e98 83bd 62d5 05bd
00000360: 4403 2cbc ec46 2e3d 5731 08bd c3b4 9b3c
00000370: fedc 413c c1ad 99bb 95b1 15bb 9dbe 32bd
00000380: 8263 913b 5a94 b53b d941 933c 7fec 613d
00000390: f3b7 ffbb 37a1 d7bc b687 0fbd 4248 923c
000003a0: 74ac 353d db88 f5bc e72e 1dbd 23eb 4b3c
000003b0: cfa5 1c3c 3012 bebc b006 113d c94c 813b
000003c0: 8a4e 0abd 2df1 153c af98 f5bb 1006 583c
000003d0: 1158 3b3c e5d3 0cbd fe6e b6b9 199a e1bc
000003e0: 0105 f33c 7c29 5f3c 5c8d 24bd 20a8 0cbd
000003f0: 1f24 55bd c2e1 6c3c 962a 6dbc 21af 28bd

layer2.0.bias f4 [32]
-0.023232354 0.037026644 -0.0076998123 -0.035681147 0.025964297 -0.018532777 -0.0122457575 -0.03292521
0.043101795 -0.032434877 0.037534047 0.02727044 0.006632154 -0.019070532 0.037942074 0.004047193
0.043660123 -0.031210184 0.038794372 0.012387909 0.036523838 -0.0019392514 0.025772665 0.04837885
0.01287046 0.010541249 -0.045142505 -0.004106933 -0.04157224 0.046471316 0.03931914 0.016462196
00000000: c751 bebc 40a9 173d b54e fcbb 6526 12bd
00000010: 14b3 d43c 0dd2 97bc 6ea2 48bc 96dc 06bd
00000020: 828b 303d 6fda 04bd 4dbd 193d 4266 df3c
00000030: 8a52 d93b ce39 9cbc 2669 1b3d 519e 843b
00000040: f5d4 323d 80ac ffbc d9e6 1e3d a8f6 4a3c
00000050: 059a 153d 7b2e feba 3221 d33c e728 463d
00000060: 9fde 523c 34b5 2c3c 59e7 38bd 7393 86bb
00000070: a747 2abd b558 3e3d 1b0d 213d badb 863c

layer2.1.weight f4 [32]
0.7501141 0.7120455 0.81923753 0.732113 0.74890876 0.8063573 0.7789534 0.7587776
0.7696805 0.80532867 0.74189997 0.7268017 0.75945365 0.7466291 0.8096333 0.7524083
0.747714 0.7445288 0.7783764 0.7832164 0.74616253 0.7969959 0.74858993 0.771781
0.7372099 0.66063464 0.74630445 0.7850818 0.81522727 0.77723116 0.75547624 0.7763563
00000000: 7a07 403f 9d48 363f 8db9 513f c26b 3b3f
00000010: 7cb8 3f3f 6f6d 4e3f 7d69 473f 403f 423f
00000020: c809 453f 052a 4e3f 28ed 3d3f ad0f 3a3f
00000030: 8e6b 423f 1623 3f3f 2144 4f3f d59d 403f
00000040: 2f6a 3f3f 7099 3e3f ad43 473f df80 483f
00000050: 8204 3f3f ec07 4c3f 97a3 3f3f 7193 453f
00000060: cab9 3c3f 5a1f 293f cf0d 3f3f 1ffb 483f
00000070: bcb2 503f 9ff8 463f e466 413f 49bf 463f

layer2.1.bias f4 [32]
-0.3457039 -0.3597838 -0.36552867 -0.33567187 -0.33989295 -0.29432583 -0.30008242 -0.33673438
-0.33732924 -0.33119005 -0.34194884 -0.3514832 -0.32423282 -0.3477677 -0.35946518 -0.36290243
-0.353992 -0.3550947 -0.31507677 -0.32006475 -0.33887836 -0.30219093 -0.33294556 -0.31379572
-0.31955212 -0.33968616 -0.35112503 -0.33370832 -0.34665567 -0.357761 -0.33685482 -0.34897286
00000000: 1a00 b1be 9535 b8be 9326 bbbe 2fdd abbe
00000010: 7306 aebe e0b1 96be 67a4 99be 7368 acbe
00000020: 6bb6 acbe be91 a9be eb13 afbe 9bf5 b3be
00000030: d801 a6be 9c0e b2be d20b b8be 59ce b9be
00000040: 703e b5be f9ce b5be be51 a1be 87df a3be
00000050: 7781 adbe c5b8 9abe d777 aabe d5a9 a0be
00000060: 569c a3be 58eb adbe a9c6 b3be d1db aabe
00000070: da7c b1be 732c b7be 3c78 acbe 92ac b2be

layer2.1.running_mean f4 [32]
0.012493179 -0.2788606 -0.18915254 -0.23166782 0.34778944 -0.44263774 -0.6858545 -0.74764675
-0.32850185 0.15112324 -0.25353423 -0.18512388 -0.38281292 0.1038046 0.009270875 0.473926
0.2355601 0.0694419 0.3151257 -0.078112304 0.18323676 -0.100627795 -0.20626412 -0.38845974
-0.6468909 0.6104058 -0.17798997 -0.2061117 -0.31943464 -0.03631084 -0.16014639 0.28558755
00000000: 31b0 4c3c d1c6 8ebe 34b1 41be 543a 6dbe
00000010: 7511 b23e 6aa1 e2be 2994 2fbf c765 3fbf
00000020: 6531 a8be 0dc0 1a3e 3dcf 81be 1d91 3dbe
00000030: 0e00 c4be 8297 d43d dee4 173c 6ea6 f23e
00000040: ab36 713e 8e37 8e3d 2858 a13e 58f9 9fbd
00000050: 6ba2 3b3e f215 cebd e736 53be 32e4 c6be
00000060: a49a 25bf 8e43 1c3f 0143 36be f20e 53be
00000070: f08c a3be adba 14bd 6afd 23be 8838 923e

layer2.1.running_var f4 [32]
0.40111732 0.20291129 0.27678138 0.35407838 0.28460416 0.7039963 0.8084786 0.49784863
0.3276734 0.6239908 0.34320694 0.2546621 0.33165887 0.28882113 0.32129145 0.2883834
0.29592034 0.26054433 0.41503522 0.5532332 0.27975324 0.5917009 0.34414464 0.6280578
0.59061384 0.60375315 0.21084532 0.430099 0.3110901 0.2833274 0.23372243 0.40960786
00000000: 405f cd3e fac7 4f3e 4ab6 8d3e c349 b53e
00000010: a3b7 913e 1a39 343f 74f8 4e3f 04e6 fe3e
00000020: cfc4 a73e dcbd 1f3f d2b8 af3e 1263 823e
00000030: 31cf a93e 5de0 933e 5080 a43e fda6 933e
00000040: df82 973e 1166 853e 7f7f d43e b1a0 0d3f
00000050: d13b 8f3e b679 173f ba33 b03e 65c8 203f
00000060: 7832 173f 918f 1a3f d6e7 573e f035 dc3e
00000070: 3447 9f3e 4a10 913e ef54 6f3e 1fb8 d13e

fc.weight f4 [10, 1568]
0.0054813665 0.02424106 0.012390773 -0.036532898 0.028535632 0.004501797 -0.015840475 0.060615897
-0.016551109 -0.008270806 0.0076183407 0.034854397 0.008770676 0.0006490403 -0.013692709 -0.03089848
-0.0020896243 -0.03974485 0.0011081995 0.010592924 -0.040693816 -0.015040414 0.023646137 0.028535567
-0.019279063 -0.019194001 0.020524666 0.04889018 -0.01552741 0.01442687 0.015801635 -0.018263184
-0.021573205 -0.007964044 0.01341379 -0.03777818 0.009469845 -0.013077144 -0.014997534 -0.029603887
-0.021374332 -0.031354282 0.014637955 -0.009699662 -0.013314597 -0.0068343994 0.014824309 -0.009626199
0.0066064806 0.026086763 -0.01302808 -0.008331071 0.008554831 -0.0053824866 -0.0027072532 0.005398138
-0.0120641515 0.0063751927 0.009420097 -0.038035892 -0.0045193345 0.00831224 -0.043336753 0.017184053
-0.015315597 0.018068848 0.02741976 -0.019438436 0.00042038903 0.021445626 -0.0033547936 0.023840817
-0.047254786 0.0007994356 0.02731073 -0.01891691 -0.02785209 -0.017528247 0.027499795 -0.009119635
0.024458209 -0.0060281153 0.006108278 -0.0054494822 -0.034146596 0.029413396 -0.026695266 0.0065762564
0.006480448 -0.045811765 0.0020858045 -0.008687897 -0.01166449 0.009906188 -0.0005983484 0.025086321
-0.011917631 0.017128246 0.026984872 0.038258832 0.022578275 0.004421894 0.0070896116 0.036446013
-0.013926091 -0.0069301147 0.06251588 -0.022614468 -0.0051339976 -0.029376986 0.0019467766 -0.011867806
-0.016636813 0.05065748 0.011635229 -0.0023614126 0.013732293 0.021543505 0.015298935 0.008308129
-0.021117117 -0.007609756 -0.007176024 -0.01860038 -0.03005161 -0.022291036 0.0027495862 -0.050640997
0.021484958 -0.016846828 0.032972924 -0.029179635 -0.016649418 -0.01727746 -0.05667136 0.015878925
-0.02669507 0.0023095417 -0.018284263 -0.00012596564 -0.019820604 -0.01089058 0.011677352 -0.003280484
-0.0073066107 0.003038912 -0.004869785 0.03438451 0.022065302 -0.031393327 0.0063116453 0.0036694075
0.037418988 0.0096636135 0.040885326 0.015507332 0.018284157 -0.0070535257 0.058581833 0.01434831
-0.0031507132 -0.0008961987 -0.04862176 -0.010449258 -0.032031033 -0.03100724 -0.030535053 -0.018607195
0.008574262 -0.0014579068 -0.021065578 0.016712347 0.03690599 0.005826046 0.0109158205 -0.019483803
-0.014546315 0.013514202 0.013725912 0.028612038 -0.013353427 0.009274149 -0.011943409 0.007807363
0.0001904113 -0.021466823 -0.022336567 -0.0003240674 -0.0042231507 -0.01582833 0.022543762 0.013520974
0.0010381744 -0.032428164 0.007939178 -0.01557909 -0.009560539 -0.0010557645 0.01462476 0.0031657082
0.037508033 -0.00037941983 0.012435633 -0.022951346 -0.024746548 0.018445384 0.002602587 0.03463134
-0.024227139 -0.014642989 0.0053735445 -0.006988775 -3.9293653e-05 -0.01038426 0.015566178 -0.008378286
-0.01078387 0.07443564 0.025180664 -0.016858289 -0.015433395 0.01824682 0.06008718 0.011560197
0.02516349 -0.02251095 -0.017418848 -0.02040566 -0.025348397 0.036139414 0.014495074 0.02169258
-0.0025679031 0.022506278 -0.023536276 -0.015898906 0.0020619468 -0.0008561224 -0.011885317 -0.01177316
0.03398846 0.01732288 -0.025133824 -0.011305266 0.01733409 -0.022938972 0.025475103 0.014912219
0.020614514 0.017189166 0.03536061 0.027186217 0.013449325 0.013676757 -0.006912025 0.002981137
00000000: 099d b33b 3095 c63c ab02 4b3c 85a3 15bd
00000010: 8fc3 e93c cf83 933b e2c3 81bc 6048 783d
00000020: 3196 87bc 4682 07bc 46a3 f93b 7cc3 0e3d
00000030: e2b2 0f3c 5b24 2a3a 6257 60bc cf1e fdbc
00000040: 14f2 08bb 7fcb 22bd 0141 913a f28d 2d3c
00000050: 8fae 26bd 126c 76bc 8bb5 c13c 6cc3 e93c
00000060: 20ef 9dbc bd3c 9dbc 5823 a83c 1241 483d
00000070: ae66 7ebc ae5e 6c3c 6e72 813c ac9c 95bc
00000080: 4aba b0bc 9f7b 02bc 83c5 5b3c 4bbd 1abd
00000090: 6927 1b3c 8441 56bc 38b8 75bc da83 f2bc
000000a0: 3919 afbc 596d 00bd 09d4 6f3c 55eb 1ebc
000000b0: 7825 5abc 19f3 dfbb a9e1 723c 34b7 1dbc
000000c0: 2d7b d83b e8b3 d53c ba73 55bc 0b7f 08bc
000000d0: 9029 0c3c 925f b0bb 2c6c 31bb dde2 b03b
000000e0: b8a8 45bc fee6 d03b c056 1a3c 86cb 1bbd
000000f0: ed16 94bb 1030 083c e181 31bd 92c5 8c3c
00000100: 45ee 7abc 1f05 943c 689f e03c 5b3d 9fbc
00000110: a967 dc39 bdae af3c 19dc 5bbb d14d c33c
00000120: 3c8e 41bd 3791 513a c1ba df3c a3f7 9abc
00000130: 112a e4bc 6697 8fbc 4047 e13c 866a 15bc
00000140: 955c c83c 7f87 c5bb f327 c83b 9291 b2bb
00000150: 4ddd 0bbd 5df4 f03c 08b0 dabc a37d d73b
00000160: f059 d43b 1ea5 3bbd feb1 083b ae57 0ebc
00000170: 6b1c 3fbc 904d 223c 7bda 1cba d481 cd3c
00000180: 2b42 43bc 8950 8c3c 610f dd3c 4bb5 1c3d
00000190: 13f6 b83c 89e5 903b f94f e83b 6a48 153d
000001a0: 422a 64bc 0416 e3bb 5308 803d fa41 b9bc
000001b0: 183b a8bb 01a8 f0bc fc2a ff3a 3071 42bc
000001c0: ed49 88bc 387e 4f3d b0a1 3e3c eec1 1abb
000001d0: 69fd 603c 017c b03c 62a8 7a3c d21e 083c
000001e0: cefd acbc 435b f9bb da24 ebbb d35f 98bc
000001f0: cb2e f6bc b19b b6bc 6732 343b ef6c 4fbd
00000200: 3901 b03c 5c02 8abc 9e0e 073d 210a efbc
00000210: 5c64 88bc 7689 8dbc 3a20 68bd 8514 823c
00000220: 9faf dabc ae5b 173b e1c8 95bc a515 04b9
00000230: d25e a2bc 676e 32bc 5d52 3f3c 63fd 56bb
00000240: 4b6c efbb 7c28 473b b892 9fbb c6d6 0c3d
00000250: 4bc2 b43c 4a96 00bd ebd1 ce3b 717a 703b
00000260: a744 193d 2254 1e3c 5f77 273d 7712 7e3c
00000270: a8c8 953c 4321 e7bb 81f3 6f3d 2d15 6b3c
00000280: 327c 4ebb e0ee 6aba 9c27 47bd 5d33 2bbc
00000290: f932 03bd e502 febc a624 fabc 1e6e 98bc
000002a0: 107b 0c3c 3c17 bfba b891 acbc 55e8 883c
000002b0: bc2a 173d 6be8 be3b 45d8 323c 7f9c 9fbc
000002c0: ab53 6ebc ac6a 5d3c a6e2 603c cb63 ea3c
000002d0: 55c8 5abc 9af2 173c 4aae 43bc e8d4 ff3b
000002e0: 25a9 4739 31db afbc 2dfb b6bc 97e7 a9b9
000002f0: 5b62 8abb 6aaa 81bc b2ad b83c 1387 5d3c
00000300: 5a13 883a 65d3 04bd 5313 023c 713f 7fbc
00000310: cfa3 1cbc 9461 8aba b09c 6f3c c577 4f3b
00000320: 06a2 193d deec c6b9 d3be 4b3c 7604 bcbc
00000330: 46b9 cabc c61a 973c 2a90 2a3b 98d9 0d3d
00000340: fe77 c6bc 26e9 6fbc 8f14 b03b 1802 e5bb
00000350: 3dcf 24b8 be22 2abc 4809 7f3c 1445 09bc
00000360: d4ae 30bc b671 983d ae47 ce3c 651a 8abc
00000370: 5adc 7cbc 5b7a 953c fa1d 763d fb66 3d3c
00000380: aa23 ce3c e268 b8bc f9b1 8ebc c529 a7bc
00000390: 71a7 cfbc ec06 143d bf7c 6d3c a3b4 b13c
000003a0: 444a 28bb 165f b83c 26cf c0bc 6c3e 82bc
000003b0: ba21 073b 676d 60ba a2ba 42bc 36e4 40bc
000003c0: 7c37 0b3d b6e8 8d3c 73e5 cdbc b939 39bc
000003d0: 3900 8e3c 83ea bbbc 2ab1 d03c 6152 743c
000003e0: c5df a83c 4bd0 8c3c 49d6 103d a1b5 de3c
000003f0: 8f5a 5c3c 7a14 603c 457e e2bb 2e5f 433b

fc.bias f4 [10]
-0.0031830152 -0.0023576391 -0.013962005 -0.012241228 0.0035486415 0.017210156 0.014432996 0.007052145
0.004663447 -0.016221242
00000000: 229a 50bb 9f82 1abb e5c0 64bc 6e8f 48bc
00000010: 5390 683b 50fc 8c3c 5f78 6c3c ae15 e73b
00000020: d4cf 983b 69e2 84bc
