result/mnist/seed12/noniid_0.8/ratio_0.01/final.pt (torch, 75941 bytes, 6 tensors)

cnn1.weight f4 [16, 1, 5, 5]
00000000: b833 48bd 06d1 10be 8ba5 3fbd c6ac 493d
00000010: e2e5 063c 020d 3abe ddc7 c53c b63c ccbd
00000020: 15f5 0c3e f7e6 083e 3ba8 17be cbb5 933d
00000030: a88b 883d 3893 db3d d223 533d 8217 1bbe
00000040: 5d00 5d3e a204 343e c90c f1bd a2d3 31bc
00000050: 366a a73d c71f 15be bc03 dbbd 866c 1d3e
00000060: 1e89 d73d 885b ccbd c2ae bebd e332 bf3c
00000070: 92f1 c43c 2146 603d 885f 32bd 8663 003e
00000080: 828b c5bd 5f50 d8bd 65d2 bcbd bfd0 18be
00000090: 4a12 fe3c 6b3d 15be a57b 1abe 2801 ed3d
000000a0: f8dc 953d 3c05 1bbe 1856 afbd 6de9 23be
000000b0: 96d4 9e3d 91db dcbc ef30 be3d f1b9 18be
000000c0: 00b4 88bd 325e 6e3e 63f7 283e bba7 7e3e
000000d0: af60 353e ad1c 9d3e 9637 963e eebc 27be
000000e0: ebe0 b8bd b400 a93e c11f 853e 9dbb 1b3e
000000f0: 4ad2 fb3d 740f 23be 3d1b 533e be73 483e
00000100: 794e 193e b538 a0bc 8702 bdbd 4694 813d
00000110: 2cec 313e 21b4 a73d 860d 29be ba94 30be
00000120: 6f93 6cbd 66d7 21be b3b1 aebd 8b28 603d
00000130: 5e72 24be e949 413e af80 c13b d981 653d
00000140: ef35 fa3c 5cda 0abe 3bbf 0a3e 15b9 b7bd
00000150: 9e96 e3bc d60b 113e 8eb1 f33c ca27 583e
00000160: 35d1 eebc b6ac 1a3e b72b 9c3d 5eaa 293e
00000170: 3e84 673d ec27 53bd 799e fb3d a4f3 a13d
00000180: 5cad 12be a973 29be f5e7 42be e8bb 723e
00000190: 6064 363d 2d4d 823d de2b ae3d d928 433c
000001a0: 95f7 683e 560d 193e e3d8 c5bd baba 1b3e
000001b0: aad7 593e 1319 533d a590 663b 2daa 063d
000001c0: 68ee 30be 6c94 0bbe 6375 4a3e 8c27 61be
000001d0: 3af2 cc3b 7a99 66be 87c6 d0bd 1eae 2cbd
000001e0: 8afb 83bc c117 02be 0665 443d c97b 043c
000001f0: 9ef8 3bbe 52fb 9e3d bb6f 973e 2c96 8c3e
00000200: 13b4 45bd e4a5 fc3d ee0d d7bd 6bc3 8c3e
00000210: cdc1 273e d74f e63d 05d5 16be ac1c a0bd
00000220: 2f17 17be eefd 113e 85a8 15be 4a1f 96bd
00000230: 21f3 1cbd ba3e bb3d 456e a13d bdb4 9a3d
00000240: 4ad5 293e abf1 89bc 4204 66bc 4788 6fbd
00000250: 74ac 34bd 4f52 2cbe 9d05 293e a52a 8c3e
00000260: 11d2 5c3e 58c2 023e b390 9ebd bc56 eebd
00000270: 8e43 993e b755 0c3d 0d59 88bd faa8 40be
00000280: 07bb a2bd 5070 183e a497 493e 5aee 36be
00000290: c425 5ebe 25d0 9c3c da3a a3bd c18c 513e
000002a0: 7b98 c4bc 3b97 49be f243 7f3d a154 3c3e
000002b0: 0894 3f3d 8ec2 35be c484 cbbc 3eed 26be
000002c0: 737b 093e 01a4 c83c 3e69 9e3d 5b41 00bd
000002d0: 9d5d 27be bf1f b73d 3594 603e 4748 c0bc
000002e0: 20a3 b6bd 308c 1abe 29dd a13c aa50 763e
000002f0: 1c11 40bd 4164 91bd 893a 1d3e fe4f fcbd
00000300: 1b96 ab3b 2bdf 6cbd cf0f 0fbc 8ed8 ddbd
00000310: 36c7 193d 3a0f 583d cc62 3b3d 460c ebbd
00000320: d824 1f3d 7e0a 39be 9fe9 743d 5ea4 c33d
00000330: db27 3bbd 211d c0bc cbac 053d 300a 603e
00000340: 2993 913e b389 39be 75b9 413e 266e 3d3e
00000350: 2a0a ca3e 95ba af3e 93da fbbc f73b 63bd
00000360: 1146 6d3e 51a9 8a3e 20f7 9d3e 4700 3abc
00000370: c468 203d fde2 93bd 452f edbd 589a 4e3e
00000380: 5833 f03d 66a5 803e 7459 653e 5bb6 cebc
00000390: 9296 dfbb c139 173e 1fe7 793e 6a0c 04bd
000003a0: be0c a63e a7e8 773e b581 b83d 1df9 36be
000003b0: db9e 63bd a60c 263e cab4 cb3d f8c0 a03d
000003c0: a3f3 54be e9ac 80be 25a9 77be 7665 59bd
000003d0: 72c6 49bd 4350 25be 3dbe e23d bc01 8cbe
000003e0: f99d 82be 3047 5ebe 4acc 0cbe a42e 6cbc
000003f0: a459 51bd b983 d23c 95a2 113e 01e0 3cbe
-0.048877448 -0.14142236 -0.046788733 0.049237035 0.008233519 -0.18169025 0.024143154 -0.09972517
0.13765366 0.13369356 -0.14810269 0.07212409 0.06667262 0.10721439 0.051547833 -0.15145686
0.2158217 0.17579892 -0.11770017 -0.01085368 0.08174555 -0.14562903 -0.10694072 0.1537343
0.105242 -0.09978396 -0.09310676 0.023339694 0.024040971 0.05475438 -0.043548137 0.12537965
-0.0964575 -0.105622046 -0.09219817 -0.1492338 0.03101458 -0.1457421 -0.15086229 0.11572486
0.07317537 -0.15138716 -0.08561343 -0.16007014 0.07755391 -0.026960166 0.09286677 -0.14914681
-0.06674957 0.2327812 0.1650062 0.24868672 0.17712663 0.3068594 0.29339284 -0.16380665
-0.09027275 0.3300835 0.2600079 0.15208288 0.12295969 -0.15923864 0.2061586 0.19575402
0.14971341 -0.01955829 -0.09228998 0.06327109 0.17375249 0.08188654 -0.16509065 -0.17244235
-0.05775779 -0.15804824 -0.08529987 0.054726165 -0.16059253 0.1887585 0.005905233 0.056032035
0.030543296 -0.1355986 0.13549511 -0.089708485 -0.02778178 0.14164671 0.02974775 0.21108928
-0.029152492 0.15104946 0.076255254 0.16568896 0.0565226 -0.051551744 0.12286086 0.07907799
-0.14323944 -0.16548027 -0.19033797 0.23704493 0.04452932 0.06362376 0.08504461 0.011911594
0.22750695 0.14946494 -0.096605085 0.1520795 0.21273676 0.051537585 0.003518143 0.032877136
-0.17278445 -0.13630837 0.19771342 -0.21987742 0.0062544616 -0.22519484 -0.10194116 -0.04215824
-0.016111154 -0.12704374 0.047947906 0.008086153 -0.18356559 0.07762779 0.2957743 0.27458322
-0.048267435 0.123363286 -0.10500704 0.27492842 0.16382523 0.11245697 -0.14729698 -0.07817969
-0.14754938 0.14257023 -0.14615066 -0.07330187 -0.038317803 0.091428235 0.0788236 0.07554004
0.1658527 -0.01683887 -0.014039101 -0.058479574 -0.044109777 -0.16828273 0.16506048 0.27376285
0.21564509 0.12769449 -0.07742443 -0.11637637 0.29934353 0.03426143 -0.0665761 -0.1881446
-0.07945829 0.14886594 0.19686753 -0.17864361 -0.21694094 0.01914222 -0.079702094 0.2046385
-0.02399849 -0.19686596 0.062320657 0.18391658 0.046772033 -0.17749998 -0.024843581 -0.16301438
0.13425998 0.024492266 0.07734917 -0.031312328 -0.16344304 0.08941602 0.21931536 -0.023471965
-0.089178324 -0.1509254 0.019758778 0.24054208 -0.046891317 -0.070992 0.1535436 -0.12319945
0.0052364 -0.057830017 -0.008731796 -0.1083232 0.037543498 0.052748896 0.045748517 -0.1147695
0.038853496 -0.18070409 0.05979311 0.09552835 -0.045692306 -0.02345139 0.03263549 0.21878886
0.28432587 -0.18118934 0.18918402 0.1849905 0.3946088 0.34322038 -0.030743873 -0.05547711
0.2317126 0.27082303 0.30852604 -0.011352605 0.039162412 -0.07221029 -0.115812816 0.20176065
0.11728543 0.2512619 0.22397405 -0.025233438 -0.0068233693 0.14768125 0.24404572 -0.0322384
0.32431597 0.24209844 0.09009115 -0.17868467 -0.05557142 0.16215762 0.09946592 0.07849306
-0.20796065 -0.2513192 -0.24185617 -0.053075276 -0.049261518 -0.16143899 0.11071441 -0.27345073
-0.2551115 -0.21706843 -0.13749805 -0.014415417 -0.05111088 0.025697576 0.14222176 -0.18444826

cnn1.bias f4 [16]
00000000: 00eb 06be cbb5 37bc 1d07 b7bc 9e55 c13c
00000010: 1a3e 94bd c6d9 85bc 704d cf3d 37ff fc3d
00000020: d63c d9bd 72be 96bc 5d38 313e 6b38 213e
00000030: 00c7 84bc cf12 34be 2a94 b63d 083c 2b3e
-0.13175583 -0.011212776 -0.022342259 0.023600396 -0.072384074 -0.016339194 0.10122192 0.12353366
-0.10607307 -0.018401358 0.17306657 0.15744178 -0.016208172 -0.175853 0.08914979 0.16722119

cnn2.weight f4 [32, 16, 5, 5]
00000000: dcdf 243d 4eab 05bd 9be9 05bd 1e8b aabc
00000010: 65df 613c e386 5abd f3ca 11bd b958 15bc
00000020: 50fb a3b9 efe4 203b cb1f 43bc f0b4 8a3b
00000030: 3d04 f9bc 6b4b 103d 11f0 153d 1ccd c0bc
00000040: a8eb df3c 73d3 1d3c 3d81 173d fa3d 03bc
00000050: bb54 b43c ae0f bb3b 9f4e a2bc 3a3a 163d
00000060: 58b1 27bd 8b8b 3fbd fceb 843c 4642 283c
00000070: 996f 8d3c 19bc 973c bab4 e63c 1f05 cd3c
00000080: 4ac8 08bd 0538 f03c f9d2 fd3c ac98 4fbc
00000090: b2c0 8f3c 2a6b 223d 8c91 be3c 61f9 9e3b
000000a0: 649d 86bc a5c9 2c3d af8f 0e3d fe62 bb3c
000000b0: 7090 dbbc 8145 a63c 1c7d 403c 307f cdbc
000000c0: 8e72 dfbb bb27 33bd 1f04 903d 126e 073d
000000d0: cf59 293d a074 183b b770 643c 38fe 1b3d
000000e0: 0ab1 5a3d 2553 6b3b 4135 9cbc def6 52bc
000000f0: 5233 7ebb 3b24 81bc 804c 66bc 3ec9 1a3d
00000100: 3db9 28bd dcc0 c63c 0c32 6abc 1b11 9fbc
00000110: 5b5f 2dbd b81e ecbc 7afe 9f3c 3e43 d9bc
00000120: 8d31 f83c 54e3 d7bb 87e5 de3c 5add 99bb
00000130: 9c01 3e3d e767 9b3c f84b 0d3c 278e e83c
00000140: 4a7f 25bd f7a3 d6bc 7d09 fdbc f837 a4bc
00000150: 17d5 b1bc a907 bc3c 9fbd 37bd 8a81 f3bb
00000160: 821f 3cbd 8163 c1bc ecd3 be3c 19d4 913c
00000170: a5fe 4f3d 4828 c2ba df9a 24bd 3be8 aebc
00000180: dac8 1f3d 8eff d03c e45a c03c 3432 4dbd
00000190: cfe2 dfbc 50da 153d 0e07 6f3c 8d70 e0bc
000001a0: dbfb aa3c 9d9a b23b 27b2 6b3c f074 883c
000001b0: 2a04 4b3d 63b5 5f3d 845b c2bc 8bec 323d
000001c0: 0640 c93c 376f f43c ec04 c03c c85f 11bd
000001d0: 051f 8b3c fd6c 3fbc 078e d0bc 636e fd3c
000001e0: f87d c2bc 79a2 d0bc b301 9dbc ae24 0f3d
000001f0: b163 603d 5b2c 213d 2157 1cbc 3929 193d
00000200: ea5f 033c a9b9 3e3d f555 b43c 32a3 403d
00000210: b825 203d 4629 3cbd 663f afbc d6a4 003d
00000220: e961 333d b681 3dbd f07f f23c 13e3 3cba
00000230: 01a7 3cbd 594a 39bd 5361 e03c af17 5dbd
00000240: a727 1b3b 520b 22bd eed9 053d c396 9abc
00000250: 6e36 dfbc 3fc1 273d 715f dcbb 052c db3c
00000260: 2711 f93c 42ad 143d 54e2 393d 1a55 1c3d
00000270: ed8a d93c d037 b2bc c8be ddbc 21ff 523b
00000280: 2ac1 1cbd a454 bd3c 11fd 2f3c 88a0 993c
00000290: 072f 4c3d 7f4b 3d3d 9538 d9bc 5bf2 05bd
000002a0: 6605 ed3c f032 a9bc c391 aabc 1b87 ac3a
000002b0: 13b7 073d 1153 a53c a75a 03bd c910 84bc
000002c0: 8290 2abd 87cb 97bc 3594 79bb 7d23 64bc
000002d0: 4fd0 263d 024a 813c 7ac0 083d 7545 953c
000002e0: 87bf 123d 83b0 a13c 044e 323d b7ec 433d
000002f0: f316 123d 87d0 19bc 2e9c fc3c 715c f13a
00000300: f0a4 533c 0009 193d df93 f4bc 069a eb3c
00000310: 4f44 893c 6aba 233d 7bef 59bc a354 0f3d
00000320: 0898 463d 396a 893d e157 283d 0123 933c
00000330: 6e02 513d 089d 423c 25d9 5cbd fd26 7dbd
00000340: 0ec8 063d cfae e8bc b01e cdbc e588 86bc
00000350: be2e 5abc a491 0dbd 7b90 64bd a7ef 2ebd
00000360: 7f61 6dbb d9c5 123d d9c8 3bbd e222 cb3c
00000370: 41df d23c c577 133c c034 15bc 5a34 7bbd
00000380: 00eb 173c 6b92 b23c b4e1 093d 2ff0 783d
00000390: 67c5 a1bb eb7e b4bc 7c13 63bc eea5 2f3d
000003a0: c794 7e3d 6d2c e2ba 8a02 b8bc 840a ec3c
000003b0: eb7f 133d d315 5bba 5c72 573d dc22 fe3b
000003c0: 6089 30bd 214c bf3c 9eb6 db3b 74c6 c33c
000003d0: a931 a23c 43e8 34bd 6bc8 f43b ae82 b4bc
000003e0: b183 1b3d ca20 b03c 074b 2dbd 4015 14bd
000003f0: aeda 27bd e9b0 ba3c 0adb c63a 93af 87bd
0.04025255 -0.032634072 -0.032693487 -0.02081829 0.013786172 -0.053351294 -0.035593938 -0.009115391
-0.00031277025 0.0024550518 -0.0119094355 0.004232995 -0.030397529 0.035228174 0.0366059 -0.023535304
0.02733405 0.009632933 0.036988486 -0.008010382 0.022013059 0.0057086563 -0.01981288 0.036676623
-0.040940613 -0.046763938 0.016225807 0.010269707 0.017265128 0.01852231 0.028162349 0.025026856
-0.033394136 0.029323587 0.030984389 -0.012670677 0.017547939 0.03965298 0.023262762 0.0048515056
-0.016432472 0.04218449 0.034804996 0.022874352 -0.026802272 0.020296814 0.011748578 -0.025085062
-0.006819076 -0.04373906 0.07032036 0.033063956 0.041345414 0.0023262873 0.013942889 0.03808424
0.053391494 0.0035907712 -0.019068362 -0.012876241 -0.0038787914 -0.015764346 -0.014056325 0.037789576
-0.041192282 0.024261884 -0.014294159 -0.019417336 -0.042327266 -0.028823242 0.019530524 -0.026521321
0.030297065 -0.006588379 0.027209057 -0.0046955766 0.046388254 0.018970443 0.008624069 0.028388096
-0.040404595 -0.026201231 -0.030888313 -0.02004622 -0.021708054 0.022952871 -0.04485857 -0.0074312137
-0.045928486 -0.023607017 0.023294412 0.017801331 0.050779957 -0.001481303 -0.04018676 -0.02135097
0.039009906 0.025512483 0.02348084 -0.050096706 -0.02732983 0.036585152 0.014589084 -0.027397418
0.020872047 0.0054505602 0.014385737 0.016657323 0.049564518 0.054616343 -0.023725279 0.043682616
0.024566662 0.029838188 0.023439847 -0.035491735 0.016982565 -0.0116837 -0.025458349 0.030936426
-0.023741707 -0.025468098 -0.01916585 0.03494709 0.054782573 0.03934894 -0.0095422575 0.03739283
0.008018473 0.046563778 0.022013644 0.047030635 0.03909847 -0.0459378 -0.021392535 0.0314072
0.043794546 -0.04626628 0.029602021 -0.00072054676 -0.046057705 -0.04523692 0.027390158 -0.053977665
0.0023674758 -0.039561577 0.032678537 -0.018870717 -0.027247634 0.04095578 -0.0067252447 0.026754389
0.030403687 0.036298044 0.04538186 0.038167097 0.026555503 -0.02175513 -0.02706851 0.0032195526
-0.038270153 0.023111649 0.010741488 0.018753305 0.049849536 0.046214577 -0.026516238 -0.03270183
0.028933238 -0.020654172 -0.020821458 0.0013162823 0.033133578 0.02018121 -0.032068875 -0.016121285
-0.04164172 -0.018529667 -0.0038082723 -0.013924477 0.040726002 0.01578236 0.033386685 0.018221596
0.035827186 0.019737488 0.043531433 0.04783317 0.035666417 -0.009388096 0.030836191 0.001841439
0.012917742 0.0373621 -0.029855667 0.028759968 0.016756205 0.0399727 -0.0133017255 0.034992825
0.048484832 0.067097135 0.041099433 0.017961027 0.051027708 0.0118782595 -0.053918023 -0.06180476
0.03290563 -0.028403668 -0.025039047 -0.016422698 -0.013316808 -0.03456272 -0.05580185 -0.04270902
-0.0036221442 0.035833213 -0.04584584 0.024796907 0.025741221 0.009000723 -0.009106815 -0.061329223
0.009272337 0.021798333 0.033662513 0.060775932 -0.0049368623 -0.022033175 -0.013859626 0.042882852
0.062153604 -0.0017255672 -0.022462148 0.028813608 0.036010664 -0.0008357439 0.052599296 0.0077556204
-0.04309976 0.02335173 0.0067051193 0.02389834 0.01979907 -0.044166815 0.0074701807 -0.02203497
0.037967388 0.02150001 -0.04230788 -0.036153078 -0.040980034 0.022789435 0.001517148 -0.06625285

cnn2.bias f4 [32]
00000000: b86e 3fbc 3abe 033d fffd 57bb f7a4 16bd
00000010: 2b3f 1f3c 635f b0bc e0c9 c6bb cb80 17bd
00000020: 42bb 393d 4f3e 27bd 8b77 293d 043c df3c
00000030: b3f6 823c 8dbd 6ebc 3b85 a53c bf89 613b
00000040: 42ec 163d d19a 19bd 275d 433d a8cb 17bc
00000050: db8d 193d ad0d 7bbc a760 c93c 91d2 513d
00000060: 837f 793c 8722 853b ffc9 42bd bd4c 4bbc
00000070: e25e 1dbd 15c9 463d 76b4 0d3d dfe8 ef3c
-0.011684112 0.032163836 -0.003295779 -0.036778416 0.00971965 -0.021529859 -0.006066546 -0.03698806
0.0453446 -0.040830906 0.04137377 0.027250297 0.015986776 -0.01457156 0.02020513 0.0034414378
0.036846407 -0.03750116 0.04769626 -0.009264864 0.0374888 -0.015323085 0.02458222 0.051226202
0.015228155 0.004062954 -0.04755592 -0.012408433 -0.038420565 0.04853161 0.03459593 0.029285846

fc1.weight f4 [10, 512]
00000000: 0e2c 74bc dadb 7f3b d57b c13c d9ca adbc
00000010: 7985 89bb 2768 fbbc 3428 61bc bc73 893d
00000020: 5833 78bd 56e8 14bd b300 eb3b 9e70 4a3d
00000030: 2b40 0cbd 8afd 23bc abee 1bbd 4412 a6bc
00000040: 55cd 7b3c 7dad 8dbd 6574 e23c 760b 693d
00000050: a784 14bd 9ac7 0fbd 833e 153d ddca e03c
00000060: 1af6 9a3c f0f4 01bd 8c4b c3bc 60fc 653d
00000070: 7441 3d3d 2215 333c 2567 cb3b 1322 653a
00000080: 4901 37bd 782b cebb 7418 593d ecdb efbc
00000090: 316c fbbc 4830 2dbc fba3 42bd 75da 55bd
000000a0: 81f9 c33a abb5 b6bd c215 c9bc 51fa db3b
000000b0: 1b50 163d e4e1 99bc 9cc8 203d 2779 8c3d
000000c0: 3825 ca3c 7693 94bc dc0e 81bd 22aa 713c
000000d0: fa8b 95bc c2db 2bbb 2100 c0ba 201f a43c
000000e0: 8f89 88bd 824b 67bd 977f 803c 3fac 70bc
000000f0: f2a9 59bd af43 11bc e728 66bd 03dc 193d
00000100: ebe3 0f3c d8d4 8d3d a6ff 183d fc33 b2bc
00000110: 52d7 0a3d 66be 7e3d 22ca 87bd 274c e93d
00000120: e15c 213d cdc8 17bd aaae 193c 6ec6 eb3c
00000130: b65b 983b b2df 79bd 76b9 23bd 34cc 283d
00000140: 8ca2 b83c 202e 283d de44 4b3d a1dd 0abd
00000150: 9dcc a33c ac85 c63c ee23 9bbd 1763 85bd
00000160: 91d2 25bb 7358 c5bd be4b cf3c 155b 603d
00000170: a137 0fbd 5d62 82bc fcbf 753d 99f2 d13d
00000180: b5a7 4e3c 2880 1d3d 217c 273d 20e4 443d
00000190: 21ac 0a3d cbf5 f33c 2c64 60bd bffd 03bc
000001a0: b826 28bd b334 2cbd 78fe 343d 2dec 523c
000001b0: 90ab a0bc 533f 4abd 5886 e13b a678 33bd
000001c0: 708d f1bc b0bc 10bd 5936 e63c 3122 d63c
000001d0: 8a02 193d ab04 e7bc df44 f23c d3c6 30bc
000001e0: 8b9d 853d faad 4e3d d2a9 80bb 3c37 54bd
000001f0: a9ce b63c e359 423c 3581 163d 042a 09bd
00000200: 467f 07bc b203 38bd 31cc 2e3d ebb8 053d
00000210: c46b d7bc d15b ebbc ab68 86bd a0ef 793c
00000220: 28e6 0cbd 4d33 25bd 8933 c1bb f4ca 1bbc
00000230: b3d0 203c 2314 a03c 286e 12bd ede7 f1bb
00000240: 3608 d7bb ce10 ec3c 5836 cdbb 4ed2 223d
00000250: ce20 a2bc 187b 37bc e71f c73b 9181 a2bd
00000260: fc19 1a3d 42d0 733d 37f0 713d 64f1 c0bc
00000270: 3753 e43c 721c 393d 77a4 c63c c9af abba
00000280: 24f6 b4b9 deb9 103c 92ef 0bbd 9ac1 173d
00000290: d65f c43a f5e7 69bb 187e 1dbd 1071 613d
000002a0: ce20 3c3d 31d2 7d3d c0ec 6cbd a09e 743d
000002b0: 5264 8e3d 52bb b33c 867c 6dbc 5275 39bd
000002c0: f296 b23b 3ef3 343c 608b bd3c e83e 373d
000002d0: 95cb 1ebd 985e b53c dfd8 803b 44ff 173d
000002e0: c652 cbb8 dc5e febc e93f 27bd f4ad 65bb
000002f0: a7bb 683c c116 1a3b 4767 293d 5ca0 d63c
00000300: 7d7f c8bc c80b 25bd 5909 c33c b8d3 20bd
00000310: e2bf 1bbd 2e1c 88bb e07e b3bc 35e8 4bbd
00000320: bb80 003d b9cf 033d 205a f8bb 518a e3bc
00000330: b4a8 d6bc 0c60 d3bb 73d0 c03c 145c bc3c
00000340: 16ac e7bc 8e3b 50bd 8b88 9b3b 7d90 003d
00000350: 71d5 193c fdc5 123d f60b 3b3c 3d6b 96bc
00000360: efcf e2bc 7320 c53d 804c c4bc 2802 3abc
00000370: 2d7b 7bbc abbe a73c f826 ed3c 3772 bbbc
00000380: eae3 f8bb 987d 12ba 9828 823c 9f08 1fbd
00000390: 7666 23bd 5730 513d 8a99 66bc dcc3 02bd
000003a0: b607 fa3c 1e9b c7bc 36f1 e7bd d0fb 0a3a
000003b0: d77c 10bd 2c26 57bc 5ed9 f53c c909 d23c
000003c0: ca9c 663c da61 4bbc 82b1 60bd c099 a3bc
000003d0: 9b56 59ba 88bc 28bc f587 b63c 1324 823c
000003e0: 3480 b73c 01a9 c43a cb4f 4a3d 85d8 fc3b
000003f0: 9175 34bd cf68 c0bb 8798 123d d5d4 3ebc
-0.014903082 0.0039040954 0.023618618 -0.02121489 -0.0041968194 -0.030689312 -0.013742495 0.06711528
-0.06059584 -0.036354385 0.007171714 0.049423806 -0.034240883 -0.010009179 -0.03806941 -0.020272382
0.015368779 -0.06917856 0.027643392 0.056895696 -0.03625932 -0.035102464 0.03643657 0.027440483
0.018916178 -0.03172773 -0.023839734 0.056148887 0.046205 0.010930331 0.006207364 0.0008740734
-0.04467896 -0.006291803 0.053001836 -0.029279672 -0.030691238 -0.010570593 -0.047519665 -0.05221029
0.0014951677 -0.08921369 -0.024546508 0.0067131897 0.03669749 -0.01878447 0.039253816 0.068590455
0.02467595 -0.018136721 -0.06301662 0.0147500355 -0.018255223 -0.0026223515 -0.0014648476 0.020034373
-0.06666862 -0.056468494 0.01568584 -0.014689504 -0.053140588 -0.008866235 -0.05619135 0.037563335
0.008782367 0.06925362 0.03735318 -0.021753304 0.03389675 0.062193297 -0.06630351 0.11391478
0.039395217 -0.037056733 0.009380022 0.028781142 0.0046496047 -0.061004348 -0.03997179 0.04121037
0.022538446 0.041059613 0.049626224 -0.033902768 0.019995028 0.024233662 -0.075752124 -0.065130405
-0.002530251 -0.09636011 0.025304671 0.054774363 -0.03496516 -0.015916044 0.059997544 0.1025135
0.012613227 0.038452297 0.040889863 0.04806912 0.03385556 0.02978029 -0.05478303 -0.008056103
-0.04105255 -0.042042445 0.044187993 0.0128736915 -0.019613057 -0.049376797 0.00688247 -0.04381623
-0.029486388 -0.035336196 0.028102087 0.02613935 0.037355937 -0.028200468 0.029573856 -0.010789591
0.065241896 0.050458886 -0.003926494 -0.051810488 0.02231534 0.011862251 0.036744315 -0.033487335
-0.00827009 -0.0449254 0.0426752 0.032647055 -0.026296504 -0.028730305 -0.065629326 0.015254885
-0.03439918 -0.040332127 -0.005896036 -0.009508837 0.009815383 0.019540852 -0.035749584 -0.007382384
-0.006562258 0.028816607 -0.006262582 0.039751343 -0.019791033 -0.011198781 0.006076801 -0.07934869
0.037622437 0.059524782 0.059066977 -0.023552604 0.027871711 0.045193143 0.024248345 -0.0013098653
-0.00034515664 0.008833377 -0.03416402 0.037049867 0.0014982175 -0.0035691236 -0.03845033 0.055039465
0.045929722 0.061968032 -0.05784297 0.05972159 0.06952728 0.021939907 -0.014495021 -0.0452779
0.005450123 0.011044322 0.023137748 0.044737726 -0.03876837 0.022139832 0.003932103 0.037108675
-9.695212e-05 -0.031051092 -0.040832434 -0.003504631 0.014204896 0.0023512098 0.04135826 0.026199512
-0.024474854 -0.04029444 0.023808168 -0.03926441 -0.03802479 -0.00415375 -0.021911085 -0.049781997
0.031372767 0.03218052 -0.007579103 -0.027775915 -0.02620349 -0.0064506587 0.023536896 0.022993125
-0.0282803 -0.050838046 0.004746502 0.031387795 0.009389267 0.035833348 0.011416426 -0.018361682
-0.027687041 0.0962533 -0.02396226 -0.011353053 -0.015349192 0.02047666 0.028949246 -0.02288161
-0.007595529 -0.0005588173 0.015888497 -0.03882658 -0.039892636 0.05107149 -0.0140746925 -0.031925067
0.030521255 -0.024365958 -0.11325304 0.0005301805 -0.035275307 -0.0131316595 0.030010875 0.025639432
0.014075467 -0.012413466 -0.054856785 -0.019970775 -0.0008290798 -0.010298856 0.022281626 0.015886342
0.0224 0.001500398 0.049392503 0.007716241 -0.044057433 -0.005871869 0.035789993 -0.011647423

fc1.bias f4 [10]
00000000: 1265 203d 6052 413d 6a99 29bd 1a47 fa3b
00000010: 215d 19bd 2bb0 ffbc 6fa6 01bc d902 c9bc
00000020: d92b e53c 33b9 08bc
0.03915889 0.0471977 -0.041406073 0.0076378705 -0.03744233 -0.031211933 -0.007913216 -0.02453749
0.02797501 -0.008344936
