result/fmnist/seed12/noniid_0.4/ratio_0.01/final.pt (torch, 122111 bytes, 14 tensors)

layer1.0.weight f4 [16, 1, 5, 5]
0	0x3d2fe736	0.04294511
1	0xbd551c9b	-0.052029233
2	0xbd36860b	-0.044561427
3	0x3d8230c0	0.063569546
4	0x3cb3cb17	0.021947427
5	0xbe3e8c03	-0.18608098
6	0x3d0f6d93	0.035016607
7	0xbe144685	-0.14480026
8	0x3e5a7d0c	0.21336764
9	0x3d849f0c	0.06475648
10	0xbe854323	-0.26027784
11	0x3d558d2b	0.05213658
12	0x3e1081a8	0.1411196
13	0x3ddea25f	0.108708136
14	0xbcd450e1	-0.025917472
15	0xbe78e7fd	-0.24307247
16	0x3e969449	0.29410008
17	0x3e6e27f7	0.23257433
18	0xbe7073f4	-0.23481733
19	0xbd4c15e6	-0.04982557
20	0x3e478b1a	0.19486657
21	0xbe013b86	-0.12620363
22	0xbe5e703c	-0.21722502
23	0x3db6d140	0.0892663
24	0x3d39c1a5	0.04535069
25	0xbdd0e630	-0.10200155
26	0xbcd3a69d	-0.025836283
27	0x3df8f60a	0.12156303
28	0x3db585f8	0.08863443
29	0x3d9a2eac	0.07528433
30	0x3a9727a0	0.0011532195
31	0x3dff34d5	0.12461249
32	0xbdb1bb23	-0.086782716
33	0xbdd8e659	-0.1059081
34	0xbdb3eb5d	-0.08785126
35	0xbd9f01e4	-0.077640325
36	0x3c0ea01d	0.008705166
37	0xbe6717d4	-0.22567683
38	0xbe432282	-0.19056132
39	0x3e1f4b74	0.15556127
40	0x3e247503	0.16060261
41	0xbdfdb3a3	-0.123877786
42	0xbe00e407	-0.12586986
43	0xbe4a0b56	-0.19730887
44	0x3dccc52b	0.09998544
45	0x3d5bd88c	0.053673312
46	0x3e09f707	0.1347314
47	0xbdd27109	-0.10275466
48	0xbd251a1d	-0.040308107
49	0x3e5fe0f4	0.21863157
50	0x3e19d0de	0.15021083
51	0x3e5121f5	0.2042311
52	0x3d51a697	0.051184263
53	0x3e125db0	0.14293551
54	0x3e365864	0.17807156
55	0xbe29f167	-0.16595994
56	0xbe08c410	-0.13356042
57	0x3e3fc470	0.18727279
58	0x3d97877c	0.073988885
59	0x3cda473a	0.026645292
60	0x3dc44ba3	0.09584739
61	0xbe43d325	-0.19123514
62	0x3dfba74f	0.12287771
63	0x3dc279a5	0.09495858
64	0x3d79db77	0.061000314
65	0xbc38ea1f	-0.011286288
66	0xbd952477	-0.07282346
67	0x3d3227c2	0.043494947
68	0x3e06eeea	0.13177076
69	0x3c92d380	0.017923117
70	0xbdfaf43a	-0.12253614
71	0xbe060b50	-0.13090253
72	0xbd64b6a0	-0.055838227
73	0xbe372755	-0.17886098
74	0xbe004ead	-0.12530012
75	0x3d3aff20	0.045653462
76	0xbe5acfb2	-0.21368292
77	0x3e67210e	0.22571203
78	0xbd866d40	-0.065638065
79	0x3d8b4662	0.06800534
80	0x3d6e9ba8	0.058253914
81	0xbe434a2d	-0.19071265
82	0x3e5bb8df	0.21457241
83	0xbe1b99f8	-0.15195453
84	0xbc8e4cfd	-0.017370695
85	0x3e05cdbf	0.13066767
86	0xbdb1a092	-0.086732045
87	0x3e6d3876	0.2316607
88	0xbe451cc2	-0.19249251
89	0x3df38e26	0.11892347
90	0x3cebfc05	0.028806696
91	0x3d89e4c2	0.06733085
92	0x3d85aea5	0.065274514
93	0xbe4ef3f4	-0.20210248
94	0x3df5325c	0.11972496
95	0x3dc6aa80	0.09700489
96	0xbe134464	-0.14381558
97	0xbe0e2043	-0.13879494
98	0xbe8b8b3c	-0.27254665
99	0x3e7423a0	0.23841715
100	0x3c804931	0.0156599
101	0x3db5ced4	0.0887734
102	0x3d163167	0.036668207
103	0xbd2e5807	-0.04256442
104	0x3db88a80	0.09010792
105	0x3df12fbe	0.11776684
106	0xbdfb140c	-0.12259683
107	0x3db7c786	0.08973603
108	0x3e337ef4	0.17528898
109	0xbd0786aa	-0.03308741
110	0x3bf87d13	0.0075832694
111	0x3d13b029	0.03605667
112	0xbe6a4b38	-0.22880256
113	0xbdf7aa75	-0.12093059
114	0x3e92e1de	0.28687948
115	0xbe40742e	-0.18794319
116	0x3d3d9fbe	0.04629492
117	0xbe88a7f0	-0.26690626
118	0xbd4ae275	-0.049532373
119	0x3c86f458	0.016473934
120	0x3c1905fa	0.009339804
121	0xbdd49d29	-0.103815384
122	0x3d1d0e5b	0.03834377
123	0x3cf70512	0.030153785
124	0xbe46346c	-0.19355935
125	0x3c76e0b1	0.015068219
126	0x3e8d3c33	0.2758499
127	0x3e38f0fc	0.18060678
128	0xbdc9e3d7	-0.0985791
129	0x3e0c9a6d	0.13730784
130	0xbe4422b4	-0.19153863
131	0x3e598048	0.21240342
132	0x3dd2794f	0.10277044
133	0x3d69d7f4	0.057090715
134	0xbe37c013	-0.17944364
135	0xbe0f8585	-0.14015777
136	0xbe7dfa05	-0.24802406
137	0x3daf30df	0.08554243
138	0xbe2d8b46	-0.1694766
139	0xbdc919ef	-0.098193996
140	0xbd8aee17	-0.06783693
141	0x3c1e670f	0.009668126
142	0x3d79a90b	0.060952228
143	0x3d9251e0	0.07144523
144	0x3e369b26	0.17832622
145	0xbb1ca870	-0.0023904108
146	0xbd9b2d1f	-0.075769655
147	0xbd5d4e29	-0.054029617
148	0xbc92578c	-0.017864011
149	0xbdab298f	-0.08357536
150	0x3d99d74a	0.07511766
151	0x3e23b030	0.15985179
152	0x3e0f7a17	0.14011417
153	0x3e05d5eb	0.13069884
154	0xbd684795	-0.05670889
155	0xbe56d365	-0.20979078
156	0x3e43d306	0.19123468
157	0xbcc402af	-0.02392706
158	0xbd9000ac	-0.07031378
159	0xbe43a541	-0.19106008
160	0xbe3b7f36	-0.18310246
161	0x3d49b85f	0.049248096
162	0x3e1522d0	0.14564061
163	0xbe3f6478	-0.1869067
164	0xbe70075b	-0.23440306
165	0xbd9073a2	-0.07053305
166	0xbe1f6bd9	-0.15568484
167	0x3e30c117	0.17261158
168	0xbc65c8c3	-0.014024916
169	0xbe31dc59	-0.17369212
170	0x3cfb8cbe	0.03070676
171	0x3e55f986	0.20895967
172	0x3db43651	0.087994225
173	0xbda4c182	-0.08044721
174	0x3d994044	0.07482961
175	0xbe3e10ac	-0.18561047
176	0x3e46e440	0.19423008
177	0xbd01e1e0	-0.03170955
178	0x3cb5a509	0.022173421
179	0xbcff7a03	-0.03118611
180	0xbe6fe460	-0.23426962
181	0x3db5f1ea	0.08884032
182	0x3e95f013	0.29284725
183	0xbde31d6e	-0.11089598
184	0xbdb55ed4	-0.08855978
185	0xbe647bc2	-0.22312835
186	0xbc860949	-0.01636185
187	0x3e970f49	0.2950385
188	0xbd690dab	-0.0568978
189	0xbd403df2	-0.046934076
190	0x3e273012	0.16326931
191	0xbe4c686e	-0.19961712
192	0x3d32bae2	0.043635257
193	0x3c9a65be	0.018847343
194	0x3c92f6d7	0.017939968
195	0xbdb638b6	-0.088975355
196	0xbd49a5fd	-0.049230564
197	0x3cb89d63	0.022535985
198	0x3da79cb4	0.081841856
199	0xbdba8fd5	-0.09109465
200	0x3d346322	0.044039853
201	0xbe375996	-0.17905268
202	0x3c2cf5a7	0.010556615
203	0x3d863a12	0.06554045
204	0xbe0d3bf5	-0.13792403
205	0xbd043d1b	-0.032284837
206	0xbd742a19	-0.05961046
207	0x3d820865	0.063492574
208	0x3e303331	0.17207028
209	0xbea1044e	-0.31448597
210	0x3e33949f	0.17537163
211	0x3c7da41b	0.01548102
212	0x3e0c9c4e	0.137315
213	0x3e5f3276	0.21796593
214	0xbdf7bf58	-0.12097043
215	0xbdcbca05	-0.099506415
216	0x3d43efb5	0.047836024
217	0x3d240cf2	0.040051408
218	0x3e60fccc	0.21971434
219	0xbdc6f017	-0.09713762
220	0x3c4fd494	0.01268496
221	0xbe0e43e3	-0.13893084
222	0xbe56d664	-0.20980221
223	0x3e0b1ee4	0.13586003
224	0xbabc633f	-0.0014372839
225	0x3e3499bb	0.17636769
226	0x3dfdf32d	0.12399898
227	0xbe124139	-0.14282693
228	0xbde7d299	-0.11319465
229	0x3c6c5c7c	0.014426347
230	0x3e2b9a0b	0.16757981
231	0xbe21acfa	-0.15788642
232	0x3e666c43	0.22502236
233	0x3e1ae497	0.15126263
234	0xbc951747	-0.018199576
235	0xbe43d760	-0.19125128
236	0xbdbaea9b	-0.09126779
237	0x3e2719fb	0.16318505
238	0x3df85d89	0.121272154
239	0x3dc16dbf	0.094447605
240	0xbe19e5e1	-0.15029098
241	0xbe1d2bf5	-0.153488
242	0xbe34944f	-0.176347
243	0xbcb64024	-0.022247382
244	0xbb25a09e	-0.0025272737
245	0xbd9e423f	-0.07727479
246	0x3e6ae6f0	0.22939658
247	0xbe6103b5	-0.2197407
248	0xbe63dbb2	-0.22251776
249	0xbe3e2ef6	-0.18572602
250	0xbde3c373	-0.11121263
251	0xbc2167ce	-0.009851409
252	0xbd615d11	-0.055020396
253	0x3bc7923c	0.0060904305
254	0x3e2725d0	0.16323018
255	0xbe3109dc	-0.17288917

layer1.0.bias f4 [16]
0	0xbe16f0be	-0.14740273
1	0xbd35f227	-0.044420388
2	0xbdaef82c	-0.08543429
3	0x3cbee201	0.023301126
4	0xbdd5d948	-0.10441834
5	0xbd702361	-0.05862749
6	0x3dbbfcfd	0.09179113
7	0x3de8f7d8	0.113753974
8	0xbe2833c4	-0.16425997
9	0xbd77125e	-0.06032025
10	0x3e0df227	0.13861905
11	0x3e134724	0.14382607
12	0xbd29bb74	-0.041438535
13	0xbe4bfbec	-0.1992032
14	0x3d2f7276	0.042833768
15	0x3e07a0e0	0.13244963

layer1.1.weight f4 [16]
0	0x3f8528af	1.0403041
1	0x3f824397	1.0176877
2	0x3f67131e	0.90263546
3	0x3f854afb	1.0413507
4	0x3f7eb37b	0.99492615
5	0x3f79283c	0.9732702
6	0x3f84126b	1.0318121
7	0x3f873095	1.0561701
8	0x3f845cac	1.0340781
9	0x3f85992f	1.0437373
10	0x3f63b2a3	0.88944453
11	0x3f775f4a	0.96629775
12	0x3f84a6d2	1.036341
13	0x3f7ac371	0.9795447
14	0x3f80ac9c	1.0052676
15	0x3f6ea2fa	0.9321743

layer1.1.bias f4 [16]
0	0xbd91755d	-0.071024634
1	0xbd46d075	-0.048538644
2	0xbdf1fa30	-0.118152976
3	0xbdc5a4e0	-0.09650588
4	0xbd6c5ffd	-0.05770873
5	0xbd76609f	-0.06015074
6	0xbd5731ee	-0.05253785
7	0xbbdae5c7	-0.0066802236
8	0xbca34cf3	-0.019934153
9	0xbd2f9eb2	-0.042875953
10	0xbde873a0	-0.11350179
11	0xbdce7f6b	-0.10082897
12	0xbcdc561b	-0.026896527
13	0xbd6f444f	-0.058414754
14	0xbd567e2a	-0.052366413
15	0xbdc85b38	-0.097830236

layer1.1.running_mean f4 [16]
0	0xbe10efd4	-0.14153987
1	0xbdf31dac	-0.11870894
2	0x3cc714af	0.024301855
3	0x3d134632	0.035955615
4	0xbe372a9d	-0.1788735
5	0xbd950886	-0.07277016
6	0x3d120500	0.0356493
7	0x3d64ab3e	0.05582737
8	0xbe2dae5d	-0.16961046
9	0xbe3f3df2	-0.18675974
10	0x3ea4f738	0.32219863
11	0x3e320f5a	0.17388669
12	0xbe6f5112	-0.2337077
13	0xbe60ebc5	-0.21964939
14	0xbbcae466	-0.006191778
15	0x3e2362f6	0.1595572

layer1.1.running_var f4 [16]
0	0x3c909674	0.017649867
1	0x3cd9609b	0.026535323
2	0x3d560eea	0.052260317
3	0x3c958ca7	0.018255545
4	0x3cd056f8	0.025432095
5	0x3c9e64cc	0.019335173
6	0x3d15d011	0.03657538
7	0x3caf88e5	0.021427581
8	0x3ca5b8c4	0.020229705
9	0x3d2c7a3d	0.042108763
10	0x3d4d84af	0.050175365
11	0x3c85fd76	0.016356211
12	0x3d512dca	0.05106906
13	0x3c932b8b	0.017965099
14	0x3d202364	0.03909625
15	0x3c940b4b	0.018071791

layer2.0.weight f4 [32, 16, 5, 5]
0	0x3d70cc3a	0.058788516
1	0xbcb5dce1	-0.02220005
2	0xbd26dc82	-0.040737636
3	0xbce93e15	-0.028471986
4	0x3c3f034f	0.011658504
5	0xbd3bd1af	-0.045854267
6	0xbcee3861	-0.029079618
7	0xbc10bd8b	-0.008834253
8	0xbbf600f8	-0.0075074397
9	0xbc96b8bd	-0.018398637
10	0xbcf8a5db	-0.030352524
11	0x3ccae22b	0.024766048
12	0xbb1a08f8	-0.002350388
13	0x3d451d13	0.04812343
14	0x3cd65857	0.02616517
15	0xbd015e09	-0.03158382
16	0x3cd467cc	0.0259284
17	0x3a9d0586	0.0011979796
18	0x3c43ab6d	0.011942727
19	0xbcbe13f3	-0.023202872
20	0xbc930e34	-0.017951109
21	0xbc12305c	-0.008922663
22	0xbb36253e	-0.0027793194
23	0x3a6283f5	0.0008640879
24	0xbd4932fb	-0.049120884
25	0xbd1b2e6b	-0.037886064
26	0xbc283090	-0.010265484
27	0x3c8a2640	0.016863942
28	0x3c0fe430	0.0087824315
29	0x3c314f1b	0.010822083
30	0x3d389cac	0.04507129
31	0x3c91f717	0.017818017
32	0xbd06fa8e	-0.03295379
33	0x3cf15f2c	0.029464327
34	0x3c9f981d	0.019481713
35	0x3ccecfb0	0.025245517
36	0x3d0bee5e	0.03416287
37	0x3cd8cd9b	0.026465228
38	0x3c949ce7	0.018141223
39	0xbaad57d8	-0.0013225032
40	0xbcf36733	-0.029712295
41	0x3cf117c0	0.02943027
42	0x3c94d969	0.018170075
43	0x3c96dd69	0.018416123
44	0xbcbbd538	-0.022928819
45	0x3d160c47	0.036632802
46	0x3c776445	0.01509959
47	0xbd0709d2	-0.03296835
48	0xbc114b23	-0.008868012
49	0xbcbed080	-0.02329278
50	0x3d8cbc5e	0.06871866
51	0x3cb10bf0	0.021612138
52	0x3c657d7c	0.014006969
53	0xbca855b4	-0.020548679
54	0xbc6cda43	-0.0144563345
55	0x3d18c4e4	0.037297145
56	0x3d43a527	0.047764923
57	0xbb045f61	-0.0020198452
58	0xbd2cc453	-0.042179417
59	0xbd317785	-0.043326873
60	0x3c791ffa	0.015205378
61	0xbb8cde79	-0.0042989817
62	0xbb4c54d0	-0.0031178482
63	0x3d0be211	0.03415114
64	0xbd4224e8	-0.047398478
65	0x3d3bc6af	0.045843776
66	0xbbe0fac3	-0.0068658306
67	0xbbc0f947	-0.005889091
68	0xbd0f1347	-0.034930494
69	0xbd144c0d	-0.03620534
70	0x3cba737c	0.022760145
71	0xbce50830	-0.027958006
72	0x3d24ad81	0.04020453
73	0x3c2b22a2	0.010445269
74	0x3c81b15c	0.015831642
75	0xbc18a2f8	-0.0093161985
76	0x3ca4d1cd	0.020119572
77	0x3cad9d67	0.02119322
78	0xbc799107	-0.015232331
79	0xbb3847d6	-0.002811899
80	0xbcec0cda	-0.028814722
81	0xbd342b1f	-0.043986436
82	0xbd210b0a	-0.03931717
83	0xbcdde472	-0.02708647
84	0xbd3225be	-0.043493025
85	0xbb26e1b1	-0.0025464112
86	0xbd83b0c3	-0.06430199
87	0xbbd5cf12	-0.006524929
88	0xbd68b366	-0.056811713
89	0xbce1f6ef	-0.027583567
90	0x3cdc7526	0.02691133
91	0x3d0e4a6a	0.034738936
92	0x3d877cc6	0.066155955
93	0xbcab5b76	-0.020917635
94	0xbcc4d9b1	-0.024029585
95	0xbc5f2b8c	-0.013621222
96	0x3d3d8de8	0.04627791
97	0x3d776eeb	0.060408514
98	0x3c4eb9f5	0.012617578
99	0xbcebd4f2	-0.028788064
100	0xbd05f947	-0.032708433
101	0x3c9523d6	0.018205564
102	0x3c2617d8	0.010137521
103	0xbd36f204	-0.044664398
104	0x3c445a8a	0.011984477
105	0x3c5e8081	0.013580442
106	0x3ca7f1eb	0.020501098
107	0x3d1bcf96	0.038039766
108	0x3ce06997	0.0273941
109	0x3ce8a4a4	0.02839882
110	0xbd2f233b	-0.042758208
111	0x3ce73a6b	0.028226098
112	0x3cafbe85	0.021453151
113	0x3c57b705	0.013166194
114	0x3bc8a236	0.0061228527
115	0xbd292147	-0.0412915
116	0x3ba76dec	0.0051095393
117	0xbc8ea98c	-0.01741483
118	0xbcd26d91	-0.025687011
119	0x3ce6be6b	0.02816697
120	0xbcda288b	-0.02663066
121	0xbcdff28e	-0.027337339
122	0xbcea2e5f	-0.028586565
123	0x3d2ddac8	0.042444974
124	0x3d801f81	0.06256009
125	0x3d25f6f3	0.040518712
126	0xba9f5e71	-0.0012158883
127	0x3ca2a9ec	0.019856416
128	0xbc2ce470	-0.010552511
129	0x3d1d09c4	0.03833939
130	0x3c60d6c6	0.013723081
131	0x3d57c3df	0.05267703
132	0x3cfa40ce	0.03054848
133	0xbd440c53	-0.047863316
134	0xbd508bd8	-0.050914615
135	0x3d23b59e	0.039968126
136	0x3d426db4	0.047467902
137	0xbd4da2b6	-0.050204
138	0x3c9cd691	0.019145282
139	0xbc8ff39c	-0.017572217
140	0xbcc0b3c4	-0.023523219
141	0xbcc67fd6	-0.024230879
142	0x3d0f3c6e	0.03496974
143	0xbd365fec	-0.044525072
144	0x3c4edfdb	0.0126266135
145	0xbd20131f	-0.039080735
146	0x3c8ee94e	0.017445233
147	0xbc341fe7	-0.010993934
148	0xbbde391b	-0.00678171
149	0x3d766f62	0.060164817
150	0xbc392f93	-0.0113028465
151	0x3ccf6aaf	0.025319425
152	0x3c89da76	0.016827803
153	0x3cda28bc	0.026630752
154	0x3d1181cc	0.035524175
155	0x3d37f17c	0.04490803
156	0x3ca60489	0.020265834
157	0xbd002b69	-0.0312914
158	0xbcc2b22e	-0.023766603
159	0xbb676972	-0.0035310653
160	0xbaec653e	-0.0018035544
161	0x3c6c5cb4	0.014426399
162	0x3c8949c9	0.016758816
163	0x3cd48065	0.02594013
164	0x3d79fa19	0.061029527
165	0x3d3840ce	0.044983678
166	0xbd242eb5	-0.040083606
167	0xbd1906eb	-0.037360113
168	0x3d3fcc38	0.046825618
169	0xbbc185dc	-0.00590585
170	0xbc4e7319	-0.012600684
171	0xbc80d6c1	-0.015727403
172	0x3d1525c8	0.036412984
173	0x3d510138	0.051026553
174	0x3aa9bc7e	0.0012949852
175	0xbb8dedd3	-0.0043313294
176	0xbccdf52a	-0.025141317
177	0xbd15f802	-0.03661347
178	0xbc261052	-0.010135727
179	0xbbf07493	-0.0073381155
180	0x3d00c501	0.031437878
181	0x3c6e9098	0.014560841
182	0x3c56de57	0.013114533
183	0x3c945a95	0.0181096
184	0x3cf1e5ea	0.029528577
185	0xb9f6e62e	-0.00047092274
186	0x3d0bf4ce	0.03416901
187	0x3d82ad55	0.06380717
188	0x3d1988d1	0.037483994
189	0x3ca228a9	0.019794779
190	0x3cc05dac	0.023482166
191	0xbc289b2d	-0.010290903
192	0x3b8236c1	0.0039738123
193	0x3ce44047	0.027862681
194	0xbcdaa8a1	-0.026691737
195	0x3b40a330	0.0029394142
196	0xbca16037	-0.0196992
197	0x3cd19de5	0.025587985
198	0xbcd69f66	-0.026199054
199	0x3cd63163	0.026146596
200	0x3d3932c9	0.045214448
201	0x3d88f668	0.06687623
202	0x3d33789c	0.043816194
203	0x3c4941e4	0.012283776
204	0x3d348e0a	0.04408077
205	0x3c549126	0.012974059
206	0xbd581976	-0.052758656
207	0xbd6f54a6	-0.058430336
208	0x3cdcf0f8	0.026970372
209	0xbd34c41f	-0.04413235
210	0xbd51daaa	-0.051233925
211	0xbd874641	-0.06605197
212	0xbcc0a260	-0.023514926
213	0xbca9a4a1	-0.020708384
214	0xbd27f373	-0.041003656
215	0xbcfd8cbd	-0.030950898
216	0xbc1b977a	-0.009496564
217	0x3d63517b	0.055497628
218	0xbc44e14c	-0.012016606
219	0x3d5fc6a9	0.054632816
220	0x3c1357c7	0.008993096
221	0xbc697eda	-0.014251435
222	0x3bccedc0	0.006253928
223	0xbd023e38	-0.031797618
224	0x3c967b9a	0.018369485
225	0x3ae07602	0.0017125013
226	0x3c9d3bb8	0.019193515
227	0x3d66b09b	0.056320768
228	0xbc2c6c05	-0.010523801
229	0xbd1c94c9	-0.03822783
230	0xbc9feb4b	-0.019521376
231	0x3d2ae5c6	0.041723035
232	0x3d94f47e	0.07273196
233	0xbc6ec9d6	-0.014574489
234	0xbd51f6c8	-0.05126074
235	0x3b885d0a	0.0041614817
236	0x3c627320	0.013821393
237	0xbcc60f6d	-0.024177277
238	0x3cefd6be	0.029277202
239	0xbab612a1	-0.001389105
240	0xbd5db6f7	-0.054129567
241	0x3b56ea9a	0.0032793642
242	0xbc7dc5e0	-0.015489072
243	0x3cae134e	0.02124944
244	0x3c9d67ec	0.019214593
245	0xbd516347	-0.05112007
246	0xbbf7af15	-0.007558713
247	0xbcdd1c89	-0.026991146
248	0x3ce292d7	0.02765791
249	0x3c10e13f	0.008842765
250	0xbd1ed5ea	-0.038778223
251	0xbcc851ee	-0.02445313
252	0xbcfb8dc0	-0.03070724
253	0x3cbe0521	0.023195805
254	0xbbdc81a0	-0.0067293197
255	0xbd3144cb	-0.043278497

layer2.0.bias f4 [32]
0	0xbcbe51e1	-0.023232402
1	0x3d17a900	0.037026405
2	0xbbfc4e8f	-0.0076997946
3	0xbd122610	-0.03568083
4	0x3cd4b329	0.025964336
5	0xbc97d1c2	-0.018532638
6	0xbc48a360	-0.012245983
7	0xbd06dc64	-0.032925025
8	0x3d308bb5	0.043101985
9	0xbd04da8f	-0.032434996
10	0x3d19bda8	0.037534386
11	0x3cdf663e	0.027270433
12	0x3bd95279	0.006632146
13	0xbc9c39bd	-0.0190705
14	0x3d1b68fe	0.037941925
15	0x3b849e8b	0.00404722
16	0x3d32d538	0.043660372
17	0xbcffacbd	-0.031210298
18	0x3d1ee6c9	0.038794313
19	0x3c4af6f3	0.012387979
20	0x3d159a6d	0.036524225
21	0xbafe2def	-0.0019392351
22	0x3cd32202	0.025773052
23	0x3d4628ea	0.048378862
24	0x3c52ddec	0.012870293
25	0x3c2cb5a9	0.010541358
26	0xbd38e7f1	-0.04514307
27	0xbb86938d	-0.004106945
28	0xbd2a47a8	-0.041572243
29	0x3d3e58e9	0.04647151
30	0x3d210cc0	0.0393188
31	0x3c86db9c	0.01646214

layer2.1.weight f4 [32]
0	0x3f5e0e15	0.8674024
1	0x3f5cf3c9	0.86309487
2	0x3f5f12ff	0.8713836
3	0x3f5673ff	0.83770746
4	0x3f68a0e3	0.90870494
5	0x3f631436	0.88702714
6	0x3f5caa07	0.8619694
7	0x3f5bf8d6	0.8592657
8	0x3f5d68b5	0.86487895
9	0x3f6e7bc9	0.9315763
10	0x3f5f0867	0.87122196
11	0x3f57fa16	0.84365976
12	0x3f6323b7	0.8872637
13	0x3f5764e1	0.84138304
14	0x3f631bfb	0.8871457
15	0x3f5a52fd	0.8528288
16	0x3f615249	0.8801618
17	0x3f4efdf6	0.80856264
18	0x3f686522	0.90779316
19	0x3f61e822	0.8824483
20	0x3f633a30	0.8876066
21	0x3f61dabc	0.8822439
22	0x3f5b67d0	0.8570528
23	0x3f59093f	0.84779733
24	0x3f5fa167	0.87355655
25	0x3f55044a	0.8320967
26	0x3f6099eb	0.8773486
27	0x3f6a8500	0.9160919
28	0x3f629117	0.8850264
29	0x3f5fb7a2	0.87389576
30	0x3f5bab42	0.85808194
31	0x3f61492b	0.8800227

layer2.1.bias f4 [32]
0	0xbe83d9fe	-0.25752252
1	0xbe8a2541	-0.26981547
2	0xbe8e2e8d	-0.2776989
3	0xbe8cb5db	-0.27482495
4	0xbe791375	-0.24323829
5	0xbe832532	-0.25614315
6	0xbe761e32	-0.24034956
7	0xbe909978	-0.28242087
8	0xbe8e01dc	-0.27735794
9	0xbe821f04	-0.25414288
10	0xbe725fe5	-0.23669393
11	0xbe8a818f	-0.2705197
12	0xbe7a2c01	-0.24430849
13	0xbe86db7f	-0.26339337
14	0xbe8bebb3	-0.27328262
15	0xbe8a92ca	-0.27065116
16	0xbe9209f3	-0.28523216
17	0xbe90786c	-0.28216875
18	0xbe813708	-0.25237298
19	0xbe8b1be7	-0.27169725
20	0xbe71f043	-0.23626809
21	0xbe846d0c	-0.25864446
22	0xbe8c6d00	-0.2742691
23	0xbe84de7c	-0.25950992
24	0xbe74ba1c	-0.2389912
25	0xbe85f5fe	-0.2616424
26	0xbe8646c9	-0.2622588
27	0xbe8701ac	-0.26368463
28	0xbe6f3e52	-0.23363617
29	0xbe8bee53	-0.27330264
30	0xbe91a0e4	-0.28443062
31	0xbe8ab964	-0.27094567

layer2.1.running_mean f4 [32]
0	0xbe058737	-0.13039862
1	0xbed4e954	-0.41584265
2	0xbeaada0b	-0.3336948
3	0xbe2c9d1c	-0.16856807
4	0x3e1fab21	0.15592624
5	0xbee817a7	-0.45330545
6	0xbed70672	-0.41997105
7	0xbf298dc9	-0.6623197
8	0xbed2b59f	-0.4115419
9	0x3e944fc8	0.28967118
10	0xbd930955	-0.07179514
11	0xbe425ba6	-0.18980274
12	0xbeed609a	-0.46362764
13	0xbc324fbc	-0.010883268
14	0x3d57e210	0.052705824
15	0x3ebcb2f9	0.36855295
16	0x3eb50c4e	0.3536095
17	0x3f23fcfd	0.64057904
18	0x3e6f6fb2	0.23382452
19	0x3e01d28b	0.12677972
20	0x3e28c76e	0.16482326
21	0xbd4e14a5	-0.050312657
22	0xbe8cd475	-0.27505842
23	0xbe0bf595	-0.13667901
24	0xbe723aa1	-0.23655178
25	0x3f91326b	1.1343511
26	0xbf1e7836	-0.6190218
27	0xbea9c39a	-0.33157045
28	0xbda282ac	-0.0793508
29	0x3dfac9d1	0.12245525
30	0xbe70807f	-0.23486517
31	0x3efc2c70	0.49252653

layer2.1.running_var f4 [32]
0	0x3eab33e3	0.33438024
1	0x3e92327f	0.2855415
2	0x3ea6c8e3	0.3257514
3	0x3eacd22f	0.33754107
4	0x3ea08e45	0.31358543
5	0x3ecda556	0.40165204
6	0x3ea9f487	0.33194372
7	0x3ecd40b2	0.4008842
8	0x3ec2c317	0.38039467
9	0x3f0068b0	0.5015974
10	0x3e8fd73e	0.28093904
11	0x3e875afc	0.26436603
12	0x3eaf4b67	0.34237215
13	0x3e89cfab	0.2691625
14	0x3eb02fb7	0.34411404
15	0x3eaab130	0.33338308
16	0x3ed1ef67	0.41002962
17	0x3ec418f2	0.38300282
18	0x3ee808dc	0.4531926
19	0x3ec51850	0.3849511
20	0x3e881ed9	0.26586035
21	0x3eef8ab6	0.46785516
22	0x3e86b3ae	0.2630896
23	0x3e7929ec	0.24332398
24	0x3e9250ed	0.28577366
25	0x3f023d77	0.5087504
26	0x3e9782da	0.2959202
27	0x3ebf1590	0.37321138
28	0x3eb5e149	0.3552344
29	0x3ea274ec	0.3172983
30	0x3e8c5db9	0.27415255
31	0x3eb6a71b	0.35674366

fc.weight f4 [10, 1568]
0	0x3c901b37	0.017591102
1	0x3c759384	0.014988784
2	0x3cedc3c2	0.029024009
3	0xbc5d4b96	-0.013506791
4	0x3d09039b	0.033450704
5	0xbbfea537	-0.00777116
6	0xbca9363f	-0.02065575
7	0x3d4950ae	0.049149208
8	0xbc9d7f2c	-0.01922568
9	0x3cc45d40	0.023970246
10	0x3d51a91d	0.05118667
11	0x3d7f9679	0.06239936
12	0x3c885e46	0.016646516
13	0x3c0e9936	0.0087035205
14	0xbcbe1b27	-0.023206307
15	0xbcae012f	-0.021240799
16	0x3c7a9d36	0.015296271
17	0xbce7a132	-0.028275106
18	0x3c9db13d	0.019249553
19	0x3cc25723	0.02372319
20	0xbd2e57eb	-0.042564314
21	0xbbf7a434	-0.0075574163
22	0x3c942ef8	0.018088803
23	0x3cfab475	0.030603627
24	0xbc22f6ad	-0.009946507
25	0xbc609870	-0.013708219
26	0xbbf52817	-0.0074815857
27	0x3d28ab7e	0.041179173
28	0xbc0251d1	-0.007954077
29	0x3d1706e8	0.03687182
30	0x3c379baf	0.011206551
31	0xbbe9924e	-0.0071280366
32	0x3c080312	0.008301513
33	0xbc944214	-0.018097915
34	0x3c7f7571	0.015591965
35	0xbcc95c81	-0.024580242
36	0x3caf26c6	0.021380793
37	0xbcef5de3	-0.029219573
38	0xbd063959	-0.032769535
39	0xbc8f4ae9	-0.017491775
40	0x38f04beb	0.000114582326
41	0xbd23309d	-0.039841283
42	0x3c9f45a2	0.019442383
43	0xbb46b5fc	-0.0030320873
44	0xbccc5b22	-0.0249458
45	0xbd132bbe	-0.035930388
46	0x3b3e3e5a	0.0029028864
47	0xbc21e0ee	-0.009880288
48	0xbc1b06c6	-0.009462064
49	0x3d500b8f	0.050792273
50	0xbd05c929	-0.032662544
51	0x36d472e2	6.3314665e-06
52	0x3d10077f	0.0351634
53	0x3bb2f5e4	0.0054614414
54	0x3c0139f3	0.007887351
55	0xbb9e71ae	-0.004835329
56	0xbc58afc9	-0.013225504
57	0x3ca2723d	0.019829864
58	0x3d2a8120	0.04162705
59	0x3c573113	0.013134259
60	0x3d0f41f2	0.034975
61	0x3be71527	0.007052082
62	0xbd3fc900	-0.046822548
63	0x3c1af976	0.00945889
64	0xbbb9fe2f	-0.005676053
65	0x3d0b8a59	0.034067485
66	0x3c147cdc	0.009062972
67	0x3a5b7e36	0.0008372994
68	0xbb150411	-0.002273802
69	0x3bb7ff78	0.005615171
70	0xbab6d59a	-0.0013949156
71	0x3d78e243	0.060762655
72	0xbd0f0ef1	-0.03492636
73	0xbc77f55f	-0.015134185
74	0x3c6c6731	0.0144289
75	0xbca9eb92	-0.020742211
76	0xbca9fa63	-0.020749277
77	0xbc673770	-0.014112338
78	0x3d207873	0.03917737
79	0xbc55c79a	-0.013048077
80	0x3c2f52eb	0.0107009215
81	0xbbb0b43b	-0.005392579
82	0x3bf75285	0.007547679
83	0x3c89e844	0.016834386
84	0xbce15453	-0.02750603
85	0x3d5a0d76	0.053235494
86	0xbd5f0753	-0.054450344
87	0x3ba52d43	0.005040796
88	0xbc5a611e	-0.013328819
89	0xbd038a01	-0.032114033
90	0x3c90832a	0.017640669
91	0x3c141068	0.009037115
92	0x3cb74c1f	0.022375165
93	0x3ccb2953	0.024799978
94	0x3cda111f	0.026619492
95	0x3cc50b07	0.02405311
96	0xbb036388	-0.002004834
97	0x3c122827	0.008920706
98	0x3ca660eb	0.020309886
99	0x3cc5157a	0.024058092
100	0x3ca0d7da	0.019634176
101	0xbaebb989	-0.0017984371
102	0xbaa34832	-0.0012457429
103	0x3c5a10b3	0.0133096455
104	0xbca17bff	-0.019712446
105	0xbcebf2fc	-0.028802387
106	0x3d8dc31c	0.0692198
107	0xbca96559	-0.02067821
108	0xbd0b699b	-0.03403626
109	0x3b227b29	0.0024792647
110	0x3c553fff	0.013015746
111	0xbcc649e8	-0.024205163
112	0xbc89428c	-0.016755365
113	0x3d0f5c00	0.034999847
114	0xbc091a62	-0.008368107
115	0xbbc3eb6d	-0.0059789927
116	0x3cb989a1	0.022648634
117	0x3c80a66e	0.01570436
118	0x3c8c649f	0.017137824
119	0x3bb5e27c	0.0055506807
120	0xbc204764	-0.009782646
121	0xbca7158b	-0.020396015
122	0xbb451bf6	-0.003007648
123	0xbc881057	-0.016609354
124	0xbc22b3b2	-0.009930538
125	0xbd08094a	-0.033211984
126	0x3c3cfe45	0.011535232
127	0xbd509104	-0.050919548
128	0x3b8c7372	0.004286223
129	0xbc9ee4a6	-0.019396137
130	0x3d4ee384	0.050509945
131	0xbba51b13	-0.005038628
132	0xbc4ddd26	-0.012564933
133	0xbba7f5b2	-0.0051257247
134	0xbd6d0f42	-0.05787588
135	0x3bd12b2c	0.0063833203
136	0xbca09ed3	-0.019606983
137	0xbcb280ee	-0.021789994
138	0x3c4a5d18	0.012351297
139	0x3c5108c1	0.012758435
140	0xbc887512	-0.016657386
141	0xba8c54d4	-0.0010706433
142	0x3cd0d67b	0.025492897
143	0x3c9c33f5	0.019067744
144	0xbbe58fe9	-0.007005681
145	0x3d282325	0.04104914
146	0x3bd45b80	0.006480634
147	0x3d219dab	0.039457005
148	0x3c20a7fa	0.009805674
149	0xbccbc521	-0.024874272
150	0x3c8214b7	0.015879018
151	0xbc1282b0	-0.008942291
152	0x3d182c82	0.03715182
153	0x3aeff6ed	0.0018307843
154	0x3d5aed1e	0.05344879
155	0x3cd14cf4	0.02554939
156	0xbbcadfdf	-0.0061912383
157	0x3c50e8a0	0.012750775
158	0x3d6039d3	0.054742645
159	0xbb843726	-0.0040348945
160	0xbc8f988d	-0.017528797
161	0x3c91566f	0.01774141
162	0xbd00f17f	-0.03148031
163	0xbcdeffc1	-0.027221562
164	0x3b96e9e0	0.004605517
165	0xbc84848c	-0.016176485
166	0xbd2bf89a	-0.04198513
167	0xbca128b5	-0.019672731
168	0xbbde08a8	-0.0067759342
169	0x3ca0b744	0.019618638
170	0xbc6383fd	-0.013886449
171	0x3cfd6ef0	0.030936688
172	0x3d249c35	0.040188033
173	0xbcb0a5d6	-0.021563452
174	0x3caca58a	0.021075029
175	0xbca410e0	-0.020027578
176	0xbc16a90c	-0.009195577
177	0x3ca19aff	0.019727228
178	0x3c8ad522	0.016947333
179	0x3cf303fc	0.029664986
180	0xbd1c0886	-0.038094066
181	0x3c151ea9	0.009101548
182	0xbc457912	-0.012052791
183	0x3bd89b38	0.0066103004
184	0x3b716949	0.0036836436
185	0xbca35cbc	-0.01994168
186	0xbcc9cb5d	-0.024633104
187	0xba8d3134	-0.001077211
188	0x3a868941	0.0010264294
189	0xbc9cda8f	-0.019147186
190	0x3c35fccf	0.011107638
191	0x39920fc2	0.0002785903
192	0xbc5eabac	-0.013590734
193	0xbd4f4f5e	-0.0506128
194	0x3bb5fbb1	0.0055536856
195	0xbc5b6f92	-0.0133933
196	0xbce679f2	-0.02813432
197	0xbcbdfc74	-0.023191668
198	0x3c10f068	0.00884638
199	0x3ce3de3e	0.027815934
200	0x3d945aba	0.07243867
201	0xbc594070	-0.013259992
202	0xbc097b4e	-0.008391215
203	0xbcb60780	-0.022220373
204	0xbd14c361	-0.03631914
205	0x3c5003ae	0.01269619
206	0x3ccbfcb8	0.02490078
207	0x3d2c2433	0.04202671
208	0xbcd915fb	-0.026499739
209	0xbd117b41	-0.035517935
210	0x3c05d742	0.008168997
211	0xbc006382	-0.0078362245
212	0xbc9cf7eb	-0.019161185
213	0x3ba37a86	0.004988971
214	0x3c510387	0.012757189
215	0x3c2070e8	0.009792544
216	0xbc0ad734	-0.00847416
217	0x3d84ab74	0.064780146
218	0x3d59b5e1	0.05315197
219	0xbb5f924a	-0.0034114295
220	0xbc21f5cc	-0.009885263
221	0x3948d98c	0.00019154529
222	0x3d765758	0.06014189
223	0x3ba0afdb	0.004903776
224	0x3d17dd2b	0.037076157
225	0xb9bdbe13	-0.00036190505
226	0xbc6fe591	-0.014642135
227	0xbb98f0fb	-0.004667399
228	0xbcea960a	-0.028635997
229	0x3d0a2af5	0.033732373
230	0x3c11a728	0.008889951
231	0x3d0d5789	0.03450731
232	0xbce4f941	-0.027950885
233	0x3c2abc72	0.010420905
234	0xbc087b07	-0.008330113
235	0xbd1302b1	-0.03589124
236	0x3b1eb466	0.0024216413
237	0x3bee2762	0.0072678784
238	0x3bef5b69	0.007304598
239	0xbcb6e523	-0.022326058
240	0x3c59be20	0.013289958
241	0xbb2754db	-0.0025532756
242	0xbce54e2d	-0.027991379
243	0x3c722d5c	0.014781322
244	0x3c829314	0.015939273
245	0xbca68cd5	-0.020330826
246	0x3ab93db5	0.001413277
247	0x3ccb17ec	0.02479168
248	0x3b1bf401	0.002379656
249	0xbbeb9879	-0.007189807
250	0x3c2fcd4c	0.010730099
251	0x3ceeb411	0.029138597
252	0xbc847b52	-0.016172085
253	0x3cb961f0	0.022629708
254	0x3c63fbd1	0.013915018
255	0x391cd0a0	0.00014955038

fc.bias f4 [10]
0	0xbbd22205	-0.006412747
1	0xbbe28d77	-0.0069138366
2	0xbb889e2c	-0.004169246
3	0xbc68681d	-0.014184979
4	0x3c907df6	0.017638188
5	0x3be320b6	0.0069313897
6	0x3cac6f34	0.02104912
7	0x3aeab1aa	0.0017905731
8	0x3a2da395	0.0006623802
9	0xbc8ef034	-0.017448522
