result/mnist/seed12/noniid_0.4/ratio_0.04/final.pt (torch, 75941 bytes, 6 tensors)

cnn1.weight f4 [16, 1, 5, 5]
000000 25 88 7e bd 20 00 1d be 8e 13 74 bd f9 91 1c 3d
       -0.062141556 -0.15332079 -0.05958896 0.038225148
000010 9a a5 00 3c b6 6c 51 be db d6 19 3c c7 b5 b5 bd
       0.0078519825 -0.20451626 0.009389604 -0.08872562
000020 16 ed 29 3e 0d fa 0a 3e f1 4e 31 be c6 2e b7 3d
       0.16594347 0.1357195 -0.1731527 0.08944468
000030 13 22 e5 3d 21 bb fd 3d 14 b6 ea 3b 5a ed 0c be
       0.1118814 0.12389208 0.0071628187 -0.13762417
000040 88 5b 82 3e d0 24 3d 3e df 40 31 be 3a 73 99 bd
       0.25460458 0.18471074 -0.17309903 -0.07492681
000050 91 3b e1 3d 1f c7 fc bd c1 c2 0c be 54 cb e2 3d
       0.109976895 -0.12342667 -0.13746168 0.11073938
000060 1f 28 c0 3d 29 ab da bd 23 a6 e8 bd 79 81 7b bb
       0.093826525 -0.106771775 -0.11359813 -0.0038376732
000070 9b 73 25 3c 8a 1e 80 3d 58 92 83 bd b2 4b b9 3d
       0.010098363 0.06255825 -0.06424397 0.09047641
000080 0d e3 01 be 7f 78 fe bd 81 ab b5 bd 86 af 32 be
       -0.12684269 -0.124253266 -0.088706024 -0.1744977
000090 99 8d b6 3a 80 ac 28 be 3f 30 28 be 59 bb 06 3e
       0.0013927697 -0.16472054 -0.16424654 0.13157405
0000a0 8c 2d 89 3d 27 4d 2c be 3c ab d6 bd 5d fa 2d be
       0.066981405 -0.16826306 -0.10481879 -0.16990037
0000b0 44 9d ee 3d d6 c6 c7 bc e4 49 94 3d 39 d8 34 be
       0.1165109 -0.024386805 0.07240656 -0.17660607
0000c0 ba 42 6b bd 18 9d 95 3e fb af fb 3d e8 d9 5f 3e
       -0.057436682 0.29221416 0.12289425 0.21860468
0000d0 03 26 19 3e 57 8a 99 3e 83 1f 83 3e 84 97 60 be
       0.14955907 0.29988357 0.2560998 -0.21932799
0000e0 0d 04 0e be 44 6c a0 3e c7 af 81 3e 5b 33 c0 3d
       -0.13868733 0.313326 0.2532942 0.09384795
0000f0 46 a2 af 3d 2a 23 47 be 55 ab 30 3e 98 e5 26 3e
       0.08575873 -0.19447008 0.17252858 0.1629852
000100 7d 88 dd 3d a9 77 12 bd 46 65 d6 bd 1b 22 08 3d
       0.10817049 -0.035758648 -0.10468535 0.03323565
000110 53 af 26 3e d0 7e c7 3d de 71 38 be 22 a5 49 be
       0.16277818 0.097409844 -0.18012187 -0.196919
000120 5d 4e c1 bd 6c 0d 30 be d1 0d 9c bd a0 fb 39 3d
       -0.09438775 -0.1719262 -0.07619823 0.045405984
000130 72 c7 2a be 94 1d 39 3e b9 14 d7 3c 6a dc a6 3d
       -0.16677645 0.1807769 0.026254999 0.081475094
000140 15 95 1b 3a 0b 9f 09 be 69 0f 17 3e 5b 73 96 bd
       0.0005934996 -0.13439576 0.14751972 -0.07346221
000150 1a 32 fb bc 97 f0 0c 3e ef a4 39 3d 5a 12 59 3e
       -0.030663539 0.13763653 0.04532331 0.21198407
000160 4f a7 e7 bc fd 01 f7 3d 12 56 d0 3d 6e 06 1f 3e
       -0.028278021 0.12060926 0.101726666 0.15529796
000170 16 b1 64 3c 8d 09 bc bd 59 bc dd 3d 17 cf 9b 3d
       0.013958236 -0.09181509 0.1082694 0.07607859
000180 a3 e2 3f be a7 ce 55 be f1 b6 55 be 27 4b 87 3e
       -0.18738799 -0.20879613 -0.20870568 0.26424524
000190 2d 95 39 3d 66 2b 9d 3d 01 b4 e1 3d 2a 72 53 3d
       0.04530828 0.07674293 0.11020661 0.051622547
0001a0 c3 79 81 3e 0f f5 1c 3e 94 3f c0 bd 0f 28 27 3e
       0.2528821 0.15327857 -0.093871266 0.16323875
0001b0 8b 10 71 3e d0 d1 73 3d e9 6b 26 bc 96 a1 47 3c
       0.23541467 0.059526265 -0.010157564 0.012184521
0001c0 86 21 4d be ec 10 27 be 9d 09 3e 3e 8a 30 7d be
       -0.2003232 -0.16315049 0.18558355 -0.24725547
0001d0 25 37 36 bc f6 e0 7a be 7e f4 0b be 3b c9 87 bd
       -0.011121546 -0.24499878 -0.13667485 -0.066301785
0001e0 52 5f aa bc 45 28 f9 bd 04 3b 20 3d e1 79 8a bc
       -0.020797405 -0.12165884 0.03911878 -0.01690382
0001f0 8c a7 4f be cc 6e 7a 3d 2f 65 8f 3e dc a3 87 3e
       -0.20278758 0.06114082 0.28006884 0.26492202
000200 3b d5 9d bd 72 f6 d4 3d 39 96 bc bd b4 d0 8c 3e
       -0.07706686 0.10398568 -0.0920834 0.27502978
000210 19 86 28 3e 52 c2 bc 3d a1 cd 27 be 51 82 95 bd
       0.16457404 0.09216751 -0.16387035 -0.073002465
000220 20 87 14 be 99 96 13 3e 40 06 1d be bc e5 b8 bd
       -0.14504671 0.14412917 -0.15334415 -0.09028193
000230 94 24 20 bd 2e a6 b8 3d 2f ec 99 3d 92 8c 7e 3d
       -0.039097384 0.09016071 0.075157516 0.062145777
000240 dd 46 0f 3e 4b 6e 89 bc 77 86 75 bc 99 21 93 bd
       0.13991876 -0.016776225 -0.014985672 -0.071841426
000250 13 9d 85 bd d8 20 3d be f6 89 1c 3e 9a 25 85 3e
       -0.065241 -0.1846956 0.15287003 0.2600525
000260 b2 f1 5a 3e 13 0e cf 3d 2d 3b e2 bd 6f ff ed bd
       0.21381262 0.10110106 -0.11046443 -0.11620986
000270 42 9f 93 3e 2e 5a 58 3c 65 61 e1 bd d3 25 68 be
       0.28832442 0.013205094 -0.11004905 -0.22670679
000280 e3 6b 91 bd 9c 6c 1a 3e ac 3a 26 3e a7 ca 6d be
       -0.07100656 0.15080494 0.16233319 -0.23221837
000290 bc 2c 88 be d1 b4 00 3c a5 6e b6 bd dc 84 1f 3e
       -0.2659663 0.00785561 -0.089078225 0.15578026
0002a0 83 f8 c3 bd a7 2f 7e be f6 33 04 3d e5 fa 25 3e
       -0.09568884 -0.24822865 0.032276116 0.1620899
0002b0 1d e0 de 3b a8 80 61 be 12 09 32 bd db 61 42 be
       0.0068016187 -0.22021735 -0.04346568 -0.18982641
0002c0 ac 64 e2 3d cc 97 0c 3d 10 60 bc 3d bf a3 03 bd
       0.11054358 0.034324452 0.0919801 -0.032138582
0002d0 00 ba 3f be b1 ae a2 3d 1d 0b 72 3e 5f d3 02 bd
       -0.18723297 0.07943476 0.23637052 -0.03193986
0002e0 3e 51 01 be f4 81 27 be 8b 0a c2 3c 70 c7 86 3e
       -0.12628648 -0.16358167 0.023686668 0.26324034
0002f0 18 aa 81 bd 7e bf d2 bd 96 e0 12 3e 80 32 e5 bd
       -0.06331271 -0.102904305 0.14343485 -0.11191273
000300 71 82 00 3d 40 6c 51 bd db d8 a9 bc ac a4 ff bd
       0.0313744 -0.051128626 -0.020733288 -0.124825805
000310 4f e3 8d 3c ce 1f 55 3d d3 8e 53 3d 05 af e0 bd
       0.017320303 0.052032284 0.05164988 -0.10970882
000320 55 a9 68 3d 0a a6 3f be be 8c a7 3b a0 8e 6a 3d
       0.056802113 -0.18715683 0.0051132133 0.057264924
000330 4b b2 34 bd d7 30 83 bd 72 cb 81 bc 33 bd 3d 3e
       -0.044115346 -0.064058 -0.01584408 0.18529205
000340 1e f5 86 3e af 85 50 be 8f 5b 2a 3e 49 02 12 3e
       0.26358885 -0.20363496 0.1663649 0.14258684
000350 e8 45 cd 3e ba 4e ae 3e ae d5 c8 bd 0c e6 5a bd
       0.40092397 0.3404444 -0.09806381 -0.053442046
000360 f4 7d 2e 3e a8 c3 5d 3e f5 22 92 3e 98 5f 00 bd
       0.17040235 0.21656668 0.28542295 -0.031341165
000370 37 e3 12 3d 8e fe 1b be 17 47 58 be 8f 46 3b 3e
       0.03586122 -0.15233824 -0.21120869 0.18288635
000380 e6 15 17 3e 7a 91 9a 3e dc cb 99 3e 74 83 0b 3d
       0.14754447 0.30189115 0.30038345 0.03406091
000390 db 41 10 3c 12 ca 14 3e ed 51 91 3e 0c ab 45 3d
       0.008804764 0.14530209 0.28382817 0.048258826
0003a0 ce c6 cb 3e c9 d0 8a 3e 48 1c da 3d 2e 4e 44 be
       0.39800113 0.27112415 0.106499255 -0.19170448
0003b0 bf 79 4f bd fe 06 25 3e 15 09 be 3d 98 8f a0 3d
       -0.050653215 0.16115949 0.09279076 0.07839888
0003c0 37 96 80 be 43 5e 99 be b4 10 98 be cc e1 b5 bd
       -0.25114605 -0.29954728 -0.29700243 -0.08880958
0003d0 5b 10 bd bd 67 f6 44 be be 08 73 3d 80 5d 9d be
       -0.09231635 -0.1923462 0.05933451 -0.30735397
0003e0 90 5b 91 be c8 46 8e be 2e 30 f1 bd db 32 7d 3b
       -0.2839017 -0.27788377 -0.11776768 0.0038635049
0003f0 33 b3 d6 bc b8 59 5d 3c 58 96 f7 3d 1e 54 3c be
       -0.026208496 0.01351016 0.12089223 -0.18391463

cnn1.bias f4 [16]
000000 64 df 06 be 1a 64 ac 3c 5a 90 26 bd b0 d3 75 3c
       -0.13171154 0.021043826 -0.040665008 0.0150040835
000010 df 30 46 bd b4 5c 9d bc f1 19 ed 3d 56 75 05 3e
       -0.04838645 -0.019209243 0.115772136 0.13033041
000020 89 11 f4 bd 4b 9f e0 3c 22 f0 1b 3e 51 fd e1 3d
       -0.11917407 0.027419707 0.15228322 0.110346444
000030 74 5a a1 bb a2 94 2d be 04 7c a1 3d d8 0a 08 3e
       -0.004924113 -0.1695123 0.07884982 0.13285387

cnn2.weight f4 [32, 16, 5, 5]
000000 ff 79 2b 3d cd ab 0d bd 34 c6 02 bd 42 e6 ac bc
       0.04186439 -0.03458767 -0.031927302 -0.02110589
000010 42 3d 2e 3c 13 e0 5f bd 06 07 23 bd 7f 99 08 bc
       0.010634722 -0.054657053 -0.03980162 -0.008337378
000020 5a 5b 2a 3c 7f 7c 18 3b 88 28 1c bc 4d 52 9d 3b
       0.0103977565 0.0023267565 -0.009531148 0.004801071
000030 dc 75 bd bc 68 28 19 3d d6 da 08 3d 60 13 b9 bc
       -0.023127489 0.03739205 0.033411823 -0.022592247
000040 cb 87 f7 3c e6 e9 2f 3c bd 1f f9 3c fb 65 93 bc
       0.030216118 0.010736918 0.030410642 -0.017992964
000050 c4 7d c3 3c 31 64 36 3c c3 a9 9a bc 50 26 f9 3c
       0.02386368 0.011132286 -0.018879777 0.030413777
000060 ec a4 4a bd 7a 2e 47 bd 58 24 62 3c 6b 2d 49 3c
       -0.049473688 -0.048628308 0.01380261 0.012278895
000070 38 fc 47 3c 31 ff 78 3c 3c 8c e2 3c 89 57 e8 3c
       0.01220613 0.015197561 0.02765476 0.028362053
000080 b2 d5 07 bd f5 87 cc 3c 60 c6 e2 3c 0e e1 82 bc
       -0.03316278 0.024967173 0.027682483 -0.015976455
000090 6f 6d b6 3c 51 e6 18 3d 4e 7d 89 3c f1 c7 96 ba
       0.022268979 0.03732902 0.016783383 -0.0011503679
0000a0 65 76 a0 bc 10 50 33 3d cd 8c f9 3c 41 cf 79 3c
       -0.019587705 0.043777525 0.030462647 0.015247167
0000b0 1d c1 d2 bc 4a c2 6d 3c 4a b1 71 3c fb c8 e7 bc
       -0.02572685 0.014511654 0.014751742 -0.028294077
0000c0 3d dc 4d bc 8b 30 39 bd 1a 59 81 3d 06 f2 ba 3c
       -0.012564716 -0.04521231 0.06315823 0.022820484
0000d0 34 c8 00 3d 99 59 71 3c 26 e1 43 bc 2f d5 0c 3d
       0.03144093 0.014730834 -0.011955535 0.034382995
0000e0 d3 d2 02 3d f3 eb 73 bc 3b 5e c4 bc d4 28 20 bd
       0.03193934 -0.014887798 -0.023970714 -0.039101437
0000f0 78 57 69 bc 05 31 dd bc e7 ab 0d bc 2f ca 4c 3d
       -0.014242046 -0.027000913 -0.008646942 0.049997505
000100 72 b0 25 bd 60 14 e1 3c 2c f6 a1 bb 0e 2f f5 bb
       -0.040451474 0.027475536 -0.004942676 -0.007482416
000110 1b 3f 63 bd f6 ae 2e bd f6 ed ce 3c cb f6 80 bc
       -0.055480104 -0.042647325 0.025259953 -0.01574268
000120 92 11 1b 3d e1 1f a9 bc 06 a0 b4 bb de 64 d6 bb
       0.037858553 -0.020645084 -0.0055122403 -0.006542786
000130 aa 36 2b 3d 38 b4 b0 3c 0c 4a 50 ba 19 96 ab 3c
       0.04180018 0.02157031 -0.0007945604 0.020945596
000140 61 16 20 bd 07 27 e2 bc 00 7e 10 bd b8 16 43 bc
       -0.039083842 -0.0276065 -0.035276413 -0.011907272
000150 2c 34 a0 bc 6e f0 bb 3c 73 0e 2f bd d3 f3 2f 3b
       -0.019556127 0.022941794 -0.04273839 0.0026848211
000160 da 38 24 bd 93 fd f7 bc a9 47 d5 3c b5 37 df 3c
       -0.04009328 -0.03027228 0.026035147 0.027248243
000170 3b d4 76 3d 10 54 51 bc 95 30 4d bd b6 56 96 bc
       0.060260992 -0.01277639 -0.05009516 -0.018351894
000180 b1 e4 31 3d 20 ee aa 3c 69 5e 41 3c 20 fd 74 bd
       0.043430988 0.0208655 0.011802294 -0.05981171
000190 61 a8 00 bd 76 4d 04 3d 10 33 a6 3c 1c c6 ec bc
       -0.03141058 0.032300435 0.02028802 -0.02890306
0001a0 52 5b ba 3b 30 71 d3 3b 18 3e 2f 3c 53 28 36 3c
       0.0056871558 0.006452702 0.010695957 0.0111180125
0001b0 83 71 15 3d 97 55 24 3d 27 f4 d8 bc 51 db 1c 3d
       0.036485206 0.040120687 -0.026483608 0.038295094
0001c0 c2 bd d4 3c a2 9f 10 3d 81 60 e6 3c 77 f2 09 bd
       0.02596939 0.035308488 0.028122189 -0.033678498
0001d0 05 5d c4 3c 7a 25 a5 bb 34 6e bd bc d0 9c 0d 3d
       0.023970136 -0.005039868 -0.023123838 0.034573376
0001e0 cd 84 a3 bc 06 00 6e bc 87 94 17 bc 6c de 00 3d
       -0.019960785 -0.014526373 -0.00925172 0.031462118
0001f0 1f 54 4b 3d 6b 56 f4 3c 3a 34 ef bb f1 de fa 3c
       0.04964077 0.029826364 -0.007299927 0.030623885
000200 bd 12 80 3c b1 2c 6d 3d ce 3f d2 3c c3 80 39 3d
       0.015633935 0.05790395 0.02566519 0.045288812
000210 11 70 c0 3c 90 a6 6b bd 19 b7 f8 bc 8a 28 10 3d
       0.023490937 -0.057531893 -0.030360745 0.03519491
000220 3e b4 11 3d 2e 53 49 bd 27 13 06 3d 71 71 33 3b
       0.035572283 -0.049151592 0.03273311 0.0027380849
000230 53 10 42 bd d3 4c 31 bd fe f2 0b 3d d9 7e 4a bd
       -0.04737885 -0.043286156 0.034167282 -0.049437378
000240 54 fa 1f bc 68 53 09 bd 7b 65 11 3d 8b ed 6b bc
       -0.009764273 -0.033526808 0.03549717 -0.014399896
000250 33 05 fd bc 93 09 d8 3c e8 4f a9 bc 8b f6 0e 3d
       -0.030886268 0.026371753 -0.020667985 0.03490309
000260 31 a2 d0 3c 77 85 2c 3d fa ad 89 3d 9e a3 39 3d
       0.025467964 0.04211947 0.067226365 0.045322053
000270 ff 47 07 3d 89 c6 08 bd 2e b7 00 bd 61 5c f8 b9
       0.033027645 -0.033392463 -0.031424694 -0.00047371074
000280 db 0a f4 bc 54 28 8a 3c 01 75 7b 3c 93 fb ca 3c
       -0.029790333 0.016864933 0.01534772 0.024778163
000290 b3 66 62 3d c2 8b 49 3d b9 54 db bc 68 64 bb bc
       0.055273723 0.04920555 -0.026773797 -0.022875026
0002a0 55 99 16 3d 40 df dd bc 4f 42 0f bc 4a 88 38 3a
       0.036767323 -0.027083993 -0.008743837 0.00070393516
0002b0 48 34 22 3d bb 6e bb 3c dc 72 14 bd e1 ab 82 bc
       0.03960064 0.022879949 -0.03624235 -0.015951099
0002c0 55 ad 11 bd 31 3c c2 bc 53 4e d5 39 ac 58 6d bc
       -0.035565693 -0.023710342 0.00040684882 -0.014486473
0002d0 24 de 2a 3d a8 d4 3e 3c bf c8 c1 3c e0 ca a1 3c
       0.041715756 0.011647381 0.023655294 0.019750059
0002e0 e9 a6 0b 3d bd bb 85 3c c6 e6 1d 3d d2 ce 62 3d
       0.034094725 0.016324872 0.03855016 0.05537302
0002f0 27 4b 35 3d c3 ba 3e bc 96 48 ea 3c 7b d7 e6 3a
       0.044261124 -0.011641207 0.028599065 0.0017611826
000300 74 8d b7 3c 11 4c 1f 3d ea 37 ec bc bd 23 01 3d
       0.022406317 0.038890902 -0.028835256 0.031528223
000310 9f 93 bf 3c 1f 9c 4b 3d e0 a6 0c bc 45 fc 09 3d
       0.02338582 0.049709436 -0.008584708 0.03368785
000320 54 9d 53 3d 68 24 81 3d c0 98 b5 3c db 52 af 3b
       0.05166371 0.06305772 0.022167563 0.0053504533
000330 17 2d fe 3c b7 e9 57 3c f4 94 87 bd ad 2d 98 bd
       0.03102736 0.013178281 -0.066202074 -0.07430587
000340 e5 fc 3c 3d 4f c0 cd bc 1c 21 b0 bc 94 e6 6a bc
       0.046139617 -0.025116114 -0.021500163 -0.014337201
000350 4b 2c 31 ba 0a f2 f8 bc de 6f 8d bd f9 87 12 bd
       -0.00067586143 -0.03038885 -0.069061026 -0.035774205
000360 90 ad 89 3b a7 75 55 3d 72 7c 8c bd 5d 6b 6e ba
       0.0042015985 0.052114155 -0.068596736 -0.0009094978
000370 79 27 b8 3c 55 1c 04 3c 03 ec 5c bc 4d f8 8e bd
       0.02247976 0.0080633955 -0.013484004 -0.06980953
000380 dc 04 89 bc d2 a8 29 3c 31 04 08 3d 62 cd 30 3d
       -0.01672595 0.010355191 0.033207122 0.04316462
000390 e8 2c 7c bc 7d c0 1f bd 6b 03 73 bc 97 72 24 3d
       -0.015391566 -0.03900193 -0.014832358 0.040148344
0003a0 18 fd 49 3d 68 76 5e bc f8 4f 10 bd 4c c3 e6 3c
       0.049313635 -0.013578035 -0.035232514 0.028169297
0003b0 95 d9 f4 3c f2 63 42 bb 99 b6 70 3d d7 ae 97 3c
       0.029888907 -0.0029661623 0.05876789 0.018515987
0003c0 a3 35 1a bd 9d 80 0b 3d 46 b4 8e 3c e7 28 03 3d
       -0.03764881 0.034058202 0.017419945 0.03202143
0003d0 08 a3 cb 3c 3c 32 1f bd 5b 0d b0 3c 48 83 21 bc
       0.024858013 -0.038866267 0.021490743 -0.00985796
0003e0 ea c3 1e 3d a4 e3 27 3c 01 c0 28 bd 9b 4e 44 bd
       0.038761057 0.010247145 -0.041198734 -0.047926527
0003f0 df c7 4c bd 19 d8 a3 3c 3b 8d 2a bc 4e 68 80 bd
       -0.0499953 0.020000504 -0.0104096485 -0.062698945

cnn2.bias f4 [32]
000000 8f f3 70 bc 1d ed bd 3c 8f d7 0b bc cd 3d 3c bd
       -0.014706506 0.023184353 -0.00853528 -0.045957375
000010 2c fe b2 3b e3 99 1d bd 5c 34 a0 bc bc 8d 42 bd
       0.0054624286 -0.038476836 -0.019556217 -0.04749845
000020 29 c7 38 3d 81 ff 6d bd 49 ae 2b 3d b0 df dc 3c
       0.04511181 -0.058104996 0.04191426 0.026962131
000030 64 fd 2b 3c a2 eb a9 bc 75 c0 06 bb c2 2f 2c bc
       0.010497425 -0.020742241 -0.002056149 -0.010509433
000040 89 99 2b 3c ae ec 3c bd e3 0f 4c 3d f4 f5 d6 bc
       0.010473617 -0.046124153 0.04981984 -0.026240326
000050 05 a3 11 3d f7 39 05 bd b8 33 29 3c 38 d6 25 3d
       0.03555586 -0.032525983 0.010327272 0.040487498
000060 32 73 1a 3b 91 0b 10 bc 70 89 48 bd 68 01 bf bc
       0.0023567197 -0.00879182 -0.048959196 -0.0233161
000070 2e fd 7a bd 2b 0a 3c 3d 11 36 bd 3c 1e ae 69 3c
       -0.061276607 0.045908134 0.02309707 0.014262704

fc1.weight f4 [10, 512]
000000 57 d0 b4 bc 86 4c 5c bb 98 32 79 3c c0 62 a9 bc
       -0.022072 -0.0033614947 0.015209816 -0.02067697
000010 78 17 94 bb 07 18 37 bd 18 fa a1 bb f8 ca 63 3d
       -0.0045193993 -0.04470065 -0.0049431436 0.055613488
000020 90 e3 42 bd 63 cc 01 bd ce 21 3f 3c af b1 41 3d
       -0.0475803 -0.03168906 0.0116657745 0.047288593
000030 10 a6 2a bd d1 c6 b1 bc 2a f7 4b bd 27 e3 97 bc
       -0.041662276 -0.021701248 -0.04979626 -0.018540932
000040 a2 f0 c7 3b 40 b5 b2 bd 7d 6e aa 3c 60 23 c3 3d
       0.0061016837 -0.08725977 0.020804638 0.095282316
000050 8b 78 33 bd 96 4a 26 bd 88 0a 4e 3d df 4e 35 3d
       -0.04381613 -0.040598474 0.050303012 0.04426467
000060 a9 9c 80 3c 86 42 8e bc 23 29 ff 3b e4 33 4f 3d
       0.015699701 -0.017365705 0.0077868863 0.050586596
000070 e6 38 a1 3d 01 52 b3 3c ca bb c8 3c 74 49 0b 3c
       0.07872181 0.021889688 0.024503607 0.008501399
000080 14 64 da bc 11 e0 1d bc 8b ef 50 3c 83 3c 35 bd
       -0.02665905 -0.009635941 0.012752424 -0.04424716
000090 4a b9 6e bc 25 94 1a bc 95 e3 9d bd 80 d9 82 bd
       -0.014570544 -0.0094347345 -0.077094235 -0.06389141
0000a0 b2 4c 34 bd 9c 28 97 bd 62 9c 37 bc 1a a6 e6 3c
       -0.044018455 -0.073807925 -0.011206718 0.028155375
0000b0 56 57 7a 3b 5a 34 33 bd 2d 0a 41 3d 0d 70 d9 3d
       0.003819903 -0.0437511 0.047128845 0.10617075
0000c0 5e 28 b0 3c 7b 11 1c bd 64 cf b7 bd 6d f0 d6 3c
       0.021503624 -0.03810261 -0.089751035 0.02623769
0000d0 82 d6 94 3c 6d af f5 3c 91 6c 21 3c 3f 22 c6 bc
       0.018168692 0.029990876 0.009852544 -0.024186252
0000e0 fd f1 a4 bd 47 dc a1 bd 6f 49 69 b8 f0 6b ee bc
       -0.08053968 -0.07903343 -5.561992e-05 -0.029104203
0000f0 40 00 b4 bd 03 6d 65 3c 2f 4c 07 bc ea 45 48 3d
       -0.0878911 0.014003041 -0.00825791 0.0488948
000100 5f 2f 82 bb 38 0a 86 3d a3 84 bb 3c a0 92 15 bc
       -0.003972932 0.06544918 0.022890395 -0.009129196
000110 c5 3e 29 3d d3 14 5a 3d 57 f0 f7 bc c0 4e 0c 3e
       0.041319627 0.053242516 -0.03026597 0.13701916
000120 be b7 61 3d ab 5b 9f bc ed 2c 14 3c b2 80 36 3d
       0.05510687 -0.01945289 0.009043914 0.044556327
000130 5c 7f 31 3b e8 b4 3f bd e4 d1 b2 bc b7 65 10 3d
       0.0027083969 -0.046803385 -0.0218286 0.035253253
000140 c1 52 ad 3c 0f 25 76 3c cb cb 61 3d 11 bf 20 bc
       0.021157624 0.015023484 0.055125993 -0.009811179
000150 c9 1c 79 3c d9 8a ec 3b 90 be ef bd 53 e3 aa bd
       0.015204617 0.0072187004 -0.11706269 -0.0834414
000160 9f 07 9b bc d4 b0 c2 bd 2f 4f e2 3b e6 f8 91 3d
       -0.018924532 -0.095063835 0.006906412 0.07127552
000170 92 4a 0f bd da e8 15 bd 83 ed 87 3c 60 21 dd 3d
       -0.034983225 -0.036599018 0.016592747 0.107973814
000180 fa 23 11 3d db 8b 25 3d 91 b7 4c 3d 3d 68 64 3d
       0.0354347 0.04041658 0.04997975 0.055763472
000190 31 86 fb 3c 97 62 b0 3c 2b c9 7e bd 1a f6 b0 bb
       0.030703636 0.021531386 -0.062203567 -0.0054004313
0001a0 c2 29 6c bd 72 cd 75 bd c5 40 15 3d ff 2f b6 3b
       -0.05765701 -0.06001038 0.036438722 0.005559921
0001b0 f1 82 e9 ba ec ec 6d bd de 3a aa 3c 2c 8f 31 bd
       -0.0017815513 -0.058087274 0.020780023 -0.04334943
0001c0 df db 06 bc b2 69 af bc 34 57 39 bb ea ee 87 bb
       -0.008231132 -0.021412704 -0.0028280737 -0.004148354
0001d0 92 b0 d7 3c b7 e7 39 bd a1 0c 69 3d 22 cd b6 bb
       0.026329312 -0.045386996 0.05689681 -0.005578653
0001e0 9f 50 32 3d 8b 68 5d 3d 20 9c 4f 3c ff 7e 1d bd
       0.043533918 0.054054778 0.0126715 -0.03845119
0001f0 0a f4 0c 3c 88 a6 f7 3c f8 fa 7b 3d 0d 3b e8 bc
       0.008603105 0.030230775 0.06151864 -0.02834847
000200 ac 69 d0 bc 0e 5a 29 bd 00 e6 58 3d 6d 9d 19 3d
       -0.025441013 -0.04134565 0.05295372 0.03750365
000210 fc 46 93 3c f6 ba 0c bd 57 25 7c bd 08 78 cb 3b
       0.017978184 -0.034357987 -0.061559048 0.006209377
000220 9e 3d 47 bd 09 df 0e bd f6 be 8f 39 89 10 20 bc
       -0.048642747 -0.03488067 0.00027417362 -0.009769567
000230 c2 4a 13 3c 9c df d5 bb 13 53 05 bd a5 55 fc bb
       0.008989992 -0.0065269005 -0.03254993 -0.0077006393
000240 6b ee 35 3c 21 c9 0c 3d e4 48 a6 3b 93 17 9a 3c
       0.011104207 0.0343715 0.005074607 0.01881007
000250 b2 bc 07 bd fd 38 75 bc bd 6b 0a bd a4 c2 88 bd
       -0.03313894 -0.0149672 -0.033794153 -0.0667775
000260 8e ac d5 3c 7a 6e 8e 3d 9f 03 13 3d 61 2d 29 bd
       0.026083257 0.069546655 0.035892125 -0.041303042
000270 7e 77 a1 3c 65 c7 4d 3d 22 78 58 3d 20 7d 5a 3c
       0.019710299 0.050238986 0.052848943 0.013335496
000280 33 aa aa bc e5 21 b4 bc 4f eb a7 bd 05 44 d6 3c
       -0.02083311 -0.021988818 -0.081991784 0.026155481
000290 55 e7 fe 3b 46 ba 6d 3c b1 87 75 bc cd bc 2d 3c
       0.007779042 0.014509743 -0.014985965 0.010604096
0002a0 d0 da cb 3d 08 d2 9e 3d 07 98 14 bd 15 c2 05 3d
       0.099538445 0.07754904 -0.036277797 0.032655794
0002b0 72 0c c5 3d 75 5f 2a 3d eb 5b 2a 3d d3 cb 8a bd
       0.096215144 0.04159494 0.041591566 -0.06777158
0002c0 06 3e 9f 3c 49 fd 8f 3c 34 e4 af 3c 30 f7 2d 3d
       0.019438755 0.01757683 0.02147112 0.042472064
0002d0 c6 fc 26 bd d0 5e a6 3c e6 3d db 3a 14 5e 11 3d
       -0.040768407 0.020308882 0.0016726821 0.03549011
0002e0 a4 bf 2e ba c2 bc 0c bd 7a 82 2b bd 3e 38 14 bb
       -0.000666613 -0.0343597 -0.04187248 -0.002261653
0002f0 6c 9f 7b ba 22 6b ca 3b d7 86 1a 3d 35 f9 bc 3c
       -0.0009598646 0.006177322 0.03772625 0.02306805
000300 9c ed 84 bc ea 3d 27 bd e0 ca cb bb 8c 49 a3 bd
       -0.016226582 -0.04083053 -0.006219253 -0.07973012
000310 05 a5 27 bd d4 c8 6b 3c d5 9d e3 bc 24 04 6c bd
       -0.04092886 0.014391143 -0.027785221 -0.057621136
000320 15 07 ed 3c 76 d1 9d 3d 44 30 82 bc 30 77 9e bc
       0.028934041 0.07705967 -0.015892155 -0.019343942
000330 ce 55 3c bd f7 2a 30 bb 23 2b f6 3c 44 ab f2 3c
       -0.045980267 -0.0026881078 0.030049866 0.029622681
000340 92 5a bb bc d7 b3 69 bd e3 f0 1c bc b8 bb fd 3c
       -0.022870336 -0.057056274 -0.009578916 0.0309733
000350 87 ce 5c 3c a6 6e 2e 3d 62 09 e7 bb 32 27 74 bb
       0.013476974 0.04258599 -0.007050679 -0.0037254808
000360 1d 77 8e bc ba 36 f9 3d 7f 6c 0e bd 9a d9 16 3c
       -0.017390782 0.121686414 -0.03477144 0.009207154
000370 23 e2 c6 bc ef 4c 9c 3c a1 c3 ae 3c b4 da 62 bc
       -0.024277752 0.019079654 0.021333518 -0.013846088
000380 5b 3b 85 bb 43 d4 40 bd 72 54 74 3c f4 b7 ba bc
       -0.0040659136 -0.04707743 0.014912711 -0.022792794
000390 6b 1f 57 bc a8 c8 5c 3d a9 c5 92 bc a0 45 6c bd
       -0.013130049 0.0539023 -0.017916517 -0.057683587
0003a0 bd 60 39 bc 7f 78 36 bd d9 3c 01 be 53 84 c3 bb
       -0.011314568 -0.044548508 -0.12620868 -0.005966702
0003b0 e4 cf 3f bd a6 d2 81 3d f0 c3 47 3d 00 b0 ae 3d
       -0.04682912 0.06339006 0.048770845 0.08529663
0003c0 b0 b6 a1 3c 25 b2 17 3c ab 99 ad bd a6 8a dc bc
       0.019740433 0.009258782 -0.084765755 -0.026921581
0003d0 11 cd 52 bb a2 39 89 bc c0 bf 25 3d 02 3c 2b 3b
       -0.0032165686 -0.016751114 0.04046607 0.0026128297
0003e0 45 f5 45 bb 66 00 fa bb 37 37 80 3d c4 03 b2 3b
       -0.0030206006 -0.007629442 0.062605314 0.005432578
0003f0 73 f1 94 bd c6 a3 cf 39 cd 13 c9 3c 90 2d 98 bc
       -0.07272615 0.00039604137 0.024545575 -0.018576413

fc1.bias f4 [10]
000000 a7 fb 2f 3d 22 b0 82 3d 18 8a 3c bd 52 f7 fd 3b
       0.042964604 0.06381251 -0.046030134 0.00775043
000010 9b a9 3d bd 3a 2e 0d bd 99 b9 32 bc 9f c9 05 bd
       -0.046304327 -0.034467913 -0.010908508 -0.032662984
000020 2b 72 15 3d fb 12 1c bc
       0.036485832 -0.00952601
