result/fmnist/seed12/noniid_0.8/ratio_0.4/final.pt (torch, 122111 bytes, 14 tensors)

layer1.0.weight f4 [16, 1, 5, 5]
0	0xbd4e1e88	-0.050322086
1	0xbd8be030	-0.0682987
2	0x3c6dea54	0.0145212
3	0x3daf7420	0.08567071
4	0x3cce0276	0.025147658
5	0xbe5f06ed	-0.21779986
6	0x3db89bbb	0.09014078
7	0xbdc6ce2e	-0.097072944
8	0x3e12ef16	0.14349017
9	0x3dbdf119	0.09274501
10	0xbe732a22	-0.23746541
11	0x3dab328c	0.083592504
12	0x3d913337	0.070898466
13	0x3d9e8bfe	0.07741545
14	0x3ce938ea	0.028469522
15	0xbe6f20d8	-0.23352373
16	0x3e857f6d	0.2607378
17	0x3e27bc0c	0.16380328
18	0xbe2d1dae	-0.16905853
19	0xbc4aaf81	-0.012370945
20	0x3d85b2f6	0.06528275
21	0xbdb66281	-0.08905507
22	0xbe0413cb	-0.12898175
23	0x3de837d3	0.113387726
24	0x3d506fc3	0.050887834
25	0xbd48dea2	-0.049040444
26	0xbd18f918	-0.03734693
27	0x3d705c06	0.05868151
28	0xbc311570	-0.010808334
29	0x3d365a76	0.044519864
30	0x3c6ec177	0.014572493
31	0x3e157106	0.14593896
32	0xbd95748e	-0.07297622
33	0xbdd277ad	-0.102767326
34	0xbd46bfe0	-0.04852283
35	0xbda2474a	-0.079237536
36	0x3d409f2b	0.047026794
37	0xbe3a94a9	-0.18220772
38	0xbe31357f	-0.17305563
39	0x3e159747	0.14608489
40	0x3dd91257	0.10599201
41	0xbe06d28b	-0.13166253
42	0xbdec621b	-0.1154215
43	0xbe32390b	-0.17404573
44	0x3de2034c	0.11035785
45	0xbc3f1862	-0.011663528
46	0x3d94f1fc	0.07272717
47	0xbe020125	-0.12695749
48	0xbd2c6022	-0.042083867
49	0x3e84b5a8	0.25919843
50	0x3e12b64e	0.14327356
51	0x3e491785	0.19637878
52	0x3d63813d	0.055543173
53	0x3e12b15b	0.14325468
54	0x3e37cb73	0.17948703
55	0xbe23846b	-0.15968482
56	0xbe04c620	-0.12966204
57	0x3e3c205c	0.18371719
58	0x3da2ccb7	0.079492025
59	0x3ceb3ccb	0.028715512
60	0x3e0d58f8	0.1380347
61	0xbe253cdc	-0.16136497
62	0x3e0f9cb9	0.14024629
63	0x3dd2c929	0.102922745
64	0x3d6f3327	0.058398392
65	0x3c81c410	0.01584056
66	0xbd39bfb5	-0.04534884
67	0x3d965151	0.073397286
68	0x3e0a4ee3	0.13506655
69	0x3b9da683	0.0048111095
70	0xbde47a47	-0.11156135
71	0xbde92b22	-0.1138518
72	0xbcc8a8fd	-0.024494642
73	0xbe2c9f2f	-0.16857599
74	0xbe0b041c	-0.13575786
75	0x3d58617f	0.052827355
76	0xbe15d676	-0.14632592
77	0x3e505556	0.20345053
78	0x3d08b85d	0.033378948
79	0x3ddd3804	0.108017
80	0x3cc93bb2	0.024564598
81	0xbe23343e	-0.15937898
82	0x3de163da	0.11005373
83	0xbdae79ce	-0.08519326
84	0xbbf86f2a	-0.007581611
85	0x3ddb16f3	0.106977366
86	0xbd287574	-0.041127637
87	0x3e0d5b1c	0.13804287
88	0xbd8fccee	-0.07021509
89	0x3deb0f98	0.11477584
90	0x3d040018	0.032226652
91	0x3dc1bfb0	0.094603896
92	0x3c9c8e8e	0.019110944
93	0xbdd3f77f	-0.103499405
94	0x3d43c290	0.04779297
95	0x3d90d0ef	0.07071101
96	0xbdfe1f35	-0.12408296
97	0xbe1104fc	-0.14162058
98	0xbe4ae65c	-0.19814438
99	0x3e414892	0.1887534
100	0x3cd04a51	0.025426062
101	0x3db0b759	0.08628721
102	0x3d806746	0.06269698
103	0xbcbd527c	-0.02311062
104	0x3e28f5d8	0.16500032
105	0x3df5f248	0.12009102
106	0xbdcff37e	-0.10153864
107	0x3df63be6	0.120231435
108	0x3e42efdd	0.19036813
109	0x3c37c771	0.011216984
110	0xba67b13c	-0.00088383607
111	0x3d8ce10e	0.06878863
112	0xbe28f773	-0.16500644
113	0xbde37ff2	-0.11108388
114	0x3e6430c3	0.22284226
115	0xbe43100b	-0.19049089
116	0x3d2728be	0.04081034
117	0xbe6d4500	-0.23170853
118	0xbd57fffb	-0.052734356
119	0xbc9d398c	-0.01919248
120	0xbbfa0b5c	-0.0076307487
121	0xbe00950c	-0.12556857
122	0x3d4bcfca	0.04975871
123	0x3cdf1ebf	0.02723634
124	0xbe43c6f8	-0.1911887
125	0xbcfe3cab	-0.031034788
126	0x3e4e5c21	0.20152332
127	0x3e263239	0.16230096
128	0xbd87e3f9	-0.06635279
129	0x3e19472b	0.14968555
130	0xbe3d945c	-0.18513626
131	0x3e5268c8	0.20547783
132	0x3d9b42ad	0.07581077
133	0x3dca1fc7	0.09869342
134	0xbddd891c	-0.10817167
135	0xbe072dc6	-0.13201055
136	0xbe33bfbc	-0.1755361
137	0x3dcbbd0f	0.099481694
138	0xbe158354	-0.14600879
139	0xbd1ada33	-0.037805747
140	0xbd905299	-0.07047004
141	0x3d8985b0	0.06714952
142	0x3cb6c0d7	0.02230875
143	0x3d5a3bac	0.053279564
144	0x3e2e2da3	0.17009597
145	0xbd5fd13a	-0.054642893
146	0xbd845aaf	-0.06462609
147	0xbe06e494	-0.13173133
148	0xbd4f42cc	-0.05060081
149	0xbe0860e8	-0.13318217
150	0x3db8ca48	0.09022957
151	0x3e13e981	0.14444543
152	0x3df75d95	0.12078396
153	0x3df37409	0.11887366
154	0xbdaf375d	-0.085554816
155	0xbe0a1bb9	-0.13487138
156	0x3e4993b8	0.19685256
157	0xbcec5912	-0.028851066
158	0xbd20d53a	-0.03926585
159	0xbe359335	-0.17731936
160	0xbdb918b7	-0.09037917
161	0x3d630314	0.055422857
162	0x3e155839	0.14584436
163	0xbe21f7ce	-0.15817186
164	0xbe56c670	-0.20974135
165	0xbccd3cb7	-0.025053365
166	0xbe1ccc97	-0.1531242
167	0x3e41d8ff	0.18930434
168	0xb9ab822d	-0.0003271265
169	0xbe2b9c0f	-0.1675875
170	0x3d843804	0.06455997
171	0x3e41827f	0.18897437
172	0x3d696672	0.056982465
173	0xbe038456	-0.12843451
174	0x3d2f1de7	0.042753126
175	0xbe30d18b	-0.17267434
176	0x3dd4e5c5	0.103953876
177	0xbcf834df	-0.030298648
178	0x3d4bf5a6	0.049794815
179	0xbbe5cf9a	-0.0070132734
180	0xbe5d29b2	-0.21597937
181	0x3d063dfb	0.032773953
182	0x3e6cd1ac	0.23126858
183	0xbd67985b	-0.056541782
184	0xbd2859cf	-0.041101273
185	0xbe5df034	-0.21673661
186	0xbd11623b	-0.03549407
187	0x3e8a5178	0.2701528
188	0xbd66adc1	-0.05631805
189	0xbcdfa2dd	-0.027299339
190	0x3e0618cb	0.13095395
191	0xbe324c6d	-0.17411967
192	0x3ca95094	0.020668305
193	0xbd4cf837	-0.050041404
194	0x3d1ab0b1	0.037766162
195	0xbddb91fe	-0.10721205
196	0x3c0d77f5	0.008634557
197	0x3d4f9c2b	0.050686043
198	0x3d648549	0.055791173
199	0xbd98c2a1	-0.074589975
200	0x3d4fe1d5	0.05075248
201	0xbe2eee18	-0.17083013
202	0xbb8d8527	-0.0043188515
203	0x3ceacd8f	0.028662471
204	0xbd28bec8	-0.04119757
205	0xbb0f359b	-0.002185202
206	0x3bbbfd54	0.005736986
207	0x3dbfb4af	0.093606345
208	0x3e3aa6e5	0.18227728
209	0xbe2696b3	-0.16268425
210	0x3e29536a	0.16535726
211	0x3d901b21	0.070364244
212	0x3e42dfb1	0.19030644
213	0x3e453624	0.19258934
214	0xbd16a00c	-0.036773726
215	0xbd964792	-0.0733787
216	0x3e062bc7	0.13102637
217	0x3de3792c	0.11107096
218	0x3e391275	0.18073447
219	0xbd55e3c7	-0.05221918
220	0x3d849256	0.06473224
221	0xbd7e7836	-0.06212636
222	0xbe1130e8	-0.14178813
223	0x3e1204c7	0.14259635
224	0x3d9d592a	0.07683022
225	0x3e3a246e	0.1817796
226	0x3e0a3251	0.13495757
227	0xbdfe0c6b	-0.12404712
228	0xbdacb72e	-0.08433376
229	0x3d8c963d	0.06864593
230	0x3e3488d0	0.17630315
231	0xbe238df1	-0.15972115
232	0x3e5e3790	0.21700883
233	0x3e221b3e	0.15830705
234	0x3c2c9540	0.010533631
235	0xbe3fd17e	-0.18732259
236	0xbd9a7ae2	-0.07542969
237	0x3e2324ef	0.15932058
238	0x3da9a68f	0.08283722
239	0x3d81f4e8	0.0634554
240	0xbe2485f6	-0.16066727
241	0xbe289aeb	-0.16465347
242	0xbe22a02f	-0.15881418
243	0xbbe09820	-0.006854072
244	0xbbb2cc4a	-0.005456482
245	0xbdcc0401	-0.09961701
246	0x3e5fa50c	0.21840304
247	0xbe3fe801	-0.18740846
248	0xbe3aff77	-0.18261515
249	0xbe148eb9	-0.1450757
250	0xbdd4537c	-0.10367486
251	0x3b837ad0	0.004012443
252	0xbd49c7c5	-0.04926278
253	0x3c9c29c7	0.01906289
254	0x3e223a30	0.1584251
255	0xbe248e64	-0.16069943

layer1.0.bias f4 [16]
0	0xbe16f104	-0.14740378
1	0xbd35f212	-0.04442031
2	0xbdaef855	-0.08543459
3	0x3cbee220	0.023301184
4	0xbdd5d8c3	-0.10441735
5	0xbd702404	-0.058628097
6	0x3dbbfcf6	0.09179108
7	0x3de8f72b	0.113752685
8	0xbe283434	-0.16426164
9	0xbd771262	-0.060320266
10	0x3e0df251	0.13861968
11	0x3e134705	0.1438256
12	0xbd29bb5a	-0.041438438
13	0xbe4bfc73	-0.1992052
14	0x3d2f731c	0.042834386
15	0x3e07a0f8	0.13244998

layer1.1.weight f4 [16]
0	0x3f8ad08f	1.0844897
1	0x3f809241	1.0044633
2	0x3f75d361	0.96025664
3	0x3f7c761d	0.98617727
4	0x3f7e827d	0.9941786
5	0x3f7cf98e	0.9881829
6	0x3f7ed67c	0.9954603
7	0x3f869251	1.0513402
8	0x3f7859d6	0.9701208
9	0x3f815435	1.0103823
10	0x3f782f9d	0.9694765
11	0x3f7993d4	0.9749119
12	0x3f7d9cdc	0.99067473
13	0x3f7e2a86	0.99283636
14	0x3f815882	1.0105135
15	0x3f7a4acb	0.97770375

layer1.1.bias f4 [16]
0	0xbd4b41b6	-0.049623214
1	0xbd281f03	-0.0410452
2	0xbd8c1153	-0.06839242
3	0xbdb9fafd	-0.09081075
4	0xbd42e025	-0.047577042
5	0xbd695b1c	-0.056971654
6	0x3dcb39d2	0.09923138
7	0x3d223b19	0.03960714
8	0xbd445d0d	-0.047940303
9	0xbcd58726	-0.02606542
10	0xbd65ea05	-0.05613138
11	0xbd90adba	-0.07064386
12	0xbd240f9e	-0.040053956
13	0xbc19ba68	-0.009382822
14	0xbd512fe4	-0.051071063
15	0xbd7cc431	-0.06171054

layer1.1.running_mean f4 [16]
0	0xbe03ca06	-0.12870035
1	0xbe108c36	-0.14115986
2	0x3dada13b	0.08478018
3	0x3dc8665c	0.097851485
4	0xbdf4a7f8	-0.119461
5	0xbda244b8	-0.07923263
6	0x3db0b799	0.086287685
7	0x3ce84153	0.028351462
8	0x3dc261ea	0.09491332
9	0xbe0dd7fd	-0.13851924
10	0x3ebe489c	0.37164772
11	0x3ea09f27	0.31371424
12	0xbe755fd1	-0.23962332
13	0xbe4c2d3d	-0.19939132
14	0x3c338370	0.01095663
15	0x3ec96ff2	0.3934322

layer1.1.running_var f4 [16]
0	0x3cd0ba2c	0.025479399
1	0x3cf6649f	0.030077277
2	0x3d864046	0.06555228
3	0x3c91567e	0.017741438
4	0x3cc53d66	0.024077129
5	0x3ca3e641	0.020007255
6	0x3d209d0d	0.039212275
7	0x3d109b27	0.035304215
8	0x3dbb6554	0.09150186
9	0x3d08bc18	0.033382505
10	0x3d9294f4	0.07157317
11	0x3d1b8bac	0.037975
12	0x3d749bb6	0.05971881
13	0x3d1b08f2	0.037850328
14	0x3d2409ef	0.040048536
15	0x3d9fb03f	0.07797288

layer2.0.weight f4 [32, 16, 5, 5]
0	0x3d3b62f4	0.045748666
1	0xbd2237f3	-0.03960414
2	0xbd32e4ca	-0.04367522
3	0xbb999be1	-0.0046877717
4	0x3c647910	0.013944879
5	0xbd4374c5	-0.047718782
6	0xbd202f29	-0.039107475
7	0xbb4bf21e	-0.0031119655
8	0x3c0a408c	0.008438241
9	0xbc61d3c4	-0.013783399
10	0xbc7544c9	-0.014970013
11	0x3c9ee370	0.01939556
12	0xbbf161aa	-0.007366379
13	0x3d610f64	0.05494632
14	0x3cd9b07c	0.026573412
15	0xbca13f31	-0.019683452
16	0x3d1ed239	0.038774703
17	0x3d06bfed	0.03289788
18	0x3d0e96cf	0.03481179
19	0xbca6a74d	-0.020343447
20	0x3c835a5a	0.016034294
21	0xba8507a8	-0.0010149376
22	0xbc969aa4	-0.018384285
23	0x3cc0dd84	0.023543127
24	0xbd455170	-0.048173368
25	0xbd046d25	-0.03233065
26	0x3b849ac8	0.0040467717
27	0x3d11864f	0.035528477
28	0x3c60fc4c	0.013732027
29	0x3c34b2f3	0.011028993
30	0x3d26754a	0.0406392
31	0x3cd5b0e7	0.02608533
32	0xbb66c5a0	-0.0035213009
33	0x3d0d9153	0.03456242
34	0x3ce0e9c6	0.027455222
35	0x3b3d8604	0.002891899
36	0x3cb55135	0.02213345
37	0x3d5ecc4a	0.054394044
38	0x3c842494	0.016130723
39	0x3c068fac	0.008212965
40	0xbc57f92e	-0.013181968
41	0x3d0951a5	0.033525128
42	0x3d333c6a	0.043758787
43	0x3c771d10	0.015082613
44	0xbc48dd6a	-0.0122598205
45	0x3c397ba7	0.011320985
46	0xbc89f22f	-0.016839115
47	0xbcad054b	-0.021120688
48	0xbcd8308d	-0.026390338
49	0xbd0bb528	-0.03410831
50	0x3d107744	0.03526999
51	0xbb95efd3	-0.0045757084
52	0x3c985180	0.01859355
53	0xbc3638c6	-0.011121934
54	0xbbd2b408	-0.006430153
55	0x3caa62f6	0.020799141
56	0x3cfe584c	0.031047963
57	0xbbe99a36	-0.007128979
58	0xbd1d9574	-0.038472608
59	0xbd259066	-0.040420912
60	0x3cb351af	0.021889536
61	0xbb7d2339	-0.003862573
62	0xbbca551b	-0.006174696
63	0x3d1888cd	0.03723984
64	0xbd4b57e9	-0.049644385
65	0x3d23b387	0.039966132
66	0xbc9359aa	-0.017987091
67	0xbc84c8d2	-0.01620904
68	0xbd0f288b	-0.034950774
69	0xbd3284f7	-0.043583836
70	0x3c85fed6	0.016356867
71	0xbd238f8f	-0.03993183
72	0x3cf3cb94	0.02976016
73	0x3be47310	0.0069717243
74	0x3b9b4519	0.0047384617
75	0xbc749f6f	-0.01493059
76	0x3cedf00a	0.029045124
77	0x3bec8897	0.007218431
78	0xbbf5f9c6	-0.007506582
79	0x3c2f2dc6	0.010692066
80	0xbd125e66	-0.035734557
81	0xbcc8b7cd	-0.024501706
82	0xbcf82143	-0.030289298
83	0xbceeebff	-0.029165266
84	0xbd32da72	-0.043665357
85	0x3ccb94ef	0.02485129
86	0xbcf3753f	-0.029718993
87	0x3b6ef6f5	0.0036463116
88	0xbd57e464	-0.052708045
89	0xbd16b480	-0.036793232
90	0x3ca4d431	0.020120712
91	0x3cbcca2a	0.023045618
92	0x3d71d4fc	0.05904101
93	0xbcc208e0	-0.023685873
94	0xbd85cd8d	-0.06533346
95	0xbccea893	-0.025226867
96	0x3d25d03b	0.040481787
97	0x3d25a837	0.040443625
98	0x3c1cf574	0.009580005
99	0xbd842830	-0.06452978
100	0xbd262b21	-0.040568475
101	0x3c55f51f	0.01305893
102	0xba8f0601	-0.0010911823
103	0xbd2c6611	-0.042089526
104	0x3c3aa43c	0.011391696
105	0xbc2cc11d	-0.010544089
106	0xbc8aca98	-0.016942307
107	0x3599e014	1.1464604e-06
108	0x3ce0b108	0.027428165
109	0x3d014d7b	0.03156803
110	0xbcebd578	-0.028788313
111	0x3cf7a7d6	0.030231398
112	0x3cc9c9cd	0.024632359
113	0x3cedb0aa	0.029014904
114	0x3c9a6b87	0.018850101
115	0xbc593ec0	-0.01325959
116	0x3cb2bdae	0.021818962
117	0xbaa7d18a	-0.0012803536
118	0xbcc08273	-0.023499703
119	0x3c9d1e81	0.019179584
120	0xbc87c924	-0.016575404
121	0xbcec5ca0	-0.02885276
122	0xbc7935aa	-0.015210548
123	0x3cd36365	0.025804231
124	0x3d3330e6	0.043747805
125	0x3c908545	0.017641673
126	0xbcf97543	-0.030451423
127	0x3c23763e	0.009976922
128	0x3bce8b61	0.0063032364
129	0x3d156eab	0.036482494
130	0x3a3aa00e	0.0007119187
131	0x3cdfddc5	0.027327428
132	0x3c9546a6	0.018222164
133	0xbcfe7afb	-0.031064501
134	0xbccbf92f	-0.024899093
135	0x3cfb6d88	0.030691877
136	0x3d18dddd	0.03732096
137	0xbd46d997	-0.048547354
138	0x3d0aa002	0.033844
139	0xbba9bf4f	-0.0051802765
140	0xbcd4d7ba	-0.025981773
141	0xbccdd930	-0.025127977
142	0x3d113a0c	0.03545575
143	0xbd0a0f1d	-0.03370582
144	0x3c77d966	0.015127515
145	0xbcdcb9fb	-0.026944151
146	0x3cd8eed8	0.026481077
147	0xbcaa9bb0	-0.02082619
148	0xbc1b4554	-0.009476978
149	0x3d4aac4a	0.049480714
150	0xbc502698	-0.012704514
151	0x3d24ffcb	0.040283006
152	0x3cc68280	0.02423215
153	0x3cfdbbe3	0.03097338
154	0x3d279f13	0.04092319
155	0x3cfa8e80	0.030585527
156	0x3d13f6d3	0.03612406
157	0xbc776f65	-0.015102242
158	0xbbc759ae	-0.0060836887
159	0x3c298955	0.010347684
160	0xbd21d111	-0.039506022
161	0x3cbe92ee	0.02326342
162	0x3ce083aa	0.027406532
163	0x3d5105e1	0.051030997
164	0x3d851c34	0.0649952
165	0x3d20274f	0.039099988
166	0xbc6d8928	-0.014498033
167	0xbc2e942b	-0.010655443
168	0x3d9e5b42	0.0773225
169	0x3c2ef3b3	0.01067822
170	0xbcd41e37	-0.025893314
171	0x3a2dbbae	0.0006627393
172	0x3d502a73	0.050821733
173	0x3d8075f3	0.06272497
174	0xbae64147	-0.0017567062
175	0xbcb2c379	-0.021821724
176	0xbd047da9	-0.0323464
177	0xbce56af3	-0.028005099
178	0x3b9a708b	0.004713123
179	0xbc088ac9	-0.00833387
180	0x3d03ce62	0.032179244
181	0x3ccc5f70	0.024947852
182	0x3cecaa63	0.02888984
183	0x3cfc9567	0.03083296
184	0x3ce3706d	0.02776357
185	0x3bc76203	0.006084682
186	0x3d46ad8d	0.048505355
187	0x3d84fa00	0.06492996
188	0x3d5764da	0.052586414
189	0xbc00fbad	-0.007872504
190	0x3cb719a1	0.022351088
191	0x3b2de19f	0.0026532186
192	0x3d08645b	0.03329883
193	0x3d7f8d66	0.062390707
194	0xbcf3a71c	-0.02974277
195	0x3c8946e4	0.016757436
196	0x3a150d8e	0.0005685919
197	0x3d0ec73f	0.034857985
198	0xbc16f3c8	-0.009213395
199	0x3cc67454	0.024225391
200	0x3d310115	0.043213923
201	0x3d6e579a	0.058189012
202	0x3cc4f0c3	0.024040585
203	0x3c15dd41	0.009146989
204	0x3ce18311	0.027528318
205	0x3d286dc2	0.0411203
206	0xbd02d59a	-0.031941988
207	0xbd49bd1e	-0.04925262
208	0x3d183118	0.037156194
209	0xbd4b973a	-0.049704768
210	0xbc316be5	-0.010828947
211	0xbb82f2fb	-0.0039962507
212	0x3b2ba2e2	0.0026189615
213	0xbc6d6b70	-0.014490947
214	0xbd757cdf	-0.05993354
215	0xbd1d648e	-0.038425975
216	0xbc52d508	-0.012868173
217	0x3d2dc620	0.042425275
218	0xbcedd359	-0.029031442
219	0x3c92c0d5	0.017914215
220	0x3c59c971	0.013292656
221	0xbb3dae1d	-0.002894289
222	0xbbddf01e	-0.006773009
223	0xbd28a0f0	-0.041169107
224	0x39848230	0.00025274
225	0x3ac1f861	0.0014798754
226	0x3bbb8c11	0.0057234843
227	0x3d40bdec	0.047056124
228	0xbc5715dd	-0.013127771
229	0xbcebb4d8	-0.028772756
230	0xbd1c6ec3	-0.038191568
231	0x3c18d6ad	0.009328526
232	0x3d144936	0.036202632
233	0xbd15a838	-0.03653738
234	0xbd27f616	-0.04100617
235	0x3cca5f3a	0.02470361
236	0x3c4ed730	0.012624547
237	0xbc63d588	-0.01390589
238	0x3d1c28e0	0.03812492
239	0x3bf9254a	0.007603322
240	0xbce90978	-0.028446898
241	0x3c298c8a	0.0103484485
242	0xbb9564f8	-0.0045591556
243	0x3c1d78e5	0.009611343
244	0x3c5e251e	0.013558654
245	0xbd1d883c	-0.03846
246	0xbb870b48	-0.004121218
247	0xbd06ea1a	-0.0329381
248	0x3cab0af8	0.020879254
249	0x3be8d28e	0.007105178
250	0xbd0b48e9	-0.03400508
251	0xbd1a4b66	-0.03766956
252	0xbd5258de	-0.05135428
253	0x3c9030ba	0.01760136
254	0xbc5efa59	-0.013609492
255	0xbcfc926d	-0.03083154

layer2.0.bias f4 [32]
0	0xbcbe5157	-0.023232145
1	0x3d17a8f6	0.037026368
2	0xbbfc4e87	-0.007699791
3	0xbd12268a	-0.035681285
4	0x3cd4b35c	0.025964431
5	0xbc97d214	-0.01853279
6	0xbc48a239	-0.012245708
7	0xbd06dc31	-0.032924835
8	0x3d308ba3	0.043101918
9	0xbd04da9c	-0.032435045
10	0x3d19bd81	0.03753424
11	0x3cdf6686	0.027270567
12	0x3bd9523a	0.0066321166
13	0xbc9c3a0f	-0.019070653
14	0x3d1b68a6	0.037941597
15	0x3b849e9a	0.004047227
16	0x3d32d550	0.043660462
17	0xbcffac8b	-0.031210205
18	0x3d1ee724	0.03879465
19	0x3c4af61b	0.012387778
20	0x3d159a3e	0.03652405
21	0xbafe2e75	-0.0019392507
22	0x3cd3212c	0.025772654
23	0x3d4628fc	0.04837893
24	0x3c52de6f	0.012870415
25	0x3c2cb5df	0.010541408
26	0xbd38e7b2	-0.045142837
27	0xbb8693a7	-0.004106957
28	0xbd2a47b4	-0.041572288
29	0x3d3e58d1	0.04647142
30	0x3d210d0d	0.039319087
31	0x3c86dbc6	0.016462218

layer2.1.weight f4 [32]
0	0x3f3710a9	0.71509796
1	0x3f29b514	0.6629193
2	0x3f457cc0	0.7714348
3	0x3f38bbce	0.7216157
4	0x3f2c3ce6	0.67280424
5	0x3f3d7f07	0.74021953
6	0x3f3c022c	0.73440814
7	0x3f3e8319	0.7441879
8	0x3f34966e	0.7054204
9	0x3f412227	0.7544274
10	0x3f31a41a	0.69391024
11	0x3f306dde	0.68917644
12	0x3f340909	0.70326287
13	0x3f383bd5	0.71966296
14	0x3f498d0d	0.7873085
15	0x3f36a786	0.7134937
16	0x3f344ccc	0.7042968
17	0x3f365495	0.7122281
18	0x3f40ea6b	0.75357693
19	0x3f3b726e	0.7322148
20	0x3f2f69b7	0.68520683
21	0x3f3fa76c	0.7486484
22	0x3f380a96	0.7189115
23	0x3f381121	0.71901137
24	0x3f33d87f	0.7025222
25	0x3f0f1665	0.55893546
26	0x3f2b1050	0.66821766
27	0x3f49c7d4	0.7882054
28	0x3f4f4c06	0.8097538
29	0x3f39fb22	0.72648823
30	0x3f35dd91	0.7104121
31	0x3f410290	0.75394535

layer2.1.bias f4 [32]
0	0xbecda4eb	-0.40164885
1	0xbed0cc88	-0.40781045
2	0xbedc68f5	-0.43048826
3	0xbebf4be6	-0.37362593
4	0xbec280fb	-0.3798903
5	0xbeaa30a5	-0.33240238
6	0xbeb1d1b5	-0.34730306
7	0xbec3cc4f	-0.38241813
8	0xbec33c12	-0.38131768
9	0xbec50357	-0.3847911
10	0xbecd7eb1	-0.4013572
11	0xbec45ee0	-0.38353634
12	0xbec5f10c	-0.38660467
13	0xbecd9ca2	-0.40158564
14	0xbedc5183	-0.43030939
15	0xbed2e3ed	-0.4118952
16	0xbed1128c	-0.40834463
17	0xbecf8a56	-0.4053523
18	0xbec3de7f	-0.3825569
19	0xbecc03db	-0.3984669
20	0xbec536be	-0.38518327
21	0xbeaf0668	-0.34184575
22	0xbec10c93	-0.37704906
23	0xbeba78c4	-0.36420262
24	0xbebcd407	-0.36880514
25	0xbec4f551	-0.38468412
26	0xbec14ca3	-0.37753782
27	0xbec84171	-0.39112428
28	0xbedf014b	-0.43555674
29	0xbecfec42	-0.40609938
30	0xbec191ed	-0.37806645
31	0xbecfd531	-0.4059234

layer2.1.running_mean f4 [32]
0	0x3c8fb64a	0.017542977
1	0xbd9a17d8	-0.07524079
2	0xbdcbe8fc	-0.099565476
3	0xbec869eb	-0.3914331
4	0x3e544d1d	0.20732541
5	0xbf064ae2	-0.5245801
6	0xbf03630d	-0.51323014
7	0xbf0e8df7	-0.5568537
8	0xbe38c54f	-0.18044017
9	0xbda76aad	-0.08174644
10	0xbd7e88f0	-0.062142313
11	0xbe15653d	-0.145894
12	0xbe1537a0	-0.14572
13	0xbdb25d91	-0.087092526
14	0xbe729ea6	-0.23693332
15	0x3e88c684	0.26713955
16	0x3e307607	0.17232524
17	0xbc497917	-0.0122969365
18	0x3e1aa7b0	0.1510303
19	0xbe594e03	-0.21221165
20	0x3dfeffe9	0.12451155
21	0xbeb4dd8c	-0.35325277
22	0xbe9a0df8	-0.30088782
23	0xbedae115	-0.4274985
24	0xbe276ef9	-0.16350926
25	0x3f82e500	1.0226135
26	0xbf0dcda4	-0.5539191
27	0xbeaabaa3	-0.33345518
28	0xbf0a41e1	-0.54006773
29	0xbdae2b32	-0.085043326
30	0xbeb5ead9	-0.35530737
31	0x3c34613c	0.011009511

layer2.1.running_var f4 [32]
0	0x3ef89808	0.4855349
1	0x3eb11f93	0.34594402
2	0x3ec5b2bf	0.38612935
3	0x3efb014e	0.49024433
4	0x3eb83137	0.35975048
5	0x3f5bef26	0.85911787
6	0x3f3bedaa	0.7340952
7	0x3f04be00	0.51852417
8	0x3f0283de	0.50982463
9	0x3f374ebc	0.71604514
10	0x3efbef9f	0.49206254
11	0x3eb0c2d6	0.34523648
12	0x3eaadfdd	0.3337392
13	0x3f00ce1a	0.50314486
14	0x3ed5a4ed	0.4172739
15	0x3ed7f3fe	0.4217834
16	0x3eee45ca	0.4653762
17	0x3ec63153	0.38709506
18	0x3f047c44	0.51752114
19	0x3f0ced65	0.55049735
20	0x3ecf561a	0.40495378
21	0x3f530f5f	0.8244533
22	0x3edf40c7	0.4360411
23	0x3f3e35cf	0.74300855
24	0x3ee2c473	0.44290504
25	0x3f1ab8f2	0.60438454
26	0x3f1013a2	0.5627996
27	0x3ece6b8e	0.40316433
28	0x3ee2b213	0.44276485
29	0x3ebe4e8c	0.37169302
30	0x3ec6c508	0.38822198
31	0x3f199239	0.59988743

fc.weight f4 [10, 1568]
0	0xbc0ed9a6	-0.008718884
1	0x3cb9038a	0.022584695
2	0x3c986776	0.018604022
3	0xbc9b8ab5	-0.01898704
4	0x3c945050	0.018104702
5	0xbbf423ab	-0.007450541
6	0xbd021458	-0.031757683
7	0x3d1c57b3	0.038169574
8	0xbcb13dba	-0.021635879
9	0xbbe56a9b	-0.0070012338
10	0x3c4938bc	0.012281593
11	0x3d1be0d6	0.038056217
12	0xba9b360b	-0.0011841668
13	0x3b8612b8	0.004091587
14	0xbc84086d	-0.016117299
15	0xbcfd1fb7	-0.030898912
16	0x3ba47ec9	0.005019997
17	0xbd0c0277	-0.03418204
18	0x3b4953a9	0.0030720031
19	0xbb7145c3	-0.0036815263
20	0xbd16d611	-0.036825243
21	0xbc8a4c1a	-0.016881991
22	0x3be7e4d4	0.007076839
23	0xb9957000	-0.0002850294
24	0xbc87c5a0	-0.016573727
25	0xbc2f2c46	-0.010691708
26	0xbc4cdfc6	-0.012504524
27	0x3ca89420	0.020578444
28	0xbc6f8703	-0.014619592
29	0x3c3fc6ea	0.01170514
30	0x3c8da4e4	0.01729054
31	0xbbac3944	-0.00525585
32	0xbcb35bfc	-0.021894448
33	0xbce6c7fe	-0.028171536
34	0xba1ce937	-0.00059856795
35	0xbd3ce589	-0.04611734
36	0x3b8e7c6c	0.0043483283
37	0xbc3524f9	-0.011056178
38	0xbc5d5036	-0.013507893
39	0xbcf3852a	-0.029726584
40	0x3a62925a	0.0008643024
41	0xbd128cde	-0.035778873
42	0xbbd81f0f	-0.0065954993
43	0xbcb76d92	-0.022391114
44	0xbcc9ca8c	-0.024632715
45	0xbd12bf32	-0.03582687
46	0xbc080868	-0.008302785
47	0xbcbdfb00	-0.023190975
48	0xbbc4e49c	-0.0060086977
49	0xbaf4aeda	-0.0018667832
50	0xbce5c2ca	-0.028046984
51	0x3c8770ce	0.016533282
52	0xbbad6f7f	-0.0052928324
53	0x3af81cff	0.001892954
54	0xbc106659	-0.008813464
55	0xbc9e6e68	-0.019339755
56	0xbca42f76	-0.020042162
57	0xbac4262b	-0.0014964988
58	0x3c0b54b2	0.00850408
59	0xbcbf4e94	-0.023352899
60	0xbc181d14	-0.0092842765
61	0x3c8ab6d7	0.016932888
62	0xbd1c165f	-0.038107272
63	0x3c2142ab	0.009842555
64	0xbc31f6ff	-0.010862111
65	0x3c88c4b2	0.016695354
66	0x3caabd90	0.020842344
67	0xbc2a4a6d	-0.010393721
68	0xbc9514b2	-0.018198345
69	0x3c8f4269	0.017487722
70	0xbc65a5a2	-0.014016541
71	0x3d4877c7	0.048942354
72	0xbc27e421	-0.010247261
73	0x3a175b0c	0.000577376
74	0x3c962e1f	0.01833254
75	0xbcf42e38	-0.029807195
76	0xbcf456bb	-0.029826513
77	0xbca3dad0	-0.020001799
78	0x3c2eed1d	0.010676649
79	0x3cd87a80	0.0264256
80	0x3ca9eb28	0.020742014
81	0xbbbb7d85	-0.00572175
82	0x3c16fb76	0.009215226
83	0xbc56e576	-0.013116231
84	0xbcf100db	-0.029419353
85	0xbb6468d9	-0.0034852533
86	0xbb53ac26	-0.0032298653
87	0xbbbba472	-0.0057263905
88	0xbc07e370	-0.008293971
89	0xbd5043cc	-0.050845906
90	0xbc1a5890	-0.009420529
91	0xbb84fa65	-0.0040581697
92	0xbcd5996b	-0.026074132
93	0x3bdbfd86	0.006713572
94	0xbaf35d5c	-0.0018567252
95	0x3bc42bce	0.0059866672
96	0xbcf38cb7	-0.029730184
97	0x3b2a56a6	0.0025991588
98	0xba4ddf85	-0.00078534364
99	0x3d1a503b	0.03767417
100	0x3d2d31db	0.042283874
101	0x3c9fb26c	0.019494258
102	0x3c193b94	0.009352583
103	0x3c38d73f	0.011281787
104	0xbd0425c1	-0.032262567
105	0xbc92d786	-0.017925035
106	0x3d74506e	0.059647016
107	0x3bb37ddd	0.0054776506
108	0x3bff29c8	0.007786963
109	0xbce54f23	-0.027991837
110	0x3c499ebd	0.012305913
111	0xbd133d13	-0.035946917
112	0xbb83c379	-0.004021105
113	0x3d98b8e1	0.07457138
114	0x3cf7eaa5	0.030263254
115	0x3bb9ef47	0.005674276
116	0x3ca75efb	0.020431032
117	0x3c837ebf	0.016051648
118	0x3cf1444d	0.029451514
119	0xbc6a49bf	-0.014299809
120	0x3c1f7793	0.009733099
121	0xbb2b4a0e	-0.002613667
122	0xbc14f4b4	-0.009091545
123	0xbcec17b5	-0.028819898
124	0xbc0f27e3	-0.008737537
125	0xbd033613	-0.03203399
126	0x3b4c9576	0.0031217015
127	0xbcf00d4f	-0.029303221
128	0xba6ddfa9	-0.00090741605
129	0xbc593b83	-0.013258818
130	0x3cc59695	0.024119655
131	0xbc571d6d	-0.013129574
132	0xbce8c5df	-0.028414665
133	0xbc93c45c	-0.018037967
134	0xbcca87b9	-0.02472292
135	0xb9a9aaa2	-0.00032361323
136	0xbcb13d6e	-0.021635737
137	0xbc57ef3f	-0.013179599
138	0x3b83136a	0.004000117
139	0x3b26b0a3	0.0025434874
140	0xbc313df9	-0.010817998
141	0xbbf625e0	-0.0075118393
142	0x3c811134	0.015755273
143	0xbbfa83f1	-0.007645123
144	0x3b40497e	0.002934068
145	0x3c41e6f9	0.011834853
146	0x3bffb9be	0.0078041246
147	0x3d1dba5c	0.038507804
148	0x3c6656c8	0.014058776
149	0xbd4a842f	-0.049442466
150	0x3bae17c6	0.0053128926
151	0x3be3ae60	0.0069482774
152	0x3c8c5d5e	0.017134365
153	0xbc846fd6	-0.016166609
154	0x3d495dd1	0.049161736
155	0x3b580595	0.0032962312
156	0xbbe01cb6	-0.00683936
157	0x3a5b31be	0.0008361599
158	0x3d0044b7	0.03131553
159	0xbc54267e	-0.01294863
160	0xbc8a1634	-0.01685629
161	0xbc06e6ec	-0.008233767
162	0xbd65be4d	-0.056089688
163	0xbc8b3ce8	-0.016996816
164	0xbc91f186	-0.017815363
165	0xbd1c1485	-0.038105506
166	0xbd0a622c	-0.03378503
167	0xbcb29da7	-0.02180369
168	0xbc798bad	-0.015231055
169	0x3c31ac51	0.010844306
170	0xbcfd2977	-0.030903561
171	0x3cadaaca	0.021199603
172	0x3c5810b8	0.01318758
173	0xbcae5cde	-0.021284517
174	0xbad9c6cf	-0.0016615036
175	0xbd126cd6	-0.035748325
176	0x3cab9067	0.02094288
177	0x3c6de642	0.01452023
178	0x3c5e76b8	0.013578109
179	0x3c4288ef	0.011873468
180	0xbd3ccb78	-0.04609248
181	0xba58e79d	-0.0008274259
182	0xbc98a711	-0.018634351
183	0x3d1c707b	0.038193207
184	0x3b102e98	0.0022000428
185	0xbc91a695	-0.017779628
186	0xbcde2a19	-0.027119683
187	0xbc8370d6	-0.016045015
188	0xbc2387c8	-0.009981103
189	0xbd60ac3c	-0.054851755
190	0x3c224a84	0.009905461
191	0x3b87a4eb	0.004139533
192	0xbcb31542	-0.021860722
193	0xbd3bc403	-0.04584123
194	0xbcb095d7	-0.021555824
195	0xbcf5628a	-0.029954214
196	0xbd13c054	-0.03607209
197	0xbd4d570e	-0.05013185
198	0xbca09abc	-0.019605033
199	0xbac5f7a7	-0.0015103713
200	0x3d1fc099	0.039002035
201	0xbbacab3c	-0.005269436
202	0xbc815418	-0.01578717
203	0xbd273ed2	-0.040831394
204	0xbcdb0467	-0.026735498
205	0x3b9cb145	0.0047818744
206	0x3cb3c916	0.021946471
207	0x3c9b7e83	0.018981224
208	0xbca96777	-0.020679219
209	0xbd3e8073	-0.046509217
210	0x38ee1a7c	0.000113536575
211	0xbcab6585	-0.020922432
212	0xbc0decb7	-0.008662394
213	0xbb55d4f6	-0.0032628155
214	0x3c538c60	0.012911886
215	0xbc10b243	-0.008831563
216	0xbd1d42d9	-0.03839383
217	0x3d85b8c9	0.065293856
218	0x3c25ff82	0.010131719
219	0xbc2d8573	-0.010590899
220	0xbbe8b858	-0.0071020536
221	0x3c2796a6	0.0102287885
222	0x3d2c5b4b	0.04207925
223	0xbc38a364	-0.011269424
224	0x3c2d903a	0.010593468
225	0xbc6ddb7d	-0.014517662
226	0xbb87b470	-0.004141383
227	0xbc3950ca	-0.0113107655
228	0xbcbb4612	-0.02286056
229	0x3cd79367	0.026315404
230	0xbb0e2a66	-0.0021692752
231	0xbb72252b	-0.0036948423
232	0xbbb73b31	-0.005591773
233	0x3ca9bf61	0.02072114
234	0xbc64d404	-0.013966564
235	0x3b7bf379	0.0038444682
236	0xbc535ea2	-0.01290098
237	0xbc59b863	-0.01328859
238	0xbc62aef5	-0.013835658
239	0xbd5e7628	-0.0543119
240	0xba8d8b6e	-0.0010799
241	0xbaeebdb2	-0.0018214493
242	0xbce509bc	-0.027958743
243	0xbc75ce15	-0.015002747
244	0x3b7c09c0	0.003845796
245	0xbcbdb45f	-0.023157297
246	0x3d20b077	0.03923079
247	0x3cfb7d1a	0.030699302
248	0x3ca62c0f	0.02028468
249	0x3be53ef9	0.0069960323
250	0x3ce4e5b0	0.027941555
251	0x3c3c4d67	0.0114930635
252	0xbbbe0e25	-0.005800026
253	0x3c1a19fb	0.009405608
254	0x3bc02f07	0.005864981
255	0x39fc9d9e	0.0004818262

fc.bias f4 [10]
0	0xbcbab2b2	-0.022790287
1	0x3c47c238	0.012192301
2	0xbd021f73	-0.031768274
3	0xbd27159f	-0.040792104
4	0xbc566aef	-0.013087018
5	0x3cea350a	0.028589744
6	0x3d3e0e42	0.046400316
7	0x3c968aa6	0.01837666
8	0x3c3ed231	0.011646793
9	0xbc20fb2b	-0.009825508
