result/mnist/seed12/noniid_0.8/ratio_0.2/final.pt (torch, 75941 bytes, 6 tensors)

cnn1.weight f4 [16, 1, 5, 5]
-0.048491813 -0.13764827 -0.034607552 0.058827024 0.008742982 -0.18033604 0.027421514 -0.090068705
0.14374185 0.13227233 -0.15156288 0.06992473 0.06780258 0.09950252 0.033952165 -0.1485241
0.21875766 0.16800687 -0.14132461 -0.030573366 0.09135846 -0.14231849 -0.119642444 0.1372126
0.09782241 -0.099078745 -0.09672224 0.019785348 0.025788382 0.06086283 -0.045581006 0.12057021
-0.100579135 -0.10506722 -0.08710215 -0.14912648 0.027257642 -0.14735916 -0.14984667 0.12214101
0.078879766 -0.15213351 -0.08524041 -0.15933259 0.07933596 -0.020743486 0.088452466 -0.15715645
-0.07580722 0.22669509 0.1762976 0.26892287 0.1963984 0.3170294 0.28630766 -0.15532741
-0.07713446 0.34228885 0.25455162 0.12053121 0.13646041 -0.14464173 0.21990696 0.19151723
0.12384934 -0.004288059 -0.07974182 0.08054716 0.19469449 0.082243785 -0.16452321 -0.17535365
-0.057022884 -0.14188083 -0.08054437 0.061968453 -0.15823704 0.19520229 0.026177809 0.082605176
0.027011037 -0.14772165 0.13510233 -0.070472635 -0.0032794925 0.13429189 0.023129093 0.20701353
-0.01183242 0.17032513 0.070542686 0.15624385 0.044411436 -0.053651806 0.12911263 0.06513839
-0.16526014 -0.18399628 -0.19441316 0.24712087 0.042684354 0.06245485 0.072737075 0.0022157205
0.22157495 0.15704317 -0.09410438 0.1432599 0.2056849 0.043009378 0.011214129 0.033140566
-0.17397313 -0.13573222 0.19689023 -0.21637467 0.0090251155 -0.2187034 -0.09293659 -0.036484357
-0.013635507 -0.121371076 0.055643212 0.015391861 -0.18688634 0.079092555 0.2981078 0.27376327
-0.057603266 0.12600672 -0.11275319 0.26643094 0.14933766 0.093863845 -0.15127648 -0.08863012
-0.15658009 0.1324339 -0.15770872 -0.07253182 -0.051170498 0.086518645 0.067668036 0.06253969
0.16291133 -0.029996661 -0.018352816 -0.07014321 -0.04936477 -0.16400754 0.13324311 0.25293586
0.20164098 0.10776915 -0.094977796 -0.13752921 0.29073328 0.022102013 -0.08860239 -0.20209531
-0.08599844 0.15589105 0.18901058 -0.20597811 -0.22883858 0.018268289 -0.07142267 0.19263692
-0.055763517 -0.21420915 0.066063866 0.19243467 0.04361592 -0.19291481 -0.03196071 -0.1711829
0.120240554 0.014729551 0.070958145 -0.033800475 -0.17179413 0.08342624 0.21819004 -0.030327879
-0.09778059 -0.1543168 0.020594135 0.242306 -0.0577218 -0.07894686 0.14493436 -0.12415918
0.0084249135 -0.05606146 -0.008254015 -0.11856254 0.025082693 0.04806993 0.050015576 -0.106735
0.052552357 -0.1556236 0.08058597 0.10583349 -0.036569662 -0.024340218 0.04321452 0.23239945
0.2901203 -0.16745482 0.181011 0.1747776 0.3867335 0.33034566 -0.032825764 -0.06454255
0.21003658 0.24242537 0.2890621 -0.019060152 0.03907249 -0.08814798 -0.13415667 0.19180302
0.11513425 0.28592426 0.25413594 -0.016301926 -0.018586798 0.13520074 0.26684687 -0.012607
0.34183446 0.25307384 0.08844246 -0.19077975 -0.06610289 0.16720134 0.10840498 0.07662672
-0.2264733 -0.2635398 -0.24167721 -0.0550967 -0.056330767 -0.17331557 0.11004963 -0.268824
-0.262819 -0.23739621 -0.113782704 0.018326443 -0.035919175 0.025143318 0.15025961 -0.1632388
00000000: 5a9f 46bd abf3 0cbe a6c0 0dbd 9bf4 703d
00000010: b93e 0f3c 03aa 38be 15a3 e03c f175 b8bd
00000020: 1031 133e 6672 073e 4d33 1bbe b234 8f3d
00000030: 14dc 8a3d fac7 cb3d 6d11 0b3d b416 18be
00000040: 0202 603e fe09 2c3e 66b7 10be ff74 fabc
00000050: 251a bb3d f0bb 11be 1907 f5bd 7681 0c3e
00000060: 1e57 c83d cce9 cabd 4f16 c6bd e214 a23c
00000070: 2842 d33c 4e4b 793d 26b3 3abd 84ed f63d
00000080: 6ffc cdbd 7c2d d7bd 9d62 b2bd 9db4 18be
00000090: 6b4b df3c 52e5 16be 6871 19be 1125 fa3d
000000a0: b78b a13d e3c8 1bbe 8692 aebd 1528 23be
000000b0: e47a a23d 3eee a9bc 9126 b53d 9fed 20be
000000c0: d140 9bbd c222 683e 5c87 343e 42b0 893e
000000d0: aa1c 493e ad51 a23e eb96 923e 260e 1fbe
000000e0: acf8 9dbd 7c40 af3e 9754 823e 11d9 f63d
000000f0: 47bc 0b3e f61c 14be 4a2f 613e 181d 443e
00000100: b9a4 fd3d d982 8cbb ae4f a3bd e9f5 a43d
00000110: fe5d 473e 6e6f a83d c678 28be e88f 33be
00000120: d490 69bd 3549 11be 72f4 a4bd a2d2 7d3d
00000130: e408 22be 1ce3 473e d872 d63c e72c a93d
00000140: 4046 dd3c 5844 17be 4458 0a3e f553 90bd
00000150: c1ec 56bb d083 093e 3979 bd3c 5bfb 533e
00000160: c4dc 41bc b669 2e3e af78 903d 63fe 1f3e
00000170: c4e8 353d ffc1 5bbd 1a36 043e 4767 853d
00000180: f439 29be 8569 3cbe 3e14 47be 410d 7d3e
00000190: cad5 2e3d a8d0 7f3d 2df7 943d 9f35 113b
000001a0: 8be4 623e edcf 203e ccb9 c0bd b9b2 123e
000001b0: 109f 523e 9a2a 303d 77bb 373c 67be 073d
000001c0: 0326 32be 63fd 0abe 989d 493e 5291 5dbe
000001d0: 14de 133c c9f3 5fbe 8a55 bebd 9f70 15bd
000001e0: 7667 5fbc 6691 f8bd 23ea 633d 252e 7c3c
000001f0: 225f 3fbe 47fb a13d 96a1 983e b32a 8c3e
00000200: 67f1 6bbd e807 013e 25eb e6bd a369 883e
00000210: f9eb 183e b03b c03d 39e8 1abe b583 b5bd
00000220: 8856 20be c19c 073e 657e 21be 908b 94bd
00000230: 2898 51bd b030 b13d 8a95 8a3d cf14 803d
00000240: 3ad2 263e 8fbb f5bc a558 96bc 3ea7 8fbd
00000250: b732 4abd 98f1 27be e270 083e cf80 813e
00000260: f97a 4e3e 12b6 dc3d b883 c2bd 75d4 0cbe
00000270: feda 943e 480f b53c 2b75 b5bd 13f2 4ebe
00000280: f31f b0bd e7a1 1f3e fd8b 413e edeb 52be
00000290: a954 6abe 61a7 953c 0c46 92bd 9d42 453e
000002a0: 4968 64bd a559 5bbe 7e4c 873d 980d 453e
000002b0: 9ba6 323d 768b 45be 3ce9 02bd 924a 2fbe
000002c0: ae40 f63d 3754 713c 8152 913d 5e72 0abd
000002d0: cdea 2fbe 60db aa3d 366d 5f3e 2c72 f8bc
000002e0: 3141 c8bd 3905 1ebe 08b5 a83c 101f 783e
000002f0: b26d 6cbd e4ae a1bd ac69 143e 2b47 febd
00000300: a608 0a3c b4a0 65bd d93b 07bc ebd0 f2bd
00000310: 387a cd3c fae4 443d 22dd 4c3d e197 dabd
00000320: 2441 573d cb5b 1fbe 420a a53d 3bbf d83d
00000330: 12ca 15bd 2365 c7bc b501 313d 1ffa 6d3e
00000340: a68a 943e 4779 2bbe f35a 393e e6f8 323e
00000350: ef01 c63e 1123 a93e 4f74 06bd e22e 84bd
00000360: d413 573e 5b3e 783e f3ff 933e 0924 9cbc
00000370: 7a0a 203d ee86 b4bd 5e60 09be 0368 443e
00000380: 81cb eb3d aa64 923e 1b1e 823e 9e8b 85bc
00000390: 5743 98bc 1072 0a3e 27a0 883e 978d 4ebc
000003a0: ed04 af3e e592 813e 5221 b53d c45b 43be
000003b0: f460 87bd d436 2b3e 6e03 de3d 78ee 9c3d
000003c0: 9ee8 67be b0ee 86be 3b7a 77be 14ad 61bd
000003d0: 17bb 66bd a379 31be b361 e13d 4da3 89be
000003e0: 3690 86be fe17 73be e806 e9bd 5621 963c
000003f0: fc1f 13bd 5cf9 cd3c a8dd 193e 1228 27be

cnn1.bias f4 [16]
-0.13333952 -0.013962818 -0.012258871 0.032430205 -0.06918203 -0.014466139 0.11254367 0.122834116
-0.102167115 0.010863557 0.18027301 0.17097539 -0.016641498 -0.17371234 0.09338424 0.16248
00000000: 288a 08be 4ec4 64bc 6fd9 48bc 89d5 043d
00000010: 4faf 8dbd 6203 6dbc 4c7d e63d 7490 fb3d
00000020: fe3c d1bd 10fd 313c 7d99 383e 2c14 2f3e
00000030: c053 88bc a6e1 31be 3d40 bf3d 2861 263e

cnn2.weight f4 [32, 16, 5, 5]
0.040354677 -0.033967953 -0.032268092 -0.017950157 0.012234105 -0.050573952 -0.035418693 -0.0056449934
0.0028985064 0.0005872716 -0.010823674 0.0034949635 -0.026373137 0.03642366 0.031130986 -0.02462465
0.023761034 0.010314269 0.032936946 -0.013485546 0.019105684 0.005317225 -0.01575586 0.036548108
-0.045323066 -0.04699333 0.018303527 0.013877567 0.016518952 0.017719364 0.025927452 0.02716906
-0.032112695 0.027216991 0.02850006 -0.01789516 0.018217292 0.037764512 0.019255886 0.00091979397
-0.020168748 0.04486367 0.034820892 0.019042 -0.028056635 0.020734992 0.013588034 -0.026574511
-0.009336576 -0.04493774 0.062111437 0.016948152 0.032417458 0.0010388352 0.0005085197 0.035286773
0.03690468 -0.002524647 -0.024320979 -0.03039687 0.0006369343 -0.0173726 -0.0037837492 0.043707784
-0.05119131 0.027427172 -0.013311246 -0.010112875 -0.046194423 -0.043930702 0.01342683 -0.035145424
0.032272007 -0.015129458 0.0061862036 -0.008162795 0.04443423 0.016093211 0.0022577469 0.020704847
-0.03786587 -0.02347406 -0.03210984 -0.018007519 -0.027464585 0.023820711 -0.039799225 -0.004024813
-0.045832153 -0.027604956 0.026363442 0.020471409 0.05139186 -0.006519837 -0.046752702 -0.024007823
0.03587241 0.023406962 0.020538084 -0.05340558 -0.035411503 0.02973774 0.011983762 -0.03154005
0.014931773 -0.0020304935 0.006317429 0.013514736 0.042363737 0.04554259 -0.025087075 0.044752095
0.025094742 0.029339649 0.023073468 -0.035805427 0.021083996 -0.009210999 -0.027621273 0.028619185
-0.026031042 -0.025122674 -0.018276783 0.030236505 0.047840826 0.03817882 -0.0130790565 0.03094412
0.0068657137 0.048267886 0.021184357 0.042443525 0.02909363 -0.048515446 -0.02681283 0.03709712
0.04447938 -0.04712637 0.032768007 8.450257e-05 -0.041943442 -0.0441779 0.032679796 -0.04613869
0.00055465143 -0.03461007 0.027613064 -0.021170255 -0.025630966 0.0332942 -0.0034725757 0.029810514
0.02804939 0.038948007 0.054694805 0.041253455 0.027102293 -0.029263731 -0.022545101 0.00500484
-0.029314617 0.026380176 0.011803831 0.02717105 0.05281621 0.052168455 -0.022490658 -0.024795203
0.03844526 -0.023088098 -0.009921325 0.004147908 0.03383087 0.023241263 -0.03853774 -0.014682304
-0.04126838 -0.020190632 -0.0007644557 -0.012097945 0.0432168 0.013810049 0.030981619 0.021409126
0.03531263 0.022562249 0.04237104 0.04966983 0.0394653 -0.009355741 0.03444273 0.00038614686
0.01578799 0.039954506 -0.030944046 0.029550625 0.013385707 0.04276138 -0.011601879 0.031631127
0.04754633 0.054972973 0.023718059 0.013269471 0.037558593 0.023041356 -0.056504533 -0.06240186
0.0430673 -0.03432046 -0.01281122 -0.016222408 -0.005636842 -0.026598612 -0.06453651 -0.036045596
-0.010936732 0.036903206 -0.050997227 0.011121669 0.023119906 0.005499222 -0.0066072834 -0.061775777
-0.0008008916 0.009450409 0.022620637 0.052153222 -0.012101159 -0.031155406 -0.023007298 0.031743538
0.05435372 -0.0117994165 -0.033043157 0.027959181 0.038471993 0.0001022057 0.05133591 0.010693022
-0.042969923 0.02546664 0.0076857167 0.024113659 0.015846271 -0.04818015 0.0032048738 -0.02120875
0.03534942 0.01001349 -0.03835686 -0.03866766 -0.04608517 0.022657288 -0.0041590505 -0.055960257
00000000: f24a 253d fb21 0bbd 8c2b 04bd 350c 93bc
00000010: 8e71 483c a226 4fbd 3113 11bd a3f9 b8bb
00000020: def4 3d3b 21f3 193a c755 31bc c20b 653b
00000030: 7a0c d8bc fa30 153d 6906 ff3c a2b9 c9bc
00000040: 80a6 c23c 2efd 283c e4e8 063d 7bf2 5cbc
00000050: 8683 9c3c 1e3c ae3b 6f12 81bc 78b3 153d
00000060: aea4 39bd 147c 40bd 47f1 953c bc5e 633c
00000070: c152 873c 3328 913c cf65 d43c a691 de3c
00000080: 9a88 03bd 2bf6 de3c f578 e93c df98 92bc
00000090: 6e3c 953c f6ae 1a3d 85be 9d3c 541e 713a
000000a0: ee38 a5bc f8c2 373d 5aa0 0e3d f8fd 9b3c
000000b0: 07d7 e5bc 6edc a93c 58a0 5e3c cab2 d9bc
000000c0: 70f8 18bc a310 38bd 9068 7e3d dad6 8a3c
000000d0: 2bc8 043d 8629 883a 2e4e 053a dd88 103d
000000e0: 5d29 173d 8c74 25bb ca3c c7bc db02 f9bc
000000f0: f0f7 263a fc50 8ebc c7f8 77bb ef06 333d
00000100: fbad 51bd f3ae e03c 6a17 5abc 79b0 25bc
00000110: 5d36 3dbd aef0 33bd 35fc 5b3c a6f4 0fbd
00000120: a72f 043d 8ce1 77bc a3b5 ca3b 3ebd 05bc
00000130: ab00 363d e9d5 833c b5f6 133b 369d a93c
00000140: 3e19 1bbd ac4c c0bc 9c85 03bd 8184 93bc
00000150: 69fd e0bc a723 c33c 8304 23bd 94e2 83bb
00000160: 7fba 3bbd ca23 e2bc 25f8 d73c a8b3 a73c
00000170: 4580 523d 5ba4 d5bb c37f 3fbd 0eac c4bc
00000180: f3ee 123d f5bf bf3c 7c3f a83c cfbf 5abd
00000190: a70b 11bd 909c f33c 8a57 443c 2430 01bd
000001a0: 65a4 743c 0712 05bb 6f02 cf3b e96c 5d3c
000001b0: 9985 2d3d de8a 3a3d 6983 cdbc f94d 373d
000001c0: 7d93 cd3c b459 f03c 9204 bd3c b6a8 12bd
000001d0: 58b8 ac3c bbe9 16bc 0246 e2bc c872 ea3c
000001e0: 0d3f d5bc 11ce cdbc 31b9 95bc 8cb2 f73c
000001f0: bef4 433d 6561 1c3d 8a49 56bc 867e fd3c
00000200: c8f9 e03b 8cb4 453d d18a ad3c 43d9 2d3d
00000210: c455 ee3c 22b8 46bd 94a6 dbbc 26f3 173d
00000220: 0330 363d 9507 41bd bf37 063d f936 b138
00000230: e3cc 2bbd e3f3 34bd 40db 053d ecfb 3cbd
00000240: 0766 113a 4ac3 0dbd cb34 e23c 3e6d adbc
00000250: 08f8 d1bc 805f 083d 2794 63bb 2e35 f43c
00000260: d6c7 e53c f287 1f3d a907 603d 62f9 283d
00000270: a105 de3c 7eba efbc 81b0 b8bc a4ff a33b
00000280: 3525 f0bc 3d1b d83c db64 413c d295 de3c
00000290: cf55 583d 97ae 553d 543e b8bc 4f1f cbbc
000002a0: c778 1d3d 4023 bdbc 0e8d 22bc 2deb 873b
000002b0: 3d92 0a3d 7664 be3c c0d9 1dbd 0c8e 70bc
000002c0: 0809 29bd d366 a5bc c165 48ba 7636 46bc
000002d0: 1904 313d 8b43 623c 2acd fd3c 3162 af3c
000002e0: faa3 103d 77d4 b83c 418d 2d3d 9772 4b3d
000002f0: 5ea6 213d d248 19bc d213 0d3d c173 ca39
00000300: d155 813c 56a7 233d 5e7e fdbc 2714 f23c
00000310: b94f 5b3c 8f26 2f3d cf15 3ebc a48f 013d
00000320: f1bf 423d 572b 613d 604c c23c 3268 593c
00000330: 0ad7 193d 3ac1 bc3c 4c71 67bd 1899 7fbd
00000340: 5667 303d 9c93 0cbd 27e6 51bc dbe4 84bc
00000350: 42b5 b8bb 55e5 d9bc b82b 84bd 8ca4 13bd
00000360: fb2f 33bc d127 173d 78e2 50bd a937 363c
00000370: f565 bd3c d132 b43b e981 d8bb 9908 7dbd
00000380: edf2 51ba e3d5 1a3c ea4e b93c 9e9e 553d
00000390: f143 46bc 9f39 ffbc cd79 bcbc 8305 023d
000003a0: 02a2 5e3d 5752 41bc 4358 07bd a70a e53c
000003b0: cf94 1d3d 4457 d638 9a45 523d c931 2f3c
000003c0: 3b01 30bd 6a9f d03c 77d8 fb3b 028a c53c
000003d0: 0ad0 813c 8d58 45bd dc08 523b f9bd adbc
000003e0: 8eca 103d 9f0f 243c 151c 1dbd fb61 1ebd
000003f0: cec3 3cbd c79b b93c a548 88bb 9536 65bd

cnn2.bias f4 [32]
-0.014880743 0.026994824 -0.0071069174 -0.033580624 0.015368803 -0.030309906 -0.011911567 -0.04052372
0.045539886 -0.0457326 0.03671597 0.029058699 0.015760837 -0.016811972 0.016782122 -0.00088212185
0.034560423 -0.038661018 0.04854789 -0.012498895 0.0382897 -0.023433458 0.02510953 0.05196654
0.011124935 7.671125e-05 -0.049103584 -0.015539736 -0.04752724 0.04200263 0.032309208 0.016988074
00000000: 5cce 73bc 4024 dd3c 25e1 e8bb d68b 09bd
00000010: 6fcd 7b3c 7b4c f8bc bc28 43bc 33fc 25bd
00000020: 0888 3a3d 1b52 3bbd 7c63 163d 820c ee3c
00000030: df1c 813c 43b9 89bc a97a 893c 323e 67ba
00000040: 3b8f 0d3d 045b 1ebd 27da 463d 2ac8 4cbc
00000050: a9d5 1c3d 86f7 bfbc 80b2 cd3c deda 543d
00000060: 5c45 363c 0ae0 a038 d720 49bd 609a 7ebc
00000070: ecab 42bd f30a 2c3d a956 043d 932a 8b3c

fc1.weight f4 [10, 512]
-0.0135581 0.002808334 0.022519596 -0.023571469 0.0040166266 -0.024645666 -0.008219419 0.055726867
-0.043386552 -0.027949255 0.012592038 0.03373016 -0.03216523 -0.009607837 -0.023843206 -0.017215556
0.016656479 -0.07389667 0.0071753724 0.0813215 -0.03370396 -0.029854922 0.03453764 0.044083998
0.036740374 -0.0033456476 -0.0144496905 0.052262608 0.067286156 0.020016529 -0.004872234 -0.00037836123
-0.020021262 0.005792938 0.042757362 -0.04939918 -0.022311984 0.00077316974 -0.049382538 -0.063969545
-0.0034560012 -0.05536386 -0.016584743 0.014725142 0.0014424861 -0.03018621 0.03659788 0.07936733
0.026063273 -0.015405186 -0.06759468 0.011643657 -0.0061701587 0.007085809 0.00064916344 -0.0031056763
-0.053088572 -0.04509453 0.013967556 -0.025469912 -0.06636263 0.00096954993 -0.051117387 0.03693395
0.0038704977 0.05280343 0.040955648 -0.020713005 0.013521145 0.060228303 -0.05422019 0.111145094
0.018681819 -0.013477978 0.014832559 0.014544626 -0.017012049 -0.019919567 -0.017145576 0.031426754
0.041972987 0.022237863 0.046969112 -0.03186663 0.025429111 0.020680072 -0.086654425 -0.05923091
-0.02694159 -0.1137501 0.0075477595 0.065112464 -0.06322772 -0.023530824 0.02546883 0.074527025
0.009267437 0.04207022 0.05161918 0.051105168 0.031142319 0.02953205 -0.056534696 0.0030645288
-0.046142202 -0.0590122 0.042653248 0.010245551 -0.007916834 -0.04311096 0.0040926584 -0.044442885
-0.01635251 -0.020835388 0.019604184 0.024517696 0.034291003 -0.05005034 0.038305905 -0.003748751
0.058591023 0.066845834 0.018540211 -0.055292174 0.017857527 0.0060396395 0.04014171 -0.03683031
-0.0028335615 -0.040166628 0.029001743 0.0178321 -0.016153805 -0.01946838 -0.0687416 0.0063366615
-0.03585662 -0.03262261 -0.00096148124 -0.021247167 0.004064003 0.0071976595 -0.03845368 -0.0151346475
-0.005450856 0.040373024 0.02183709 0.042250674 -0.023346703 -0.004002615 0.009443452 -0.040594704
0.0383197 0.06970349 0.04381346 0.024045603 0.025890084 0.03732061 0.010988623 0.026162865
-0.0025237785 -0.0069029178 -0.056395724 0.025270106 0.026196389 0.014516268 -0.03373237 0.04805149
0.080471374 0.07154516 -0.047270644 0.027873427 0.0768551 0.014709838 0.010033477 -0.066889614
0.009714024 0.0110492 0.022169823 0.04602282 -0.036696404 0.025062228 0.00050912297 0.046519034
-0.00095158943 -0.010520609 -0.032149497 0.0007167773 0.008978634 0.018187366 0.04735694 0.025671035
-0.018543161 -0.028997537 0.029396608 -0.044673055 -0.01118673 0.010913898 -0.028736379 -0.022728892
0.020879094 0.036089294 -0.010120987 -0.029769532 -0.044032283 -0.017075716 0.03941491 0.039674982
-0.02688337 -0.048338607 0.0032855305 0.025119606 0.020886676 0.04645857 0.009748659 0.009239312
-0.017707208 0.11237798 -0.035565667 -0.005008448 -0.015967427 0.013594132 0.023700356 -0.0055865366
-0.0072498093 -0.021883981 0.0024521216 -0.050294127 -0.023446698 0.045330055 0.0057840915 -0.0409125
0.035788197 -0.021791024 -0.12925129 0.010692078 -0.040628597 -0.009799517 0.024490563 0.028446937
0.014853637 -0.012316595 -0.052995026 -0.015468913 0.0041164793 -0.016617185 0.029680578 0.0090637645
0.02095578 -0.0077829743 0.0496487 -0.0067204763 -0.0375113 -0.006412501 0.025467383 -0.0107632065
00000000: cb22 5ebc 070c 383b 047b b83c f418 c1bc
00000010: e89d 833b b5e5 c9bc beaa 06bc db41 643d
00000020: 19b6 31bd d6f5 e4bc d64e 4e3c a328 0a3d
00000030: b0bf 03bd 306a 1dbc d452 c3bc a307 8dbc
00000040: 2b73 883c 2357 97bd 631f eb3b e38b a63d
00000050: 2a0d 0abd 4f92 f4bc 5777 0d3d 6c91 343d
00000060: 137d 163d a742 5bbb 65be 6cbc 5111 563d
00000070: 53cd 893d b4f9 a33c 43a7 9fbb c95e c6b9
00000080: a103 a4bc b0d2 bd3b 5822 2f3d cb56 4abd
00000090: 9fc7 b6bc 8bae 4a3a 5845 4abd 7702 83bd
000000a0: 147e 62bb 37c5 62bd badc 87bc b941 713c
000000b0: cd11 bd3a 1249 f7bc a9e7 153d 578b a23d
000000c0: a582 d53c 0966 7cbc 146f 8abd 0ac5 3e3c
000000d0: 0b2f cabb 1330 e83b 9f2c 2a3a 9a88 4bbb
000000e0: 6773 59bd 0bb5 38bd 2dd8 643c 47a6 d0bc
000000f0: 21e9 87bd 6529 7e3a 7760 51bd 0e48 173d
00000100: 2da8 7d3b 6948 583d 1cc1 273d 52ae a9bc
00000110: cb87 5d3c f4b1 763d fd15 5ebd 0aa0 e33d
00000120: 9d0a 993c bdd2 5cbc 4304 733c 954c 6e3c
00000130: da5c 8bbc 5c2e a3bc e174 8cbc 57b9 003d
00000140: deeb 2b3d 2e2c b63c af62 403d 9586 02bd
00000150: b650 d03c 4169 a93c e077 b1bd 1c9c 72bd
00000160: 9cb4 dcbc d0f5 e8bd 3253 f73b af59 853d
00000170: 897d 81bd b7c3 c0bc 02a4 d03c a0a1 983d
00000180: 73d6 173c d351 2c3d a26e 533d a753 513d
00000190: 2d1e ff3c 33ed f13c ed90 67bd 43d6 483b
000001a0: 9bff 3cbd c7b6 71bd 2cb5 2e3d f5dc 273c
000001b0: 9cb5 01bc 1e95 30bd b51b 863b be09 36bd
000001c0: b3f5 85bc faae aabc f498 a03c 56d9 c83c
000001d0: b974 0c3d 9601 4dbd a7e6 1c3d 9bad 75bb
000001e0: 24fd 6f3d 78e6 883d a4e1 973c 0c7a 62bd
000001f0: f349 923c 2be8 c53b a26b 243d 61db 16bd
00000200: 46b3 39bb c385 24bd 1095 ed3c a014 923c
00000210: fc54 84bc 277c 9fbc 65c8 8cbd c5a3 cf3b
00000220: 64de 12bd 499f 05bd ea0b 7cba 8a0e aebc
00000230: 542b 853b 58da eb3b 9b81 1dbd 50f7 77bc
00000240: 189d b2bb 2f5e 253d b2e3 b23c 0b0f 2d3d
00000250: 9641 bfbc 5e28 83bb b5b8 1a3c a246 26bd
00000260: 1ef5 1c3d b4c0 8e3d be75 333d 49fb c43c
00000270: 7117 d43c 7fdd 183d a009 343c 8153 d63c
00000280: fa65 25bb df31 e2bb 34ff 66bd 4103 cf3c
00000290: cf99 d63c a4d5 6d3c f42a 0abd a4d1 443d
000002a0: 2dce a43d 4586 923d dd9e 41bd d056 e43c
000002b0: 3566 9d3d 8801 713c 7463 243c 6cfd 88bd
000002c0: 9227 1f3c b407 353c 7d9d b53c 6d82 3c3d
000002d0: f84e 16bd 4d4f cd3c aa76 053a be8a 3e3d
000002e0: 1674 79ba a25e 2cbc 31af 03bd 1ce6 3b3a
000002f0: 1f1b 133c acfd 943c 5af9 413d 104c d23c
00000300: d4e7 97bc 3e8c edbc 28d1 f03c 18fb 36bd
00000310: 8c48 37bc 35d0 323c 8e68 ebbc f131 babc
00000320: a20a ab3c 5ed2 133d 7fd2 25bc 3cdf f3bc
00000330: 325b 34bd 5fe2 8bbc 8771 213d 3c82 223d
00000340: 833a dcbc b4fe 45bd 0e52 573b a2c7 cd3c
00000350: 891a ab3c 574b 3e3d d7b8 1f3c 7c60 173c
00000360: b50e 91bc 6d26 e63d 4ead 11bd e81d a4bb
00000370: 1fce 82bc ecb9 5e3c 4027 c23c 440f b7bb
00000380: cf8f edbb 0946 b3bc c6b3 203b 3701 4ebd
00000390: 4a13 c0bc 02ac 393d 7a88 bd3b de93 27bd
000003a0: a596 123d 1783 b2bc 735a 04be d32d 2f3c
000003b0: 2c6a 26bd 278e 20bc 6fa0 c83c 8d09 e93c
000003c0: ab5c 733c 8bcb 49bc 5011 59bd 5371 7dbc
000003d0: 88e3 863b c320 88bc af24 f33c 2f80 143c
000003e0: 75ab ab3c 5208 ffbb 6f5c 4b3d 7137 dcbb
000003f0: 73a5 19bd f51f d2bb f9a0 d03c 2958 30bc

fc1.bias f4 [10]
0.05266819 0.05275167 -0.016222717 -0.050690457 -0.034478415 -0.011534637 -0.0076848003 -0.07427891
0.049329124 0.011254882
00000000: 9aba 573d 2312 583d 81e5 84bc cca0 4fbd
00000010: 3d39 0dbd c6fb 3cbc c7d0 fbbb 8b1f 98bd
00000020: 560d 4a3d 6666 383c
