result/fmnist/seed12/noniid_0.4/ratio_0.04/final.pt (torch, 122111 bytes, 14 tensors)

layer1.0.weight f4 [16, 1, 5, 5]
0.07579429 -0.058438607 -0.038042672 0.09277394 0.015157763 -0.12879023 0.04653307 -0.18527529
0.21549442 0.06488484 -0.25909215 0.037093867 0.15650441 0.08712866 -0.044140838 -0.274461
0.29880336 0.2997237 -0.2620056 -0.054404713 0.20701462 -0.13641597 -0.24280278 0.10376089
0.06924726 -0.09382191 -0.0037194001 0.14656422 0.06625833 0.0735463 0.011920891 0.1728249
-0.05821902 -0.15593565 -0.08657366 -0.048818912 0.084376186 -0.20702752 -0.24872959 0.11931026
0.2132751 -0.1003071 -0.14047933 -0.20274906 0.14296776 0.04158182 0.120495595 -0.13160044
-0.08335993 0.2946324 0.13155216 0.22080599 0.047301464 0.12863569 0.18352713 -0.1781639
-0.12414291 0.1674464 0.07148584 0.033045202 0.0642769 -0.19997175 0.10509828 0.095958255
0.072446726 -0.021912863 -0.07208501 0.056829065 0.123677574 0.03884128 -0.14447115 -0.14991055
-0.06679537 -0.19500077 -0.13428481 0.038297426 -0.22130091 0.24052672 -0.02569696 0.061456602
0.06501845 -0.18559828 0.24092405 -0.1390153 0.008229616 0.10227989 -0.087441795 0.22911564
-0.20284201 0.12261442 0.042893004 0.026160078 0.026090419 -0.21916535 0.12767982 0.09766959
-0.16033904 -0.1343303 -0.2913849 0.22690722 -0.0015946545 0.10065733 0.09001147 0.00023132277
0.05901086 0.10521586 -0.11981093 0.117789485 0.21022388 -0.0508006 0.0108148595 0.03813046
-0.21912535 -0.117839515 0.2597618 -0.15498784 0.024782965 -0.28531957 -0.084165365 -0.010372586
0.010694346 -0.15148313 0.026411992 -0.025551712 -0.20657222 0.0025660074 0.22231999 0.19448403
-0.0921196 0.13059135 -0.1702406 0.21600698 0.08612953 0.025887985 -0.19749328 -0.08720948
-0.2651213 0.082021564 -0.21488549 -0.14260568 0.042077836 0.055647213 0.06617285 0.10259435
0.21247883 0.03788474 -0.084143 -0.110670716 -0.051991418 -0.04047984 0.09739009 0.15040615
0.13563658 0.16013171 -0.06799902 -0.17978014 0.19653296 -0.020580558 -0.03793461 -0.20545863
-0.16274388 0.06543626 0.13351408 -0.17901301 -0.24681592 -0.08278625 -0.17285855 0.143587
-0.02878948 -0.15112248 0.036582336 0.2094984 0.040829252 -0.10649888 0.096780576 -0.17122348
0.16977707 -0.024950825 0.024634998 -0.0076331506 -0.24124417 0.08083384 0.30099806 -0.10760801
-0.08073319 -0.20782904 -0.03242154 0.2693444 -0.06822174 0.00927248 0.19987021 -0.2428023
0.00074370357 -0.010401329 0.07114489 -0.0471276 -0.028365178 -0.010545066 0.09131827 -0.070055746
0.06341427 -0.20356794 -0.048469953 0.054802146 -0.14256284 -0.04405613 -0.052142013 0.032336947
0.18407272 -0.33478847 0.18273889 0.025149714 0.14417937 0.23141718 -0.15790832 -0.1127445
0.05089616 0.08160432 0.2104145 -0.113767296 0.0068033864 -0.12274127 -0.17819789 0.12082323
-0.030888518 0.17016764 0.13233897 -0.13815892 -0.06796765 0.039460976 0.17207865 -0.20393264
0.2181218 0.17085923 -0.04253489 -0.20943844 -0.124757364 0.20485027 0.16404127 0.086770825
-0.14377004 -0.14685987 -0.14520323 -0.0065419916 0.008497113 -0.061941642 0.27086377 -0.2335205
-0.24504511 -0.18807831 -0.110091366 0.005325202 -0.052028157 0.005173379 0.16111165 -0.16831581
00000000: 093a 9b3d 525d 6fbd a2d2 1bbd 4300 be3d
00000010: 4458 783c 96e1 03be 7699 3e3d ceb8 3dbe
00000020: 92aa 5c3e 58e2 843d baa7 84be bdef 173d
00000030: b142 203e 8370 b23d 06cd 34bd 2786 8cbe
00000040: c1fc 983e 6375 993e 9925 86be 7ad7 5ebd
00000050: a4fb 533e a1b0 0bbe 4ba1 78be 9780 d43d
00000060: 82d1 8d3d b425 c0bd 2ec1 73bb ee14 163e
00000070: 73b2 873d 719f 963d d74f 433c 03f9 303e
00000080: 1177 6ebd 98ad 1fbe 884d b1bd 57f6 47bd
00000090: 6ccd ac3d 06ff 53be f8b2 7ebe f058 f43d
000000a0: ca64 5a3e cf6d cdbd d0d9 0fbe 739d 4fbe
000000b0: 2466 123e b351 2a3d 65c6 f63d 44c2 06be
000000c0: 9cb8 aabd 0fda 963e 9cb5 063e f71a 623e
000000d0: 2ebf 413d 13b9 033e 89ee 3b3e 9970 36be
000000e0: a33e febd 1277 2b3e 2b67 923d 685a 073d
000000f0: 9ba3 833d 65c5 4cbe c43d d73d c385 c43d
00000100: f35e 943d 9b82 b3bc 4ea1 93bd 98c5 683d
00000110: ab4a fd3d 0918 1f3d 3ff0 13be 2782 19be
00000120: 03cc 88bd 48ae 47be f581 09be c3dd 1c3d
00000130: b59c 62be a34c 763e 6e82 d2bc ebb9 7b3d
00000140: 6528 853d 7a0d 3ebe cbb4 763e 075a 0ebe
00000150: 83d5 063c 1e78 d13d af14 b3bd 4a9d 6a3e
00000160: d1b5 4fbe 451d fb3d 93b0 2f3d a94d d63c
00000170: 93bb d53c e26c 60be 80be 023e fe06 c83d
00000180: eb2f 24be e28d 09be 6730 95be 5e5a 683e
00000190: ba03 d1ba 6e25 ce3d ef57 b83d 3c8f 7239
000001a0: 5fb5 713d 6a7b d73d 6f5f f5bd 9d3b f13d
000001b0: ee44 573e 4a14 50bd cf30 313c af2e 1c3d
000001c0: 6562 60be d855 f1bd 80ff 843e 22b5 1ebe
000001d0: a505 cb3c 6815 92be e45e acbd c7f1 29bc
000001e0: 5737 2f3c 651e 1bbe f65d d83c d351 d1bc
000001f0: ab87 53be 762a 283b daa7 633e d226 473e
00000200: 33a9 bcbd bdb9 053e 8d53 2ebe ef30 5d3e
00000210: ae64 b03d 0a13 d43c ae3b 4abe e29a b2bd
00000220: fbbd 87be ecfa a73d f10a 5cbe 3907 12be
00000230: cf59 2c3d 55ee 633d a285 873d fd1c d23d
00000240: 0d94 593e 072d 1b3d 2a53 acbd 54a7 e2bd
00000250: f4f4 54bd 30ce 25bd 7574 c73d 1204 1a3e
00000260: 51e4 0a3e 91f9 233e 1243 8bbd 4918 38be
00000270: f03f 493e 8f98 a8bc 5261 1bbd bf63 52be
00000280: 55a6 26be 7203 863d eab7 083e 304f 37be
00000290: 50bd 7cbe d68b a9bd d501 31be 7808 133e
000002a0: ead7 ebbc dabf 1abe 5cd7 153d c086 563e
000002b0: 933c 273d 161c dabd e534 c63d 3555 2fbe
000002c0: 0ada 2d3e ac65 ccbc 56cf c93c 821f fabb
000002d0: b608 77be 368c a53d 6b1c 9a3e 9761 dcbd
000002e0: 7157 a5bd 23d1 54be 73cc 04bd 82e7 893e
000002f0: d7b7 8bbd 9aeb 173c c7aa 4c3e 2ba1 78be
00000300: 1af5 423a 566a 2abc 69b4 913d df08 41bd
00000310: 175e e8bc 36c5 2cbc 1305 bb3d 6379 8fbd
00000320: 57df 813d 1d74 50be 6e88 46bd 3778 603d
00000330: fefb 11be 3374 34bd dd92 55bd bf73 043d
00000340: 8f7d 3c3e 6569 abbe e71f 3b3e c606 ce3c
00000350: c2a3 133e a0f8 6c3e b8b2 21be 97e6 e6bd
00000360: 7e78 503d 2a20 a73d e676 573e d4fe e8bd
00000370: f1ee de3b c65f fbbd 8279 36be 2b72 f73d
00000380: eb09 fdbc 6d40 2e3e de83 073e 8879 0dbe
00000390: a032 8bbd d5a1 213d 6335 303e b8d3 50be
000003a0: 525b 5f3e b9f5 2e3e 1139 2ebd 0877 56be
000003b0: ca80 ffbd 45c4 513e 6ffa 273e e7b4 b13d
000003c0: 7438 13be 6f62 16be 28b0 14be 345e d6bb
000003d0: 7a37 0b3c 85b6 7dbd a8ae 8a3e ff1f 6fbe
000003e0: 1bed 7abe 9a97 40be 9577 e1bd 087f ae3b
000003f0: 7a1b 55bd 7385 a93b 74fa 243e fb5a 2cbe

layer1.0.bias f4 [16]
-0.14740276 -0.044420373 -0.085433476 0.023301065 -0.10441844 -0.058628052 0.09179042 0.11375355
-0.16426273 -0.060320243 0.13861822 0.14382929 -0.041439045 -0.19920585 0.042833637 0.13244975
00000000: c0f0 16be 23f2 35bd bff7 aebd e0e1 be3c
00000010: 56d9 d5bd f823 70bd 9efc bb3d 9ff7 e83d
00000020: 7d34 28be 5c12 77bd eff1 0d3e fc47 133e
00000030: fdbb 29bd 9efc 4bbe 5372 2f3d e8a0 073e

layer1.1.weight f4 [16]
1.0525459 1.0054823 0.9315344 1.0484842 1.0035405 0.97082376 1.0129759 1.076584
1.0259063 1.0510604 0.8690101 0.95240533 1.0689111 0.9424019 1.0224099 0.8837293
00000000: d3b9 863f a5b3 803f 0a79 6e3f bb34 863f
00000010: 0474 803f e887 783f 32a9 813f 81cd 893f
00000020: e650 833f 2689 863f 7277 5e3f d6d0 733f
00000030: 14d2 883f 4041 713f 54de 823f 153c 623f

layer1.1.bias f4 [16]
-0.12407659 -0.04031887 -0.13525543 -0.10996198 -0.048629817 -0.069232486 -0.03963553 0.03095735
-0.014024249 -0.019929398 -0.13055873 -0.14457588 -0.026082877 -0.07235089 -0.051175173 -0.13919935
00000000: de1b febd 6625 25bd 6680 0abe bf33 e1bd
00000010: 0f30 47bd c3c9 8dbd de58 22bd 459a fd3c
00000020: f7c5 65bc fa42 a3bc 30b1 05be b30b 14be
00000030: c2ab d5bc b42c 94bd 0f9d 51bd 468a 0ebe

layer1.1.running_mean f4 [16]
-0.1431523 -0.074778035 -0.016949646 0.017455015 -0.21317966 -0.06357675 0.040601764 0.062346175
-0.21255676 -0.15436763 0.3841255 0.2060797 -0.30384022 -0.19820364 -0.0057388097 0.2954444
00000000: 8496 12be 3a25 99bd fcd9 8abc d2fd 8e3c
00000010: c54b 5abe 8734 82bd 094e 263d b45e 7f3d
00000020: 7ba8 59be 8c12 1ebe 19ac c43e 8f06 533e
00000030: f290 9bbe e5f5 4abe a00c bcbb 7d44 973e

layer1.1.running_var f4 [16]
0.015861053 0.026399523 0.048883766 0.022673 0.037123643 0.014961887 0.0368469 0.02567513
0.030094976 0.034459215 0.07259138 0.018224139 0.08005971 0.026330443 0.043139506 0.03947925
00000000: 0aef 813c d043 d83c 583a 483d babc b93c
00000010: f60e 183d b422 753c c6ec 163d a654 d23c
00000020: bd89 f63c 1b25 0d3d caaa 943d ca4a 953c
00000030: 58f6 a33d f1b2 d73c 0db3 303d feb4 213d

layer2.0.weight f4 [32, 16, 5, 5]
0.0569687 -0.01199539 -0.05569839 -0.028685454 -0.00093796296 -0.06435912 -0.03556591 -0.016017353
-0.009448661 -0.00998514 -0.050910305 0.026951622 -0.002592906 0.060829036 0.024504121 -0.043200195
0.021079546 0.004622596 0.014980535 -0.009428581 -0.010136558 0.010619369 -0.011998942 0.002858866
-0.035923492 -0.03149376 -0.018994067 0.0066632847 0.006284049 0.0018891803 0.057498068 0.026756201
-0.025821095 0.03126647 0.015381642 0.008222054 0.0161605 0.01469559 0.016699605 0.014946256
-0.037070245 0.04386034 0.022349974 0.037758805 -0.0017431356 0.021991083 0.0055765975 -0.03198148
-0.012323113 -0.0051010973 0.068978325 0.031499967 0.009778267 -0.02416679 -0.028069125 0.04276958
0.06129782 -0.009725192 -0.057045415 -0.056918025 0.007835258 -0.0024293936 -0.0010521217 0.027088037
-0.061324406 0.03155543 -0.022547984 -0.014580655 -0.04403929 -0.048056025 0.011091703 -0.04371825
0.0397994 0.0028259656 0.010603923 0.0033588412 0.025089724 0.01824051 -0.0126038985 -0.005477898
-0.029784728 -0.026260087 -0.04887394 -0.04189685 -0.064248405 -0.022928013 -0.053502828 -0.025249386
-0.06053086 -0.039440747 0.0029161116 0.034282435 0.072444595 -0.017456777 -0.032510296 -0.050112005
0.044250242 0.08201737 0.021506328 -0.025835516 -0.029100252 0.029696217 0.019900098 -0.039826695
0.012768088 0.0007589229 0.007815064 0.012070173 0.016037632 0.008424321 -0.04372525 0.022278704
0.014983382 0.012296374 -0.0018273478 -0.04184299 0.009580664 -0.00075678504 -0.013164041 0.013159558
-0.032476164 -0.02781436 -0.030584263 0.045315757 0.055517703 0.029741058 -0.0012256949 0.021171428
0.0046335873 0.024742931 0.018314682 0.06412511 0.022267982 -0.04945763 -0.042335168 0.03740587
0.03262542 -0.06536034 -0.011290422 -0.031746585 -0.039240245 -0.04291709 0.03905607 -0.048722748
0.0032567945 -0.04070023 0.019011408 -0.0035854147 -0.01651168 0.09155559 -0.00738548 0.027171092
0.007576288 0.043598276 0.05016668 0.055616777 0.02696231 -0.03151465 -0.010413207 0.0032217386
-0.018013285 0.0058579803 0.001450798 0.023027642 0.061665278 0.046729352 -0.030556463 -0.027574904
0.052661713 0.00803528 -0.014726486 -0.004822109 0.041337572 0.038486205 0.029294586 0.02283016
-0.015046842 -0.05015328 -0.0060023 -0.00051389646 0.05598217 0.036970798 -0.004065379 0.011060856
0.047505777 0.003329555 0.05396515 0.062357616 0.042832978 0.01872723 0.02913945 0.0019555385
0.024288014 0.041572608 -0.0058929953 0.022744227 -0.0003118017 0.022021307 -0.036839038 0.04665682
0.041579865 0.06884001 0.02748338 0.006235733 0.027861321 0.018576214 -0.033045225 -0.057194866
0.035930693 -0.045474432 -0.04703912 -0.03192957 -0.0061699925 -0.002387116 -0.06349899 -0.050562
-0.0013006317 0.061349656 -0.006551966 0.041690815 0.006827937 0.00047642045 0.02070711 -0.016317146
0.019426962 0.025555236 0.045330413 0.076129556 0.0071876235 -0.034416996 -0.020735882 0.04579783
0.059734095 -0.022455813 -0.051570985 0.007010464 0.0155440355 -0.0069544073 0.053074162 -0.0047284625
-0.04713994 0.008172266 -0.0036715704 0.02705312 0.018508527 -0.039630033 -0.002651803 -0.02351499
0.026874501 0.012527188 -0.039053448 -0.033603236 -0.041892428 0.008187235 -0.02104008 -0.050880797
00000000: 0358 693d 5088 44bc ff23 64bd c2fd eabc
00000010: a1e1 75ba b7ce 83bd 8fad 11bd d336 83bc
00000020: 8ece 1abc b698 23bc 5387 50bd a6c9 dc3c
00000030: beed 29bb de27 793d debc c83c b0f2 30bd
00000040: 03af ac3c 2579 973b eb70 753c 567a 1abc
00000050: ce13 26bc ddfc 2d3c 3697 44bc d05b 3b3b
00000060: 8324 13bd 9aff 00bd 7299 9bbc af57 da3b
00000070: 6cea cd3b 5f9e f73a 1883 6b3d d22f db3c
00000080: c386 d3bc 4511 003d 4803 7c3c cbb5 063c
00000090: 0663 843c c6c5 703c 9ccd 883c 24e1 743c
000000a0: f8d6 17bd e6a6 333d 4b17 b73c faa8 1a3d
000000b0: ed79 e4ba a526 b43c e4bb b63b 03ff 02bd
000000c0: e2e6 49bc 1b27 a7bb 8244 8d3d 1c06 013d
000000d0: 0635 203c 6ff9 c5bc 39f1 e5bc 282f 2f3d
000000e0: 6c13 7b3d 6956 1fbc 74a8 69bd e022 69bd
000000f0: 745f 003c 7636 1fbb 59e7 89ba bbe7 dd3c
00000100: 4d2f 7bbd 4440 013d 8db6 b8bc b3e3 6ebc
00000110: 8b62 34bd 65d6 44bd f9b9 353c e811 33bd
00000120: b204 233d d633 393b 14bc 2d3c 0120 5c3b
00000130: f788 cd3c 1f6d 953c 9580 4ebc f07f b3bb
00000140: 1aff f3bc 651f d7bc 0a30 48bd 089c 2bbd
00000150: ab94 83bd 87d3 bbbc c825 5bbd cdd7 cebc
00000160: 35ef 77bd 9f8c 21bd 3c1c 3f3b bd6b 0c3d
00000170: d55d 943d 8401 8fbc 8429 05bd 3f42 4dbd
00000180: be3f 353d b9f8 a73d 0a2e b03c 01a5 d3bc
00000190: a763 eebc 7b45 f33c 8805 a33c 5121 23bd
000001a0: 3e31 513c 74f2 463a c10a 003c fac1 453c
000001b0: 5a61 833c 2a06 0a3c 3f19 33bd d481 b63c
000001c0: dc7c 753c bb76 493c 9e83 efba 8e63 2bbd
000001d0: 38f8 1c3c fc62 46ba fdad 57bc 309b 573c
000001e0: ba05 05bd f1da e3bc d98b fabc 049d 393d
000001f0: 8866 633d 85a3 f33c 7fa7 a0ba b46f ad3c
00000200: 59d5 973b b0b1 ca3c ac08 963c 0754 833d
00000210: 586b b63c 1594 4abd a467 2dbd e636 193d
00000220: 3ba2 053d a4db 85bd 76fb 38bc b508 02bd
00000230: 61ba 20bd d5c9 2fbd 42f9 1f3d 8191 47bd
00000240: f26f 553b 49b5 26bd d0bd 9b3c 47f9 6abb
00000250: 8143 87bc 7f81 bb3d e601 f2bb e995 de3c
00000260: 8342 f83b 1b94 323d 947b 4d3d 6bce 633d
00000270: 10e0 dc3c 8115 01bd 289c 2abc ce23 533b
00000280: 9990 93bc 4df4 bf3b b428 be3a 77a4 bc3c
00000290: bb94 7c3d 4767 3f3d 8c51 fabc c4e4 e1bc
000002a0: cfb3 573d 68a6 033c 5c47 71bc c802 9ebb
000002b0: 9651 293d b6a3 1d3d 33fb ef3c 5106 bb3c
000002c0: 0887 76bc 876d 4dbd f1ae c4bb 02b7 06ba
000002d0: 8f4d 653d b16e 173d df36 85bb 9838 353c
000002e0: 6b95 423d aa34 5a3b 900a 5d3d b36a 7f3d
000002f0: a271 2f3d d969 993c dbb5 ee3c 7e28 003b
00000300: a8f7 c63c 0a48 2a3d 071a c1bb 1a52 ba3c
00000310: 5179 a3b9 0766 b43c 88e4 16bd 391b 3f3d
00000320: a64f 2a3d fefb 8c3d d324 e13c 1f55 cc3b
00000330: 6d3d e43c 252d 983c 6e5a 07bd 2a45 6abd
00000340: 102c 133d 6643 3abd 18ac 40bd 95c8 02bd
00000350: a62d cabb 2971 1cbb c20b 82bd 1a1a 4fbd
00000360: f579 aaba c749 7b3d e0b1 d6bb fdc3 2a3d
00000370: e3bc df3b 12c8 f939 f5a1 a93c 89ab 85bc
00000380: 4b25 9f3c 3759 d13c 62ac 393d d0e9 9b3d
00000390: 2886 eb3b d6f8 0cbd 4cde a9bc 8196 3b3d
000003a0: bdab 743d 41f5 b7bc 193c 53bd 09b8 e53b
000003b0: 69ac 7e3c cce1 e3bb 4b64 593d 38f1 9abb
000003c0: cf15 41bd f8e4 053c bb9e 70bb 819e dd3c
000003d0: 329f 973c 1a53 22bd dfc9 2dbb 82a2 c0bc
000003e0: ea27 dc3c d63e 4d3c 82f6 1fbd 8ca3 09bd
000003f0: 6597 2bbd c123 063c 3f5c acbc 6268 50bd

layer2.0.bias f4 [32]
-0.023232378 0.037026424 -0.0076999203 -0.03568081 0.025963794 -0.01853314 -0.012245831 -0.032924816
0.043101903 -0.0324349 0.0375344 0.02727034 0.006632156 -0.019070515 0.037941687 0.004047198
0.043660108 -0.031210316 0.03879459 0.012387862 0.036523785 -0.0019392471 0.025773233 0.04837922
0.012870485 0.010541365 -0.04514307 -0.0041069603 -0.04157238 0.046471078 0.039319057 0.016462112
00000000: d451 bebc 05a9 173d 9d4f fcbb 0b26 12bd
00000010: 06b2 d43c d0d2 97bc bda2 48bc 2cdc 06bd
00000020: 9f8b 303d 75da 04bd acbd 193d 0c66 df3c
00000030: 8f52 d93b c539 9cbc be68 1b3d 5c9e 843b
00000040: f1d4 323d c7ac ffbc 13e7 1e3d 76f6 4a3c
00000050: f799 153d 562e feba 6322 d33c 4a29 463d
00000060: bade 523c b0b5 2c3c f1e7 38bd ae93 86bb
00000070: cd47 2abd 7558 3e3d 050d 213d 8ddb 863c

layer2.1.weight f4 [32]
0.81581813 0.8029306 0.8170748 0.7815585 0.81983024 0.81593376 0.79861665 0.7887871
0.8143288 0.82653713 0.8145699 0.7580111 0.80360055 0.7884519 0.8312715 0.7725628
0.77161163 0.7110537 0.8300313 0.8009638 0.8401425 0.8008234 0.8004591 0.7794583
0.80280423 0.68821275 0.81412643 0.8206582 0.8216537 0.80484766 0.7904517 0.783983
00000000: 75d9 503f dc8c 4d3f d02b 513f 3814 483f
00000010: 65e0 513f 09e1 503f 2472 4c3f f4ed 493f
00000020: da77 503f f097 533f a787 503f 040d 423f
00000030: c4b8 4d3f fcd7 493f 36ce 543f adc6 453f
00000040: 5788 453f 9e07 363f ee7c 543f f70b 4d3f
00000050: 9413 573f c302 4d3f e3ea 4c3f 948a 473f
00000060: 9484 4d3f b62e 303f 976a 503f a816 523f
00000070: e657 523f 7f0a 4e3f 0b5b 4a3f 1cb3 483f

layer2.1.bias f4 [32]
-0.33960703 -0.3509501 -0.4019189 -0.35980847 -0.34483528 -0.34037817 -0.3361955 -0.38065436
-0.3628181 -0.3821197 -0.3332218 -0.34651196 -0.353073 -0.34939954 -0.39428663 -0.37780705
-0.37708676 -0.4047251 -0.37786093 -0.3663721 -0.3359946 -0.3562275 -0.3632716 -0.32785124
-0.31774965 -0.345154 -0.36270526 -0.36082378 -0.34751418 -0.3738011 -0.36152944 -0.38263434
00000000: f9e0 adbe bbaf b3be 50c8 cdbe d138 b8be
00000010: 408e b0be 0c46 aebe d121 acbe 21e5 c2be
00000020: 4bc3 b9be 31a5 c3be 0c9c aabe 046a b1be
00000030: fcc5 b4be 7fe4 b2be f0df c9be ed6f c1be
00000040: 8411 c1be 2138 cfbe fd76 c1be 2095 bbbe
00000050: 7c07 acbe 7363 b6be bcfe b9be 1edc a7be
00000060: 15b0 a2be 06b8 b0be 81b4 b9be e5bd b8be
00000070: 61ed b1be dc62 bfbe 631a b9be a6e8 c3be

layer2.1.running_mean f4 [32]
-0.10580996 -0.39941207 0.07627493 -0.32547903 0.27787945 -0.4818439 -0.31785893 -0.58749366
-0.52091664 0.18915561 -0.18093517 -0.27429357 -0.6252413 -0.042775627 -0.036812138 0.31340384
0.12968522 0.65479726 0.50036234 0.08595117 0.3120695 -0.017942293 -0.2585421 -0.5130935
-0.440488 1.4114366 -0.47390553 -0.20306724 -0.06500588 -0.018336102 -0.38294056 0.60469073
00000000: e4b2 d8bd bd7f ccbe 0836 9c3d 30a5 a6be
00000010: 3746 8e3e 3eb4 f6be 68be a2be fc65 16bf
00000020: cb5a 05bf 02b2 413e 1247 39be 3570 8cbe
00000030: d00f 20bf 7f35 2fbd 53c8 16bd 7876 a03e
00000040: 34cc 043e cba0 273f bf17 003f 2b07 b03d
00000050: 93c7 9f3e b7fb 92bc a15f 84be 185a 03bf
00000060: a587 e1be f4a9 b43f bfa3 f2be dcf0 4fbe
00000070: ce21 85bd 9835 96bc c910 c4be 03cd 1a3f

layer2.1.running_var f4 [32]
0.46921584 0.33974525 0.51096344 0.41774133 0.5003034 0.6700914 0.39903042 0.4778635
0.40536082 0.7475232 0.43725607 0.3339504 0.4953167 0.363997 0.4912121 0.4290576
0.58844984 0.4012943 0.48765895 0.55893034 0.39407897 0.64624685 0.46411383 0.35405827
0.39402947 0.7677755 0.35873953 0.5477294 0.52420986 0.38253632 0.3182553 0.6583131
00000000: 0f3d f03e 17f3 ad3e 80ce 023f 31e2 d53e
00000010: e213 003f 1c8b 2b3f b74d cc3e 86aa f43e
00000020: 748b cf3e ae5d 3f3f 07e0 df3e 8cfb aa3e
00000030: 279a fd3e d15d ba3e 2780 fb3e 70ad db3e
00000040: a6a4 163f 7276 cd3e 6fae f93e 0f16 0f3f
00000050: b8c4 c93e 6f70 253f 54a0 ed3e 2047 b53e
00000060: 3bbe c93e ef8c 443f b5ac b73e fe37 0c3f
00000070: 9e32 063f cddb c33e 5cf2 a23e 3587 283f

fc.weight f4 [10, 1568]
0.009954575 0.012978311 0.032468442 -0.012810066 0.028500538 0.005092498 -0.03317103 0.044807397
-0.017516486 0.031068644 0.016528461 0.05947941 0.012701747 -0.015005793 -0.044837985 -0.043296207
0.012801976 -0.03157294 0.02823259 -0.009741644 -0.024017697 -0.019543327 0.019838171 0.040045116
-0.007914746 -0.004275517 0.030830592 0.06857327 -0.011512211 0.042298272 -0.0013503461 -0.005716409
0.010621535 -0.009176976 0.015637979 -0.03800101 0.015184696 -0.055853296 -0.03267345 -0.030658152
-0.0040210006 -0.042506427 0.02170241 -0.016674275 -0.018290848 -0.013125063 0.0048845382 0.011667499
0.0002727143 0.045928173 -0.024334103 -0.019287253 0.0247661 0.020525457 -0.0048668976 -0.0026732015
-0.01895186 0.0025518404 0.04461749 -0.042811528 0.030137913 0.010708417 -0.048020158 -0.0037273816
-0.022855762 -3.4052653e-05 0.02951111 -0.017891247 0.004240768 0.014796339 -0.021169355 0.07718447
-0.04143937 -0.016139654 0.018957762 -0.018482843 -0.047827747 -0.02996892 0.041353073 -0.011822162
0.015877603 -0.030361839 0.015536448 0.012268395 -0.03567614 0.031904537 -0.03264545 -0.0040770317
-0.011535099 -0.043138593 -0.008897904 -0.009614845 0.014333822 0.034570817 0.023783337 0.017703837
-0.012508734 -0.0070582 0.019117707 0.020516535 0.041982368 -0.028390797 0.019544696 0.026852349
-0.019942097 -0.0074539864 0.033860367 -0.029583102 -0.04545969 -0.018424813 0.018517792 -0.0052301153
-0.011915665 0.026549812 0.0007317728 -0.012650657 0.035551593 0.020484315 0.030102894 0.012824714
-0.0049957354 -0.03617895 -0.004978518 -0.010894989 -0.03440202 -0.036677524 0.02964609 -0.049369767
-0.026419358 -0.032017007 0.038149323 0.008391514 -0.031189023 0.018869482 -0.023536414 -0.012244542
-0.024174284 0.013259558 0.030127982 0.0031374965 -0.026843136 -0.011343315 0.0020106365 0.0043097627
-0.016717894 0.038654193 -0.00015572931 0.04186279 0.009682543 -0.021430071 -0.016265595 0.023064494
0.027939461 0.014565235 0.045225397 -0.010324944 0.022443285 0.012443309 0.07116299 -0.008242699
-0.018870756 -0.010622597 -0.035897765 -0.028361771 -0.010359847 -0.016618798 -0.029146401 -0.021697536
-0.0134176435 0.0068599707 -0.022442972 0.030412639 0.022963984 -0.024535732 0.007800794 -0.020397669
0.014930818 0.01634079 0.016689075 0.03447447 -0.030591827 0.0029655306 -0.027112283 0.021585584
-0.008091121 -0.023340283 -0.019183911 0.000579715 0.0025176413 -0.019549023 0.0070673465 -0.009302312
-0.012193356 -0.031792834 0.006245606 -0.026468487 -0.0015925765 -0.015493746 -0.00096831133 0.018864619
0.045144573 -0.0021663662 -0.01299884 -0.026198272 -0.045029655 0.019125244 -0.00594938 0.030103983
-0.005615241 -0.033498753 -0.0016239603 -0.0070387293 -0.022540001 0.009892271 0.021688687 -0.009563386
-0.014481952 0.06238161 0.047912624 0.0018405633 -0.013528857 0.028016815 0.07169922 -0.0038311786
0.04219186 -0.02303844 -0.019436514 -0.04419676 -0.018891146 0.028736664 0.005532061 0.033952393
-0.027794145 -0.017203065 5.5999775e-05 -0.028428342 -0.016591739 -0.004182165 -0.014930527 -0.016199458
0.03448364 -0.003414188 -0.026631288 -0.019819725 0.016304981 -0.009850973 0.015117037 0.019150686
-0.018104572 0.019481033 0.028205125 0.027941963 0.010103427 0.03904379 0.023336714 0.029653367
00000000: 8418 233c fba2 543c a1fd 043d 50e1 51bc
00000010: f679 e93c f8de a63b 59de 07bd f687 373d
00000020: bc7e 8fbc ab83 fe3c b266 873c afa0 733d
00000030: fd1a 503c dcda 75bc 09a8 37bd 5d57 31bd
00000040: 61bf 513c a152 01bd 0848 e73c 6b9b 1fbc
00000050: c3c0 c4bc 5419 a0bc a983 a23c 5906 243d
00000060: daac 01bc a319 8cbb 7090 fc3c 2570 8c3d
00000070: b69d 3cbc f440 2d3d 19fe b0ba b750 bbbb
00000080: f205 2e3c 075b 16bc 381b 803c f2a6 1bbd
00000090: 3bc9 783c 6dc6 64bd 98d4 05bd ce26 fbbc
000000a0: 99c2 83bb 381b 2ebd 41c9 b13c 7d98 88bc
000000b0: b0d6 95bc 810a 57bc 7a0e a03b 0a29 3f3c
000000c0: 18fb 8e39 2e1f 3c3d 5058 c7bc 4d00 9ebc
000000d0: 47e2 ca3c 0125 a83c 7f7a 9fbb e130 2fbb
000000e0: ee40 9bbc c73c 273b d4c0 363d 245b 2fbd
000000f0: c9e3 f63c 5b72 2f3c c9b0 44bd 1647 74bb
00000100: 023c bbbc c2d3 0eb8 49c1 f13c aa90 92bc
00000110: 24f6 8a3b 586c 723c 5b6b adbc e412 9e3d
00000120: 54bc 29bd 4f37 84bc 4f4d 9b3c 5569 97bc
00000130: 07e7 43bd 6181 f5bc d761 293d beb1 41bc
00000140: bf11 823c 64b9 f8bc 968c 7e3c 6101 493c
00000150: 2521 12bd 55ae 023d 3cb7 05bd 9f98 85bb
00000160: b6fd 3cbc 18b2 30bd 84c8 11bc 9587 1dbc
00000170: 68d8 6a3c 219a 0d3d 46d5 c23c a307 913c
00000180: 6ff1 4cbc 7948 e7bb bd9c 9c3c 4b12 a83c
00000190: b4f5 2b3d d193 e8bc 331c a03c 75f9 db3c
000001a0: 9c5d a3bc 9240 f4bb 2bb1 0a3d 4358 f2bc
000001b0: f133 3abd a2ef 96bc a0b2 973c 6361 abbb
000001c0: ec39 43bc fe7e d93c 71d4 3f3a b444 4fbc
000001d0: 8c9e 113d b9ce a73c 589a f63c c01e 523c
000001e0: 44b3 a3bb 6130 14bd d622 a3bb e580 32bc
000001f0: 22e9 0cbd 2c3b 16bd 5bdc f23c f437 4abd
00000200: 696d d8bc 4424 03bd 7742 1c3d 907c 093c
00000210: 1f80 ffbc 2c94 9a3c 70cf c0bc 559d 48bc
00000220: 2609 c6bc 9e3e 593c f5ce f63c 759e 4d3b
00000230: 23e6 dbbc 50d9 39bc e2c4 033b e938 8d3b
00000240: f7f3 88bc dc53 1e3d 454b 23b9 5178 2b3d
00000250: 87a3 1e3c 1e8e afbc 6d3f 85bc c0f1 bc3c
00000260: 4ce1 e43c 06a3 6e3c 443e 393d f429 29bc
00000270: fbda b73c 05df 4b3c e7bd 913d 630c 07bc
00000280: d896 9abc 670a 2ebc 8909 13bd f256 e8bc
00000290: 59bc 29bc 2524 88bc 6fc4 eebc 08bf b1bc
000002a0: add5 5bbc 9bc9 e03b 53da b7bc ed23 f93c
000002b0: f71e bc3c 29ff c8bc ce9d ff3b 0319 a7bc
000002c0: 64a0 743c 1fdd 853c 87b7 883c 1a35 0d3d
000002d0: b69b fabc 5959 423b 941a debc 40d4 b03c
000002e0: 9f90 04bc 1f34 bfbc 9427 9dbc 04f8 173a
000002f0: 03ff 243b 4625 a0bc 3395 e73b b968 18bc
00000300: a4c6 47bc 3439 02bd f1a7 cc3b 71d4 d8bc
00000310: 00be d0ba 7bd9 7dbc 46d6 7dba f989 9a3c
00000320: 84e9 383d 98f9 0dbb 16f9 54bc c29d d6bc
00000330: 0471 38bd 8bac 9c3c 04f3 c2bb a19c f63c
00000340: 0e00 b8bb fd35 09bd 11db d4ba 24a5 e6bb
00000350: cfa5 b8bc 3113 223c 79ac b13c c0af 1cbc
00000360: b645 6dbc dc83 7f3d 0740 443d 0e3f f13a
00000370: 24a8 5dbc 8583 e53c 0ad7 923d 8314 7bbb
00000380: 5fd1 2c3d 1cbb bcbc 5339 9fbc a907 35bd
00000390: 9bc1 9abc 2769 eb3c 4b46 b53b aa11 0b3d
000003a0: 8cb0 e3bc 71ed 8cbc 4de1 6a38 8ee2 e8bc
000003b0: 66eb 87bc 8b0a 89bb 2b9f 74bc bab4 84bc
000003c0: b83e 0d3d 92c0 5fbb dc29 dabc fa5c a2bc
000003d0: 0692 853c fa65 21bc 73ad 773c e6e1 9c3c
000003e0: 0a50 94bc b096 9f3c 6f0e e73c 8be6 e43c
000003f0: d888 253c 62ec 1f3d a32c bf3c 9eeb f23c

fc.bias f4 [10]
0.0022184264 -0.009006416 -0.009697404 -0.0062939106 0.021330163 0.009016234 0.01987276 -0.00048726346
0.0007846237 -0.028794955
00000000: 0563 113b a68f 13bc dce1 1ebc 263d cebb
00000010: 98bc ae3c d4b8 133c 33cc a23c 6577 ffb9
00000020: 35af 4d3a 66e3 ebbc
