result/fmnist/seed12/noniid_0.8/ratio_0.01/final.pt (torch, 122111 bytes, 14 tensors)

layer1.0.weight f4 [16, 1, 5, 5]
00000000: 8d37 863a 10c0 98bd d814 20bc 3a80 9f3d
00000010: 6761 6d3c 9855 49be cc53 7b3d aec4 d3bd
00000020: ee0a 123e c7ae c33d 6e03 60be a429 8c3d
00000030: 6583 b53d 133e 993d b7d0 81bc 8fc6 49be
00000040: f5f7 6b3e bed1 413e f369 2abe a591 5ebd
00000050: dc1b 063e 8a52 0bbe 735b 1fbe 9867 e13d
00000060: ee96 aa3c 142a 85bd ed0c 15bd f005 903d
00000070: 2ed7 a93c 1598 223d 1d2e 553c d759 1a3e
00000080: 76e9 a7bd e0c6 eabd d962 9dbd c91c 66bd
00000090: 945a 423d 5f48 3dbe 9bf6 2ebe efa2 183e
000000a0: ba49 2b3e 12f5 f0bd 1ab2 c8bd 09fa 30be
000000b0: a8fc d13d 7db9 4f3d 4c2f 093e 29eb e4bd
000000c0: 114d 55bd 6001 653e b864 153e e516 4f3e
000000d0: 7682 623d efd3 1c3e 1c14 4a3e 5879 1fbe
000000e0: 8d15 01be 4d3e 3e3e 1c65 a33d 4acf 223d
000000f0: 5cc9 0c3e 69c4 29be 0767 053e bc9f c73d
00000100: eeba 9a3d e452 b13c 3758 5dbd 071e 813d
00000110: 89df 0f3e da81 de3c 624a d9bd 9f80 dfbd
00000120: b78d dbbc a3b7 25be ad55 ebbd 2126 813d
00000130: 93a8 4fbe 7664 3e3e d937 dfbc bb82 a93d
00000140: 0283 2e3d 0099 39be 5c8f 253e a155 e8bd
00000150: e4df b13c 5f8e ec3d b6d6 7abd 27ba 313e
00000160: 6278 09be ee54 0a3e 864d 873c 2664 a33d
00000170: b011 203d bc2b 1bbe f00f b73d 1c15 853d
00000180: 0181 16be 171c 11be 35f6 76be 84aa 4e3e
00000190: 491b 253d 6c35 6f3d 6c03 283d b050 35bd
000001a0: e9e0 073e 2f5c e43d a3ca 18be ea4d a43d
000001b0: 9c0d 303e 2230 8dbc ec22 093c d8a5 103d
000001c0: 8d9d 55be 01d9 d8bd a6a6 773e 0f83 2fbe
000001d0: 7001 3b3d 3eb1 71be 25b4 e6bc 2966 e53c
000001e0: 1753 873c a4e2 f1bd 470c 0f3d b3ec 443d
000001f0: bcc1 38be 2e0a d83a 714c 583e 150e 383e
00000200: 4a49 b4bd 20c7 043e a527 30be 3585 503e
00000210: ad65 d43d 8e3f ba3d 963a 21be 990a e1bd
00000220: b5bc 52be de93 e63d 54f5 22be c560 d4bd
00000230: e7ce 5abd bc91 353d 9306 413d b589 a53d
00000240: a671 1c3e 928c b4bb 0c57 78bd e9e2 bebd
00000250: 26c9 09bd 0885 13be 1a7f bc3d 7fd5 283e
00000260: d13b f83d a983 dc3d c0c9 80bd 8d53 2ebe
00000270: 680c 643e cd74 05bd 6f8c 90bd 81ac 27be
00000280: bf8d 0abe b9d4 913d 6535 183e 939b 32be
00000290: d094 57be d7de 12bd ed19 1dbe 7861 273e
000002a0: 355d 29bc 6083 2abe ddac 4f3d 2c0c 443e
000002b0: ee54 263d 05ed e7bd b902 893d 5c4a 28be
000002c0: 1725 173e c507 66bc 2783 3a3d 2b35 b0bc
000002d0: 270b 54be de8f 873d 8651 7a3e 92f0 37bd
000002e0: e1ca 88bd d5e9 4bbe 66b1 91bc 357a 8e3e
000002f0: e9eb 1dbd b952 85bd 7b60 0e3e aca0 30be
00000300: 92b3 013d b728 5e3c aaee 023c 6ab1 d8bd
00000310: 60cd 28bc bda0 413d 5950 ce3d 4572 a3bd
00000320: 129b f43c 9c4d 44be d7eb 5e3a 6b9f 9a3c
00000330: a4b3 d1bd 64b7 10bd c251 07bd 5fce a13d
00000340: d2f3 263e bff5 82be 57c9 0c3e 5898 2b3d
00000350: 7fac 163e 349e 1d3e fa0b f2bd 3d48 dfbd
00000360: 0eda cc3d cfa9 763d f8ca 283e 71e1 dcbd
00000370: bd44 e13c 6e09 d7bd e5fa 4cbe b7e8 f93d
00000380: 657c 9a3b 360b 3d3e 77ce ff3d cc03 f2bd
00000390: a37c b4bd 442c 263d 4855 383e 12e7 1fbe
000003a0: 5a9f 623e 2c5c 153e aa80 a7bc e2e7 36be
000003b0: 30e1 aabd 1f9d 223e 239d ce3d cf29 5e3d
000003c0: d963 1abe 77e8 37be 3cb5 2fbe b2fd ee3b
000003d0: 5a69 78bc 5a85 bcbd 7a43 4b3e eedc 59be
000003e0: 08dd 44be d3fc 23be 0c32 03be 8d15 b7bc
000003f0: b5a7 7cbd a658 313c bffa 1e3e 661c 3cbe
0.0010239944 -0.07458508 -0.009770595 0.07788129 0.014488555 -0.19661558 0.06135921 -0.10340248
0.14261982 0.095548205 -0.21876308 0.0684388 0.08862952 0.07482543 -0.015846593 -0.1970465
0.23043807 0.18927667 -0.16641979 -0.054338116 0.13096565 -0.13605705 -0.15562229 0.11006087
0.020823922 -0.065021664 -0.03638928 0.070323825 0.020732488 0.039695818 0.013011483 0.15073334
-0.08198826 -0.11463714 -0.07684869 -0.056179795 0.047449663 -0.18484639 -0.1708626 0.14905904
0.16727343 -0.117654935 -0.09799595 -0.17282881 0.102532685 0.050714005 0.13396949 -0.11177666
-0.05207545 0.22363806 0.14589202 0.20223577 0.0553002 0.15315221 0.19734234 -0.15573633
-0.12605877 0.18578453 0.079782695 0.039748468 0.13748688 -0.16578831 0.13027583 0.09747264
0.07555185 0.02164597 -0.054039206 0.063045554 0.14050116 0.027161527 -0.106098905 -0.109132044
-0.026800973 -0.16183333 -0.11490951 0.06306101 -0.2027915 0.1859301 -0.02724831 0.08276888
0.042605408 -0.18124771 0.16167969 -0.113444574 0.021713205 0.11550593 -0.06123992 0.17356168
-0.13424829 0.1350896 0.016516458 0.07978086 0.039079368 -0.15153402 0.08938587 0.06498167
-0.14697649 -0.14170872 -0.24117358 0.20182234 0.040309224 0.058400556 0.04101889 -0.044266403
0.1326939 0.11150395 -0.1492105 0.080226734 0.17192692 -0.017234866 0.008370142 0.03531441
-0.20860882 -0.10588265 0.24184665 -0.17139839 0.045655668 -0.23602769 -0.028162071 0.028002815
0.016519113 -0.118108064 0.034923818 0.048077296 -0.18042654 0.0016482526 0.2112291 0.17974122
-0.08803041 0.12966585 -0.17202623 0.20363314 0.103709556 0.09094153 -0.15745005 -0.109883495
-0.20579799 0.11258672 -0.15913898 -0.1037002 -0.053419974 0.044328436 0.04712541 0.08082906
0.15277728 -0.0055099213 -0.06062989 -0.093206234 -0.033639096 -0.14406216 0.0920393 0.16487692
0.12120784 0.107673 -0.06288481 -0.1702406 0.22270358 -0.032582093 -0.070580356 -0.16374399
-0.13530634 0.07120652 0.14864118 -0.1744216 -0.21052861 -0.035857048 -0.15341921 0.16345775
-0.010337164 -0.16651678 0.050701965 0.19145268 0.04060834 -0.11324505 0.066899724 -0.16434616
0.14760242 -0.014039938 0.045535233 -0.021509727 -0.2070738 0.06619237 0.24445161 -0.04490716
-0.06679321 -0.19913419 -0.017784785 0.27827612 -0.03855506 -0.06509919 0.13903992 -0.17248791
0.031665392 0.013559512 0.007991472 -0.10580714 -0.0103028715 0.047272433 0.10073919 -0.079807796
0.0298591 -0.1917023 0.0008503771 0.018874845 -0.10239342 -0.035331145 -0.033036955 0.0790069
0.16303948 -0.25578114 0.1374868 0.041893333 0.1471424 0.15392381 -0.118186906 -0.1090245
0.10002528 0.060220536 0.16483676 -0.10785187 0.027498597 -0.104998454 -0.20017584 0.1220259
0.004714536 0.18461308 0.12490552 -0.118171304 -0.08812835 0.04056956 0.18001282 -0.1561549
0.221311 0.14585942 -0.020447094 -0.17861894 -0.08343732 0.1588025 0.10088565 0.05423909
-0.15077151 -0.17959772 -0.17158979 0.0072934264 -0.0151618365 -0.09205122 0.19849959 -0.21275684
-0.19224942 -0.16014414 -0.1281206 -0.022349143 -0.061683375 0.010824358 0.1552534 -0.18370208

layer1.0.bias f4 [16]
00000000: bdf0 16be a8f1 35bd f8f7 aebd a7e1 be3c
00000010: 13d9 d5bd 3623 70bd 9bfc bb3d 23f7 e83d
00000020: ff33 28be 5412 77bd 79f2 0d3e 0847 133e
00000030: cdbb 29bd 93fc 4bbe b572 2f3d 01a1 073e
-0.14740272 -0.044419914 -0.0854339 0.023300959 -0.10441794 -0.05862733 0.0917904 0.113752626
-0.16426085 -0.060320213 0.13862027 0.14382565 -0.041438866 -0.19920568 0.042834003 0.13245012

layer1.1.weight f4 [16]
00000000: e16d 853f 7568 813f cfcf 723f 3ecd 813f
00000010: 0f97 803f 3269 7d3f c1df 833f 42f5 853f
00000020: ebf4 7c3f 8d4c 853f b816 6f3f cc11 773f
00000030: 9e7b 823f 2102 7c3f 0e53 813f 7d5f 723f
1.0424157 1.0110003 0.9484834 1.014076 1.00461 0.9898864 1.0302659 1.0465472
0.98811215 1.0413986 0.9339404 0.9651153 1.0193975 0.9844075 1.0103471 0.94676954

layer1.1.bias f4 [16]
00000000: b2d4 12bd 7010 30bd 3156 8cbd 0db8 8ebd
00000010: f153 28bd 971b e0bc b295 4dbb e7ee 52bc
00000020: df52 13bd c63f 2cbc afad 86bd 108b 83bd
00000030: d8b2 c3bb 9099 15bd 8c13 08bd e4da 78bd
-0.035847373 -0.042984426 -0.06852377 -0.06968699 -0.041095678 -0.027356906 -0.0031369743 -0.012874342
-0.035967704 -0.010513252 -0.06576096 -0.064230084 -0.0059722476 -0.0365234 -0.033221766 -0.060755625

layer1.1.running_mean f4 [16]
00000000: 1a90 1bbe 1298 c4bd 979d f63d 610f 303d
00000010: 455a 1cbe 89f7 8cbd 671f 8e3d 56ae bb3d
00000020: 5826 25be 146f 30be c4e4 9c3e fe9e 633e
00000030: 2b22 6abe c7c2 5bbe a6bb a63c f6f4 8e3e
-0.15191689 -0.095993176 0.120417766 0.042983416 -0.1526881 -0.06883151 0.06939583 0.09164111
-0.16127908 -0.17229873 0.30643284 0.2222862 -0.22864597 -0.2146102 0.02035315 0.27921265

layer1.1.running_var f4 [16]
00000000: 62f9 813c 6dc1 ae3c 0f4e 9e3d bbca 7a3c
00000010: c556 a53c 0f01 8d3c e499 0c3d 0f5a 993c
00000020: 0c09 813c f5f6 1e3d 8971 343d 8f97 8d3c
00000030: 52ba 443d 6e06 c63c 3a12 f63c b683 0c3d
0.015865985 0.021332467 0.07729732 0.015307124 0.020182976 0.017212419 0.03432645 0.018719701
0.015751384 0.038809735 0.044053588 0.017284183 0.04802925 0.024172988 0.030037988 0.034305297

layer2.0.weight f4 [32, 16, 5, 5]
00000000: cf09 873d c636 06bd be3a 4dbd 3938 5dbc
00000010: e452 043c 3384 31bd e468 19bd dff3 8ebc
00000020: 430e b33b 7b69 02bc fd09 9abc ab09 373c
00000030: 655b 71bc cde8 603d 3602 003d 2e76 dabc
00000040: 058c ee3c 8f1c a03c f5e8 e13c b656 aebc
00000050: 04d8 63bb 44c0 b8ba 03e4 87bc 7508 c53b
00000060: 020c 3cbd 7bbd 14bd d9d8 1abb ad5b 9c3c
00000070: 9065 bd3b fcd8 203c cb02 2a3d a68d 663c
00000080: b3a1 e3bc 14f0 ba3c bcbd bc3c e331 313c
00000090: 57d3 af3c cf96 d23c 932e 873c d6a1 b53b
000000a0: 794c 99bc 4f63 193d 58a2 8b3c 5809 c63c
000000b0: 7fb1 a4bc 2a25 f33c 252e fd3b 973d 18bd
000000c0: 968a b7bb a0f6 e6bc 8dbd 753d 7319 723c
000000d0: 7e20 f23c 48ab 09bc 7b80 6dbb f33f 203d
000000e0: 21f4 433d d8c0 ce3a bde4 14bd 8438 0bbd
000000f0: e651 403c 23b0 92bb ab71 c5bb 3f8b 0b3d
00000100: 3b5f 34bd 183f 173d cbf3 5cbc e5ea 34bc
00000110: da81 2dbd a74b 35bd 5c4a 9f3c 119b f1bc
00000120: bd41 213d c80d f43b bcb0 873c 1f5e 323b
00000130: 4597 003d 62ca 213c 4025 31bc 56bc d7ba
00000140: 737e a9bc 646b e9bc a05d 35bd beb8 cdbc
00000150: f7f1 21bd 9df4 c73b 6e9e 55bd 6771 aabc
00000160: 9ff0 62bd 1dbd ecbc 8402 dd3c 83fb ef3c
00000170: 1154 533d 2c4a a9bc 3590 05bd 71ce 7ebc
00000180: 35bc 363d 4771 163d f4d1 3f3c 3045 f8bc
00000190: 18bc 8fbc f4f3 bf3c fee6 683c eb1b 14bd
000001a0: 75bb 953c 391d ad3c d0ce 793c 35ed b13c
000001b0: f656 f33c b7b2 fa3c ebdb 10bd 35df d23c
000001c0: 5a79 843c 8986 7b3c 6943 083c 9f39 25bd
000001d0: 9181 023c 2aeb acbc 796b 11bd cca2 a13c
000001e0: 6185 ffbc 2ecd d7bc a124 febc fca0 f93c
000001f0: 8423 423d b1b4 293d 0470 46b9 5ba6 a23c
00000200: f336 083b b0e7 2a3d de22 843c a3e9 4c3d
00000210: a965 8c3c 64cc 3cbd d5bc 16bd 1c07 e63c
00000220: 3906 273d b2b4 74bd 0622 7d3c 6c35 18bc
00000230: e07a 1abd 9fff 23bd fe8c fd3c 1584 41bd
00000240: 77ec ab3b f410 34bd fa62 8e3c d9ee 6cbc
00000250: 43be 58bc dce5 883d 9a35 61bc 42e0 ec3c
00000260: 9117 833c c655 ab3c f928 393d bf82 223d
00000270: 6d8d d43c 8ceb 14bd 83b5 14bd cb83 8e3b
00000280: e573 ccbc ab8f 8d3c 5d16 c03b fc8e b73c
00000290: 142d 773d 5e55 213d 4185 1fbd 39e7 30bd
000002a0: e439 283d 1556 30bb 059e fbbc d003 97bc
000002b0: b69d 123d 8837 0b3d 221e a83b db75 7ebb
000002c0: ae2c fcbc a620 34bd d3b7 cc3a 3abb 4dbc
000002d0: b5c8 183d 157f a83c f0ea 1c3c 98bf d03c
000002e0: c5e8 043d 7fba b03a 3bed 2e3d 3452 513d
000002f0: ec24 303d 71b3 a13b 5d5a 853c e2eb 09bc
00000300: c914 883c 34a5 1a3d e195 e2bc a8cc 0f3b
00000310: ae8e 72bc 1114 1b3d 81e7 03bd e93e 223d
00000320: 382d 313d be02 8d3d e8bf b93c 06e4 2339
00000330: dc6c 283d 7034 a93c e804 26bd c683 5bbd
00000340: ff88 e33c dbc0 29bd a4c7 34bd f37c 35bd
00000350: ee35 e1bb 23cb aebc 037a 59bd 0d0d 21bd
00000360: 64eb 96bc 5b1c 5f3d 8fc5 7cbc 7431 153d
00000370: 71b7 1c3c b014 c2bb c820 113c 0a46 24bd
00000380: 11d1 a13c 433b 9a3c d186 b63c 2338 803d
00000390: 190b 87bb 47cf efbc 9bf7 90bc 0f4d 2f3d
000003a0: cc49 763d aad8 d1bc 6eca 4cbd bcb5 263c
000003b0: ce84 593c 855f b7bc 9435 0a3d 7e75 9239
000003c0: 8ced 33bd 9cab fb3b 68df 02bb fe35 a03c
000003d0: b966 573c 25f9 27bd fed1 88bb 0548 f1bc
000003e0: 3541 0c3d 8b2c 513c 9ff8 0fbd abb6 b3bc
000003f0: 9ea9 39bd 8d95 bc3c 61c4 c9bb 55bb 32bd
0.06593668 -0.03276708 -0.05010485 -0.013502174 0.008076403 -0.043338966 -0.037453547 -0.017450271
0.0054643466 -0.007959719 -0.01880359 0.011171739 -0.014731263 0.054909516 0.03125211 -0.02666768
0.0291195 0.019544868 0.027576903 -0.021281581 -0.0034766207 -0.0014095386 -0.016588217 0.006012971
-0.04590989 -0.036313515 -0.0023627786 0.019086683 0.0057799295 0.009817358 0.04150657 0.014071858
-0.027787065 0.022819556 0.023039691 0.010815117 0.02146308 0.025706677 0.0165017 0.005542974
-0.018713223 0.037448224 0.017045185 0.024174377 -0.020104168 0.029680807 0.007726448 -0.03716811
-0.0056012375 -0.028193772 0.059995223 0.014776575 0.02955651 -0.008402653 -0.003623991 0.039123487
0.04784024 0.0015774025 -0.036350954 -0.033989444 0.011738276 -0.0044765635 -0.006025513 0.034068342
-0.04403613 0.036925405 -0.013485859 -0.011042331 -0.042360164 -0.0442616 0.019444637 -0.029492887
0.039369334 0.007447932 0.016563766 0.0027216745 0.031394262 0.009874912 -0.010812104 -0.0016459327
-0.020690178 -0.02849359 -0.04427874 -0.025112506 -0.039537396 0.006102158 -0.052153043 -0.020806028
-0.055405255 -0.02889877 0.026978739 0.029294735 0.051593844 -0.02066525 -0.03260823 -0.015552149
0.044613082 0.036729123 0.011707772 -0.030306429 -0.017545745 0.023431756 0.014215229 -0.036159437
0.018277863 0.021132099 0.015247062 0.021719554 0.029704552 0.030602796 -0.03536598 0.025741199
0.016171146 0.0153519 0.008316853 -0.040338155 0.007965461 -0.021108229 -0.035502885 0.019730948
-0.03119153 -0.026342954 -0.031023325 0.030472271 0.04739715 0.041432086 -0.0001892448 0.019854715
0.0020784705 0.04172486 0.016129907 0.0500275 0.01713832 -0.04609336 -0.036801178 0.028079562
0.04077742 -0.059742637 0.015450006 -0.0092900805 -0.03771484 -0.0400387 0.03095102 -0.047245104
0.0052466947 -0.04396148 0.01738118 -0.014461243 -0.013228956 0.06684467 -0.01374569 0.028915528
0.016002448 0.020914923 0.04520509 0.03967547 0.025946343 -0.036357448 -0.036305916 0.004349207
-0.024957607 0.01728042 0.005862041 0.022407047 0.060345724 0.039388053 -0.03894544 -0.04318926
0.041070834 -0.0026906778 -0.030714998 -0.018434435 0.035794936 0.033988506 0.0051305452 -0.0038827572
-0.030783024 -0.04397645 0.0015618749 -0.012556845 0.037300784 0.02056841 0.009577498 0.025481984
0.03244855 0.0013483315 0.04270671 0.051103786 0.04300396 0.004934721 0.01627844 -0.008418055
0.016611474 0.037755206 -0.027659358 0.0021942053 -0.014804525 0.037860934 -0.0322032 0.039610777
0.043256015 0.06885289 0.022674516 0.00015629837 0.04111944 0.020654887 -0.040532023 -0.053592466
0.027775286 -0.041443687 -0.044135705 -0.044308614 -0.006872884 -0.021337098 -0.053094875 -0.039319087
-0.01842279 0.0544704 -0.015427961 0.036424115 0.00956522 -0.0059228763 0.008857913 -0.040105857
0.019753011 0.018827086 0.022281082 0.06260707 -0.004121196 -0.029273642 -0.017696192 0.0427981
0.060128972 -0.025616009 -0.04999774 0.010175165 0.013276292 -0.022384414 0.033742502 0.00027934829
-0.043927714 0.0076803695 -0.0019969586 0.019556995 0.01314705 -0.041009087 -0.0041754236 -0.029453287
0.034241874 0.0127669675 -0.035149213 -0.021937689 -0.045327775 0.02302053 -0.0061574434 -0.043635685

layer2.0.bias f4 [32]
00000000: c151 bebc c8a8 173d b64e fcbb 6d26 12bd
00000010: 9fb2 d43c 05d2 97bc 96a2 48bc 8cdc 06bd
00000020: c88b 303d a2da 04bd b2bd 193d 0066 df3c
00000030: b452 d93b ef39 9cbc c068 1b3d 719e 843b
00000040: 64d5 323d 97ac ffbc 00e7 1e3d bcf5 4a3c
00000050: 1b9a 153d 482e feba 9621 d33c 5b29 463d
00000060: 60de 523c 83b5 2c3c 4be7 38bd 7b93 86bb
00000070: ab47 2abd 0959 3e3d 120d 213d 6fdb 863c
-0.023232343 0.037026197 -0.0076998128 -0.035681177 0.02596408 -0.018532762 -0.012245795 -0.032925174
0.043102056 -0.032435067 0.037534423 0.027270317 0.0066321734 -0.019070594 0.037941694 0.004047208
0.043660536 -0.031210227 0.038794518 0.012387689 0.03652392 -0.0019392455 0.025772851 0.048379283
0.012870401 0.010541323 -0.045142453 -0.0041069365 -0.041572254 0.04647163 0.039319105 0.016462056

layer2.1.weight f4 [32]
00000000: f9db 603f 804d 573f 56e0 603f a905 543f
00000010: 323e 643f b227 5f3f 62c6 5c3f ca1a 5e3f
00000020: 3a66 5a3f acf3 6a3f b4fb 5c3f 7afc 4c3f
00000030: ecd5 5d3f f2e6 583f d6e5 633f 5f6d 573f
00000040: bb34 583f c41c 513f 012d 603f 2db5 5e3f
00000050: 8485 5d3f 1f29 613f 2029 563f e078 593f
00000060: 79fb 5d3f a335 523f 9efd 5a3f c53b 633f
00000070: cb0b 643f f672 5d3f 7b33 5b3f 7577 5d3f
0.8783565 0.8410263 0.8784231 0.82821137 0.891574 0.87169945 0.8624021 0.86759627
0.85312235 0.91778064 0.8632157 0.8007275 0.86654544 0.84727395 0.89022577 0.8415126
0.8445546 0.8168452 0.8756867 0.869952 0.86531854 0.8795337 0.836565 0.84950066
0.8671184 0.82113093 0.8554324 0.88763076 0.89080495 0.8650354 0.8562543 0.865104

layer2.1.bias f4 [32]
00000000: 12d0 55be 5d5b 61be 8c19 66be ff8a 6cbe
00000010: bb5f 51be 8171 4ebe ebf0 53be 616f 63be
00000020: acd1 68be 9530 58be d714 5dbe 5eca 6ebe
00000030: 815a 5bbe f479 6bbe d4f1 5cbe 867e 6abe
00000040: 9e43 73be 15cb 6fbe 2ab8 5fbe f382 5bbe
00000050: 670c 55be 0a19 56be a007 6bbe a0a0 64be
00000060: 013c 56be c695 5dbe 99ee 66be 2e9e 5dbe
00000070: 5287 4bbe bf92 6cbe c15d 69be 17fa 60be
-0.20880154 -0.22007509 -0.22470683 -0.23099898 -0.20446675 -0.20160486 -0.20697372 -0.22210456
-0.22736233 -0.21112283 -0.21589981 -0.23319384 -0.21421243 -0.2299574 -0.21576625 -0.22899827
-0.23756263 -0.23417313 -0.21847597 -0.21436672 -0.20805512 -0.20907989 -0.22952127 -0.22326899
-0.20921327 -0.21639165 -0.22551955 -0.21642372 -0.1987584 -0.23102854 -0.2278967 -0.21970402

layer2.1.running_mean f4 [32]
00000000: 67dd ccbd db8c b6be 0d4a b9be da7f 93be
00000010: 9f20 ca3e 8ef9 80be e828 36bf adfd 38bf
00000020: 7ee7 a5be c3f7 833e a4ad 17be cd0d 9bbe
00000030: ac77 14bf eed4 4f3d e36c 0bbd 398c bb3e
00000040: d3fc 803e 3205 b23d 7ea7 793e d2f4 8a3d
00000050: 06c6 0dbd 0e43 c83b 1eb5 6dbe 8e00 a6be
00000060: 9cf8 99be aa0b 8e3f 1bf4 0bbf 7be4 83be
00000070: e290 1cbe 94c6 4c3d 017a 53be d5c6 b23e
-0.10003167 -0.3565434 -0.3618931 -0.2880848 0.39478013 -0.25190395 -0.7115617 -0.7226208
-0.32403177 0.25774965 -0.14812332 -0.30283967 -0.57995105 0.050740175 -0.03403939 0.3663042
0.2519289 0.08692397 0.243803 0.06784977 -0.034612678 0.006111509 -0.23213622 -0.32422298
-0.30072486 1.109731 -0.5466935 -0.25760254 -0.15289643 0.049994066 -0.2065201 0.34917322

layer2.1.running_var f4 [32]
00000000: b44c b73e 357e 573e 4da0 613e 8ef5 a43e
00000010: b1b4 983e 590f e43e b93b c13e d2cd d73e
00000020: e056 c33e 7dd6 f73e 1b9d 723e 8bb0 b53e
00000030: 5c76 bb3e 487e 933e 19e0 993e 8916 823e
00000040: d6be ae3e 5988 873e eda8 af3e 92f3 ab3e
00000050: 47db 863e 6d34 043f 0c4e 853e 7383 993e
00000060: bb63 a63e 7358 0f3f 741c 5d3e acce ab3e
00000070: f7af 993e c57c 733e 3079 7e3e c701 c03e
0.35800707 0.21044238 0.22033806 0.32218593 0.29825357 0.4454296 0.37740877 0.42149216
0.38152218 0.4840583 0.23692743 0.35486254 0.3661374 0.28807282 0.30053785 0.25407818
0.3412997 0.26471213 0.34308568 0.33584267 0.2633917 0.51642495 0.26036108 0.299831
0.32497963 0.5599434 0.21592885 0.33556116 0.30017063 0.23778065 0.24850917 0.37501356

fc.weight f4 [10, 1568]
00000000: 2ef7 913c 8f25 153c afdd 903c 1a7b e7bc
00000010: 7b21 123d a423 edbb 0585 c8bc 148b 803d
00000020: f1c7 b8bc cdb1 adba 3943 cd3c e140 523d
00000030: 2fb8 c93c 674b b338 db89 92bc d650 07bd
00000040: 1612 1fbc c455 18bd a9f2 863c 291d 853c
00000050: 1ad9 35bd cb7e 2bbc 199a ce3c 8a8b 0a3d
00000060: 78b4 f0bb 1ba5 65bc 4546 b63c a7d9 2a3d
00000070: 9abd b9ba 4d88 073d 1cb9 243c 8954 543b
00000080: 45a9 1ebc 11ac cfba 0ece 623b ad39 13bd
00000090: fe62 063d 65f5 d6bc 77ba 5cbc 2a77 a1bc
000000a0: 6323 86bb f9d8 ffbc b617 1d3c 2b00 62bb
000000b0: f17e 06bd 00b3 ccbc c88c 983c e2ff 4abb
000000c0: 899f 2ebb 216a 1b3d e9e6 dfbc 9632 3c3b
000000d0: d886 a83b 2460 3ebb 21b9 b3bb 55f6 01bb
000000e0: bca3 bc3b 6db9 023d 5483 2a3c a775 28bd
000000f0: a6b3 e13c d527 aa3c 245e 4ebd 2990 f33c
00000100: bcd0 853b c2ac 8f3c 4731 cf3c 4a73 2439
00000110: c4d8 48bc 92ac 423c 7a7f 00bc 95ce 033d
00000120: 077b f2bc 382d ebbb bf67 b53c a27b 2ebd
00000130: 6596 0fbd fe6f 87bc fe23 013c 3227 5c3c
00000140: 7289 ea3c b90f f83b 3e58 dcbb 8c0f 97b9
00000150: 1302 cbbc 51c4 d93c a570 0bbc 78d0 d2bb
00000160: 1156 1f3c e67e 7ebd 0554 3e3c 5b57 d5ba
00000170: 25cc 09bc c79c fa3c 7712 993c 36db 203d
00000180: 6169 25bb dc12 503c 0340 8b3c 201f ed3c
00000190: 07db b53b 1e9f 8bbc 495b 043b 45b4 dd3c
000001a0: 22e9 85bc 55b7 b2bc 0b8c 6e3d 6016 85bc
000001b0: af3a 9ebc 2026 ebbc 5cc5 9f3c e7f0 fdbc
000001c0: 165b febc d25e 113d 43be 6e3b a720 46bc
000001d0: 7d90 8f3c 99ce acbb 3c1d 35bb b1fe 5bbb
000001e0: c214 cf3b 9c2f 793a 19fd 70bc b5b7 42bc
000001f0: 5aaf fabc 9504 23bd 3242 4e3c 3d1b 19bd
00000200: dc37 803b 38bf cbbc 89cd f63c 7ef4 0bbc
00000210: 5beb 46bc 6b69 a3bc 6108 f3bc 54c7 6a3b
00000220: 41de fabc 6c21 e1bb 9ed5 be3b d7aa 043c
00000230: f6f2 3dbc 6a71 eb3b 57ad 9b3c 6342 ba3c
00000240: 9c86 123c a56d e83c 019a b13a 63d4 203d
00000250: 4ebc 7c3c fe4c ccbc 6ce8 813b bf76 c2bb
00000260: fa90 db3c 9eee 023b 2645 5f3d 19ff 1a3c
00000270: 6630 bd3c dc3c f139 ec66 4b3d 1350 dd3c
00000280: 220c 17bc 7850 0a3c 241c 50bd 8f3b 48bc
00000290: 5594 57bc c80c cabc 1d74 39bd 6d84 ccbc
000002a0: 8053 883c 30a2 843b fd99 f2bb e439 be3c
000002b0: 26ac 293d 61be 88bc fc79 9a3c 1a06 96bc
000002c0: e5fa b23a afae a63c cf45 923c 1ca2 353d
000002d0: 47b3 f8bc eef6 cd3b a710 5abc a345 193c
000002e0: 32ea e23b 8de2 35bc f2fc 16bc 9d7d 80bc
000002f0: 0e30 833a 6062 0abc b4d6 8b3c 2ff3 aebb
00000300: 6a8a 77bc 9d13 91bc 2d3c 2dba 8e51 04bc
00000310: 6d7c c3bc 1f74 27bd b3a7 803b b789 423b
00000320: f4b4 3b3d 7ae6 94bc bc0b 06bc ccb6 e7bc
00000330: d2aa bfbc 49f1 093d 1edb 733c ec5e 1e3d
00000340: 3491 9cbc 7174 d2bc 97a1 b13a fc50 87bb
00000350: 7166 e23b ce93 a93b ee64 8a3c d365 d339
00000360: 4a50 9fbc e7cf 813d a630 123d e941 18bc
00000370: 1ed5 24bc 4747 603c b6b9 313d 5e21 e23b
00000380: f5c3 713c b092 03bc 970e 74bc 5eb8 9cbc
00000390: b531 38bd d371 923c 3635 a13b a651 ca3c
000003a0: a369 3ebc a14f 56ba da74 06bd 79d3 fbbc
000003b0: 9ce0 5abb 8a45 91ba b559 423c 5cba 53bc
000003c0: 2e7d 0a3c b3da 06bc ea3c 12bd 1933 7838
000003d0: 2813 883c 3e05 96bc e049 873c f805 873c
000003e0: 7a2a f83c 6058 573c 1f86 ef3c f67b dc3c
000003f0: 6321 5f3b c2e4 843c 394b 8b3c 6127 b53c
0.01781806 0.009103193 0.017683832 -0.028256942 0.03567646 -0.0072369147 -0.024477491 0.06276527
-0.022556277 -0.0013251841 0.025056468 0.051331405 0.024623958 8.54943e-05 -0.017888 -0.033036076
-0.009708902 -0.037191167 0.016473131 0.016249256 -0.044396497 -0.0104672415 0.025219964 0.03382448
-0.0073457323 -0.014016415 0.022250304 0.041711476 -0.0014170886 0.03308897 0.010053899 0.003239902
-0.009683912 -0.0015844126 0.0034607681 -0.035943676 0.03280925 -0.02624006 -0.013472191 -0.019710142
-0.004093574 -0.03123139 0.009588173 -0.0034484963 -0.032835905 -0.024987698 0.018621817 -0.0030975272
-0.0026645383 0.03794301 -0.027331786 0.0028716675 0.0051430278 -0.0029049003 -0.0054847156 -0.0019830663
0.0057568233 0.031915117 0.010407288 -0.041127827 0.027551483 0.020770947 -0.05038275 0.029731827
0.004083721 0.017538432 0.025292052 0.00015683207 -0.012258712 0.011881964 -0.007842893 0.032179434
-0.02959968 -0.0071770214 0.022144197 -0.042598374 -0.035055537 -0.016532894 0.007882116 0.013437079
0.028629992 0.0075702337 -0.0067243865 -0.00028812548 -0.024781263 0.026582869 -0.008510743 -0.006433543
0.00972511 -0.06213274 0.0116167115 -0.0016276644 -0.008410488 0.030592335 0.018685563 0.039271556
-0.0025239813 0.012699809 0.016998297 0.028945506 0.0055497917 -0.017043646 0.0020196012 0.027063498
-0.016346518 -0.021815935 0.058239024 -0.01624602 -0.019315092 -0.028704703 0.019503288 -0.03099866
-0.031049293 0.03549082 0.0036429323 -0.012092746 0.017524952 -0.005273652 -0.0027635833 -0.0033568556
0.006319613 0.00095056905 -0.014708781 -0.0118846195 -0.030601192 -0.03979929 0.012589024 -0.037379492
0.003912909 -0.024871454 0.030127304 -0.008542178 -0.012141074 -0.019947728 -0.029667081 0.0035824375
-0.030623557 -0.0068704393 0.005823805 0.008097372 -0.011593571 0.007185151 0.019003553 0.022736734
0.008943226 0.028372595 0.0013549925 0.039265048 0.015425755 -0.024939056 0.0039644744 -0.005934566
0.026802529 0.0019978653 0.054509304 0.009460234 0.023094367 0.00046012446 0.0496587 0.027015721
-0.009219201 0.008442037 -0.050808087 -0.012221231 -0.013157924 -0.024664298 -0.04527675 -0.02496549
0.016641378 0.0040476546 -0.0074036107 0.023220964 0.04142394 -0.016692342 0.018856995 -0.018313456
0.0013655095 0.020346968 0.017855553 0.044344053 -0.030358924 0.00628554 -0.013309634 0.009354982
0.006924891 -0.011101377 -0.00921558 -0.015684897 0.0010008828 -0.008446306 0.017070152 -0.0053390483
-0.015108684 -0.017709548 -0.0006608393 -0.008076085 -0.023863042 -0.040882226 0.0039262413 0.0029684135
0.045826867 -0.018176306 -0.008181509 -0.028285407 -0.023396883 0.033677373 0.014883785 0.038664743
-0.019112207 -0.02569029 0.0013552186 -0.004129527 0.0069091846 0.0051750904 0.01689383 0.0004032092
-0.019447464 0.06338482 0.035690926 -0.009293058 -0.010060577 0.013688869 0.04339 0.0069009503
0.014756192 -0.0080305785 -0.014896057 -0.019130882 -0.04496928 0.017876541 0.0049196733 0.024697136
-0.011621865 -0.0008175318 -0.032826282 -0.030740486 -0.0033398038 -0.0011083346 0.011862208 -0.0129228495
0.008452697 -0.008230853 -0.035702623 5.9175396e-05 0.016610697 -0.018313047 0.016514719 0.016482338
0.030293692 0.013143629 0.029238759 0.026914578 0.0034047 0.016222361 0.017003642 0.022113504

fc.bias f4 [10]
00000000: 991c 91bb b7e7 30bb 740a aabb 8643 9dbc
00000010: e9d6 8f3c ce6b 853c ff42 253c 33b3 98ba
00000020: 0bba bb3a d329 61bc
-0.004428458 -0.0026993582 -0.0051892344 -0.019197237 0.017558532 0.016286757 0.010086774 -0.0011650085
0.0014322413 -0.013742882
