result/mnist/seed12/noniid_0.4/ratio_0.3/final.pt (torch, 75941 bytes, 6 tensors)

cnn1.weight f4 [16, 1, 5, 5]
00000000: f0bd 70bd 7ddd 12be 1619 28bd 72be 533d
00000010: eb62 433c cb6b 46be 2b61 823c f627 b9bd
00000020: b9c0 1c3e 088c 0c3e 1874 29be aca7 973d
00000030: 8409 b23d ca57 e83d 012d ce3c d782 11be
00000040: 8bae 703e b1f4 2f3e b056 20be 15f5 49bd
00000050: fcfa d33d 26f6 08be a0f1 05be 5ac7 013e
00000060: 9dcd d23d c0f7 cdbd 7f13 d4bd 14ed fc3b
00000070: d936 a03c 0f9e 8c3d a867 4dbd 4df4 e63d
00000080: 26a7 ddbd 5035 e0bd 7b79 a3bd c335 1cbe
00000090: f83a d63c 9308 18be bd8a 1bbe ef05 093e
000000a0: ab29 a03d 106e 1bbe ab9f b3bd 0513 22be
000000b0: 986a cc3d 9d62 bfbc ed84 a03d 9f18 29be
000000c0: a0f6 89bd 6c93 813e 01d2 1c3e 8bd0 813e
000000d0: e949 493e d693 a23e 42cb 953e aebc 40be
000000e0: dc57 c7bd 4be9 b13e e9d0 8b3e e29e 0b3e
000000f0: d6f1 d43d dca0 37be f88b 4b3e ca62 413e
00000100: 149d 063e 19e1 6bbd 97c6 05be 1f17 223d
00000110: d3ad 3b3e 7b68 bd3d c07e 6abe de92 72be
00000120: 9e5a cfbd 77a9 23be b54b 97bd 9ce6 4c3d
00000130: 87d5 2dbe 6bba 393e 9324 bd3c 9a56 a13d
00000140: c140 43ba c2ff 20be 00fe 083e 0ac4 86bd
00000150: 9639 49bc 757e f13d 4f1d d73c 9a6c 5c3e
00000160: 95d0 05bc d053 1f3e 33b5 893d 38aa 1a3e
00000170: 973e e43c b496 80bd 776d f23d c34c 453d
00000180: 132e 40be 779a 52be 1a07 54be 769c 7d3e
00000190: 13f8 233d ac51 853d a1be d03d dfe2 193d
000001a0: d940 773e 74fe 283e 78b5 a2bd c207 2f3e
000001b0: e89a 6c3e 2769 623d 102f bf3b 2885 063d
000001c0: 2f65 31be d660 0cbe d59c 483e d6cf 77be
000001d0: cd02 5bbc f385 71be 968d e3bd 7d3e 23bd
000001e0: b581 06bd bc27 0ebe 8fd6 233d 8a93 f737
000001f0: 1009 40be b63f 873d 9972 973e e22f 903e
00000200: 46ba 67bd 6076 fc3d 557d 01be fb48 883e
00000210: 5b1b 293e 5322 d83d f26a 16be cf9f d2bd
00000220: 7112 21be ee86 113e b32d 17be 0dea 92bd
00000230: b7f7 85bd f39f a23d 5ffa 983d da48 943d
00000240: 6133 293e c129 36bd 9ab2 d3bc fa37 8cbd
00000250: a1a3 34bd f5a6 28be 1e54 e53d 68f9 7b3e
00000260: 42c3 6e3e 9156 033e 2a3a d5bd c73f 16be
00000270: 6c7e 9b3e f970 773d f3d4 99bd d178 5cbe
00000280: 119e aebd ba4b 433e fd4f 643e a432 51be
00000290: 49f5 78be 56fd 8b3c 314d 19bd fefb 513e
000002a0: 245d 8cbd 4ef4 60be bf73 833d 7eba 5c3e
000002b0: 453b 7f3d d5e4 37be 627b 86bc 2912 3abe
000002c0: 1493 e83d f00b af3c 599e a43d 8a91 26bd
000002d0: 8105 39be 670f a23d 02db 623e ec56 03bd
000002e0: a6c9 f3bd 9cee 25be 6d16 c43c de2a 7a3e
000002f0: 5232 84bd 6667 c3bd bf29 103e 015a f5bd
00000300: 7e7e 693c 7546 5fbd 480e 88bc a931 f1bd
00000310: bb66 ea3c 8c40 633d ffdc 703d ce0a dbbd
00000320: ba4c 253d 5faa 3bbe 2373 3d3d 2271 a83d
00000330: 99a5 68bd db8c 17bd a456 bb3c 79f4 633e
00000340: 2922 943e f677 3abe 3c87 353e cdd4 2f3e
00000350: 8856 cd3e 855d a53e 8434 6fbd b2b8 97bd
00000360: caed 413e 272d 5f3e 9fe1 8a3e 8148 03bd
00000370: da41 353c 598e 01be 1c1c 36be 55ee 353e
00000380: 46a0 ea3d c7e6 9f3e d9ab 9c3e faa0 293d
00000390: d62b 543c a12f 163e 3288 983e 204a 4f3d
000003a0: d11c c93e ec7e 8d3e 8beb e43d e267 3dbe
000003b0: e352 55bd 681c 243e 6c30 c43d 3a6e 953d
000003c0: 47c8 82be 31df a0be 4fff 97be ecf4 c4bd
000003d0: 685a c1bd 6fe0 61be 0fa1 123d e5d8 a3be
000003e0: a9b3 93be aae4 86be ac39 0bbe 6bc2 5dbc
000003f0: 4782 53bd 4266 cf3c d34d 123e 3405 31be
-0.05877489 -0.14342304 -0.04103955 0.051695295 0.011925439 -0.19377057 0.015915474 -0.09040825
0.15307893 0.13725293 -0.16548193 0.07405028 0.08693221 0.113448694 0.025167944 -0.14210068
0.23504083 0.17183186 -0.15658069 -0.049305994 0.10350606 -0.13375148 -0.13080454 0.12673703
0.10293124 -0.1005702 -0.10355281 0.0077186916 0.019557403 0.06866085 -0.050147682 0.112770654
-0.10822897 -0.109476686 -0.07982155 -0.15254883 0.026151165 -0.14847021 -0.15189643 0.1338117
0.078204475 -0.15178704 -0.087706886 -0.15827568 0.09981269 -0.023362452 0.078378536 -0.16513298
-0.06736493 0.25307786 0.15314485 0.25354418 0.196571 0.31753415 0.29256636 -0.18821976
-0.09733555 0.347483 0.27307823 0.13634828 0.10397689 -0.17932457 0.19877613 0.18885341
0.13145858 -0.057587717 -0.13064037 0.03957283 0.18328027 0.09248444 -0.22899914 -0.23688838
-0.10124706 -0.15982614 -0.07387487 0.050024614 -0.16975985 0.18137519 0.023088729 0.07877846
-0.0007448309 -0.15722564 0.13378143 -0.0658036 -0.012281796 0.11791698 0.026259093 0.21525803
-0.008167406 0.15559316 0.06724014 0.15103996 0.027861876 -0.06278744 0.11837285 0.04816891
-0.18767576 -0.20566736 -0.20705834 0.24766716 0.040031504 0.06509718 0.101926096 0.037569877
0.24145831 0.16503316 -0.07944769 0.17092803 0.23105967 0.055276062 0.0058344677 0.03284183
-0.17323755 -0.13708815 0.19591077 -0.24200377 -0.013367367 -0.23586254 -0.1111099 -0.039854515
-0.032838542 -0.13882345 0.03999954 2.9513398e-05 -0.18753457 0.06603949 0.2957962 0.28161532
-0.05657413 0.12327266 -0.12645467 0.2661818 0.16514342 0.10553422 -0.14689234 -0.10284387
-0.15729691 0.14211628 -0.14763527 -0.07173548 -0.065413885 0.07940664 0.074696295 0.07240458
0.16523506 -0.044473413 -0.025842 -0.06846614 -0.04410136 -0.16469939 0.11197685 0.2460686
0.23316672 0.12825991 -0.104114845 -0.14672767 0.3036989 0.060410473 -0.0751132 -0.21530463
-0.085262425 0.19071856 0.22296138 -0.20429474 -0.24312319 0.017088573 -0.03742713 0.20506284
-0.06853703 -0.21968195 0.06418561 0.21555516 0.062312383 -0.17958386 -0.016416255 -0.1817099
0.11356178 0.021367997 0.08038015 -0.04066614 -0.18068506 0.07913094 0.22153857 -0.032065317
-0.11903696 -0.16204304 0.023936475 0.24430415 -0.0645491 -0.09541206 0.14078425 -0.119800575
0.0142513495 -0.054510552 -0.016608372 -0.1177705 0.028613439 0.05548148 0.05880451 -0.1069542
0.040356375 -0.1832671 0.04625238 0.08224703 -0.05679855 -0.036999565 0.022868462 0.22261228
0.28932312 -0.18209824 0.17727369 0.17171021 0.4010508 0.32297912 -0.058399692 -0.07408275
0.18938366 0.21794568 0.2712526 -0.032051567 0.0110630635 -0.12651958 -0.1778416 0.17766698
0.11456351 0.31230757 0.3059986 0.041413285 0.012949904 0.14666606 0.2979141 0.0506078
0.39279798 0.27635896 0.11177739 -0.1849666 -0.052081 0.16026461 0.09579548 0.07296415
-0.25543424 -0.31420282 -0.29686972 -0.09617028 -0.09441072 -0.22058271 0.03579813 -0.32001415
-0.28848007 -0.26346332 -0.13596219 -0.013535122 -0.051637914 0.025317315 0.142875 -0.17287141

cnn1.bias f4 [16]
00000000: c96f 05be eaf7 4bbc c390 d3bc a111 d33c
00000010: dcfd 81bd 910a 53bc fa14 d13d 6360 003e
00000020: 3250 e8bd c3b1 083d 0cf7 213e 00b3 183e
00000030: 78a6 66bb cd23 35be 8e24 b83d 682c 113e
-0.13030924 -0.012449244 -0.025825864 0.025765242 -0.06347248 -0.012880937 0.10209079 0.12536769
-0.11343421 0.03337265 0.15816897 0.14912033 -0.0035194438 -0.17689438 0.08991347 0.14177096

cnn2.weight f4 [32, 16, 5, 5]
00000000: 19b0 1d3d b7e3 18bd afed 03bd 4a4c 93bc
00000010: 8e61 833c fab2 64bd af1f 13bd 8884 04bc
00000020: 6307 313c 89e9 e63b b537 85bc 2ae0 e03b
00000030: 42b4 a5bc 9623 333d 9d1d 0b3d 0dc1 d3bc
00000040: 90da e73c 3b52 423c 408d 073d 2899 1dbc
00000050: b8b5 a63c 0e48 9e3b bfba 9dbc 7f2a 123d
00000060: 7c3e 3dbd a65c 3ebd d153 713c c588 593c
00000070: c6da 883c 25ec 893c 7d0f db3c 169f de3c
00000080: aba4 f4bc 584a d93c 161f e43c 884e 82bc
00000090: d2bd a83c d277 163d bdab a73c c073 bcba
000000a0: e00f 8ebc 5865 333d a255 083d 4b1b 9a3c
000000b0: fc49 02bd 0fbd bb3c 0f63 263c 76c2 d8bc
000000c0: 42e0 eabb 9bad 3dbd a14f 8c3d c0c3 063d
000000d0: d6b5 093d f515 2c3c 4f78 7f3c 60aa 043d
000000e0: 6bf3 493d 7e1e f6ba 990f 94bc 8b3a bdbc
000000f0: 449f 44bc 03e9 91bc 68e4 043b 4d74 373d
00000100: b48b 71bd 4369 983c 128c 12bc 7962 d9bb
00000110: d130 38bd 6dfe 24bd 09e6 973b 4fe2 32bd
00000120: 214b 8c3c b394 91bc a094 743c 3df9 c9bb
00000130: 5c0e 343d 6b35 ba3c 711b d33b f932 f53c
00000140: 4974 25bd 9258 c0bc 1549 04bd 4d09 52bc
00000150: 6df8 9dbc 6646 9b3c fb24 2bbd 9ac0 9bbb
00000160: 0ddd 20bd 7483 fcbc 49c4 a53c 9f7c 7d3c
00000170: e9b4 493d 73de 7bbb 03be 34bd f6b4 0abd
00000180: 46be d83c 2ce8 6d3c 8b4c 823c 03c8 6cbd
00000190: 53f0 09bd 63e1 033d 931e 433c fbe1 f5bc
000001a0: 3a39 333c d058 243b 321b 053c 44b9 3f3c
000001b0: b256 1f3d ef93 323d cfd8 d5bc 6fbd 1d3d
000001c0: 2fad a73c a48e c73c 0b44 893c 4f15 21bd
000001d0: bd51 8e3c 1aa1 39bc b3fc e4bc ca4a d43c
000001e0: 69be 0bbd 97fe 05bd 1e6e b3bc 0549 0f3d
000001f0: fe82 643d c8b5 153d 1414 c0bb e233 ff3c
00000200: f3a1 bb3b e24d 5e3d 12a3 823c 63f4 2e3d
00000210: 9368 173d c98a 4ebd 0669 a6bc c302 ff3c
00000220: ccb4 213d 8288 31bd 7a1e 193d 4988 4e3a
00000230: e5a1 46bd 5d32 42bd 9e11 1a3d d618 34bd
00000240: d33e 5a3a 43e1 29bd 4178 dc3c 8e90 b4bc
00000250: ec4a e5bc 4c8e 203d edf6 38bc 5b59 c23c
00000260: 0c42 d33c bc77 fe3c d5a3 783d ba87 073d
00000270: 774f b43c 5ffc b1bc 4df6 92bc fbaf 8c3c
00000280: a907 0cbd fae6 993c 167b c33c 9cb6 233d
00000290: f575 793d 8a21 453d 7f07 b4bc e2c0 93bc
000002a0: b8c0 393d be80 b4bc 40d3 71bc 6986 dc3b
000002b0: f30d 153d 436d a13c 05fa 11bd cb9d 9ebc
000002c0: 8a30 2ebd 0e4e bebc 4626 a3bb 43a9 3fbc
000002d0: 1b14 0f3d 95ec 5a3c 7082 e23c bce2 9f3c
000002e0: 8f66 233d 4012 843c 499c 263d c230 5a3d
000002f0: 4282 393d 33f5 e4bb b854 f83c 47c2 b23a
00000300: 3b82 ad3c 8ebe 283d f3c3 d7bc 9bad f03c
00000310: 1a69 933c 3f70 393d 6db0 2dbc aad0 173d
00000320: 2cb7 3e3d 3fc1 833d 1e4e 073d c72c 6b3c
00000330: 1d95 5c3d e2bb 1b3c e968 68bd 3e43 87bd
00000340: fb4b 4e3d a208 e7bc 29bf febc eec7 9abc
00000350: 7dc1 fd3a 2e8e 5bbc b428 85bd 0773 4cbd
00000360: 4830 6ebc 11dd 1f3d fec3 56bd dbec b83c
00000370: 1ed0 1f3c a6a8 22bc d786 fabc d698 9ebd
00000380: 6c49 14bc b468 413c 8180 0a3d 810a 4e3d
00000390: 4e79 abbc cf36 18bd fdcb a8bc a0b1 103d
000003a0: 64b4 453d 6ae7 9cbc 7b2c 1dbd 9910 ce3c
000003b0: d326 aa3c a221 4bbc d89c 263d 9623 0dbb
000003c0: f7ce 3ebd e795 7c3c 7e5e b13b 0d29 b83c
000003d0: 38a8 6e3c 1194 84bd 890c 2bbc be37 f8bc
000003e0: 2ec7 1f3d 2c43 b53c 647e 2abd d227 39bd
000003f0: b2d3 2bbd 73a3 af3c 7025 ac39 0803 88bd
0.038498018 -0.03732654 -0.032209095 -0.017980713 0.016037729 -0.055834748 -0.035918888 -0.008088239
0.010804984 0.0070468825 -0.016261915 0.00686266 -0.020227555 0.04373511 0.03396379 -0.02584889
0.02830246 0.011860426 0.03309369 -0.009619035 0.020350322 0.004830367 -0.019254087 0.03568506
-0.046202168 -0.046475075 0.014729456 0.013277237 0.016705882 0.016836235 0.026740784 0.027175467
-0.029863676 0.026524708 0.027846854 -0.015906587 0.020598326 0.036735363 0.020467633 -0.0014377758
-0.017341554 0.04379782 0.03328479 0.018811842 -0.03180884 0.022917299 0.010155453 -0.026459914
-0.007167847 -0.04630814 0.068511255 0.032901525 0.033620678 0.010503282 0.015592649 0.032389045
0.049304407 -0.0018777398 -0.018073844 -0.023099205 -0.0120008625 -0.017811304 0.0020277742 0.044788647
-0.058971122 0.01860488 -0.008944528 -0.0066340533 -0.04496843 -0.0402817 0.0046355766 -0.043672856
0.017125668 -0.0177711 0.014928013 -0.0061637447 0.043959007 0.02273055 0.0064424803 0.029931532
-0.0403941 -0.023479734 -0.03229626 -0.0128196 -0.019283498 0.018954467 -0.041783314 -0.0047531845
-0.03927331 -0.0308244 0.020235198 0.0154716065 0.049244795 -0.003843215 -0.04412652 -0.033863984
0.026457917 0.014520686 0.01590564 -0.057807934 -0.033676457 0.032197367 0.011909145 -0.030014982
0.010938937 0.002507735 0.00812416 0.011701886 0.03890104 0.04359811 -0.026104359 0.038510736
0.020468323 0.024360009 0.016756078 -0.039326962 0.01737296 -0.0113299135 -0.027952528 0.025914568
-0.034117136 -0.0327135 -0.021903094 0.034981746 0.055788986 0.036550313 -0.0058617685 0.03115267
0.005726093 0.054273494 0.015946899 0.042713534 0.036964964 -0.050425325 -0.020313751 0.031129247
0.039479062 -0.043343075 0.03738258 0.00078785844 -0.04849424 -0.04741131 0.037614457 -0.043968998
0.00083254016 -0.041474592 0.02691281 -0.022041585 -0.027989827 0.039198205 -0.01128934 0.023724249
0.02578833 0.031062953 0.060703117 0.033088423 0.022010548 -0.021726785 -0.017939711 0.017173758
-0.034186993 0.018786896 0.023862403 0.03996907 0.06090351 0.04812769 -0.02197623 -0.01803631
0.045349807 -0.022034045 -0.014759839 0.00672989 0.036390256 0.01970542 -0.035638828 -0.01936235
-0.04252676 -0.023230579 -0.004978928 -0.01169807 0.034931283 0.01336207 0.027650088 0.019517295
0.03989273 0.016121984 0.04067639 0.053269155 0.04529024 -0.006987238 0.030313835 0.0013638221
0.021180263 0.041197352 -0.026338553 0.029379657 0.017994452 0.04527306 -0.010601145 0.037064232
0.046561405 0.06433343 0.033033483 0.0143539375 0.053853143 0.009505244 -0.056740675 -0.06604622
0.05036543 -0.028202359 -0.031097012 -0.018894162 0.0019360032 -0.0134005975 -0.06501904 -0.049914386
-0.014537878 0.039029185 -0.052433006 0.022573879 0.009754209 -0.009927904 -0.030581875 -0.07743995
-0.009050708 0.011804748 0.033813957 0.050302986 -0.020931866 -0.037161645 -0.020605082 0.035325646
0.048267737 -0.019153316 -0.038372498 0.025154399 0.020770466 -0.012398155 0.04067692 -0.0021536103
-0.046584096 0.015416599 0.0054128757 0.022480512 0.014566474 -0.06473554 -0.01044 -0.030300017
0.039008312 0.022126757 -0.04162444 -0.04520399 -0.041949935 0.021440243 0.0003283429 -0.06641203

cnn2.bias f4 [32]
00000000: 167b 8ebc 477d d73c d523 28bc f44f 0abd
00000010: 0ea3 883c e73e 06bd 5086 47bc 5092 35bd
00000020: d79c 4a3d 592f 63bd 04cb 203d e03d d73c
00000030: e5e5 413c e273 aebc 97d0 3b3c ac33 9cbb
00000040: 12e3 db3c 49f2 21bd c14a 393d 2eb2 6bbc
00000050: f1f8 0f3d 35ac e5bc 917d a23c 174e 3b3d
00000060: d0b4 b23b 5c6f 06bc 78e5 42bd 9132 3fbc
00000070: ed9e 5bbd 3a2c 343d 8d66 da3c cca0 733c
-0.017392676 0.026304854 -0.010262449 -0.033767655 0.016679313 -0.032774832 -0.012178019 -0.044328988
0.04946598 -0.055465076 0.03925611 0.026274621 0.011834596 -0.021295492 0.011463306 -0.004766902
0.026841674 -0.0395377 0.045237307 -0.014385743 0.03514952 -0.028036216 0.019835265 0.04572877
0.0054536834 -0.008205261 -0.04758212 -0.011669771 -0.05361836 0.04398749 0.026660228 0.01486988

fc1.weight f4 [10, 512]
00000000: ed14 acbc 80a8 813b 88c2 af3c 1af3 a1bc
00000010: bd39 2c3b c621 d8bc a9a9 00bb 4293 803d
00000020: bcce 31bd 9dcf c7bc e526 6c3c c322 153d
00000030: 5c84 3dbd 7f7f 1bbd 2232 0cbd 3b9b 41bc
00000040: 57d1 563c 7878 c1bd 28eb e9bb 9116 943d
00000050: 72bb 8fbc 34db 3dbc 0216 073d ac82 303d
00000060: 22d0 da3c c97f efbb 36f9 8eba c0d5 093d
00000070: a164 983d e873 923c b621 95bc d77a b0bc
00000080: bd8f 77bc 4018 303c 2d51 5e3d 4947 5dbd
00000090: 17de a5bc decb cdb9 8b99 5abd 5907 87bd
000000a0: 8fb0 3abd 4909 5dbd 7029 90bc c46a 9d3c
000000b0: 4ac8 6dbc b182 efbc 5600 463d 41f4 b33d
000000c0: cd9c 723c a395 cbbc 4eec 8bbd d5d2 b13c
000000d0: c8b9 01bc 91ed 37bc ffcf 613b 24c5 833b
000000e0: 1458 53bd 5cba 31bd cf68 f73b c68d a3bc
000000f0: de2a a3bd 29e6 debc 131b 83bd bd16 2a3d
00000100: c928 b43c f06f 323d afbd 1b3d 29ae 00bd
00000110: b2d0 e73c 7ca4 863d 5f30 6fbd ab0c 073e
00000120: b1b7 013d 3524 913c 1914 6e3c a5b5 053d
00000130: b42c 49bb ab78 c4bc 49b0 bbbc 5c5e eb3c
00000140: 4bb1 953d 31a1 263c e7b8 1d3d 6102 e3bc
00000150: 6540 073c fb92 5e3c 5f3c 9abd 55bc 9cbd
00000160: 4a33 3fbd 608f debd 2ff0 55bb b326 5b3d
00000170: 83d8 48bd 12ad cfbc 5dc3 f3bb 7310 5b3d
00000180: 6e46 563c 5b72 223d ca14 553d 210e 653d
00000190: bb7c b83c 20d7 cc3c 4a52 8fbd 0b51 ca3c
000001a0: 6718 62bd e8f8 83bd ef37 143d cf11 883c
000001b0: e0e8 583c ef8e 86bc 0312 313c f5d4 3dbd
000001c0: 67c5 a8bc 66dc aabc 876a 0c3c ddaf 963c
000001d0: 35cb 143d 7c37 1ebd 0e39 453d ff6e 33ba
000001e0: e606 aa3d 3f1a b63d 1525 933c 9206 e8bc
000001f0: 24d6 803c 315e 993c 9a9b 333d ae27 efbc
00000200: 1018 b2bb c847 44bd ba43 5c3c 14b9 083c
00000210: aa0d adbc 03b5 aabc e0f3 92bd fd47 513c
00000220: 5d40 2abd f86b 5cbd f91a 96bc c0a7 b3bc
00000230: adf5 8e3c b9be 403c f81d 07bd f6d0 c8bc
00000240: dbac 7ebc 6b95 083d 64c0 a23b 0f50 593d
00000250: e1d0 cabc f9c9 abbc 72ba 993b 0e00 bbbc
00000260: 79f7 3c3d dfe1 ab3d abbe f23c 5b50 153d
00000270: 6d19 ba3c f411 043d a054 da3c 6cdf 5d3c
00000280: 1220 28bc c75e 4fbc 3f16 6dbd f187 823c
00000290: a45e e93c 3f38 193d 7146 ecbc 5757 533d
000002a0: 05cf c93d 0d9f c63d 535a ecbc 44b6 803c
000002b0: be5c a23d 7d66 4b3d 7581 ed3c 1b40 a1bd
000002c0: a844 343c 99c6 5a3b d774 973c 44b2 273d
000002d0: a454 0fbd c5ee 6f3c d6b9 1ebc 7813 303d
000002e0: eb62 0239 2c44 54bc ec43 1abd 5cb3 b03b
000002f0: cd19 f83b f8d2 083c 9541 243d 214d df3c
00000300: 7e79 a4bc eaf9 0ebd d948 8f3c d95d 29bd
00000310: 5c1f 24bc 42fd 403c 416e 33bd 93f1 b2bc
00000320: 83ce 223c 4236 393d 053d 0dbb 3bb3 60bc
00000330: 691d 64bd a4dc 48bc 0914 383d 566a 0a3d
00000340: 5f32 c3bc 4d8a 56bd 6c1e ddb9 9fe0 303d
00000350: 8657 a33c 67a2 243d 49b2 9e3b 9db3 f43c
00000360: 3b85 30bc a15a 063e cdd6 33bd 4c5a 2b3b
00000370: fa1b 81bc 0f78 7a3c a437 a93c ca3f 28bc
00000380: b353 a2bb aa9e 2bbd b575 0cbc 1b51 3dbd
00000390: 86fb a2bc 07eb 443c 15a3 61bb e013 3dbd
000003a0: e300 f43c e2f2 34bc ba3f 00be 11ec b33c
000003b0: 7ccb 5cbd 9d1f 133b 556d e03c 9d4e 463d
000003c0: 3598 2d3c 8a24 a2bc 2ef9 87bd 70d1 0cbd
000003d0: ca97 aa3b bd33 d0bb 7a6c c33c e8af e8bb
000003e0: c128 243c f270 8dbc bea8 273d ce01 02bc
000003f0: b144 6bbd 8f63 8cbc c47d cc3c 3ce0 a6ba
-0.021006072 0.0039568543 0.021455064 -0.01976924 0.0026279532 -0.026383292 -0.0019632375 0.06278087
-0.043410048 -0.02439099 0.01441357 0.036410104 -0.046268806 -0.037963387 -0.034227498 -0.011816795
0.013111434 -0.09446806 -0.0071386285 0.07230867 -0.017545436 -0.011587907 0.032979973 0.04309337
0.026710574 -0.0073089343 -0.0010908011 0.033651114 0.074410684 0.017877534 -0.018204551 -0.02154295
-0.0151099535 0.010747969 0.054276634 -0.05402306 -0.020247502 -0.0003925254 -0.053369086 -0.06593198
-0.045578536 -0.053963933 -0.017597884 0.019215949 -0.014513085 -0.029237123 0.048340164 0.08786822
0.014807892 -0.024851626 -0.06832181 0.021706978 -0.007917829 -0.011226074 0.003445625 0.0040213037
-0.05159767 -0.043390617 0.007550336 -0.019965064 -0.07967161 -0.027209358 -0.06401648 0.04152559
0.021992104 0.043563783 0.038022693 -0.031416092 0.028297756 0.06574342 -0.05839574 0.13188426
0.031669322 0.01771746 0.014531159 0.032643933 -0.003069681 -0.02398332 -0.022911208 0.028731517
0.073092066 0.010170267 0.038506415 -0.027711095 0.008255099 0.013584848 -0.07531046 -0.07653109
-0.046679772 -0.1086719 -0.0032644381 0.053503703 -0.049034607 -0.025351081 -0.0074390606 0.053482484
0.013078315 0.03965984 0.05202178 0.055921678 0.022520414 0.025004923 -0.06998117 0.024696847
-0.055199053 -0.064439595 0.036186155 0.016610054 0.0132391155 -0.016425578 0.010807517 -0.04634567
-0.020601941 -0.020857047 0.00857032 0.018394405 0.036326606 -0.038627133 0.048150115 -0.0006844848
0.08302097 0.08891725 0.017962018 -0.028323445 0.01572711 0.018721672 0.043849565 -0.029193725
-0.0054349974 -0.04792002 0.013443882 0.008344907 -0.02112468 -0.020838266 -0.07175422 0.012773511
-0.041565288 -0.053813905 -0.018323408 -0.021930575 0.017451132 0.011764222 -0.032987565 -0.024513703
-0.015544142 0.03334562 0.0049667824 0.053054865 -0.024757804 -0.020970332 0.0046914155 -0.022827175
0.046134446 0.08392691 0.029631933 0.036453586 0.022717202 0.032243684 0.02665168 0.013542037
-0.010261552 -0.012656874 -0.057882544 0.015933963 0.028487511 0.037407156 -0.028842183 0.051596966
0.09853939 0.09698305 -0.028851664 0.015711911 0.079278454 0.049658287 0.028992394 -0.07873555
0.011002697 0.0033382534 0.01848833 0.04094149 -0.03499283 0.014644329 -0.009687861 0.042987317
0.00012434616 -0.012955707 -0.03766243 0.005392475 0.007571435 0.00835108 0.040101606 0.027258458
-0.020077463 -0.034906305 0.017490791 -0.041349266 -0.010017242 0.011779131 -0.04380632 -0.021843707
0.009936932 0.04521776 -0.0021551263 -0.013714607 -0.05569211 -0.012259636 0.044940982 0.033792816
-0.02382773 -0.052377988 -0.0004217507 0.043182965 0.019939195 0.04019394 0.0048430306 0.029870803
-0.010773952 0.1312051 -0.043906022 0.002614635 -0.01576041 0.015287413 0.020656414 -0.010269115
-0.0049538254 -0.04189936 -0.008572985 -0.046219926 -0.019895326 0.0120189255 -0.003442948 -0.046161532
0.02978558 -0.011044236 -0.1252431 0.021963151 -0.053904995 0.0022449263 0.027395884 0.048414815
0.010595371 -0.019792814 -0.06639324 -0.034379423 0.005206083 -0.006353824 0.023855437 -0.007101048
0.010019482 -0.01726577 0.04093241 -0.007935001 -0.057438556 -0.017137317 0.024962313 -0.0012731622

fc1.bias f4 [10]
00000000: 88c6 543d bf28 753d 5112 c8bc 4df8 d8bc
00000010: 3bb6 1bbd 4950 8bbd e096 b2ba aa18 5dbd
00000020: 602c 963d 68f8 e1ba
0.051947147 0.05985331 -0.024422796 -0.026485587 -0.038015585 -0.068024226 -0.0013625287 -0.0539786
0.073326826 -0.0017240169
