result/fmnist/seed12/noniid_0.8/ratio_0.04/final.pt (torch, 122111 bytes, 14 tensors)

layer1.0.weight f4 [16, 1, 5, 5]
0	0xbd4d6dec	-0.050153658
1	0xbdcd3646	-0.100201175
2	0x3bbc380a	0.005743985
3	0x3dde8277	0.10864728
4	0x3d12a636	0.035803042
5	0xbe66cade	-0.22538325
6	0x3c8b255c	0.016985588
7	0xbdda8742	-0.1067033
8	0x3e3e9c2d	0.18614264
9	0x3daef5eb	0.08542999
10	0xbe75763b	-0.23970883
11	0x3d03c44b	0.03216962
12	0x3e0510ba	0.12994662
13	0x3dfd12d5	0.123571075
14	0xbc9e948e	-0.019357946
15	0xbe4ed84f	-0.20199703
16	0x3e963be7	0.29342577
17	0x3e2bab4d	0.16764565
18	0xbe252317	-0.16126667
19	0xbd020ac7	-0.03174856
20	0x3ddc365a	0.10752554
21	0xbdced5dd	-0.10099385
22	0xbe2635b9	-0.16231431
23	0x3e0f7c82	0.1401234
24	0x3c34ffa0	0.011047274
25	0xbd5e2a13	-0.054239344
26	0xbd38333a	-0.04497073
27	0x3d2f50ef	0.042801794
28	0xbd2092eb	-0.039202612
29	0x3d176ade	0.03696715
30	0x3d313c2d	0.04327028
31	0x3df91c01	0.121635444
32	0xbdeebb7a	-0.11656852
33	0xbe2ba578	-0.1676234
34	0xbd9bd4c9	-0.07608945
35	0xbc98227d	-0.018571133
36	0x3d51b4e6	0.05119791
37	0xbe4b5b62	-0.19859079
38	0xbe5d39b0	-0.21604037
39	0x3e2eabd5	0.17057736
40	0x3e494b35	0.19657595
41	0xbdfc8d66	-0.12331657
42	0xbde49edc	-0.111631125
43	0xbe47700e	-0.19476339
44	0x3e10b0c1	0.14129926
45	0x3d3510c5	0.044205446
46	0x3df0f7b6	0.11765997
47	0xbdf67266	-0.120335385
48	0xbd62ad2d	-0.055340935
49	0x3e88ba6f	0.26704738
50	0x3e1e38c8	0.15451348
51	0x3e4f1790	0.20223832
52	0x3d7aa2fd	0.061190594
53	0x3e1c4e38	0.15264213
54	0x3e39c508	0.18141568
55	0xbe0e9b3b	-0.13926403
56	0xbdfbc7d6	-0.12293975
57	0x3e383beb	0.17991607
58	0x3db40ae3	0.08791139
59	0x3d247e87	0.04015973
60	0x3e0e0f5f	0.13873051
61	0xbe2d8d8b	-0.16948526
62	0x3e09ef3b	0.13470165
63	0x3dddea34	0.10835686
64	0x3d81c4a8	0.06336337
65	0x3c4d355e	0.012524931
66	0xbd6d3ccc	-0.05791931
67	0x3d7dfc33	0.062008094
68	0x3e1250f4	0.14288694
69	0x3ba65bc4	0.0050768573
70	0xbdc88e3a	-0.097927526
71	0xbdf21959	-0.11821241
72	0xbd1ce914	-0.038308218
73	0xbe2aa57d	-0.16664691
74	0xbe0ea57e	-0.13930318
75	0x3d7c2028	0.061554104
76	0xbe23395e	-0.15939853
77	0x3e53c24f	0.20679592
78	0x3d02da58	0.03194651
79	0x3de8af92	0.113616124
80	0x3c94ad7e	0.018149134
81	0xbe2ee018	-0.17077672
82	0x3dede8d4	0.11616674
83	0xbda75c94	-0.08171955
84	0x3ccf768b	0.02532508
85	0x3df32bb1	0.11873568
86	0xbd230b44	-0.039805666
87	0x3e2b8bcf	0.16752551
88	0xbd80ced8	-0.06289452
89	0x3e223b38	0.15842903
90	0x3d7fe04e	0.062469773
91	0x3dd23bad	0.102652885
92	0x3d11f2eb	0.035632055
93	0xbdb3d272	-0.08780374
94	0x3daaa214	0.08331695
95	0x3dab37c5	0.083602466
96	0xbe10d95b	-0.14145415
97	0xbe1f8a59	-0.15580119
98	0xbe5300ac	-0.20605725
99	0x3e3ebfc5	0.18627842
100	0x3cf6fbd2	0.030149374
101	0x3d78f89c	0.060783967
102	0x3dcd737d	0.10031793
103	0xba4e2f3b	-0.0007865314
104	0x3e29903a	0.16558924
105	0x3dc14834	0.094376
106	0xbe2c71c5	-0.16840275
107	0x3daab333	0.08334961
108	0x3e47af07	0.19500361
109	0xbc6a46a3	-0.014299068
110	0x3cc2e79b	0.023792079
111	0x3bfe311a	0.007757318
112	0xbe39ea0c	-0.18155688
113	0xbde63a70	-0.11241615
114	0x3e69f1f0	0.22846198
115	0xbe07b039	-0.13250817
116	0x3cd7bd5d	0.026335413
117	0xbe71f9b9	-0.23630418
118	0xbd4066d5	-0.04697307
119	0xbc09576a	-0.008382658
120	0x3d2d782d	0.042350937
121	0xbe06224a	-0.13099018
122	0xbc06d871	-0.008230315
123	0xbc5b282a	-0.013376275
124	0xbe5c8687	-0.21535693
125	0x3d5839c4	0.052789465
126	0x3e88f622	0.26750284
127	0x3e5032f1	0.20331933
128	0xbd353aaf	-0.04424542
129	0x3e1c1082	0.15240672
130	0xbe1ef9a0	-0.15524912
131	0x3e39bbcd	0.18138047
132	0x3d676a11	0.056497637
133	0x3da2e47c	0.07953736
134	0xbe118e74	-0.14214498
135	0xbd8c4ddd	-0.06850789
136	0xbe7bae07	-0.24578105
137	0x3da73395	0.08164135
138	0xbe257020	-0.16156054
139	0xbd6ed09c	-0.058304414
140	0xbd1bb106	-0.03801062
141	0xbc40f378	-0.0117767975
142	0xbc0cd3a5	-0.008595382
143	0x3d9f3a08	0.077747405
144	0x3e3989fc	0.18119043
145	0xbc8ee660	-0.017443836
146	0xbdd815d7	-0.105510406
147	0xbe0b64d7	-0.13612686
148	0xbd305dc4	-0.043058172
149	0xbde9cc5b	-0.11415931
150	0x3d7a7412	0.06114585
151	0x3e03d72e	0.12875053
152	0x3df356e7	0.1188181
153	0x3dd7b4f3	0.1053256
154	0xbd3b7b01	-0.045771603
155	0xbe2c0d5b	-0.1680197
156	0x3e325ebb	0.1741895
157	0xbd4c45b8	-0.049871176
158	0xbd8618f5	-0.06547729
159	0xbe05b4df	-0.13057278
160	0xbdb9acd7	-0.0906617
161	0x3daa2cf1	0.08309353
162	0x3e39a419	0.18129005
163	0xbe36976a	-0.17831197
164	0xbe35b6f1	-0.17745568
165	0xbcea2ab8	-0.028584823
166	0xbe21bd3d	-0.15794845
167	0x3e70a6b0	0.23501086
168	0xbc129a5c	-0.008947935
169	0xbe0b1439	-0.13581933
170	0x3d575b7f	0.05257749
171	0x3e2aac2f	0.16667245
172	0x3d4842dd	0.04889189
173	0xbe0a189f	-0.13485955
174	0x3dd0d2e0	0.10196471
175	0xbe05767a	-0.13033476
176	0x3e0480fe	0.12939832
177	0xbd73902d	-0.05946367
178	0x3ca6e393	0.020372188
179	0x3b75e3f6	0.0037519909
180	0xbe3bafa6	-0.18328723
181	0x3d203746	0.039115213
182	0x3e588144	0.21143061
183	0xbd8a7c89	-0.067620344
184	0xbcb987ea	-0.022647817
185	0xbe33937c	-0.1753673
186	0xbd4a65f9	-0.049413655
187	0x3e782b78	0.24235332
188	0xbd38fb42	-0.045161493
189	0x3a9d633f	0.0012007727
190	0x3e3762d5	0.17908795
191	0xbe4be0cb	-0.1990997
192	0xbc0f03c5	-0.008728926
193	0xbcd96bf0	-0.026540726
194	0x3d4179fc	0.047235474
195	0xbd3ebb7b	-0.046565514
196	0xbc47f6af	-0.01220481
197	0xbbe98a00	-0.0071270466
198	0x3d78e73e	0.060767405
199	0xbd92c4f6	-0.071664736
200	0x3d554ced	0.052075315
201	0xbe42c3e4	-0.19020039
202	0xbc6b1c29	-0.014349976
203	0x3c0e3bcb	0.008681248
204	0xbdbaffa1	-0.091307886
205	0xba85430b	-0.0010167075
206	0xbcc138b0	-0.023586601
207	0x3da7f60a	0.08201225
208	0x3e2c2422	0.16810659
209	0xbe4726f8	-0.19448459
210	0x3e389577	0.18025766
211	0x3d6b40a0	0.057434678
212	0x3e408909	0.18802275
213	0x3e3fd562	0.18733743
214	0xbd8a5832	-0.06755103
215	0xbd85cf83	-0.0653372
216	0x3dfcb744	0.12339643
217	0x3ddac166	0.10681419
218	0x3e2c16c1	0.16805555
219	0xbdae8996	-0.08522336
220	0x3d7644b3	0.06012411
221	0xbd657358	-0.056018203
222	0xbe16571f	-0.14681672
223	0x3df767e9	0.12080366
224	0x3d15195b	0.036401134
225	0x3e45ea15	0.19327576
226	0x3e3f1e85	0.18663986
227	0xbe18427f	-0.14869116
228	0xbe026692	-0.1273444
229	0x3cb8190f	0.022472886
230	0x3e0ce3ea	0.13758817
231	0xbe44293c	-0.19156355
232	0x3e7bc3f0	0.24586463
233	0x3e01c138	0.12671363
234	0xbd3cb351	-0.046069447
235	0xbe3904e4	-0.18068272
236	0xbdc9ad04	-0.09847453
237	0x3e3fda5c	0.18735641
238	0x3e0b8b66	0.13627395
239	0x3dbee94b	0.09321841
240	0xbdef3c6b	-0.11681446
241	0xbe1a7116	-0.15082201
242	0xbe1f3967	-0.15549241
243	0x3c8137ac	0.015773617
244	0x3c50f121	0.012752802
245	0xbd86b5bc	-0.06577632
246	0x3e57a90b	0.21060579
247	0xbe50e18d	-0.20398541
248	0xbe39285e	-0.18081805
249	0xbdf61ccd	-0.12017212
250	0xbd9fc998	-0.07802123
251	0x3d096ded	0.0335521
252	0xbcc1cd21	-0.023657383
253	0x3cb82420	0.022478163
254	0x3e336e70	0.17522597
255	0xbe08833d	-0.13331313

layer1.0.bias f4 [16]
0	0xbe16f0f5	-0.14740355
1	0xbd35f226	-0.044420384
2	0xbdaef7c0	-0.08543348
3	0x3cbee201	0.023301126
4	0xbdd5d98a	-0.10441883
5	0xbd702397	-0.05862769
6	0x3dbbfcdc	0.091790885
7	0x3de8f777	0.11375325
8	0xbe2833e9	-0.16426052
9	0xbd77124f	-0.060320195
10	0x3e0df244	0.13861948
11	0x3e1346f2	0.14382532
12	0xbd29bbaa	-0.041438736
13	0xbe4bfc4c	-0.19920462
14	0x3d2f7278	0.042833775
15	0x3e07a0dc	0.13244957

layer1.1.weight f4 [16]
0	0x3f89e7d7	1.0773877
1	0x3f842516	1.0323818
2	0x3f6a2ccb	0.914746
3	0x3f73b507	0.951981
4	0x3f8186f6	1.0119312
5	0x3f832145	1.0244528
6	0x3f87f20c	1.0620742
7	0x3f857e1a	1.0429108
8	0x3f703e77	0.93845314
9	0x3f8511b0	1.0396023
10	0x3f68a976	0.90883577
11	0x3f6ed70d	0.9329689
12	0x3f854bb1	1.0413724
13	0x3f80bace	1.0057008
14	0x3f81eb7e	1.0149992
15	0x3f6bdbb5	0.9213212

layer1.1.bias f4 [16]
0	0x3cb2e753	0.02183882
1	0xbd100055	-0.035156567
2	0xbde1700d	-0.110077
3	0xbe0fb29b	-0.14032976
4	0xbd980910	-0.074236035
5	0xbda08b33	-0.0783905
6	0x3e17c502	0.14821246
7	0xbc1fa7ab	-0.009744565
8	0xbdbc5de8	-0.09197599
9	0xbd184aad	-0.03718059
10	0xbde8ebe0	-0.113731146
11	0xbdca6338	-0.09882206
12	0xbd806f1f	-0.06271195
13	0xbcce2694	-0.02516488
14	0xbc42f136	-0.0118983295
15	0xbdf7b0aa	-0.12094243

layer1.1.running_mean f4 [16]
0	0xbe070797	-0.13186489
1	0xbe09f147	-0.13470946
2	0x3de5d631	0.112224944
3	0x3e266e83	0.16253094
4	0xbe2cb6ec	-0.16866654
5	0xbd9f0d2f	-0.077661864
6	0x3dc9099c	0.09816286
7	0x3d7ae39f	0.061252233
8	0x3c9a26d4	0.018817343
9	0xbe02a45e	-0.12758014
10	0x3efef9b0	0.4979987
11	0x3e863e2e	0.26219314
12	0xbec9ee69	-0.39439705
13	0xbe46b6d6	-0.19405684
14	0x3cb5cdc7	0.022192849
15	0x3ee6e6ca	0.45097953

layer1.1.running_var f4 [16]
0	0x3ce48fb0	0.027900547
1	0x3d1f4974	0.03888841
2	0x3d9786a9	0.07398731
3	0x3cef60f7	0.029221041
4	0x3d02c5f7	0.031927075
5	0x3ccb6303	0.024827486
6	0x3d0b8d3a	0.03407023
7	0x3c4e961e	0.012609033
8	0x3d58b786	0.052909397
9	0x3ce50014	0.027954139
10	0x3e05972d	0.1304595
11	0x3cb50a36	0.022099596
12	0x3e05dbc2	0.13072112
13	0x3ce9798c	0.02850034
14	0x3d1545b7	0.03644344
15	0x3dc963e1	0.098335035

layer2.0.weight f4 [32, 16, 5, 5]
0	0x3d6a922f	0.057268318
1	0xbd08b939	-0.033379767
2	0xbd5e8569	-0.05432645
3	0xbb877a21	-0.004134432
4	0x3cc1def6	0.023665886
5	0xbd6f800c	-0.058471724
6	0xbd1f1062	-0.038833983
7	0xbbeb8f67	-0.0071887258
8	0xbb27378a	-0.0025515282
9	0xbc8e95c4	-0.017405398
10	0xbd1924a5	-0.037388463
11	0x3ca8c1f9	0.020600306
12	0xbaa022f0	-0.0012217443
13	0x3d2b399a	0.04180298
14	0x3af6897b	0.0018809283
15	0xbd29ef22	-0.04148782
16	0x3d37ad44	0.044842973
17	0x3d1e8e7a	0.038710095
18	0x3c53fed3	0.012939173
19	0xbd26f3ac	-0.040759727
20	0xbc5c6ad6	-0.013453206
21	0xbc360c60	-0.011111349
22	0x3b5ae2a4	0.0033399248
23	0x3baf5997	0.005351256
24	0xbd4b6951	-0.049660984
25	0xbd0be312	-0.034152098
26	0x3c8d79a0	0.01726991
27	0x3d2bb25f	0.041918155
28	0x3c2a0bc9	0.010378786
29	0x3ab35b8e	0.0013683902
30	0x3d3f3203	0.046678554
31	0x3d0ed702	0.034873016
32	0x3b7a69c1	0.0038210007
33	0x3cc65cce	0.024214175
34	0x3c3f1963	0.0116637675
35	0xbb337727	-0.0027384253
36	0x3cf3d278	0.029763445
37	0x3d1bdbf8	0.038051575
38	0x3c0cc25f	0.008591264
39	0x3c93a3d4	0.018022455
40	0xbc880768	-0.016605094
41	0x3d691e75	0.05691381
42	0x3d225043	0.039627325
43	0x3d2d5637	0.04231855
44	0xbb84ef1d	-0.004056825
45	0x3cb12f8d	0.02162912
46	0xbbd2992b	-0.0064269505
47	0xbce90200	-0.028443336
48	0x3c8a4810	0.016880065
49	0xbd2abe4a	-0.04168538
50	0x3d27bc9e	0.040951364
51	0xbad88844	-0.0016520103
52	0x3b6fb7e7	0.003657812
53	0xbcb1b071	-0.02169058
54	0xbbb34f6d	-0.005472115
55	0x3cbd069d	0.023074443
56	0x3d0db8e8	0.03460017
57	0xbc54d4d8	-0.012990199
58	0xbd350020	-0.044189572
59	0xbd23a7a0	-0.03995478
60	0x3b9332cf	0.004492141
61	0xbc70bde2	-0.014693709
62	0xbca48201	-0.020081522
63	0x3cb4164d	0.02198329
64	0xbd704e58	-0.058668464
65	0x3cf85ba8	0.030317143
66	0xbcc584a9	-0.024111109
67	0xbbd12fc2	-0.006383867
68	0xbd07b64c	-0.033132836
69	0xbd3146e4	-0.043280497
70	0x3c6d52b3	0.014485049
71	0xbd2e9a9d	-0.04262792
72	0x3d0cdb6f	0.034388956
73	0x3b96ab1f	0.004598036
74	0x3c8f4c7e	0.017492529
75	0xbc80c227	-0.015717579
76	0x3ced187b	0.028942337
77	0xbb5b6c61	-0.0033481347
78	0xbc7b8b3f	-0.015353023
79	0x3b6c9e86	0.003610523
80	0xbd0bc554	-0.034123734
81	0xbccd446c	-0.02505704
82	0xbd00d961	-0.03145731
83	0xbd061bf7	-0.032741513
84	0xbd4c8532	-0.049931712
85	0x3c0d6a37	0.008631281
86	0xbd15dc3d	-0.03658699
87	0xbab7d1bd	-0.0014024299
88	0xbd881a34	-0.06645623
89	0xbd43cf92	-0.047805376
90	0x3ca60130	0.020264238
91	0x3cd3903e	0.025825616
92	0x3d79a813	0.060951304
93	0xbc9dabf0	-0.019247025
94	0xbd78d407	-0.06074908
95	0xbcdd4847	-0.027012004
96	0x3d028661	0.031866435
97	0x3d075647	0.033041265
98	0x3ca6ef49	0.020377772
99	0xbd488f91	-0.04896504
100	0xbccda551	-0.025103243
101	0x3d0409f3	0.03223605
102	0x3c8dc585	0.017306099
103	0xbd1b4af2	-0.03791327
104	0x3c98a935	0.018635372
105	0x3a8a2928	0.001054083
106	0x3bb2e398	0.00545926
107	0x3ca18b32	0.019719694
108	0x3d1ae2ff	0.037814137
109	0x3d22f56d	0.039784838
110	0xbd3c9fb3	-0.04605074
111	0x3cf780e1	0.030212821
112	0x3c8b11d4	0.016976275
113	0x3c4c9648	0.012487002
114	0x3be0914d	0.0068532587
115	0xbd3f531d	-0.046710122
116	0x3c88bed6	0.01669256
117	0x39c1ba65	0.00036950703
118	0xbd02c0d7	-0.031922188
119	0x3c32c66f	0.010911568
120	0xbbf252c2	-0.0073951194
121	0xbbfb4f7b	-0.007669387
122	0xbc19cdc2	-0.009387435
123	0x3d573d95	0.052548964
124	0x3d9d6748	0.07685715
125	0x3d6ee966	0.058328055
126	0x3c60347a	0.013684386
127	0x3cd74e57	0.026282473
128	0x3aef1e93	0.0018243365
129	0x3d49925f	0.049211856
130	0x3c8e9b80	0.017408133
131	0x3d1e4de8	0.038648516
132	0x3cf9cd24	0.030493326
133	0xbd3cd792	-0.04610402
134	0xbcbd8476	-0.023134451
135	0x3bd8bd3d	0.006614356
136	0x3c7975d9	0.015225851
137	0xbd864049	-0.0655523
138	0x3c03e7f5	0.008050908
139	0xbc8d0836	-0.01721583
140	0xbd4e229b	-0.05032597
141	0xbcfa9d7c	-0.030592673
142	0x3d3bd4ea	0.045857348
143	0xbccfd2d9	-0.025369095
144	0x3c8885d6	0.01666538
145	0xbcc86fb7	-0.024467332
146	0x3d16bd39	0.03680155
147	0xbc8c72dd	-0.017144615
148	0x3ad7ae36	0.0016455117
149	0x3d96755f	0.073466055
150	0x3c0beb81	0.008540035
151	0x3d4047fb	0.046943646
152	0x3ce9c996	0.028538506
153	0x3c2cbd73	0.010543215
154	0x3cafb6e7	0.02144952
155	0x3d6a0725	0.05713572
156	0x3d15baef	0.036555227
157	0xbb73ca7a	-0.0037199543
158	0xbccae2ad	-0.02476629
159	0xbbf5237a	-0.007481036
160	0xbd237c50	-0.039913476
161	0x3b333af3	0.002734837
162	0x3d0791f1	0.033098165
163	0x3d489b01	0.04897595
164	0x3d5b3b51	0.053523365
165	0x3c95d887	0.018291725
166	0xbd1b9866	-0.037987135
167	0xbba7aeca	-0.005117272
168	0x3d97f944	0.074205905
169	0xbc3f9a67	-0.011694527
170	0xbd0935e9	-0.03349868
171	0xbc30c073	-0.010788071
172	0x3d8d928a	0.06912716
173	0x3d85b423	0.06528499
174	0xbcc1a7aa	-0.023639519
175	0xbab19fb2	-0.0013551621
176	0xbccdec4f	-0.025137095
177	0xbd02007c	-0.031738743
178	0xbc3b4b97	-0.011431596
179	0xbbc2cfac	-0.0059451666
180	0x3cf596c8	0.029979125
181	0x3cab7471	0.020929547
182	0x3cdbd670	0.02683565
183	0x3baeddbf	0.005336493
184	0x3ceb515b	0.028725317
185	0xbc0858b9	-0.008321934
186	0x3d27f445	0.041004438
187	0x3d961852	0.073288575
188	0x3cf27c30	0.029600233
189	0xbc74839e	-0.014923958
190	0x3b77fb7d	0.0037839108
191	0xbc907dfc	-0.017638199
192	0x3d1b6480	0.03793764
193	0x3d08975b	0.03334747
194	0xbd2bc75b	-0.041938167
195	0x3aa3a676	0.0012485522
196	0xbc4b2c1b	-0.012400652
197	0x3d3e3f17	0.046446886
198	0xbccca9a8	-0.024983242
199	0x3c8b2aa3	0.016988104
200	0x3d4aae8e	0.049482875
201	0x3d678690	0.056524813
202	0x3c3ba76d	0.011453492
203	0xba8ba2ad	-0.001065334
204	0x3ce33ec2	0.027739886
205	0x3d143b62	0.036189444
206	0xbd292893	-0.04129846
207	0xbd8505b9	-0.06495232
208	0x3cc74193	0.02432326
209	0xbd5281dc	-0.051393375
210	0xbcccb572	-0.024988864
211	0xbc8ef19a	-0.017449189
212	0x39833183	0.00025023156
213	0xbc8d6b8b	-0.017263195
214	0xbd8f49ae	-0.06996475
215	0xbd157974	-0.03649278
216	0xbc857d25	-0.016295025
217	0x3d0c393e	0.034234278
218	0xbd1d5f75	-0.038421113
219	0x3c97ba04	0.018521316
220	0x3bfc1aa9	0.007693608
221	0xbb9fb283	-0.004873575
222	0xbbe7ea09	-0.0070774597
223	0xbd65ce4d	-0.056104947
224	0x3bb19007	0.0054187807
225	0x3ce18681	0.027529957
226	0x3d1e08aa	0.03858248
227	0x3d8eca04	0.06972125
228	0x3585b6e0	9.962496e-07
229	0xbcdbbf2d	-0.026824558
230	0xbcc84276	-0.024445754
231	0x3d0dfcb2	0.034664817
232	0x3d44fc0b	0.04809193
233	0xbc92e8e1	-0.017933311
234	0xbd15b354	-0.036547974
235	0x3c5813de	0.01318833
236	0x3ae74804	0.0017645364
237	0xbcfc519a	-0.03080063
238	0x3d11c61b	0.03558932
239	0xbc796b59	-0.015223348
240	0xbd2ec0e2	-0.042664416
241	0xbc438fe9	-0.011936166
242	0xbc7224d0	-0.014779285
243	0x3c733dec	0.014846306
244	0x3c8453be	0.016153213
245	0xbbfaa8b3	-0.007649505
246	0xbaf06883	-0.0018341694
247	0xbca1d026	-0.019752573
248	0x3d3f1164	0.046647444
249	0x3d1c9e57	0.038236942
250	0xbd1b962d	-0.037985016
251	0xbd396fc0	-0.04527259
252	0xbd657922	-0.056023724
253	0x3c5791f3	0.013157356
254	0xbbfeaf3a	-0.0077723535
255	0xbd1d8e51	-0.0384658

layer2.0.bias f4 [32]
0	0xbcbe5187	-0.023232235
1	0x3d17a954	0.03702672
2	0xbbfc4ecb	-0.0076998225
3	0xbd122631	-0.035680953
4	0x3cd4b356	0.02596442
5	0xbc97d213	-0.018532788
6	0xbc48a27c	-0.012245771
7	0xbd06dc55	-0.03292497
8	0x3d308bab	0.043101948
9	0xbd04da5d	-0.03243481
10	0x3d19bd4a	0.037534036
11	0x3cdf6637	0.02727042
12	0x3bd95261	0.006632135
13	0xbc9c399f	-0.019070445
14	0x3d1b68b0	0.037941635
15	0x3b849e5f	0.0040471996
16	0x3d32d57f	0.043660637
17	0xbcffac8a	-0.031210203
18	0x3d1ee72f	0.038794693
19	0x3c4af6a0	0.012387902
20	0x3d159a58	0.036524147
21	0xbafe2e70	-0.0019392502
22	0x3cd321a1	0.025772871
23	0x3d4628fd	0.048378933
24	0x3c52dedf	0.012870519
25	0x3c2cb550	0.010541275
26	0xbd38e7a2	-0.045142777
27	0xbb8693ad	-0.00410696
28	0xbd2a47b4	-0.041572288
29	0x3d3e587a	0.046471097
30	0x3d210d3a	0.039319254
31	0x3c86dbcb	0.016462227

layer2.1.weight f4 [32]
0	0x3f3bd0a9	0.73365265
1	0x3f194091	0.59864146
2	0x3f3d0d57	0.7384848
3	0x3f49e652	0.78867066
4	0x3f316cc0	0.69306564
5	0x3f41ff96	0.7578062
6	0x3f29e00c	0.66357493
7	0x3f33a976	0.7018045
8	0x3f321004	0.6955569
9	0x3f428acd	0.75993043
10	0x3f2e467b	0.68076295
11	0x3f2c758e	0.67366874
12	0x3f2346f1	0.63780123
13	0x3f2e093c	0.6798284
14	0x3f3f18f1	0.7464743
15	0x3f35497f	0.7081527
16	0x3f27cbf6	0.65545595
17	0x3f26bbd6	0.65130365
18	0x3f429d74	0.76021504
19	0x3f401cfa	0.75044215
20	0x3f273f98	0.6533141
21	0x3f492204	0.7856753
22	0x3f2e7026	0.68139875
23	0x3f300df6	0.687713
24	0x3f2baebd	0.67063504
25	0x3f0e9ae6	0.55705106
26	0x3f29c681	0.6631852
27	0x3f4820a7	0.78174824
28	0x3f32a2ed	0.69779855
29	0x3f3ef6c1	0.74595267
30	0x3f2b48fe	0.6690825
31	0x3f48599d	0.7826174

layer2.1.bias f4 [32]
0	0xbed63ac0	-0.41841698
1	0xbed79506	-0.42105883
2	0xbeda83f7	-0.42678806
3	0xbed35123	-0.4127284
4	0xbec52e3c	-0.38511837
5	0xbeb39aa8	-0.3507893
6	0xbeca0b84	-0.3946191
7	0xbeb9c962	-0.36286455
8	0xbec8131a	-0.39077073
9	0xbee4cc4f	-0.44687125
10	0xbec79344	-0.38979542
11	0xbece1e56	-0.4025752
12	0xbed53b15	-0.4164664
13	0xbed36669	-0.4128907
14	0xbee7759a	-0.4520691
15	0xbed6ac8f	-0.41928527
16	0xbecdcb3f	-0.40194127
17	0xbecdc0bc	-0.40186107
18	0xbecf8929	-0.40534332
19	0xbed500a4	-0.4160205
20	0xbec79ac7	-0.38985273
21	0xbeccf06b	-0.40027174
22	0xbecee6c0	-0.40410423
23	0xbec17d1b	-0.3779076
24	0xbec70d61	-0.38877395
25	0xbecb3dcf	-0.39695594
26	0xbec50ec9	-0.38487843
27	0xbed22667	-0.41044924
28	0xbeceabf5	-0.40365568
29	0xbedad0ff	-0.42737576
30	0xbecba3b7	-0.39773342
31	0xbede66a3	-0.4343768

layer2.1.running_mean f4 [32]
0	0xbdb1d4ad	-0.08683143
1	0xbf1df864	-0.6170714
2	0xbe3ce75f	-0.18447636
3	0xbef7937f	-0.48354718
4	0x3dae5696	0.08512609
5	0xbf4f0ec2	-0.80881894
6	0xbf5ee263	-0.8706419
7	0xbfb3125a	-1.3989975
8	0xbf4e7a08	-0.80654955
9	0x3e5411a6	0.20709857
10	0xbe2164e8	-0.15761149
11	0xbf01b681	-0.50669104
12	0xbf66e260	-0.9018917
13	0x3dd13d3f	0.1021676
14	0x3e9d61b6	0.3073861
15	0x3f0c5332	0.54814446
16	0xbd72ae2b	-0.05924813
17	0x3d030e09	0.031995807
18	0x3effa3d8	0.4992969
19	0xbded1f4b	-0.11578234
20	0xbdd219a2	-0.10258795
21	0xbd678052	-0.05651886
22	0xbecef473	-0.40420875
23	0xbe8358cd	-0.25653687
24	0xbf879ff8	-1.0595694
25	0x3f7de14b	0.99171895
26	0xbfada6e2	-1.3566554
27	0xbe84b89b	-0.25922093
28	0x3d8e8338	0.06958622
29	0xbda81ced	-0.08208642
30	0xbf3fb081	-0.748787
31	0x3e4063fd	0.18788143

layer2.1.running_var f4 [32]
0	0x3f50ae9a	0.8151642
1	0x3e963fc5	0.29345527
2	0x3e936643	0.28788957
3	0x3f1a4a97	0.60270065
4	0x3eda11a9	0.425916
5	0x3f6281db	0.88479394
6	0x3fae8580	1.3634491
7	0x3f538440	0.8262367
8	0x3f16151c	0.5862596
9	0x3f825af6	1.0184009
10	0x3f68318b	0.90700597
11	0x3ed9492e	0.42438644
12	0x3f7218a3	0.9456884
13	0x3f1eaa4e	0.61978614
14	0x3ecaac6d	0.39584675
15	0x3f20531a	0.626268
16	0x3f07490c	0.52845836
17	0x3eeda7f9	0.46417215
18	0x3f0e343c	0.55548453
19	0x3f01cd77	0.5070414
20	0x3f1891be	0.59597385
21	0x3f27307d	0.6530836
22	0x3f1be656	0.6089834
23	0x3f232675	0.63730556
24	0x3fa980e9	1.3242465
25	0x3f6286bd	0.88486844
26	0x3f74e1ff	0.9565734
27	0x3f12b5e7	0.5730881
28	0x3eb155e3	0.3463584
29	0x3ea2363a	0.31681997
30	0x3e9d0854	0.30670416
31	0x3f15935f	0.58427995

fc.weight f4 [10, 1568]
0	0x3d304f36	0.04304429
1	0xbc2c51ef	-0.010517581
2	0x3ce585ed	0.028017962
3	0xbd318ecd	-0.043349076
4	0x3ce6243d	0.028093452
5	0x3bd27a72	0.006423288
6	0xba942adb	-0.0011304276
7	0x3dd2e63b	0.10297819
8	0xba6ce65a	-0.00090370106
9	0x3ce76851	0.028247984
10	0x3cc50d64	0.024054237
11	0x3bb14676	0.005410011
12	0x3cf23b37	0.029569251
13	0xbc38d973	-0.011282313
14	0xbb7f3f68	-0.0038947705
15	0xbd55b44f	-0.05217391
16	0x3bdc6146	0.006725463
17	0xbbdbbd68	-0.0067059286
18	0x3c680efc	0.014163729
19	0x3b0ba0ae	0.002130549
20	0xbd5c6905	-0.053811092
21	0xbcb9a48d	-0.022661472
22	0x3cce873d	0.025210971
23	0x3c9a3817	0.018825574
24	0xbc9856a7	-0.018596007
25	0xbcd59836	-0.026073556
26	0x3c520f92	0.012821095
27	0x3d98b223	0.07455852
28	0xbc9edd15	-0.01939253
29	0x3bb08245	0.005386623
30	0x3b8e3718	0.004340064
31	0xbcb5480a	-0.022129077
32	0xbd2e7fdf	-0.042602416
33	0xbceec702	-0.029147629
34	0x3ca8db68	0.020612434
35	0xbd1c9dea	-0.038236536
36	0x3d403144	0.046921983
37	0xbcf3a4e4	-0.029741712
38	0x3b32a62e	0.0027259695
39	0xbcb9e2d5	-0.02269117
40	0xbcf9b01e	-0.030479487
41	0xbd64f6c9	-0.055899415
42	0x3cde7e2c	0.027159773
43	0xbc290c67	-0.010317898
44	0xbc0e01f1	-0.008667455
45	0x3bc35f3c	0.0059622806
46	0x3b94db6e	0.0045427596
47	0x3bdf1274	0.0068076197
48	0xbc0691c7	-0.008213467
49	0x3c251651	0.010076121
50	0x3c1a14a8	0.009404339
51	0x3d340758	0.043952316
52	0x3c307bfb	0.010771747
53	0xbc0f8fc6	-0.008762306
54	0xbcb0f531	-0.021601291
55	0xbcc5eef7	-0.024161799
56	0xbc9e3e88	-0.019316927
57	0xbc83b78c	-0.016078733
58	0x3c8bd83e	0.017070886
59	0xbc3db94b	-0.011579822
60	0x3aaff7ed	0.0013425328
61	0x3cb7f70d	0.02245667
62	0xbd913c6c	-0.07091603
63	0x3a9a5257	0.0011773807
64	0xbca958cf	-0.02067223
65	0x3cff00fb	0.031128397
66	0x3d1bb66e	0.038015775
67	0xbca1ff1e	-0.01977497
68	0xbd22d0b0	-0.0397498
69	0xb941a8f5	-0.00018468856
70	0x3c05cdd6	0.008166751
71	0x3bad3c54	0.0052867327
72	0xbca13bc9	-0.019681828
73	0xbc492bcb	-0.012278507
74	0x3ca46e02	0.020071987
75	0xbd7fbace	-0.06243401
76	0xbd26a02c	-0.040680096
77	0x3d05119a	0.03248749
78	0x39fad8e9	0.00047845326
79	0x3beda099	0.0072518107
80	0x3cba7066	0.022758674
81	0x3ca2220d	0.019791627
82	0xbbf053e0	-0.0073342174
83	0x3bd07689	0.0063617867
84	0x3bccac40	0.0062461197
85	0x3cdaf432	0.02672777
86	0x3c331cb1	0.0109321335
87	0x3c7c4340	0.015396893
88	0x3c468858	0.012117468
89	0xbd5df15b	-0.054185253
90	0x3c789fcc	0.015174817
91	0x3c9ff0d6	0.01952402
92	0x38aa83b3	8.1307626e-05
93	0x3c643f24	0.0139310695
94	0xbab9ca45	-0.0014174661
95	0x3d22c036	0.039734088
96	0xbd48f787	-0.049064185
97	0x3d0fbe5b	0.035093646
98	0x3cc09a37	0.023511035
99	0x3d751c81	0.059841637
100	0x3d317a54	0.04332955
101	0xbca4cfd3	-0.02011863
102	0x3d833c7f	0.06408023
103	0x3c2dcc6c	0.01060782
104	0x3b0bece8	0.0021350924
105	0xbca996ad	-0.02070173
106	0x3dc59640	0.096477985
107	0x3c8abb70	0.01693508
108	0x3cddef9d	0.027091796
109	0x3cd3534f	0.02579656
110	0xbc493586	-0.012280827
111	0x3c577d44	0.013152424
112	0xbd2183e5	-0.039432425
113	0x3d686b37	0.056742873
114	0x3ca8c44d	0.020601416
115	0x3c8fe426	0.017564844
116	0x3b782485	0.0037863564
117	0x3bd225cf	0.0064131985
118	0x3d082eaa	0.033247627
119	0x3c280c7c	0.010256883
120	0xbc5cdf8b	-0.013481031
121	0xbc3aa1ac	-0.011391085
122	0xbce623a7	-0.028093172
123	0xbd15c32b	-0.03656308
124	0xbcbff1b9	-0.023430692
125	0xbd126ed8	-0.03575024
126	0x3c8c10d8	0.017097875
127	0xbda307b9	-0.07960457
128	0xbb37c759	-0.0028042404
129	0xbd1ffa60	-0.039057136
130	0x3ca709c7	0.020390404
131	0xbcecd0b9	-0.02890812
132	0xbc289f04	-0.0102918185
133	0x3a6e96f3	0.00091014727
134	0xbd92e7d2	-0.071731225
135	0xbc6e644d	-0.014550281
136	0xbc9833f9	-0.01857947
137	0xbd41ed62	-0.047345527
138	0xbc23c91e	-0.009996681
139	0xbbe683cf	-0.007034756
140	0xbca70e14	-0.020392455
141	0xbcfb876e	-0.030704226
142	0x3ccc3ccd	0.024931336
143	0x3c97db36	0.018537145
144	0xbbeb48d9	-0.007180315
145	0x3ca15dad	0.019697988
146	0xbca241b1	-0.019806715
147	0x3d444424	0.047916546
148	0x3d042b81	0.03226805
149	0xbd147db0	-0.036252677
150	0x3c2d45a3	0.010575685
151	0x3ca49073	0.02008841
152	0x3cdc13ef	0.026864974
153	0x3c56a27b	0.013100262
154	0x3d792e46	0.060835145
155	0x3d1d6020	0.03842175
156	0x3d026996	0.031838976
157	0x3c2cf4c5	0.0105564045
158	0x3d9a23e1	0.075263746
159	0x3d58a5ac	0.052892372
160	0x3b634776	0.0034680045
161	0x3d2ce388	0.04220918
162	0xbd10f148	-0.035386354
163	0x3c4a66d7	0.0123536205
164	0xbd16a042	-0.036773928
165	0xbc8f9f94	-0.017532147
166	0xbca8e136	-0.020615201
167	0xbca5b751	-0.020229014
168	0x3b39bb55	0.0028340418
169	0xbcfe4609	-0.031039255
170	0x3bc01fd8	0.005863171
171	0xbc7924f4	-0.015206564
172	0x3d6180a2	0.055054314
173	0xbbac50ea	-0.005258669
174	0x3bb64fbb	0.005563704
175	0xbd43924d	-0.047746945
176	0xbd8ca1b0	-0.06866777
177	0x3d2e7991	0.042596404
178	0xba9b0cc8	-0.0011829371
179	0xba93ad65	-0.0011266886
180	0xbd44dc8f	-0.048061904
181	0x3c4d3b83	0.012526396
182	0xbd4dbea6	-0.050230645
183	0xbccfb725	-0.025355885
184	0x3cca3d80	0.024687529
185	0xbcee4061	-0.029083433
186	0xbd00b52d	-0.031422783
187	0xbd78eba2	-0.060771592
188	0xbc6665aa	-0.014062325
189	0xbd3bae7e	-0.045820706
190	0xba9b59ff	-0.0011852382
191	0x3c9a0116	0.018799346
192	0xbbd46c5c	-0.006482644
193	0xbd221c23	-0.039577615
194	0xbcd60dc5	-0.026129613
195	0xbd2d9779	-0.042380784
196	0xbadc265d	-0.0016796101
197	0xbcc13c9a	-0.023588467
198	0x3b68cae0	0.0035521314
199	0x3aceb70f	0.0015771108
200	0x3d331dee	0.043729715
201	0x3bd6611d	0.0065423385
202	0xbc177819	-0.009244942
203	0xbc52b490	-0.012860432
204	0xbd4b3e48	-0.049619943
205	0x3c3cadec	0.011516076
206	0x3c066d4b	0.008204768
207	0x3d5f1936	0.054467402
208	0xbd8f9522	-0.07010867
209	0xbd243392	-0.040088244
210	0xbc2b2019	-0.010444664
211	0xbc5981e4	-0.013275597
212	0x3d0c726d	0.034288812
213	0x3d6a1ff5	0.057159383
214	0x3cfd7620	0.030940115
215	0xbc6acc76	-0.014330974
216	0xbc915bcc	-0.017743967
217	0x3ded0b7f	0.11574458
218	0x3d00a9c3	0.031411897
219	0xbc24d8f8	-0.010061495
220	0x3b7d7bbe	0.0038678492
221	0x3b940a26	0.0045178114
222	0x3da127b1	0.07868899
223	0xbc201ca1	-0.009772451
224	0x3d4d4c15	0.050121386
225	0xbd4f3ec7	-0.05059698
226	0xbd29f499	-0.041493032
227	0xbcfac3a6	-0.03061087
228	0xbcca2ec6	-0.024680506
229	0x3bd5cf38	0.0065249465
230	0x3cf0a6bb	0.029376378
231	0x3cc693ba	0.024240363
232	0xbca911ff	-0.020638464
233	0x3c9cee98	0.01915674
234	0xbce70a17	-0.028203053
235	0x3b6daebc	0.003626748
236	0xbce98399	-0.028505133
237	0x3ccf2d66	0.025290202
238	0xbcc76ffc	-0.02434539
239	0xbc48ee67	-0.012263871
240	0x3cc560f5	0.024094084
241	0x3ca22f2a	0.01979788
242	0xbcbb4756	-0.022861164
243	0xbc726141	-0.014793695
244	0x3c837835	0.01604853
245	0xbcc0077b	-0.023441067
246	0x3d12580c	0.0357285
247	0xbc0405c9	-0.00805802
248	0xbb155d46	-0.002279119
249	0x3d45c523	0.048283707
250	0x3cd1a359	0.025590586
251	0x3c41c600	0.011826992
252	0x3cfbf5e0	0.03075689
253	0x3d46619c	0.04843293
254	0xbbecc5ab	-0.0072257123
255	0xbcfd4716	-0.030917685

fc.bias f4 [10]
0	0xbc89920a	-0.01679327
1	0xbba97808	-0.0051717795
2	0xbc030e6f	-0.007999047
3	0x3a2cd218	0.00065925857
4	0x3c56b8f9	0.013105624
5	0x3cc35177	0.023842556
6	0x3cb7dc6a	0.022443969
7	0xbbabe069	-0.0052452576
8	0x3b3326ed	0.0027336434
9	0xbcea904b	-0.028633257
