result/fmnist/seed12/noniid_0.4/ratio_0.1/final.pt (torch, 122111 bytes, 14 tensors)

layer1.0.weight f4 [16, 1, 5, 5]
0	0x3d344137	0.044007506
1	0xbd5b66c6	-0.05356481
2	0xbd6fb8c0	-0.0585258
3	0x3dc00a82	0.09377004
4	0x3b4cf1ee	0.003127213
5	0xbe335bbc	-0.17515463
6	0x3d3117bb	0.04323552
7	0xbe156ef8	-0.14593112
8	0x3e47222e	0.19446632
9	0x3d76928b	0.060198348
10	0xbe843961	-0.25825027
11	0x3d6c5890	0.057701647
12	0x3df85772	0.12126054
13	0x3da12466	0.078682706
14	0x3c07f0d9	0.008297169
15	0xbe85c1af	-0.2612433
16	0x3e95295e	0.29133123
17	0x3e7b748d	0.2455618
18	0xbe745f16	-0.23864397
19	0xbcf04c0b	-0.029333135
20	0x3e520559	0.20509852
21	0xbe2ad154	-0.16681415
22	0xbe4f21e4	-0.20227772
23	0x3dce4fa6	0.100737855
24	0x3cba2e7c	0.022727244
25	0xbdaa7570	-0.08323181
26	0x3b6b9a5d	0.0035950162
27	0x3e18931e	0.14899871
28	0x3d87b225	0.06625775
29	0x3d5b3a2a	0.053522266
30	0x3c92cc5d	0.017919714
31	0x3e20a7bc	0.15688986
32	0xbd9317e8	-0.07182294
33	0xbdf23b82	-0.118277565
34	0xbdca4669	-0.09876711
35	0xbd61aad8	-0.05509457
36	0x3d07bba7	0.033137944
37	0xbe66c1aa	-0.22534814
38	0xbe495ea1	-0.19665004
39	0x3e128d0e	0.1431162
40	0x3e355f3a	0.17712107
41	0xbe062559	-0.13100185
42	0xbe190bbb	-0.14945881
43	0xbe62720b	-0.22113816
44	0x3dc7409d	0.09729121
45	0x3d803bba	0.06261392
46	0x3e0e5734	0.13900453
47	0xbdbdda81	-0.09270192
48	0xbd482a25	-0.048868317
49	0x3e5bdfe1	0.21472122
50	0x3e0112d4	0.12604839
51	0x3e43e969	0.19132008
52	0x3d236bb9	0.039897654
53	0x3e120251	0.14258696
54	0x3e49b3ec	0.19697541
55	0xbe2eb8bb	-0.17062657
56	0xbe0c72f9	-0.13715734
57	0x3e2ff0b7	0.17181669
58	0x3d929fb8	0.0715937
59	0x3d32e587	0.043675926
60	0x3ddef1e8	0.10885984
61	0xbe3a04a6	-0.18165836
62	0x3de16b02	0.11006738
63	0x3dd3f23b	0.10348936
64	0x3daa465f	0.083142035
65	0xbb9440d7	-0.004524331
66	0xbd8c55ec	-0.06852326
67	0x3d2df7e4	0.042472735
68	0x3e103a35	0.14084704
69	0x3cc94515	0.024569074
70	0xbdf5f6ab	-0.12009939
71	0xbe0ad1a2	-0.13556531
72	0xbd6fa8f1	-0.058510724
73	0xbe3fd741	-0.18734457
74	0xbe02f707	-0.12789546
75	0x3d38d7c2	0.045127638
76	0xbe4c63e5	-0.19959982
77	0x3e5c75ba	0.21529284
78	0xbd7c72e4	-0.061633006
79	0x3d9b7320	0.07590318
80	0x3d083dac	0.03326194
81	0xbe3d07c7	-0.18459998
82	0x3e4263f9	0.18983449
83	0xbe13cf41	-0.1443453
84	0x3b964345	0.004585656
85	0x3df8dcfa	0.12151523
86	0xbd551db1	-0.05203027
87	0x3e4f9c23	0.20274405
88	0xbe363c0f	-0.17796348
89	0x3e04a97f	0.12955283
90	0x3d0d3625	0.034475464
91	0x3db139db	0.08653613
92	0x3c7f969d	0.015599874
93	0xbe503024	-0.20330864
94	0x3e0a1d5e	0.13487765
95	0x3dba3fcd	0.090942
96	0xbe097763	-0.13424449
97	0xbe260b11	-0.16215159
98	0xbe95d481	-0.2926369
99	0x3e5fa06c	0.2183854
100	0x3c7e3d5b	0.015517558
101	0x3d91c659	0.0711791
102	0x3d62fdb9	0.05541775
103	0xbcea72ea	-0.028619248
104	0x3dcf6116	0.101259395
105	0x3dd3cdd5	0.10341994
106	0xbe0bf543	-0.13667779
107	0x3db4e765	0.088331975
108	0x3e42e9a8	0.19034445
109	0xbcb94fc4	-0.022621043
110	0xbb2ec598	-0.0026668068
111	0x3d1f799b	0.03893433
112	0xbe523c73	-0.20530872
113	0xbe069ea0	-0.13146448
114	0x3e923f1d	0.28563777
115	0xbe38ad2a	-0.18034807
116	0x3cb6a2bf	0.0222944
117	0xbe91b2fe	-0.28456873
118	0xbd6a66f8	-0.057227105
119	0x3c0f8486	0.008759623
120	0x3d309f4b	0.043120664
121	0xbdd79947	-0.10527282
122	0x3d798458	0.06091723
123	0x3d2ff1f8	0.04295537
124	0xbe42f017	-0.190369
125	0xbca1880b	-0.01971819
126	0x3e84a10a	0.25904113
127	0x3e40fa20	0.18845415
128	0xbdc026a8	-0.09382373
129	0x3e018f34	0.12652284
130	0xbe3c028a	-0.18360344
131	0x3e732184	0.23743254
132	0x3def7d27	0.11693793
133	0x3d7a1c18	0.06106195
134	0xbe347402	-0.17622378
135	0xbe035178	-0.12824047
136	0xbe5883e3	-0.21144061
137	0x3dcf3306	0.10117154
138	0xbe3c6047	-0.18396102
139	0xbddb276f	-0.10700881
140	0xbd9f64c3	-0.07782891
141	0x3d19d3a6	0.03755536
142	0x3d5287c9	0.051399026
143	0x3d486252	0.04892189
144	0x3e25f4b1	0.16206624
145	0xbd32e147	-0.043671872
146	0xbd745e65	-0.059660334
147	0xbd917845	-0.07103018
148	0xbcaef546	-0.02135719
149	0xbdb82bd3	-0.08992734
150	0x3db409ba	0.08790918
151	0x3e112dd1	0.14177634
152	0x3e0bd74d	0.1365635
153	0x3df8f230	0.121555686
154	0xbd93a0eb	-0.07208427
155	0xbe4b7cf1	-0.1987188
156	0x3e32ff90	0.17480302
157	0xbd049212	-0.032365866
158	0xbd73f5f5	-0.059560735
159	0xbe3ab1ab	-0.18231837
160	0xbe37bb4d	-0.17942543
161	0x3d2337f7	0.039848294
162	0x3e1ce5f0	0.15322089
163	0xbe39296c	-0.18082207
164	0xbe780667	-0.24221192
165	0xbdacedaa	-0.08443768
166	0xbe2955a2	-0.16536573
167	0x3e304780	0.17214775
168	0xbcb06d6c	-0.021536551
169	0xbe2ffdc9	-0.17186655
170	0x3d0f82d3	0.035036873
171	0x3e468e76	0.19390282
172	0x3d85ae32	0.06527366
173	0xbdbf20cd	-0.09332428
174	0x3de0e0dd	0.10980389
175	0xbe3325e3	-0.17494921
176	0x3e2d3a7b	0.1691684
177	0xbd1bdaa9	-0.038050327
178	0x3c6d366d	0.014478308
179	0xbbc2345c	-0.005926652
180	0xbe71f6a2	-0.23629239
181	0x3da7f158	0.082003295
182	0x3e8f22b3	0.2795616
183	0xbdcb863b	-0.09937712
184	0xbd33a78a	-0.04386095
185	0xbe542aa8	-0.20719397
186	0xbc8da677	-0.01729129
187	0x3e8f1829	0.2794812
188	0xbda5bb83	-0.08092406
189	0xbd15a230	-0.036531627
190	0x3e2f3e3a	0.17113581
191	0xbe47cb1c	-0.19511074
192	0x3ce00cb4	0.027349807
193	0xbbfa6db5	-0.0076424726
194	0x3c722fd7	0.014781914
195	0xbda10ccc	-0.07863769
196	0xbd1a5382	-0.037677296
197	0x3d351e43	0.044218313
198	0x3db1b067	0.08676224
199	0xbdc11f97	-0.094298534
200	0x3d323b99	0.043513868
201	0xbe41665d	-0.18886705
202	0x3c2e8e43	0.010654035
203	0x3d349caf	0.044094738
204	0xbe051d52	-0.12999466
205	0xbcf1232d	-0.029435718
206	0xbd2c9622	-0.042135365
207	0x3da31a2a	0.07963975
208	0x3e22fc3e	0.15916535
209	0xbea38690	-0.319386
210	0x3e21fee1	0.15819885
211	0x3d01ba42	0.03167177
212	0x3e1cf0ca	0.15326229
213	0x3e3e41a8	0.18579733
214	0xbe13a73c	-0.14419264
215	0xbdcad876	-0.09904568
216	0x3d76c6c6	0.06024816
217	0x3d8e40ab	0.06945928
218	0x3e4f6177	0.20252024
219	0xbdf860b9	-0.121278234
220	0xbb88e8c0	-0.0041781366
221	0xbdf22b7e	-0.11824702
222	0xbe3556d2	-0.177089
223	0x3dfad8d4	0.12248388
224	0xbcae468d	-0.021273876
225	0x3e2ddfdf	0.16979931
226	0x3ddfe8e0	0.10933089
227	0xbdfd593e	-0.12370537
228	0xbdc4a5ae	-0.096019134
229	0x3d234a35	0.03986569
230	0x3e2a42e4	0.16627079
231	0xbe29dc70	-0.16587996
232	0x3e4fcb7c	0.20292467
233	0x3e0c8a4f	0.13724636
234	0xbc0fe8bf	-0.008783518
235	0xbe539d20	-0.20665407
236	0xbdcd8cfb	-0.100366555
237	0x3e191b00	0.14951706
238	0x3de68170	0.11255157
239	0x3dc3cbec	0.095603794
240	0xbe32a019	-0.17443885
241	0xbe394208	-0.18091595
242	0xbe441b49	-0.19151033
243	0xbc71f7ec	-0.014768582
244	0x3b11a12c	0.002222131
245	0xbdae7c03	-0.08519747
246	0x3e6774db	0.2260317
247	0xbe600b71	-0.21879365
248	0xbe47188a	-0.19442955
249	0xbe2048b5	-0.15652736
250	0xbdec7ffd	-0.11547849
251	0xbc19e25c	-0.009392347
252	0xbd8334d6	-0.06406562
253	0x3a6298cf	0.0008643986
254	0x3e213f2a	0.15746751
255	0xbe30ac94	-0.17253333

layer1.0.bias f4 [16]
0	0xbe16f104	-0.14740378
1	0xbd35f1bb	-0.044419985
2	0xbdaef807	-0.08543401
3	0x3cbee214	0.023301162
4	0xbdd5d953	-0.10441842
5	0xbd702402	-0.05862809
6	0x3dbbfc75	0.09179012
7	0x3de8f6bb	0.11375185
8	0xbe28340a	-0.16426101
9	0xbd771264	-0.060320273
10	0x3e0df1f6	0.13861832
11	0x3e134785	0.14382751
12	0xbd29bb62	-0.041438468
13	0xbe4bfc96	-0.19920573
14	0x3d2f72dc	0.042834148
15	0x3e07a0ee	0.13244984

layer1.1.weight f4 [16]
0	0x3f858b55	1.0433146
1	0x3f83004d	1.0234467
2	0x3f6a164a	0.9144026
3	0x3f83829a	1.0274231
4	0x3f8098e1	1.0046655
5	0x3f7a7292	0.9783107
6	0x3f83fbfe	1.0311277
7	0x3f87384e	1.0564058
8	0x3f80a009	1.0048839
9	0x3f876d58	1.0580244
10	0x3f63a345	0.88921005
11	0x3f77a422	0.9673482
12	0x3f857eaf	1.0429286
13	0x3f780be6	0.96893156
14	0x3f818076	1.0117328
15	0x3f6cfb4d	0.92570955

layer1.1.bias f4 [16]
0	0xbd8ad1c6	-0.06778292
1	0xbd1c9633	-0.03822918
2	0xbde0398f	-0.109484784
3	0xbda9f59b	-0.08298799
4	0xbd33b029	-0.04386917
5	0xbd781734	-0.060569003
6	0xbd43ea0f	-0.047830638
7	0x3bc27328	0.005934138
8	0xbd006a86	-0.03135159
9	0xbd05d30e	-0.03267198
10	0xbdcde27f	-0.10052966
11	0xbdcce2c1	-0.100041874
12	0xbcd205a8	-0.025637463
13	0xbd8c3509	-0.06846053
14	0xbd7043e5	-0.0586585
15	0xbdcf7d4d	-0.10131321

layer1.1.running_mean f4 [16]
0	0xbe1a7e98	-0.15087354
1	0xbdcab613	-0.09898009
2	0x3cd8ca4a	0.026463646
3	0x3cb89e76	0.022536498
4	0xbe28ed90	-0.16496873
5	0xbda41b42	-0.080130115
6	0x3c861a67	0.016370011
7	0x3d79921c	0.060930356
8	0xbe3c2f9c	-0.18377537
9	0xbe4eccc2	-0.20195296
10	0x3eac53ed	0.3365778
11	0x3e4740db	0.19458334
12	0xbe6b208e	-0.22961637
13	0xbe647a8f	-0.22312377
14	0x3bf19fbf	0.0073737795
15	0x3e4a17b2	0.19735602

layer1.1.running_var f4 [16]
0	0x3c84ec71	0.016226025
1	0x3cc868d6	0.024464052
2	0x3d59f6f9	0.053214047
3	0x3c9e4f4f	0.019324927
4	0x3cbcccab	0.023046812
5	0x3ca8f3fc	0.020624153
6	0x3d13a8ed	0.036049772
7	0x3ca57d03	0.020201212
8	0x3cadf8e0	0.021236837
9	0x3d3e0367	0.046389963
10	0x3d631b4c	0.055445954
11	0x3c83d0c9	0.016090767
12	0x3d499ad6	0.04921993
13	0x3cc2b609	0.023768442
14	0x3d1690cb	0.03675918
15	0x3c9aa343	0.018876677

layer2.0.weight f4 [32, 16, 5, 5]
0	0x3d3bdce2	0.045864947
1	0xbca483b1	-0.020082327
2	0xbd4efcc1	-0.050534014
3	0xbcd3583b	-0.025798908
4	0x3bf81fbe	0.0075721433
5	0xbd38797d	-0.045037735
6	0xbcba3739	-0.02273141
7	0xbc85dde9	-0.016341167
8	0xbc098ca8	-0.0083953515
9	0xbc8ee7d4	-0.017444529
10	0xbcee33f2	-0.029077504
11	0x3d15ef15	0.03660496
12	0xb91fa599	-0.00015225112
13	0x3d55b9ba	0.052179076
14	0x3d04f00b	0.032455485
15	0xbc97058b	-0.01843526
16	0x3ce6c9f1	0.028172465
17	0xbb11d722	-0.0022253473
18	0x3c96b960	0.01839894
19	0xbcba73db	-0.022760322
20	0xbca558eb	-0.020184001
21	0xbb82de30	-0.003993772
22	0xbbecd96a	-0.007228066
23	0x3b5c0114	0.0033569979
24	0xbd28ec9f	-0.041241284
25	0xbd04d23e	-0.032427065
26	0xba8194d9	-0.0009886279
27	0x3c49edc7	0.012324757
28	0x3c83fc7f	0.01611161
29	0x3b8d1487	0.0043054256
30	0x3d366fe5	0.044540305
31	0x3cc910b4	0.024544097
32	0xbd043396	-0.03227576
33	0x3d15b3c1	0.03654838
34	0x3cacdb30	0.02110061
35	0x3c80f740	0.015742898
36	0x3c8edfb3	0.017440652
37	0x3c5fea33	0.013666677
38	0x3cefc5fa	0.029269207
39	0x3c12849c	0.008942749
40	0xbd001c32	-0.03127689
41	0x3d35e375	0.044406373
42	0x3cd948d1	0.02652398
43	0x3d1164a7	0.03549638
44	0xbcbb0349	-0.022828715
45	0x3cc671e6	0.024224233
46	0x3c28050f	0.010255112
47	0xbcf38ee0	-0.029731214
48	0xbc3612a3	-0.011112842
49	0xbcf51fc2	-0.02992237
50	0x3d7e224d	0.06204443
51	0x3c836117	0.016037507
52	0x3c77c228	0.015121974
53	0xbc8fa8c0	-0.017536521
54	0xbbe445d2	-0.006966331
55	0x3d26e843	0.040748846
56	0x3d401cec	0.046902582
57	0xbc0d57e1	-0.008626909
58	0xbd44dbd9	-0.048061226
59	0xbd1a7881	-0.037712578
60	0x3c95cfa5	0.01828749
61	0x38655598	5.467757e-05
62	0xbbd564a8	-0.0065122433
63	0x3cddad0a	0.02706005
64	0xbd3b437f	-0.045718666
65	0x3d3b1e09	0.04568294
66	0xbc4d45a8	-0.012528814
67	0xbc48e339	-0.012261205
68	0xbd27ccf2	-0.040966935
69	0xbd226a80	-0.039652348
70	0x3cc3b9d7	0.023892326
71	0xbd040702	-0.032233246
72	0x3d1c7050	0.038193047
73	0x3c1d1a60	0.009588808
74	0x3c894264	0.01675529
75	0xbc98246e	-0.018572059
76	0x3c92790b	0.017879983
77	0x3bf14f51	0.0073641916
78	0xbbfc495e	-0.0076991757
79	0xbc04403a	-0.008071953
80	0xbcf5034f	-0.029908804
81	0xbce95ef3	-0.028487658
82	0xbd305cb8	-0.043057173
83	0xbd06dc40	-0.03292489
84	0xbd2c97b0	-0.042136848
85	0xbc2ab8a3	-0.010419997
86	0xbd3d2c4f	-0.046184834
87	0x3b71f2ea	0.003691847
88	0xbd378f27	-0.044814255
89	0xbced2d98	-0.028952405
90	0x3b8f182c	0.004366895
91	0x3d15d733	0.036582183
92	0x3d812067	0.063050084
93	0xbc095b1f	-0.008383541
94	0xbce622a0	-0.028092682
95	0xbcf8fdcc	-0.030394457
96	0x3d5303ac	0.051517174
97	0x3d70e367	0.058810618
98	0x3cd83693	0.02639321
99	0xbcac8992	-0.021061692
100	0xbce138c4	-0.027492888
101	0x3cc1a953	0.02364031
102	0x3c39d55a	0.011342371
103	0xbd2221ad	-0.039582897
104	0x3c646f9e	0.013942627
105	0x3ba0af68	0.0049037226
106	0x3b2a65eb	0.002600069
107	0x3c8b3eed	0.016997779
108	0x3cd6ce2e	0.026221361
109	0x3cba672d	0.022754276
110	0xbd0d746e	-0.034534864
111	0x3d0a73b2	0.033801742
112	0x3c91c6d3	0.017795002
113	0x3c89edbd	0.016836995
114	0x3c0f8cb3	0.008761573
115	0xbd26bfa0	-0.04071009
116	0x3b6960d9	0.0035610704
117	0xbcbd8bfc	-0.023138039
118	0xbc8db898	-0.017299935
119	0x3c48bff8	0.0122528
120	0xbd107ea0	-0.03527701
121	0xbcf0a022	-0.029373232
122	0xbd2aabf1	-0.041667882
123	0x3d59e238	0.053194255
124	0x3d4f1ded	0.05056565
125	0x3d16047e	0.036625378
126	0xbbfee2f2	-0.007778519
127	0x3cd1d3b6	0.025613647
128	0xbb7449ae	-0.0037275362
129	0x3d347b25	0.044062752
130	0x3c87a669	0.016558843
131	0x3d2e2ef2	0.04252524
132	0x3c9b4104	0.0189519
133	0xbd51afea	-0.051193155
134	0xbd134df6	-0.03596302
135	0x3d07c8a2	0.033150323
136	0x3d266d9c	0.040631875
137	0xbd78298f	-0.06058651
138	0x3bbd5ee8	0.005779136
139	0xbc2cea92	-0.010553973
140	0xbd091299	-0.033465
141	0xbca18848	-0.019718304
142	0x3d382de1	0.04496563
143	0xbd553495	-0.0520521
144	0x3ce21d3f	0.027601836
145	0xbd203a3b	-0.039118033
146	0x3c79beb2	0.015243219
147	0xbc4ce577	-0.012505881
148	0xbcde0498	-0.0271018
149	0x3da69bfa	0.08135219
150	0xbb7916f4	-0.0038008066
151	0x3cb09a4d	0.021557951
152	0x3c8d1e7d	0.017226452
153	0x3cc7ef6d	0.02440616
154	0x3d25eca9	0.0405089
155	0x3d3b9a1d	0.04580127
156	0x3cb1ad93	0.021689212
157	0xbd01742e	-0.03160494
158	0xbc8d8f9b	-0.01728039
159	0x3bbf221a	0.0058329226
160	0xbcb0f5f2	-0.02160165
161	0x3cc462d5	0.023972908
162	0x3bf4ef4a	0.0074748145
163	0x3cb6eeb2	0.022330616
164	0x3d904fd1	0.07046474
165	0x3d4034c7	0.046925332
166	0xbc6383cd	-0.013886404
167	0xbc835ec5	-0.0160364
168	0x3d2ef1f6	0.04271122
169	0x3c31ec65	0.0108595835
170	0xbc736896	-0.014856478
171	0xbb200eec	-0.0024422957
172	0x3d3edcae	0.046597175
173	0x3cd6a0b8	0.026199684
174	0x3c4d54b8	0.012532406
175	0xbc36985b	-0.011144723
176	0xbd135a41	-0.035974745
177	0xbd0be815	-0.034156878
178	0xbca2798c	-0.019833349
179	0xbb457b76	-0.0030133403
180	0x3d0e6d08	0.03477195
181	0x3cac9978	0.021069273
182	0x3c16a899	0.00919547
183	0x3ba4c82a	0.005028744
184	0x3d0ec808	0.034858733
185	0x3b1300d1	0.0022430907
186	0x3d401ea0	0.046904206
187	0x3d65a4f6	0.056065522
188	0x3ce2c36d	0.027681077
189	0x3ca45b46	0.020063054
190	0x3cab9a27	0.020947529
191	0x3b01a7d6	0.0019783876
192	0x3cc51421	0.02405745
193	0x3c8a1739	0.016856777
194	0xbb41e163	-0.0029583804
195	0x3c6b8caa	0.014376799
196	0xbc6aa9c1	-0.014322699
197	0x3d3ebff9	0.0465698
198	0xbd1b3520	-0.03789246
199	0x3d5b9045	0.053604383
200	0x3d29c653	0.041448902
201	0x3d93df55	0.072203316
202	0x3d236b2a	0.03989712
203	0xbb5c1657	-0.0033582652
204	0x3d223e7d	0.039610375
205	0x3cc068a7	0.023487402
206	0xbd113d72	-0.03545899
207	0xbd2e3bf6	-0.042537652
208	0x3c906ed3	0.01763097
209	0xbd37b722	-0.044852383
210	0xbd4957a2	-0.04915584
211	0xbd33586d	-0.0437855
212	0x3c9c4610	0.019076377
213	0x39c53251	0.00037612257
214	0xbd2cef95	-0.04222067
215	0xbd364b36	-0.04450532
216	0xbc8b7831	-0.017025085
217	0x3d729fa4	0.059234276
218	0xbb4d2ed4	-0.003130843
219	0x3d852b66	0.06502418
220	0x3c2074b6	0.009793451
221	0x3c1ee8d6	0.009699067
222	0x3cb962c5	0.022630105
223	0xbced47c0	-0.028964877
224	0x3d052a0d	0.032510806
225	0x3c3d533a	0.011555487
226	0x3cf21ba4	0.029554196
227	0x3d89a9ed	0.06721864
228	0x3b815381	0.003946722
229	0xbcfe9042	-0.031074647
230	0xbca6e804	-0.020374306
231	0x3d2c465b	0.042059284
232	0x3d648a3a	0.055795886
233	0xbc93dd6b	-0.018049916
234	0xbd324e2e	-0.04353159
235	0x3cbed745	0.023296008
236	0x3d03d932	0.032189555
237	0xbc6181c2	-0.013763847
238	0x3d1db82b	0.038505714
239	0x3a91e034	0.001112944
240	0xbd2d82cf	-0.042361077
241	0x3bcb8002	0.006210328
242	0xbc54e279	-0.012993448
243	0x3c8076ae	0.01568159
244	0x3c0580ff	0.008148431
245	0xbd3a061e	-0.04541599
246	0xbb3dc593	-0.0028956875
247	0xbce5f8ac	-0.028072678
248	0x3cc7a8bf	0.024372457
249	0x3be5a5f4	0.0070083085
250	0xbd1809f1	-0.037118856
251	0xbcd822fe	-0.026383873
252	0xbd0aab73	-0.033854913
253	0x3cb974a8	0.022638634
254	0xbc1e3627	-0.009656466
255	0xbd3217be	-0.043479674

layer2.0.bias f4 [32]
0	0xbcbe5208	-0.023232475
1	0x3d17a924	0.03702654
2	0xbbfc4ef9	-0.007699844
3	0xbd122633	-0.03568096
4	0x3cd4b305	0.02596427
5	0xbc97d255	-0.018532911
6	0xbc48a27f	-0.012245773
7	0xbd06dc1c	-0.032924756
8	0x3d308b78	0.043101758
9	0xbd04dabb	-0.03243516
10	0x3d19bd4c	0.037534043
11	0x3cdf667d	0.02727055
12	0x3bd952ba	0.006632176
13	0xbc9c39c7	-0.01907052
14	0x3d1b68e9	0.037941847
15	0x3b849e9c	0.004047228
16	0x3d32d532	0.04366035
17	0xbcffacb4	-0.031210281
18	0x3d1ee6fd	0.038794506
19	0x3c4af638	0.012387805
20	0x3d159a17	0.036523905
21	0xbafe2e60	-0.0019392483
22	0x3cd322b7	0.02577339
23	0x3d462942	0.04837919
24	0x3c52dec1	0.0128704915
25	0x3c2cb5b1	0.0105413655
26	0xbd38e7b1	-0.045142833
27	0xbb86938d	-0.004106945
28	0xbd2a47c8	-0.041572362
29	0x3d3e58e3	0.046471488
30	0x3d210ceb	0.03931896
31	0x3c86db56	0.01646201

layer2.1.weight f4 [32]
0	0x3f5ca1c2	0.8618432
1	0x3f5934fc	0.8484647
2	0x3f5fd7c9	0.87438637
3	0x3f54c57a	0.83113825
4	0x3f62ed36	0.88643205
5	0x3f5e6aaa	0.86881506
6	0x3f57dfef	0.8432607
7	0x3f597835	0.84949046
8	0x3f5b993b	0.85780686
9	0x3f66bb71	0.9012976
10	0x3f5de975	0.8668435
11	0x3f557804	0.83386254
12	0x3f5f70f9	0.8728176
13	0x3f575526	0.841143
14	0x3f5cf319	0.8630844
15	0x3f5626a5	0.83652717
16	0x3f5ff251	0.8747912
17	0x3f5005e0	0.81258965
18	0x3f638825	0.88879615
19	0x3f5a47d0	0.8526583
20	0x3f605eb9	0.87644535
21	0x3f5c3b63	0.86028117
22	0x3f587da5	0.8456672
23	0x3f558f1f	0.8342151
24	0x3f5f1988	0.8714833
25	0x3f52aab5	0.8229173
26	0x3f60b737	0.87779564
27	0x3f643208	0.8913884
28	0x3f5fc95b	0.8741662
29	0x3f5d8175	0.8652566
30	0x3f557309	0.83378655
31	0x3f5cfe4b	0.8632552

layer2.1.bias f4 [32]
0	0xbe8bc5c4	-0.2729932
1	0xbe8870ea	-0.26648647
2	0xbe9549d2	-0.29157883
3	0xbe8f8655	-0.28032175
4	0xbe84b2dd	-0.25917712
5	0xbe82c6ce	-0.255423
6	0xbe82701c	-0.25476158
7	0xbe9449e7	-0.28962633
8	0xbe9356bf	-0.2877712
9	0xbe89dbe7	-0.26925585
10	0xbe783f3c	-0.24242872
11	0xbe8caaf5	-0.2747418
12	0xbe8238df	-0.25434014
13	0xbe850d93	-0.2598692
14	0xbe924771	-0.2857013
15	0xbe8fe50e	-0.28104442
16	0xbe8f8a1b	-0.28035054
17	0xbe950e2f	-0.29112384
18	0xbe891964	-0.26777184
19	0xbe8bf8f8	-0.27338386
20	0xbe78657f	-0.24257468
21	0xbe8753dc	-0.26431167
22	0xbe8e7bc6	-0.27828807
23	0xbe878de7	-0.2647545
24	0xbe7da760	-0.2477088
25	0xbe86501d	-0.26232997
26	0xbe8a0725	-0.26958576
27	0xbe8b5958	-0.272166
28	0xbe7a1fd3	-0.24426202
29	0xbe984487	-0.29739782
30	0xbe918ea8	-0.2842915
31	0xbe8b7293	-0.2723585

layer2.1.running_mean f4 [32]
0	0x3cef57ab	0.029216608
1	0xbedb0759	-0.42779043
2	0xbe60c275	-0.2194918
3	0xbe316b20	-0.17326021
4	0x3e8f2a6f	0.27962062
5	0xbea53e64	-0.32274163
6	0xbecc2634	-0.39872897
7	0xbf22889a	-0.6348969
8	0xbe47510a	-0.19464508
9	0x3e2d3767	0.16915666
10	0xbe46dbce	-0.19419786
11	0xbe4f14f2	-0.20222834
12	0xbebf8116	-0.37403172
13	0x3d9d4b32	0.07680358
14	0x3e268a08	0.16263592
15	0x3ed2e02e	0.4118666
16	0x3ea3e8bc	0.320135
17	0x3eac055d	0.33597842
18	0x3ea14232	0.31495816
19	0x3dfba187	0.12286668
20	0x3e59fcc2	0.21287826
21	0x3c2f46df	0.010698049
22	0xbe016682	-0.1263676
23	0xbe4d20a5	-0.20031984
24	0xbe7d273a	-0.24721995
25	0x3fa5e593	1.2960685
26	0xbf1087ac	-0.5645702
27	0xbe824bb4	-0.25448382
28	0xbdccadf8	-0.099941194
29	0x3d22f789	0.03978685
30	0xbea25903	-0.31708536
31	0x3f0d6f80	0.5524826

layer2.1.running_var f4 [32]
0	0x3eaac209	0.33351162
1	0x3e6f5500	0.23372269
2	0x3e9e2d44	0.3089391
3	0x3ea52dc4	0.3226148
4	0x3ea79e2f	0.32737872
5	0x3eed3cf3	0.46335563
6	0x3eaeeaeb	0.34163603
7	0x3ec471ab	0.38367972
8	0x3eb1d6c7	0.34734175
9	0x3f10ea73	0.5660774
10	0x3e9e7922	0.30951792
11	0x3e632ceb	0.22185104
12	0x3ea3ad05	0.3196794
13	0x3e8016e9	0.2501748
14	0x3ea9a1f2	0.33131367
15	0x3e9360d0	0.287848
16	0x3ed08100	0.4072342
17	0x3eb25c94	0.34836257
18	0x3ee47e18	0.44627452
19	0x3ecdb3c1	0.40176204
20	0x3e80b5f7	0.25138828
21	0x3f00faaa	0.50382483
22	0x3e797d84	0.24364287
23	0x3e8ce62a	0.2751935
24	0x3e93edf9	0.28892496
25	0x3f1674e5	0.58772117
26	0x3e8fd8ec	0.28095186
27	0x3ebc7514	0.36808074
28	0x3eb4fa21	0.35347083
29	0x3eb69c7a	0.35666257
30	0x3e9cce11	0.30625966
31	0x3ed63829	0.41839722

fc.weight f4 [10, 1568]
0	0x3af0f31a	0.0018382997
1	0x3ca37764	0.01995439
2	0x3ca6d1a8	0.020363644
3	0xbc54b363	-0.012982222
4	0x3ceabdd8	0.028654978
5	0x3bff9185	0.0077993297
6	0xbd1c61cd	-0.038179208
7	0x3d50609e	0.05087339
8	0xbc8d3b8b	-0.017240306
9	0x3c936a81	0.017995121
10	0x3cf183a5	0.029481718
11	0x3d731b39	0.059352133
12	0x3ce99ed6	0.028518122
13	0xb8348521	-4.303933e-05
14	0xbcbc3f3e	-0.022979375
15	0xbd0b9034	-0.03407307
16	0xbba305d1	-0.0049750586
17	0xbd4ec572	-0.050481267
18	0x3caecb85	0.02133728
19	0x3bfa11b9	0.0076315072
20	0xbd44484a	-0.047920503
21	0xbc258636	-0.010102799
22	0x3ccd2c34	0.025045492
23	0x3d13d4af	0.036091503
24	0xbc4abb81	-0.012373806
25	0xbc3ed9cd	-0.011648607
26	0xbb233b1c	-0.0024907058
27	0x3d28866c	0.04114382
28	0xbc9e6215	-0.019333879
29	0x3d00854d	0.031377126
30	0x3c87f941	0.016598346
31	0xbbf96a11	-0.007611521
32	0x397fee5e	0.00024407494
33	0xbc2dd2d1	-0.010609345
34	0x3c8eafb3	0.017417764
35	0xbd0d4f5d	-0.034499515
36	0x3b07de1a	0.0020731748
37	0xbd11d247	-0.035600927
38	0xbd3855ad	-0.04500358
39	0xbce54763	-0.027988141
40	0xbc802a66	-0.015645217
41	0xbd33223b	-0.043733817
42	0x3c8f5910	0.017498523
43	0xbc270bac	-0.010195654
44	0xbcfddd34	-0.030989267
45	0xbc8f681f	-0.017505703
46	0x3c2b4a10	0.01045467
47	0xbb1726bb	-0.0023063857
48	0x3a6f64c0	0.00091321394
49	0x3cff7dce	0.031187918
50	0xbca1a85f	-0.019733606
51	0xbc32feb3	-0.010924983
52	0x3cf7ea79	0.030263172
53	0x3b564f40	0.0032701045
54	0x3b487de9	0.0030592626
55	0xbc2e7607	-0.010648257
56	0x3bb1f8f1	0.0054312875
57	0x3c75bf17	0.014999173
58	0x3c9d4d3a	0.019201864
59	0xbc8a9457	-0.016916437
60	0x3d484b0f	0.048899706
61	0x3c4ffaf2	0.012694107
62	0xbd6007e4	-0.054695025
63	0x3beb0963	0.00717275
64	0xbc9bb8dc	-0.019009046
65	0x3c9f9941	0.019482257
66	0x3d4a5f73	0.049407434
67	0xbae5d7af	-0.0017535592
68	0xbba2b4f4	-0.004965419
69	0x3cbff2e5	0.02343125
70	0xbc58953c	-0.013219174
71	0x3d3fcd2e	0.046826534
72	0xbcdb6b4d	-0.026784563
73	0xbc36a4f4	-0.011147726
74	0x3c80b254	0.015710033
75	0xbc9f8079	-0.01947044
76	0xbc22456c	-0.009904247
77	0xbc8fa118	-0.01753287
78	0x3c995f5e	0.018722232
79	0xbc2c77e2	-0.010526629
80	0x3bce55c9	0.0062968475
81	0xbc44785d	-0.0119915875
82	0x3abc1049	0.0014348115
83	0x3c444931	0.011980341
84	0xbcfb7aea	-0.030698258
85	0x3d141a32	0.036157794
86	0xbd210248	-0.039308816
87	0xbb4f5b86	-0.0031640246
88	0xbb93d7cd	-0.0045118094
89	0xbd298233	-0.041383933
90	0x3baefe41	0.005340368
91	0xba28eb66	-0.00064437685
92	0x3c20396e	0.009779317
93	0x3d1512a7	0.03639474
94	0x3a54e994	0.0008121964
95	0x3d09e120	0.03366196
96	0xbc56d009	-0.013111123
97	0x3b59603f	0.003316894
98	0x3cdd7960	0.027035415
99	0x3cf100a1	0.029419245
100	0x3c568662	0.013093563
101	0xbcbd5fdc	-0.023116998
102	0x3aeb8b54	0.00179706
103	0x3d08685f	0.03330266
104	0xbca07fb9	-0.019592153
105	0xbca962b7	-0.020676954
106	0x3d56ad0e	0.05241113
107	0xbbb16785	-0.005413952
108	0xbd0e6e87	-0.034773376
109	0xbc42f588	-0.0118993595
110	0x3cefdd1f	0.029280243
111	0xbcb9f958	-0.022701904
112	0xbc3ada2c	-0.011404555
113	0x3cf138e1	0.029446067
114	0x3cb87835	0.022518257
115	0xbc9236e6	-0.017848443
116	0x3c91b313	0.017785585
117	0x3c1e77ef	0.009672149
118	0x3cfeca13	0.031102216
119	0x3c780a76	0.015139213
120	0xbc6c7731	-0.014432714
121	0xb9f18e0b	-0.00046072932
122	0xbc8bccdf	-0.017065464
123	0xbc3e5e29	-0.011619129
124	0xbd091583	-0.03346778
125	0xbcc3ef6a	-0.023917872
126	0x3be78961	0.0070659374
127	0xbd5b20a1	-0.053497914
128	0x3b82edf5	0.003995652
129	0xbcafc936	-0.02145825
130	0x3d19442f	0.03741854
131	0xbc46987e	-0.012121318
132	0xbc4bd892	-0.012441771
133	0xbc66fa0c	-0.014097702
134	0xbd7fa708	-0.062415153
135	0x3cab3ee2	0.020904008
136	0xbcd49d73	-0.025953984
137	0x3bf70b3d	0.0075391815
138	0xbb520948	-0.003204899
139	0x3b71902d	0.0036859617
140	0xbca67c6d	-0.020323003
141	0xbc1297fb	-0.008947368
142	0x3cbd4920	0.023106158
143	0x3b5f0ca5	0.0034034636
144	0x3c30a72f	0.010782047
145	0x3ca5c793	0.020236766
146	0xbc1866b2	-0.009301828
147	0x3d19634f	0.037448224
148	0x3c474015	0.012161274
149	0xbc9046ee	-0.017611947
150	0x3c50bd12	0.01274039
151	0xbbdfa3df	-0.006824955
152	0x3d0cb7f6	0.034355126
153	0xbb107537	-0.0022042522
154	0x3d39965c	0.04530941
155	0x3c19ed7c	0.009395
156	0x3ce6de3c	0.028182141
157	0x3ad05fa9	0.001589765
158	0x3d915b49	0.070974894
159	0xbbcac781	-0.0061883335
160	0xbc5baaa6	-0.013407385
161	0xbaedfd9c	-0.0018157247
162	0xbd65fb93	-0.056148123
163	0xbd3642e5	-0.04449739
164	0xbbdcfba5	-0.0067438656
165	0xbc31428d	-0.01081909
166	0xbd0d74b4	-0.034535125
167	0xbccf9ea9	-0.02534421
168	0x3ad361ed	0.0016127207
169	0x3c801012	0.015632663
170	0xbc8ca155	-0.017166773
171	0x3cd5876e	0.026065554
172	0x3d32dd71	0.043668214
173	0xbc4dcea1	-0.012561471
174	0x3d015752	0.031577416
175	0xbcc83780	-0.024440527
176	0x3c6a021b	0.014282729
177	0x3cde7662	0.027156059
178	0x3c956fe9	0.01824184
179	0x3cf3268e	0.02968147
180	0xbd110b83	-0.03541137
181	0x3c1b058c	0.009461772
182	0xbc9e8a8e	-0.019353177
183	0x3b9a5614	0.0047099683
184	0xbc3d79cf	-0.011564686
185	0xbcae2004	-0.0212555
186	0xbd1ed078	-0.03877303
187	0xbc75a72f	-0.014993473
188	0x3af8b5b6	0.0018975053
189	0xbc5f7ffc	-0.013641354
190	0x3c867851	0.016414793
191	0x3b07c0d7	0.0020714307
192	0xbc350231	-0.011047886
193	0xbd038480	-0.032108784
194	0x3c0e6bf1	0.008692727
195	0xbc58f1bb	-0.013241227
196	0xbc6992d2	-0.014256196
197	0xbc51f528	-0.012814797
198	0x3c4e35f8	0.012586109
199	0x3d132313	0.03592212
200	0x3d71a0f9	0.058991406
201	0xbca4c297	-0.020112319
202	0xbc8a9a26	-0.016919207
203	0xbd04b34a	-0.032397546
204	0xbd3bf006	-0.0458832
205	0x3c7943e1	0.0152139375
206	0x3cf0b87c	0.029384844
207	0x3d4b9a87	0.049707916
208	0xbd508201	-0.05090523
209	0xbcebab39	-0.028768169
210	0x3c09810c	0.008392584
211	0xbc85ea96	-0.01634721
212	0xbc0b1cdb	-0.008490766
213	0x3ca3f1b0	0.020012707
214	0x3cad5eae	0.02116331
215	0xbb7fc087	-0.0039024667
216	0xbc282fb4	-0.01026528
217	0x3d77bc87	0.060482528
218	0x3d37f683	0.044912826
219	0x3bb48899	0.005509448
220	0xbc4408a5	-0.011964952
221	0x3bc93434	0.0061402563
222	0x3d47618a	0.048677005
223	0x3c81f39b	0.01586323
224	0x3d04859c	0.032353982
225	0xbc949420	-0.018137038
226	0xbc6c4a4e	-0.0144220125
227	0xbccdfff5	-0.025146464
228	0xbd178bd2	-0.036998577
229	0x3ce59a21	0.028027596
230	0x3bb9488e	0.005654401
231	0x3cb16ac6	0.021657359
232	0xbd107858	-0.03527102
233	0xbbc3b062	-0.005971954
234	0xbcc9e200	-0.024643898
235	0xbd18d45b	-0.037311893
236	0xbbd30eda	-0.0064409794
237	0x3b15f89a	0.0022883774
238	0x3ab90733	0.0014116525
239	0xbbdb1db9	-0.006686893
240	0x3d2393af	0.039935764
241	0x3b4baecc	0.003107953
242	0xbcd97a73	-0.026547646
243	0x3aadda8b	0.0013263983
244	0x3c8d0081	0.017212154
245	0xbcbf3232	-0.023339365
246	0xbb3e1455	-0.0029003818
247	0x3c32199e	0.010870365
248	0x3ca36593	0.019945895
249	0x3cc7e05a	0.024398971
250	0x3c76a06b	0.015052895
251	0x3c9c3bc5	0.01907147
252	0x3be61f23	0.0070227548
253	0x3ba51efe	0.005039095
254	0x3c66aedc	0.014079776
255	0xbb84712e	-0.0040418124

fc.bias f4 [10]
0	0xbbc1e31b	-0.0059169657
1	0xbbd5955d	-0.0065180496
2	0xbbb54017	-0.0055313217
3	0xbc357eef	-0.011077627
4	0x3c6bc5fd	0.014390466
5	0x3c19eaf1	0.009394393
6	0x3c92791c	0.017880015
7	0x3b5cc86c	0.0033688797
8	0xb8c34b9a	-9.3124065e-05
9	0xbc8ae3d1	-0.016954334
