result/fmnist/seed12/noniid_0.4/ratio_0.02/final.pt (torch, 122111 bytes, 14 tensors)

layer1.0.weight f4 [16, 1, 5, 5]
00000000: a4a3 373d d466 89bd 131e 8dbd d636 b53d
00000010: 988f 3c3d b0ec 34be 9b28 653d ce0e 01be
00000020: 581b 393e 3e0c 423d b138 8dbe 1806 903d
00000030: 77d1 2f3e 3999 7e3d 24af d8bc 6f22 7dbe
00000040: 7018 863e b4f4 873e df37 79be 3ef9 0fbd
00000050: b947 723e 888a f6bd 97a6 80be 991d a23d
00000060: 4732 4c3d 1c2e c6bd bd31 dbbc 416c c53d
00000070: e925 633d cafa 2a3d 4c2b 353c 226e 033e
00000080: 4c75 d7bd 940e d3bd e6c8 c0bd 739b 5bbd
00000090: cc6d 323d d910 61be 8876 3fbe c659 053e
000000a0: 3733 333e 1667 01be 4c5d 1abe 6934 4cbe
000000b0: 027b cf3d a243 313d 265f ed3d 10fc 01be
000000c0: 277d 74bd 451f 473e b650 fd3d ee3c 4e3e
000000d0: 201b 193d 5386 083e 658b 4e3e e4f2 43be
000000e0: 731e 08be c1d8 3c3e 76be a43d bc21 523d
000000f0: 1e84 b23d 2418 4bbe 3f4a ea3d 722b ca3d
00000100: e3f3 993d 62b9 d0bb dbb4 76bd 076e 1f3d
00000110: cf43 053e dc37 e13c 1f8f edbd fa75 e3bd
00000120: 5778 40bd 34e2 37be 4133 05be 3e06 693d
00000130: 6c47 58be a3f7 5e3e 72f9 8fbd 09ef 863d
00000140: 09f7 d23c 2620 3cbe c4f2 433e 8836 19be
00000150: b361 e5bb 8280 213e e880 f0bc 34cc 6a3e
00000160: 83ca 43be b7c4 003e ae92 dd3c 12a1 863d
00000170: c657 573d aeae 3abe f1b5 fe3d bb90 9c3d
00000180: 04bd 36be f6c6 19be a25f 87be 2429 6e3e
00000190: 8bbc e53c 089d bb3d ca8f 013d ec80 65bd
000001a0: 422b a83d 1316 e73d 6855 12be 1cbb 973d
000001b0: ce25 4b3e 824e debc 24fd 68bc 403f 5e3c
000001c0: 5281 66be 93c0 e4bd 3ee3 8d3e 3438 34be
000001d0: 291b 813c 83f7 91be aa15 84bd 5217 493c
000001e0: 0983 023d 75c5 cebd 30e7 233d 5ab9 ae3c
000001f0: 992e 44be 305f 13bc f2c2 7d3e ca32 783e
00000200: c2dd 5abd 8129 163e 07e6 42be 9c48 693e
00000210: e59c d33d 6aad 933d a533 21be 102d fbbd
00000220: 359d 52be b9ea cf3d 10b3 35be 4337 8cbd
00000230: 3456 5cbd 2b2c 343d 60c1 9f3c 32a1 283c
00000240: f799 303e 4412 b03c fe61 8bbd 42c5 0bbe
00000250: 06f7 9ebd 7b65 d8bd 8536 a93d 022a 213e
00000260: 07f3 033e 8d06 e53d 5336 75bd d2a6 4cbe
00000270: fd9d 363e 8e12 143b 1d6e 72bd 1eec 2ebe
00000280: 64bd 32be b14f 803d e834 303e 0fa1 48be
00000290: 4356 77be 2ebd 89bd de57 15be 9f88 483e
000002a0: 1d9b 20bd cf50 34be 7b87 a53c b7fd 4b3e
000002b0: fa2e ca3d 13cd b7bd 16ae d93d 841b 42be
000002c0: d1ae 0f3e 12e5 983c c15a 113d 185c 9dbc
000002d0: cb2c 7ebe fc9d a23d 7ab5 943e d6e6 dcbd
000002e0: 068f 98bd afdf 56be c55d 69bc 4bb0 973e
000002f0: cf65 b7bd 567c dfbc 3332 373e f102 42be
00000300: b442 403d 24d6 24bd 0b45 c23c 25f8 79bd
00000310: 0089 2cbd 2ed4 a43c c716 973d 7acc a0bd
00000320: 399c 443d d6dd 3ebe 0169 863c bd47 8d3c
00000330: 76a0 05be 5ae0 abbc 0753 09bd 959e 8c3d
00000340: 5c20 273e 73a0 93be 5f70 343e acc0 e63c
00000350: 5fac 073e dc21 473e 0c2d f8bd 15f1 ccbd
00000360: 203d 743d 646b 653d b491 363e 3e5f b7bd
00000370: 288f 183d 06dd 00be e4d1 44be 32ed ec3d
00000380: e288 a4bb 5f7f 393e 2cd2 ee3d 5ed9 0dbe
00000390: 50c6 e7bd 8148 a13c 5c39 433e 3027 1cbe
000003a0: 91c4 653e 4aa4 223e df2b 55bc 15b4 4cbe
000003b0: a006 dfbd aa3e 1e3e 49e7 083e 23b4 d43d
000003c0: 878e 29be 6815 26be 70bd 3dbe 9642 06bc
000003d0: 3473 7c3c 3a2b b3bd 6897 763e a627 52be
000003e0: b33e 4bbe 6fc1 25be f99c e2bd bdd7 babb
000003f0: 307a 3fbd d871 ba3c 5895 1c3e 10f9 33be
0.044833794 -0.06709066 -0.06890502 0.0884835 0.04603538 -0.17668414 0.055946928 -0.12603304
0.18076837 0.047374956 -0.27582315 0.07032412 0.17169748 0.062157843 -0.026450701 -0.24720167
0.2619052 0.2655388 -0.2433772 -0.035149805 0.23660173 -0.120381415 -0.25127098 0.079158016
0.049852636 -0.096767634 -0.026757115 0.096397884 0.055456076 0.041743077 0.011057686 0.12834981
-0.105204195 -0.10305515 -0.09413318 -0.053615045 0.04356174 -0.21979083 -0.1869756 0.13022527
0.17500006 -0.1263698 -0.15074652 -0.19941868 0.10130884 0.04327739 0.11590414 -0.1269381
-0.059689667 0.19445522 0.1236891 0.2014043 0.037379384 0.1333249 0.20170362 -0.19135624
-0.13292865 0.1844206 0.0804414 0.051301703 0.087166056 -0.19833428 0.114399426 0.09871568
0.07517221 -0.0063697556 -0.06023107 0.03892329 0.13014148 0.027492456 -0.11599564 -0.111064866
-0.046989765 -0.17957383 -0.13007833 0.05689072 -0.21120995 0.21774153 -0.0703 0.06588561
0.025752561 -0.18371639 0.19135576 -0.14962208 -0.007000172 0.15771678 -0.029358342 0.2292946
-0.19120221 0.12575041 0.027047481 0.065736905 0.05257394 -0.18230698 0.12437046 0.07644793
-0.17845541 -0.15017304 -0.2644015 0.23257881 0.028044006 0.09160811 0.03163127 -0.056031153
0.08211376 0.11283507 -0.14290392 0.07408735 0.1983864 -0.027137045 -0.01422051 0.013564885
-0.2251027 -0.11169543 0.27712435 -0.17599565 0.015760021 -0.2850915 -0.064494446 0.012273626
0.031863246 -0.10096256 0.0400154 0.021328617 -0.191584 -0.008994862 0.24781397 0.24238124
-0.05343414 0.1466427 -0.19033061 0.22781605 0.1033266 0.072108105 -0.15742357 -0.12264454
-0.20567782 0.10152192 -0.17744088 -0.06846478 -0.053793147 0.043987434 0.019501388 0.010292338
0.17246233 0.021493085 -0.068058 -0.13649467 -0.0776196 -0.10566231 0.08262352 0.15738681
0.12885676 0.1118289 -0.05986626 -0.19985512 0.17833705 0.0022594067 -0.059187043 -0.17082259
-0.1745506 0.062652 0.17207682 -0.19592689 -0.24154 -0.06725536 -0.145843 0.19583367
-0.039210428 -0.17608951 0.020206204 0.19921003 0.09872241 -0.08974662 0.106289074 -0.18955809
0.14031531 0.018663917 0.03548694 -0.019208953 -0.24821775 0.079402894 0.29044706 -0.10786216
-0.074491546 -0.20983766 -0.014243548 0.29626688 -0.08954965 -0.027280968 0.17890243 -0.18946435
0.046938613 -0.040243283 0.023714563 -0.061027665 -0.04212284 0.020120706 0.07377391 -0.07851501
0.048000548 -0.18639311 0.016407492 0.017246122 -0.13049492 -0.020981003 -0.033526447 0.068661846
0.16320938 -0.2883335 0.17620991 0.028168045 0.13249348 0.1944651 -0.12117967 -0.1000692
0.059628606 0.05601062 0.17829019 -0.08953713 0.0372459 -0.12584314 -0.19220692 0.11568679
-0.0050212005 0.18114994 0.11661181 -0.1385245 -0.11317122 0.019687893 0.1906485 -0.15249324
0.22438265 0.15882984 -0.013010948 -0.19990571 -0.108899355 0.15453592 0.13369478 0.10385921
-0.16558276 -0.16219103 -0.18529296 -0.008194586 0.015408326 -0.08748479 0.24081194 -0.20522937
-0.19848137 -0.1618707 -0.110650964 -0.0057019875 -0.046747386 0.022759363 0.15291345 -0.17575479

layer1.0.bias f4 [16]
00000000: e2f0 16be 2df2 35bd 1df8 aebd 19e2 be3c
00000010: 45d9 d5bd 1823 70bd 7bfc bb3d a6f7 e83d
00000020: 9734 28be 5e12 77bd 19f2 0d3e 0a47 133e
00000030: 85bb 29bd 1efc 4bbe ac72 2f3d e0a0 073e
-0.14740327 -0.04442041 -0.085434176 0.023301171 -0.104418315 -0.058627218 0.09179016 0.1137536
-0.16426311 -0.06032025 0.13861884 0.14382568 -0.0414386 -0.19920394 0.04283397 0.13244963

layer1.1.weight f4 [16]
00000000: fc22 863f bc31 853f 3b9b 673f b2d4 843f
00000010: 53ec 803f 1ffe 7a3f 6310 853f 8051 873f
00000020: 49e2 7e3f 4a6a 853f e738 603f 206a 733f
00000030: f545 843f 9eb3 7a3f 9b04 823f bb60 6e3f
1.0479426 1.0405803 0.9047124 1.037741 1.007212 0.9804401 1.0395626 1.0571747
0.99564034 1.0423062 0.87586826 0.9508381 1.0333849 0.97930324 1.0157655 0.9311635

layer1.1.bias f4 [16]
00000000: b0b1 8cbd 1d06 73bd af23 06be 1da3 b5bd
00000010: 2c7e a4bd 6443 13bd 2c05 cdbc 9a7c 073c
00000020: e03d 30bd 4935 61bd ef3b febd 74cc efbd
00000030: c3e7 dabc be78 29bd a4c9 1bbd 7df1 c3bd
-0.06869829 -0.059332002 -0.1309955 -0.08869002 -0.08031878 -0.03595294 -0.02502688 0.008269453
-0.04302776 -0.054982457 -0.12413775 -0.11708918 -0.02672184 -0.041374914 -0.038034096 -0.095675446

layer1.1.running_mean f4 [16]
00000000: 345d 0ebe 7863 28be 907a 003d 887a 0c3d
00000010: eaca 55be 50d1 85bd 43df 6c3d 1ade 7a3d
00000020: 71ae 23be 5db8 26be 7da0 b63e be64 483e
00000030: 2ef1 68be 0a4d 50be 02e9 733c bc4d 3b3e
-0.13902742 -0.16444194 0.031366885 0.034296542 -0.20878187 -0.06534064 0.057830106 0.06124697
-0.15984513 -0.16281267 0.35669318 0.1956968 -0.22748253 -0.20341888 0.014887096 0.18291372

layer1.1.running_var f4 [16]
00000000: 78bb 843c f44e 183d 1e8a 5c3d 1cc6 9a3c
00000010: a29f 013d 220b c03c faf4 143d 4191 ab3c
00000020: 5286 963c e40f 133d 886a 803d 5283 7f3c
00000030: b62f 3f3d a237 8a3c d3ee 023d 0ac0 983c
0.016202673 0.03718467 0.053842656 0.018893294 0.03164638 0.023442809 0.03636644 0.020943286
0.018374596 0.035903826 0.06270319 0.015595274 0.04667636 0.01687223 0.03196604 0.018646259

layer2.0.weight f4 [32, 16, 5, 5]
00000000: 5474 303d 4611 89bc b792 5abd 4ee7 bbbc
00000010: 16a1 0a3c 6aa8 49bd dff1 eabc 77bd c3bc
00000020: 3c89 30bc fea5 c4bc 4c47 04bd a514 393d
00000030: 3e80 57bb c1a5 523d 6104 e93c aaa2 d1bc
00000040: 9e94 a63c 91e7 a6bc 2628 923c c244 94bc
00000050: 7140 c5bc 4b83 42bc c6e0 febc c8d2 133c
00000060: de2b 04bd a8a1 cdbc 7c5b 023c 2245 013d
00000070: e555 843c e468 283c e033 553d 1f49 ba3c
00000080: 914e cebc 9848 1c3d 040e a83c e0d5 db3c
00000090: 8a8c bd3c 58c7 913c 1cd2 b23c a276 c33a
000000a0: 2798 b9bc afb9 273d 522f 943c c76a f23c
000000b0: 95bf 13bd 7105 d93c 1b12 233c 4382 13bd
000000c0: cbaa bfbb f5b9 34bd c765 8a3d e0b1 bd3c
000000d0: 403c 6e3c b196 58bc 2608 02bc 715a 203d
000000e0: b391 4b3d 0c7c 10bc 087e 41bd 401b 0cbd
000000f0: 867e b33c 11b1 3e3c ee83 383b b7cd e33c
00000100: 0ba2 32bd 7886 263d 7a7e 0dbc 7ff7 ca3a
00000110: da20 1abd abc4 08bd 136a b33c 4a50 e6bc
00000120: 7124 253d a520 943b f9fb 553c be05 91bc
00000130: b700 9f3b 70ff 633c 977d 14bc 7a23 93bb
00000140: e60e c9bc 468c 26bd 9e2a 6cbd b105 e7bc
00000150: a09e 52bd 6c7b adbb 7031 60bd ef58 98bc
00000160: e2b0 56bd 3c00 12bd 9c79 eb3c 6bbc 5d3d
00000170: df43 783d d0e1 40bb 8cf7 e9bc b30b ecbc
00000180: 737c 7d3d 2f0b 843d 80ae 013d 32c1 e3bc
00000190: 4e5b 0bbd 69e9 d13c e879 8f3c 023f 14bd
000001a0: 8a72 533c 7106 31ba c14f a33b 66b2 a43c
000001b0: d4b3 cb3c c548 b03c 87ae 12bd 7b74 103d
000001c0: d295 553c 30be 783c b6a4 16bb 6cf1 0ebd
000001d0: 2d4e 583c 721b 6bbc 775d 9abc 2c06 503c
000001e0: 544f fbbc 853a a4bc 56c7 cfbc 6d5e 573d
000001f0: a34d 523d 72c6 433d 4a94 4cbc 29e6 f13c
00000200: 42e7 b93b da76 4a3d 1119 bc3c 4a9e 4f3d
00000210: 805d 043d 8cb9 59bd 965e 1ebd 8a45 253d
00000220: de84 293d 6d01 52bd a0c1 6a3b 0b45 a1bc
00000230: ac98 0bbd c62f c0bc 36ad 493d 4311 41bd
00000240: d17c 8b3c 83bc 0cbd 713a b23c 07fe f5bb
00000250: 64f2 a0bc 9096 a23d b78e 3dbc 71f5 103c
00000260: 8c91 ce3c 13d5 9e3c 3a4d 103d edf4 063d
00000270: 2dc2 2d3c ce5d eabc a845 edbc 19e4 36bc
00000280: c9bd c9bc 9a07 733c fa5c f93b 8233 6e3c
00000290: 43e2 773d 17ff 283d c395 ecbc 6f59 b0bc
000002a0: bbdc 123d b63d 383c 1b89 bdbc 6c61 1bbc
000002b0: 1bd5 5f3d d682 cf3c 4870 003d e5ec 75bc
000002c0: 0995 22bd 00b8 12bd 02ea 9bbc 33b9 703b
000002d0: 10b8 c83c 52de c23b eac9 09bc 731d 343c
000002e0: cfc8 183d 7ada 34bb 46f4 373d 6a97 4b3d
000002f0: a81e f93c 81aa aa3c e87f a03c de69 35bb
00000300: 8124 863c b6a4 973c 86b6 6bbc 03d3 d13b
00000310: 2228 6bbc c8d4 293d d5d9 1ebd 0433 533d
00000320: e334 3d3d e387 8d3d 248d 343d ef40 3d3a
00000330: e422 1d3d 33e6 953c e06e 2bbd b264 4fbd
00000340: 56cf 053b 54b4 83bd 4228 87bd 65d0 2ebd
00000350: b368 713b c2c6 66bc 1cc3 64bd b205 4cbd
00000360: 401b 00bc 8bd3 313d c4ae 8abc ad97 5f3d
00000370: 6918 a5bb 6093 83bb 80ef 833c f404 13bd
00000380: db92 813c b638 a93b 3ab4 ec3c bde4 6e3d
00000390: 932d 6fbb b346 13bd e779 0fbd e039 ed3c
000003a0: 46c7 353d 727b cbbc 8f37 4cbd e17e 803c
000003b0: d441 b93c 6e74 b5bc 2dab 0c3d d910 2fbb
000003c0: 414d 26bd 0972 353b 96b8 66bc e706 b83c
000003d0: 4fa3 223c d8a3 3abd a7bb bdbb a22f f1bc
000003e0: 8e51 a83c 7a5b c73b 36a6 08bd 3f10 bfbc
000003f0: 677a 04bd 311d a63c a224 12ba 0dc0 14bd
0.04307969 -0.01673187 -0.053362574 -0.022937443 0.008461257 -0.049232878 -0.028679786 -0.023894055
-0.010774907 -0.024004932 -0.032294556 0.045185704 -0.0032882835 0.051427606 0.02844447 -0.02559026
0.020334538 -0.020374091 0.01784141 -0.018099193 -0.02407858 -0.011872123 -0.03111304 0.009022422
-0.032268398 -0.025101498 0.007956382 0.03156007 0.016154239 0.010278914 0.052051425 0.022739945
-0.025183948 0.03815517 0.020514496 0.026835382 0.023138303 0.01779525 0.021828704 0.0014912675
-0.02265556 0.040948566 0.01808897 0.029591931 -0.03607138 0.026491852 0.009953047 -0.0360129
-0.0058492175 -0.044122655 0.06757694 0.023156106 0.014540732 -0.013219521 -0.007936513 0.03914875
0.049699496 -0.008818638 -0.047239333 -0.034205675 0.021910917 0.011638896 0.0028154808 0.027808053
-0.043611567 0.040655583 -0.008636111 0.0015485137 -0.037628986 -0.033390682 0.021901166 -0.028114457
0.040317956 0.004520493 0.013060563 -0.017702933 0.00485238 0.0139158815 -0.009063146 -0.004490313
-0.024543237 -0.04066112 -0.05765783 -0.028200956 -0.051420808 -0.005294254 -0.054734647 -0.018597094
-0.052414782 -0.035644755 0.028744511 0.054134768 0.060611602 -0.002943147 -0.028560422 -0.028814172
0.061886262 0.064474456 0.031660557 -0.027802084 -0.03402262 0.025623994 0.017514184 -0.0361929
0.012905726 -0.0006752974 0.0049838726 0.020104598 0.024866022 0.021519074 -0.035810973 0.035267334
0.013036208 0.015182063 -0.002298636 -0.034898207 0.013202232 -0.014349805 -0.018843396 0.012696784
-0.030677475 -0.020047436 -0.025363605 0.052580286 0.05134357 0.047796674 -0.012486527 0.029528694
0.00567332 0.049429752 0.022961171 0.050688066 0.03231573 -0.053155467 -0.038664423 0.04034952
0.041386478 -0.05127089 0.0035820976 -0.019686243 -0.034081146 -0.02346028 0.049237452 -0.047135603
0.01702729 -0.034359466 0.021756383 -0.007507089 -0.01964683 0.07938874 -0.01156967 0.00884758
0.025215887 0.019388711 0.0352299 0.032948423 0.010605377 -0.028609183 -0.028963879 -0.011162781
-0.02462663 0.014833355 0.0076099606 0.014538648 0.060518514 0.041258898 -0.028880006 -0.02152702
0.035855036 0.011245182 -0.023136666 -0.009483676 0.054646593 0.025330942 0.03135708 -0.015010093
-0.039692912 -0.035820007 -0.019032482 0.003673148 0.02450183 0.005946913 -0.0084099565 0.010993349
0.03730088 -0.0027596042 0.04491069 0.049704947 0.030410126 0.020833256 0.01959224 -0.002768151
0.016374828 0.018511157 -0.014386779 0.0064033284 -0.01435283 0.04146269 -0.03878196 0.051562324
0.046193015 0.06910684 0.044079915 0.00072194537 0.038363352 0.018298244 -0.041853786 -0.05063314
0.0020417771 -0.06430879 -0.065994754 -0.04267921 0.0036836087 -0.0140854735 -0.055850133 -0.04981012
-0.007818997 0.043414634 -0.016929038 0.05458801 -0.0050383103 -0.004015371 0.016105413 -0.035893396
0.015817096 0.005164231 0.028894532 0.05832361 -0.003649567 -0.035956096 -0.035028365 0.028958261
0.044379495 -0.024839137 -0.049857672 0.0156855 0.022614397 -0.022150245 0.034342933 -0.0026712923
-0.04060102 0.0027686378 -0.014082095 0.022464229 0.009926631 -0.04556641 -0.005790192 -0.029441658
0.0205467 0.006083903 -0.033361636 -0.023323176 -0.032343294 0.020277591 -0.0005574917 -0.036315966

layer2.0.bias f4 [32]
00000000: f151 bebc b2a8 173d ca4e fcbb 1c26 12bd
00000010: a5b2 d43c bad1 97bc 7aa2 48bc eddb 06bd
00000020: c88b 303d a5da 04bd 8abd 193d eb65 df3c
00000030: 5f52 d93b b739 9cbc b068 1b3d a59e 843b
00000040: 49d5 323d c0ac ffbc dce6 1e3d cbf5 4a3c
00000050: 6199 153d cf2d feba 0421 d33c 5329 463d
00000060: 32de 523c a3b5 2c3c 77e7 38bd 6093 86bb
00000070: 8947 2abd f958 3e3d f30c 213d 78db 863c
-0.023232432 0.037026115 -0.007699822 -0.035680875 0.02596409 -0.018532623 -0.012245769 -0.03292458
0.043102056 -0.03243508 0.037534274 0.027270278 0.006632134 -0.01907049 0.037941635 0.004047232
0.043660436 -0.031210303 0.038794383 0.012387703 0.036523227 -0.0019392314 0.025772579 0.048379254
0.012870358 0.010541352 -0.045142617 -0.004106924 -0.041572127 0.04647157 0.03931899 0.016462073

layer2.1.weight f4 [32]
00000000: feb4 5c3f 17c1 593f b28c 5e3f 4e03 583f
00000010: 176b 613f 0c6b 643f c809 5a3f 1286 593f
00000020: c93d 573f 0f50 6f3f 0baa 5c3f 8d69 4f3f
00000030: 3cf5 5f3f ab19 553f 4b77 5f3f b2f7 573f
00000040: 2d48 5d3f 2910 533f 7c1e 613f eaca 603f
00000050: 3c5e 5e3f 47a2 5b3f f3d2 583f 4185 583f
00000060: c8ba 573f 0b4a 4d3f c5b8 5a3f f41e 683f
00000070: 4489 613f c708 603f 1118 5b3f 53e9 5d3f
0.8621367 0.85060257 0.86933434 0.8438004 0.8805403 0.8922584 0.85171175 0.849702
0.8407865 0.93481535 0.86196965 0.8102043 0.8748357 0.8324229 0.872914 0.8436233
0.86438257 0.82446533 0.8793714 0.8780962 0.8686254 0.8579449 0.8469688 0.8457833
0.8426938 0.80191106 0.85438186 0.9067223 0.88100076 0.87513393 0.855836 0.8668415

layer2.1.bias f4 [32]
00000000: 35ff 93be cd75 90be f376 a6be 7848 90be
00000010: e6d0 8dbe 8dd3 84be 571c 87be 002c 9fbe
00000020: 8afd 9abe 2022 8cbe 9fc2 82be a73e 91be
00000030: 43c0 8cbe 0429 94be 93d9 99be d739 97be
00000040: 4009 96be 68c7 a2be 34c4 93be 008c 90be
00000050: 6ee2 87be cd98 95be 27f6 98be 87fd 88be
00000060: 3793 86be 0eab 8ebe 4184 8dbe a4f9 91be
00000070: 1e67 8fbe c837 9ebe 5067 9fbe f80a 9abe
-0.28905645 -0.28214875 -0.32512626 -0.2818029 -0.2769844 -0.2594265 -0.2638881 -0.31088257
-0.3027156 -0.27369785 -0.2553911 -0.28368112 -0.27490434 -0.28937542 -0.30048808 -0.29536316
-0.29303932 -0.3179276 -0.2886063 -0.28231812 -0.2653994 -0.2921814 -0.298753 -0.26755926
-0.2628419 -0.2786488 -0.27639964 -0.28510773 -0.2800836 -0.30901933 -0.3113351 -0.30086493

layer2.1.running_mean f4 [32]
00000000: 1bba bdbd 2aba f9be bf92 55be 38e5 9bbe
00000010: 1132 943e f08b 12bf 3f79 f5be 812f 35bf
00000020: d6cc 1abe f266 4e3e 8eee 10be b5bf 0fbf
00000030: 4b3b dbbe 99b3 0abd d831 123e 22f6 0a3f
00000040: 3d22 c33e 0242 983e 6000 af3e efa3 3f3d
00000050: 7e53 5b3e ea15 713e ce0c 5bbe 193c 72be
00000060: 767c 90be 68c3 c23f c8a0 06bf aaca f2be
00000070: 4f6f cebd 32d2 7b3c 5fb8 c5be 7325 0a3f
-0.092640124 -0.48774844 -0.2085676 -0.30448318 0.28944448 -0.5724478 -0.47944066 -0.7077561
-0.15117201 0.20156458 -0.14153501 -0.56151897 -0.42818674 -0.033862684 0.14276826 0.5428182
0.3811206 0.2973786 0.34179974 0.0467872 0.21418568 0.23543516 -0.21391603 -0.23655738
-0.28219956 1.5215883 -0.5258908 -0.47420245 -0.10079824 0.015369939 -0.38617226 0.5396339

layer2.1.running_var f4 [32]
00000000: 5c77 973e b174 903e 8b19 993e 159f bf3e
00000010: 4b7e b03e 0fcd ee3e 6017 c43e ad31 ac3e
00000020: 3e15 aa3e 0071 093f 88f9 aa3e 7a00 993e
00000030: f33e a03e 2002 843e 0d77 973e aded a53e
00000040: c32b bc3e fe89 ae3e 5c41 dd3e 80fa e73e
00000050: 3024 8c3e 4015 f53e 0fc1 9b3e 4a1e 7b3e
00000060: 0b9a b73e afdd 4a3f ee86 8c3e a28b dd3e
00000070: 46df a23e 2a80 c03e 0022 963e 1430 d43e
0.2958325 0.28214028 0.299023 0.37426057 0.34471354 0.46640822 0.38299084 0.3363165
0.33219332 0.5368805 0.33393502 0.29883176 0.31298026 0.2578287 0.29583016 0.32407895
0.36752138 0.34089655 0.43213928 0.45308304 0.2737136 0.47867775 0.3042073 0.24523273
0.35859713 0.7924451 0.27446693 0.43270594 0.3181097 0.3759778 0.29322815 0.4144293

fc.weight f4 [10, 1568]
00000000: 0799 023c eb7c 0a3d 625b fa3c d88d 7fbc
00000010: 3683 e63c 34a3 da3b 3580 00bd 5a8a 1d3d
00000020: 069d 97bc d7fb 863c f6ee 1f3d 73c7 823d
00000030: 8eb1 c13c 473c 7ebb 909b c4bc 6f35 fabc
00000040: 2dae 003b 21d8 d7bc b8a4 293d d023 61ba
00000050: 08d4 41bd f1c1 f6bb 71fd ea3c c497 a73c
00000060: 4142 25bb ea7b b73b 7f13 4a3d 3b21 523d
00000070: b45b bbb9 0343 423d 6f9a 443c 4285 2fbc
00000080: 98a7 9bbc baa0 babc 9383 b23c 30a8 47bd
00000090: 9bb1 6d3c b2aa 26bd 4445 48bd 7fa5 edbc
000000a0: 207e 56bc e42a f9bc f5f2 af3c 700e 27bc
000000b0: bb38 9ebc 9d5d 1c39 adda fd3b 5422 c1bb
000000c0: ec7e f639 a31d 1e3d 12b9 5dba a95b d8ba
000000d0: 8d2a 0f3d 52cf a2bc dab4 8f3c 0d29 ea3b
000000e0: 87c9 68bc 605c e53c 744f 2b3d 4ce4 18bd
000000f0: 6b7e 2e3d 0d4d af3b 380a 3bbd 3072 383b
00000100: 7778 2bbd d46a b63c 7f72 123d 5572 0bbd
00000110: 9bf9 d93a 2bf8 263d 3d71 9f3b 1b67 053d
00000120: d9b7 d8bc 4e5b ac3c 263f 3f3d 7e95 a0bc
00000130: 7eb2 abbc 50eb 3dbc d2d9 e43c 679c d3bb
00000140: a743 ac3c f45a 8f3b f83e c7ba efc2 093c
00000150: 82a6 d5bc 18d2 503d edf8 abbc b47a e83c
00000160: 99cd 683b f53a 4bbd 2a4a 3e3a a342 3e3c
00000170: c959 363c b910 c43c 4f80 f73c b86f 423d
00000180: 566a e7bc cda9 0a3c e4df da3c ae9d 233d
00000190: ba78 393c d0fd ccbc 838a 843c 467d 4a3d
000001a0: 3ea7 06bc 572f f0bc 2d49 823d f8b6 4abb
000001b0: 6321 01bd cb32 123c ff40 9f3c 1e1d 21bc
000001c0: 17a0 09bd 7953 363d a9fc 25bc ab6d ccbb
000001d0: 9767 ab3c 8dc0 a83a 172b 963c f606 083c
000001e0: eb53 8a3b b9c1 4fbb fad9 a5bb 0273 96bb
000001f0: e7bd b9bc 9cbf bcbc c4c2 a43c 4447 49bd
00000200: 4e5f 8f3c c4e8 11bc 878c 0d3d bb9d 643c
00000210: 79ea 68bc 5888 083c 2666 5abd 6f36 103c
00000220: 7b47 e3bc 77d2 19bc a1bc fd3c f285 25bb
00000230: 3990 f4bc f0b2 34bc fe4e 173d 506b 5c39
00000240: ac09 813c 51cb 153d b472 83bc 3851 8b3c
00000250: 09fa 663c 13e8 45bd e198 b53c 6183 a53c
00000260: 039f f53c 816d 14bc fe44 2d3d bdfa e23c
00000270: 7d74 023d 6eb2 eabb 9fba 4b3d 6fb2 113c
00000280: db8f c8bc c0b5 b3bb 063b 46bd c2f5 1abd
00000290: b2ac 10bc 5df2 01bc 91f8 62bc 7c5f e3bc
000002a0: ce48 6ab8 10ae da3b 1803 32bd 755c 0c3d
000002b0: ac26 d33c 0828 03bd b913 9a3c 7eea c2bc
000002c0: 6efb 16bb de61 ae3c 3685 753b 276c 243d
000002d0: d6b6 1abd ef3e 8f3b a864 4bbc 2ea6 063c
000002e0: 0a57 b23a a84c b3bc 0fc3 09bd e0b4 2abc
000002f0: e477 41b8 97a0 02bd a7b3 b83c 256c a03b
00000300: 28e2 3ebc 97ce 06bd 9b4d 4fbc 7c52 88bc
00000310: cf9d 1fbc b10b dcbc cdd9 953c f4b3 e33c
00000320: c84d aa3d f890 b83b 79bb ffbb 53f8 cfbc
00000330: 4617 48bd 36ff 3e3c d897 a43b 37fd 323d
00000340: 7853 e6bc 7606 08bd 9f7b 743c 547e bdbc
00000350: a30f 58bc c017 963c 6e3e bc3b 4438 71bc
00000360: 6649 b2bb 7fcc 7a3d 21c8 3a3d c8d0 21bb
00000370: d092 8b3c fbaa 9e3c fb88 703d f6bf 5d3c
00000380: 95ab 0b3d ff0c 3cbc a43f 73bb df60 94bb
00000390: fda0 6ebc 7ded 203d 09c0 3a3b 3055 0c3d
000003a0: 95c3 47bd 5f86 98bc 665d 15bd d277 36bd
000003b0: 7c0e 8b3a 48e5 9ebb 008c 8cba c2b4 9bbc
000003c0: 326c 6b3d 0e46 ba39 6ab6 3cbc fa35 0fba
000003d0: c58f 9f3c 8ba5 e7bc 0625 d43b db92 71bc
000003e0: bd05 0cbb d7a3 783c 6ad7 da3c 26e0 ee3c
000003f0: 803b 1d3c ad64 633c 6e62 bd3c e753 a03c
0.007971055 0.033810537 0.030561153 -0.015597783 0.028138738 0.0066722874 -0.031372268 0.03846202
-0.018507492 0.016477508 0.03904625 0.06385698 0.023644235 -0.0038793252 -0.02399996 -0.030543057
0.0019635067 -0.026348175 0.041416854 -0.00085884053 -0.04732135 -0.007530444 0.028685303 0.02045811
-0.0025216492 0.0055994885 0.049335 0.051301222 -0.00035735744 0.04742719 0.01199971 -0.0107129235
-0.019000813 -0.022781719 0.021791255 -0.04874438 0.0145076765 -0.04069013 -0.04889418 -0.029009579
-0.013091594 -0.03041596 0.021478156 -0.010196313 -0.01931416 0.00014912193 0.0077470155 -0.005893985
0.0004701534 0.038602483 -0.00084580586 -0.0016506809 0.03495269 -0.019874249 0.017542291 0.007146007
-0.014208204 0.02799815 0.04182382 -0.037327096 0.04260103 0.0053497613 -0.045664042 0.0028144233
-0.04186293 0.022267736 0.035753723 -0.034044582 0.0016630174 0.040764015 0.004865794 0.032569032
-0.026454853 0.021039631 0.046691082 -0.019602533 -0.020959135 -0.011591747 0.027935896 -0.0064578536
0.021028353 0.004374856 -0.0015201261 0.008408292 -0.026080374 0.05098161 -0.02099272 0.028378822
0.0035522936 -0.049616773 0.0007258976 0.011612567 0.011129805 0.023933755 0.03021255 0.047469825
-0.028248947 0.008463335 0.026718087 0.039945297 0.011320287 -0.025023371 0.016179329 0.049435876
-0.008218585 -0.029319448 0.063616134 -0.0030931812 -0.03152598 0.008923243 0.019440172 -0.009833602
-0.03359994 0.0445132 -0.01013104 -0.0062386594 0.020923419 0.0012874767 0.018331094 0.008302441
0.0042214296 -0.003170116 -0.005061385 -0.0045913467 -0.02267356 -0.023040585 0.020112403 -0.04914023
0.0175015 -0.008905593 0.034557845 0.0139536215 -0.014216059 0.008333288 -0.053320073 0.0088020405
-0.027744045 -0.009388558 0.030973734 -0.002525684 -0.029853927 -0.01102899 0.036940567 0.00021020812
0.015751682 0.03657085 -0.016045906 0.017006502 0.014097699 -0.048317026 0.022167625 0.020204248
0.02998305 -0.009059311 0.042302124 0.027707452 0.031849373 -0.0071623838 0.049738523 0.00889264
-0.024482658 -0.005484313 -0.048396133 -0.03783203 -0.008830236 -0.007931319 -0.013853208 -0.027755491
-5.5857752e-05 0.006673582 -0.04345998 0.03426786 0.025775276 -0.0320206 0.018808233 -0.023793455
-0.0023038047 0.021286901 0.0037463433 0.040142205 -0.037772022 0.004371516 -0.012414135 0.008218331
0.0013606262 -0.021887138 -0.033633288 -0.0104191005 -4.6126443e-05 -0.03189143 0.022546602 0.0048957043
-0.0116506 -0.032911863 -0.01265278 -0.016640894 -0.009742214 -0.026861044 0.018292332 0.02779577
0.08315617 0.005632516 -0.007804331 -0.025386965 -0.04885032 0.011657527 0.005022984 0.043698516
-0.028115973 -0.033209287 0.014922052 -0.023131527 -0.013187322 0.018321872 0.005744747 -0.014722887
-0.0054408787 0.06123018 0.045601014 -0.0024691094 0.01703778 0.01936864 0.058724385 0.013534537
0.03409918 -0.011477708 -0.003711679 -0.0045281495 -0.01456475 0.039288986 0.002849581 0.03426093
-0.048770506 -0.01861876 -0.036466025 -0.044547863 0.0010609175 -0.00484911 -0.0010722876 -0.01900709
0.05747623 0.0003552888 -0.0115181 -0.000546306 0.019477734 -0.02827718 0.00647414 -0.014744486
-0.0021365725 0.015175781 0.026714046 0.029159617 0.009596705 0.013878983 0.023118224 0.019571258

fc.bias f4 [10]
00000000: 10bd 01bc eff4 30bc f04e f6ba 5e23 28bc
00000010: 5460 863c 78bd 223c 4012 ad3c 6dc4 2a3b
00000020: 70ef dd3a b7e3 b3bc
-0.007918611 -0.010800584 -0.0018791836 -0.010262338 0.016403355 0.009932868 0.021126866 0.002605702
0.001693232 -0.021959169
