result/fmnist/seed12/noniid_0.4/ratio_0.3/final.pt (torch, 122111 bytes, 14 tensors)

layer1.0.weight f4 [16, 1, 5, 5]
000000 aa e3 83 bc db 3d 0b bd 91 0d 0e bd a0 66 a7 3d
       -0.01609977 -0.033994537 -0.034680907 0.08173871
000010 bc 4b fc 3c e5 66 57 be 39 a5 76 3d 9f 9c fe bd
       0.030797832 -0.21035345 0.060216162 -0.12432217
000020 70 f4 45 3e 80 a8 78 3d 3c 52 8d be 3a 9f 50 3d
       0.19331527 0.06070757 -0.27601802 0.0509331
000030 fd 0b 1e 3e 1b b1 d9 3d 8f 15 c6 bc b0 6f 78 be
       0.1543426 0.10629483 -0.024180202 -0.24261355
000040 e9 6a 8e 3e f1 12 47 3e 7b 36 54 be 79 b7 c0 bc
       0.2781594 0.1944082 -0.20723908 -0.023524987
000050 4a d5 2d 3e 04 43 02 be df bc 47 be 78 4e f0 3d
       0.16975895 -0.12720877 -0.19505642 0.11733717
000060 a7 3b ed 3c a9 ae 91 bd f4 e9 5c bc f3 71 b1 3d
       0.028959109 -0.07113392 -0.013483513 0.08664312
000070 43 66 ab 3c 54 5b 93 3d ad 3b 5d 3b 73 c7 04 3e
       0.020922786 0.07195154 0.0033757493 0.12966709
000080 a1 11 d1 bd 78 da f9 bd 92 3f 6d bd cd 5e 12 bd
       -0.102084406 -0.12199873 -0.057921953 -0.03573494
000090 16 e3 5e 3d 27 22 5b be 33 75 43 be b4 39 20 3e
       0.054415785 -0.21399747 -0.19087677 0.15647012
0000a0 fc 74 26 3e c7 a7 0e be 68 ae 19 be ee 8f 66 be
       0.16255563 -0.1393119 -0.15007937 -0.22515842
0000b0 cd 47 c3 3d d4 11 47 3d 00 51 e4 3d 6e 12 d0 bd
       0.09535179 0.048600987 0.11148262 -0.10159765
0000c0 1a d3 85 bd ca e2 6c 3e fc 40 13 3e c3 79 49 3e
       -0.06534405 0.23133388 0.14380258 0.19675355
0000d0 f2 79 3a 3d 2b 40 0c 3e a8 cd 46 3e 91 f8 29 be
       0.045526452 0.13696353 0.19414389 -0.16598727
0000e0 80 b2 06 be 6a 4c 3f 3e 99 f1 9b 3d a7 4a 51 3d
       -0.1315403 0.18681493 0.076144405 0.051096585
0000f0 9d 6f ef 3d 82 b1 2f be cd c2 00 3e 7d 3f db 3d
       0.116912104 -0.17157558 0.1257431 0.10705469
000100 dc 5b a4 3d 68 52 52 3c d1 7f 42 bd 25 70 65 3d
       0.08025333 0.01283703 -0.047485176 0.056015152
000110 ed 40 17 3e 41 3b 03 3d 07 7a e5 bd 46 37 ea bd
       0.14770861 0.03203893 -0.112049155 -0.11436324
000120 ef c8 13 bd f9 13 2c be 81 af f5 bd 38 5e d3 3c
       -0.036080297 -0.16804494 -0.11996365 0.025801763
000130 73 47 1a be f6 8e 47 3e 43 ce 12 bd 15 91 ae 3d
       -0.15066318 0.19488129 -0.035841238 0.08523766
000140 c2 04 e5 3c 32 86 22 be 93 56 21 3e 3f 54 16 be
       0.02795637 -0.15871504 0.15755682 -0.14680575
000150 71 ef 6a 3b f9 ee f3 3d 9a 27 6c bc 71 ea 4e 3e
       0.0035848285 0.11910815 -0.014413739 0.2020662
000160 42 74 16 be 87 c7 02 3e 20 8a a6 3c f6 d8 da 3d
       -0.14692786 0.12771426 0.020329535 0.10685913
000170 4f f1 07 3d f5 11 2c be 33 5d 94 3d a8 b5 84 3d
       0.033189114 -0.16803725 0.07244339 0.06479961
000180 c7 c1 05 be 50 aa 26 be 8b 15 70 be 42 34 7f 3e
       -0.13062201 -0.16275907 -0.23445718 0.24922279
000190 ef ce 06 3d fc aa bc 3d 7f 47 61 3d 03 ae 19 bd
       0.03291219 0.092123 0.054999825 -0.037519466
0001a0 c2 ab 0a 3e c3 90 0f 3e de 26 0d be 8f b2 9d 3d
       0.13542083 0.14020066 -0.13784358 0.07700073
0001b0 17 ee 39 3e 30 6f 81 bc 2b 3d 97 3c 1b 18 58 3d
       0.1815723 -0.015800089 0.018461784 0.052757364
0001c0 f5 09 51 be 54 69 ce bd 66 7e 97 3e a4 19 32 be
       -0.20413955 -0.100786835 0.29588622 -0.17392594
0001d0 fe 2e 0c 3d 5d a7 8c be 72 4d a5 bd 66 54 7c 3c
       0.034224503 -0.27471438 -0.08071412 0.0154009815
0001e0 2a d8 e6 3c ef 8b d4 bd dc 6e 0c 3d b6 11 98 3c
       0.028179247 -0.10378253 0.03428541 0.018563133
0001f0 45 8d 4a be 87 c0 aa bb 1d 19 8b 3e 88 1b 53 3e
       -0.19780453 -0.0052109393 0.27167597 0.20615971
000200 c8 8d 98 bd 8d 01 06 3e e3 85 54 be fe 0c 60 3e
       -0.074489176 0.13086529 -0.20754199 0.21879956
000210 da 0b dc 3d 27 11 c7 3d 3c cd 0e be e2 f0 24 be
       0.10744448 0.097200684 -0.13945478 -0.16107515
000220 97 83 47 be 8d e1 ed 3d 39 91 0b be 8c eb 88 bd
       -0.19483791 0.11615286 -0.13629617 -0.06685552
000230 cf 12 db bd c9 ae 36 3d 90 4a 24 3d 08 b7 47 3d
       -0.10696947 0.044600282 0.04011017 0.048758537
000240 7c 9d 13 3e 6d ba 5f bd 78 10 8e bd 29 e5 a9 bd
       0.14415544 -0.05462115 -0.06936735 -0.08295662
000250 df 02 dc bc 65 22 df bd 38 a5 9e 3d 19 c5 2a 3e
       -0.026856838 -0.10895232 0.07746357 0.1667675
000260 62 41 14 3e c6 78 0f 3e 0c a4 46 bd 4d cd 4a be
       0.14478067 0.14010915 -0.04849629 -0.19804879
000270 67 f1 3d 3e bc d8 5b bc 70 23 5a bd 69 54 43 be
       0.18549119 -0.013418373 -0.053256452 -0.19075169
000280 e3 c1 12 be dd b7 98 3d 45 8d 1c 3e 2d d3 32 be
       -0.14331774 0.07456944 0.15288265 -0.1746337
000290 c6 4f 73 be 2b 6f a2 bd 81 fa 0d be 7b 0b 38 3e
       -0.237609 -0.0793136 -0.13865091 0.1797313
0002a0 11 09 d8 bc 24 3b 3c be 2d be f1 3c cf 72 4c 3e
       -0.02637151 -0.18381935 0.029509628 0.19965671
0002b0 25 92 b5 3d 99 44 b1 bd c9 d4 84 3d 9a f7 22 be
       0.088657655 -0.08655662 0.06485898 -0.15914765
0002c0 8d 3d 10 3e ca ab fc bc 6d ef 8d 3c 9c 79 09 bc
       0.1408598 -0.030843634 0.017326081 -0.00839081
0002d0 fc b2 70 be 91 f3 81 3d 81 a7 8a 3e dc ab e3 bd
       -0.23505777 0.06345285 0.2708092 -0.11116764
0002e0 8c a6 50 bd e3 c4 55 be c4 01 b5 bc a1 4c 90 3e
       -0.05094008 -0.20875888 -0.022095568 0.28183463
0002f0 58 c7 b6 bd 53 f6 19 bd 6d fa 27 3e 0b e7 42 be
       -0.089247406 -0.03758843 0.16404124 -0.19033448
000300 9d 9c ce 3c ee 27 8f bc cc 02 75 3c 8f 39 53 bd
       0.025221163 -0.017475095 0.01495428 -0.051568564
000310 b0 85 ee bc 8e 65 83 3c 58 39 9e 3d 83 64 bb bd
       -0.029116482 0.016039636 0.07725781 -0.091500305
000320 1c e4 38 3d 49 82 2e be 5f ef 55 bc 63 ea c6 3c
       0.045139417 -0.17041887 -0.013057559 0.024281686
000330 38 23 00 be ae f8 6e bc 8a d1 e2 bc dd a0 56 3d
       -0.12513435 -0.014585657 -0.027687807 0.052399505
000340 90 8d 11 3e 1d 6e 88 be 8d 18 1a 3e 29 13 52 3d
       0.14214158 -0.2664651 0.15048428 0.051287804
000350 7d 1b 21 3e d5 00 2d 3e 55 b4 ff bd b0 3e df bd
       0.15733142 0.16894849 -0.124855675 -0.109006286
000360 38 1c 77 3d 11 6b 8e 3d d2 bf 39 3e 97 8e be bd
       0.060329646 0.06954015 0.1813958 -0.093045406
000370 45 57 76 3c 0d 9f cc bd 0e 82 37 be 92 6b ef 3d
       0.015035455 -0.09991274 -0.17920706 0.11690439
000380 49 b6 ce bb 80 a7 25 3e 8a 4a ee 3d cc 20 05 be
       -0.006308351 0.16177177 0.11635311 -0.13000792
000390 cf 9a dd bd 0b 85 eb 3c 4c 8d 31 3e ab 9a 30 be
       -0.10820543 0.028749963 0.17339057 -0.17246501
0003a0 f6 89 60 3e c4 e0 1f 3e 4c 20 ac bb 26 52 53 be
       0.21927628 0.15613085 -0.0052528735 -0.20636806
0003b0 37 f7 c8 bd 40 9d 34 3e c9 0d 0a 3e 98 ec d9 3d
       -0.098127775 0.17638111 0.13481821 0.1064083
0003c0 9a 75 26 be 93 f3 1d be be 5d 22 be 4c 40 86 bc
       -0.16255799 -0.15424947 -0.15856072 -0.016388081
0003d0 4a 91 d9 bb df 9e a2 bd 15 81 68 3e a0 2b 4e be
       -0.0066396343 -0.079404585 0.22705491 -0.20133829
0003e0 58 84 62 be 66 e2 30 be 4d e6 bc bd b1 6a cd 3b
       -0.22120798 -0.17273864 -0.09223614 0.006268822
0003f0 b5 fa 4c bd af 41 82 3c 5e f5 2c 3e 1e 11 1d be
       -0.05004378 0.015900461 0.16890475 -0.15338561

layer1.0.bias f4 [16]
000000 c0 f0 16 be 27 f2 35 bd e7 f7 ae bd b5 e1 be 3c
       -0.14740276 -0.044420388 -0.08543377 0.023300985
000010 4b d9 d5 bd 75 23 70 bd cb fc bb 3d f2 f7 e8 3d
       -0.10441836 -0.058627564 0.09179076 0.11375417
000020 5a 34 28 be 62 12 77 bd 05 f2 0d 3e 13 47 13 3e
       -0.1642622 -0.060320266 0.13861854 0.14382581
000030 85 bb 29 bd 34 fc 4b be 12 73 2f 3d 21 a1 07 3e
       -0.0414386 -0.19920427 0.04283435 0.1324506

layer1.1.weight f4 [16]
000000 bc 46 88 3f aa 1b 83 3f 0c a6 6b 3f 6a 18 85 3f
       1.0646586 1.0242817 0.9205024 1.0398076
000010 65 48 7f 3f 78 9c 7a 3f c5 79 84 3f 35 ef 88 3f
       0.9971984 0.97895 1.0349661 1.0698
000020 8d 58 73 3f 34 3d 86 3f eb 66 68 3f e6 90 75 3f
       0.9505699 1.0487428 0.9078204 0.9592422
000030 06 00 83 3f 52 2f 77 3f 98 cb 83 3f b7 11 6c 3f
       1.0234382 0.9655658 1.0296507 0.9221453

layer1.1.bias f4 [16]
000000 a4 21 b6 bd 1b c2 52 bd 4e 74 db bd 01 3c f7 bd
       -0.08893135 -0.051454645 -0.10715543 -0.12071992
000010 9b 9d 46 bd 5d 41 64 bd c2 ff 80 3b 73 81 91 3c
       -0.048490148 -0.055726398 0.0039367387 0.017761922
000020 2f 19 7b bd 7b ac 24 bd b8 4d d0 bd 4e 2a f2 bd
       -0.061303314 -0.040203553 -0.10171074 -0.11824475
000030 14 4f f9 bc 07 42 85 bd d1 f2 82 bd 4e 14 c2 bd
       -0.030433215 -0.06506734 -0.0639397 -0.09476529

layer1.1.running_mean f4 [16]
000000 4f ad 11 be ee 67 09 be af f2 b8 3d 22 db 94 3d
       -0.14226268 -0.13418552 0.09030663 0.07268359
000010 8f df 0f be b9 2f 7d bd 68 b7 7a 3d 5f 0d 0a 3d
       -0.14050125 -0.06181309 0.061210066 0.033704158
000020 60 32 20 be 78 26 2d be a5 23 cb 3e 48 2d 58 3e
       -0.15644217 -0.16909206 0.39675632 0.21111023
000030 82 3d 62 be f0 4e 57 be 64 7c 66 3b 30 51 9b 3e
       -0.22093776 -0.21026206 0.0035169357 0.3033538

layer1.1.running_var f4 [16]
000000 3f 9b ac 3c 64 a9 06 3d d4 dd 8e 3d b1 10 d6 3c
       0.02107012 0.032876387 0.06975904 0.026131006
000010 09 dd cc 3c f3 63 d3 3c c3 46 22 3d 68 ab 0b 3d
       0.025007742 0.025804495 0.039618265 0.034099013
000020 75 1a 8a 3c 0b ed 1f 3d 07 dd ab 3d 1c 76 85 3c
       0.016858319 0.03904442 0.08391767 0.01629167
000030 8c 91 4b 3d a1 8c eb 3c 64 62 36 3d 92 a0 29 3d
       0.04969935 0.02875358 0.044527426 0.041412897

layer2.0.weight f4 [32, 16, 5, 5]
000000 37 d2 2d 3d d1 6a eb bc 4c e7 55 bd e3 c3 3a bc
       0.042436805 -0.028737457 -0.052222535 -0.011399242
000010 ce b3 c6 3c 24 01 56 bd af bf f6 bc 90 3a 9e bc
       0.02425566 -0.05224718 -0.030120699 -0.019315034
000020 19 59 47 3a 31 3e b4 bb df 43 d8 bc 34 4a 1a 3d
       0.0007604524 -0.005500578 -0.026399551 0.037668422
000030 8a dd 83 bc fc 88 59 3d 23 87 fe 3c 8c 62 ba bc
       -0.016096849 0.053109154 0.031070298 -0.022752069
000040 c8 d8 e8 3c dd d7 4c 3c 49 61 cd 3c 1c ac a9 bc
       0.028423682 0.012502638 0.025070803 -0.020711951
000050 3b 50 e7 bb de 22 89 bc d9 a0 7f bc d1 8b 80 3b
       -0.0070591248 -0.016740259 -0.015602314 0.0039229174
000060 0c 64 4c bd a7 bf e5 bc 8f 38 5c 3c 0a bd 0e 3d
       -0.0499001 -0.028045489 0.013441219 0.03484825
000070 88 26 e8 3c c2 25 28 3b 3c 0f 49 3d 20 6f b8 3c
       0.028338686 0.002565727 0.049086794 0.022513926
000080 ec af 86 bc 08 cd 32 3d e2 c2 a9 3c dd 77 27 3c
       -0.016441308 0.043652564 0.02072281 0.010221449
000090 e9 a7 83 3c bb 2d 20 3d 65 e7 09 3d be 76 43 3c
       0.016071277 0.039106112 0.03366794 0.011930166
0000a0 6b 71 f1 bc 99 2c 07 3d 65 bd d7 3c 70 7d eb 3c
       -0.029473027 0.033001516 0.026335428 0.028746337
0000b0 e7 14 8b bc 81 63 97 3c 6b 31 83 3a 7d ed d8 bc
       -0.01697774 0.018480064 0.0010009235 -0.02648043
0000c0 1c d1 79 bc 8f d4 03 bd d7 1a 2f 3d 16 20 3e 3b
       -0.0152476095 -0.032185134 0.042750206 0.0029010824
0000d0 c4 ad 6e 3c a3 a9 82 bc a5 f7 da bb 35 46 fe 3c
       0.014567796 -0.01595003 -0.0066823536 0.031039337
0000e0 6c b1 18 3d 9d ad 2f bc 90 91 3f bd b5 bf 1d bd
       0.037278578 -0.010722545 -0.04676968 -0.038512904
0000f0 b6 a4 ad 3c b2 ab 3c bb ee d4 d9 bb 28 1e d1 3c
       0.021196704 -0.0028788862 -0.0066476976 0.025527075
000100 48 ac 53 bd 39 7b 3a 3d 7a 2c 65 bc c6 64 7f bc
       -0.051677972 0.04552767 -0.013987655 -0.015587991
000110 46 e9 39 bd d8 e1 3f bd 56 82 b8 3c 72 ca 15 bd
       -0.045388483 -0.04684624 0.022523087 -0.03657002
000120 f8 80 e1 3c 26 3a 60 bb 2f 2f 88 3b 83 b3 2b bc
       0.027527317 -0.0034214347 0.0041560153 -0.010479811
000130 1d 01 a2 3c 70 8c c2 39 8b 52 82 bc 81 ac e7 bb
       0.019775921 0.00037107198 -0.0159085 -0.0070701246
000140 3e 2e c9 bc 8e 8e ef bc a2 4e 57 bd a8 e6 36 bd
       -0.024558183 -0.02924278 -0.052565224 -0.044653565
000150 49 53 72 bd 57 bf 64 ba 37 95 2b bd 1e c7 8f bc
       -0.05916146 -0.00087260216 -0.04189035 -0.017551001
000160 ec dd 79 bd 53 9d 2d bd 16 fb 6b 3c f2 fc 21 3d
       -0.061002657 -0.042386364 0.014403125 0.039547868
000170 40 a6 67 3d 9f c0 96 bc 5f bc 46 bd 3c 6f d9 bc
       0.056555033 -0.018402396 -0.04851949 -0.026542298
000180 95 9d 3f 3d 49 2a 44 3d 0f 57 8d 3c 04 a6 51 bd
       0.04678114 0.04789189 0.017253427 -0.051183715
000190 c0 30 31 bd 32 ff 2a 3c f9 fc b5 3b 2f cd 08 bd
       -0.043259382 0.01043682 0.0055538383 -0.033398803
0001a0 18 3a 69 3c ee ef 8e bb 4d 64 c2 bb 5c a1 45 3c
       0.014235042 -0.004362098 -0.005932367 0.012062397
0001b0 8a 11 0d 3d 1a 63 11 3d 41 ee 0b bd 78 c5 02 3d
       0.034440555 0.0354949 -0.034162764 0.031926602
0001c0 49 77 b1 3c bd 2b b7 3c 23 47 73 3c a1 3b e0 bc
       0.021663325 0.022359723 0.014848503 -0.027372183
0001d0 69 ca 41 3c 10 b4 08 bc 40 62 69 bc b2 9e d8 3c
       0.0118280435 -0.0083437115 -0.014244616 0.02644286
0001e0 0f 3b a4 bc 10 b8 c4 bc e2 80 8e bc a6 b5 25 3d
       -0.020047693 -0.02401355 -0.01739544 0.040456437
0001f0 bd 0e 52 3d d9 0e c4 3c 40 7f bc bc 13 8a ac 3c
       0.051283587 0.023932861 -0.023009896 0.021061933
000200 8a 36 41 3a 99 df 57 3d fa 9d bb 3b 17 aa 1b 3d
       0.00073704927 0.052703474 0.0057256194 0.038004007
000210 5f 9c 79 3c 43 22 34 bd dd 7b c2 bc 05 7d 10 3d
       0.015235036 -0.043977987 -0.023740703 0.035275478
000220 b2 29 35 3d 0d da 61 bd b3 84 41 3c b4 b9 5c bb
       0.044229217 -0.05513959 0.011811423 -0.0033680024
000230 87 56 7f bc 10 59 97 bc c6 67 1d 3d e3 84 3e bd
       -0.015584595 -0.018475085 0.038429044 -0.04651345
000240 d3 cf dc 3c c7 07 c1 bc f0 2e f9 3c 2d b6 73 bc
       0.026954567 -0.023563279 0.03041789 -0.014874977
000250 86 34 95 bc 75 d9 83 3d 02 cc 58 3a 23 27 f4 3c
       -0.018213522 0.06437961 0.00082701456 0.029803818
000260 3b 7d 9d 3c 9c 84 d7 3c 1e 45 11 3d f3 a9 33 3d
       0.019224754 0.02630835 0.035466306 0.043863248
000270 82 0a de 3c 38 96 df bc 7a 96 83 bc 46 b4 3e 3a
       0.02710462 -0.02729331 -0.016062964 0.00072747876
000280 4d a3 bb bc 5b 7e ad 3c 01 f7 5d 3c 4a d9 f3 3c
       -0.022905016 0.021178415 0.01354766 0.029766697
000290 7a 2e 80 3d 8f 66 2f 3d 48 1b a8 bc 09 2a a9 bc
       0.06258865 0.042822417 -0.020520821 -0.020649927
0002a0 d7 07 64 3d 6e bb 1c 3c 11 6f b5 bc e5 50 f2 b9
       0.05567154 0.009566171 -0.022147687 -0.00046218108
0002b0 cf 60 3a 3d 17 ea 37 3d 75 46 be 3b 80 c4 4c bc
       0.04550248 0.04490098 0.005806739 -0.012498021
0002c0 bb 38 d0 bc 09 ff f6 bc 0f 9d b4 bc 85 81 13 bb
       -0.025417676 -0.030150907 -0.022047548 -0.002250762
0002d0 b4 4a 10 3d b5 ba e0 3c 9c ce 5e 3c d2 b7 bf 3b
       0.035227492 0.027432779 0.013599064 0.0058507705
0002e0 69 03 0e 3d 5f 7c cc 3b ea d7 45 3d 9a 61 7c 3d
       0.03467122 0.006240412 0.048301615 0.061616518
0002f0 44 1f cf 3c 4e e0 7c 3c f4 5a ef 3c f0 cd b0 bb
       0.025283463 0.015434338 0.029218175 -0.0053956434
000300 06 7f ab 3c 1f 9c eb 3c 87 c2 43 bc 70 ad 7c 3c
       0.020934593 0.028760968 -0.011948234 0.01542221
000310 a2 73 62 bc 1e 06 19 3d 71 79 09 bd f8 73 3a 3d
       -0.013821514 0.03735935 -0.03356308 0.045520753
000320 8f 8f 09 3d ec 56 3e 3d f1 9c a7 3c 04 a0 80 3a
       0.033584174 0.046469614 0.020460578 0.0009813313
000330 16 e3 03 3d f9 cb ac 3c c8 b5 2e bd ac d2 44 bd
       0.032198988 0.021093355 -0.04265383 -0.048052475
000340 b8 4f bb 3c cc 48 65 bd c0 11 4f bd 8d 71 20 bd
       0.022865161 -0.055977628 -0.050554037 -0.03917079
000350 e5 d8 09 3c f3 47 14 bc 1f 69 71 bd 99 60 30 bd
       0.008413528 -0.009050357 -0.058938142 -0.043060873
000360 74 a8 7a bc 2f 14 6f 3d c7 f0 79 bc 26 de 2f 3d
       -0.015298951 0.058368858 -0.01525516 0.042936467
000370 00 d9 80 3b f6 00 48 bc d3 b0 f3 3b 90 17 1b bd
       0.0039321184 -0.01220726 0.0074368506 -0.037864268
000380 5e 70 bc 3c f2 6e ea 3a b4 03 b8 3c 70 bf 67 3d
       0.0230028 0.0017885847 0.022462703 0.056579053
000390 b8 f3 6e 3b 65 17 d0 bc fd 48 e7 bc 4a 55 fa 3c
       0.0036461186 -0.02540178 -0.028233046 0.030558247
0003a0 ca d7 3c 3d 4f 8f c4 bc 02 1b 11 bd 3a 52 b9 3c
       0.04610423 -0.023994116 -0.035426147 0.022622216
0003b0 17 5c c7 3c af c4 60 bc 57 f1 19 3d 20 be 09 3b
       0.024335904 -0.013718768 0.037583675 0.0021017864
0003c0 28 f2 17 bd 6c 7f 31 3c 56 9a 06 bc 9c 84 62 3c
       -0.037096173 0.010833602 -0.0082155075 0.013825562
0003d0 77 47 84 3c 3b f8 1d bd bf a5 88 ba 61 7f 06 bd
       0.016147358 -0.03856681 -0.0010425373 -0.03283632
0003e0 ff 07 90 3c 04 01 15 3c b0 61 18 bd 58 81 04 bd
       0.017581938 0.00909448 -0.037202537 -0.032349914
0003f0 f8 d7 43 bd de f7 15 3c 76 3d 4c bc 88 7b 0b bd
       -0.047813386 0.009153334 -0.012465825 -0.034053355

layer2.0.bias f4 [32]
000000 e9 51 be bc c5 a8 17 3d b8 4d fc bb 62 26 12 bd
       -0.023232417 0.037026186 -0.0076996945 -0.035681136
000010 17 b3 d4 3c 36 d2 97 bc 04 a3 48 bc 39 dc 06 bd
       0.025964303 -0.018532854 -0.012245897 -0.032924864
000020 e8 8b 30 3d bc da 04 bd 48 bd 19 3d e6 65 df 3c
       0.043102175 -0.032435164 0.03753403 0.027270269
000030 4b 53 d9 3b bd 39 9c bc 11 69 1b 3d 91 9e 84 3b
       0.0066322437 -0.0190705 0.037941996 0.004047223
000040 3e d5 32 3d be ac ff bc 05 e7 1e 3d 28 f6 4a 3c
       0.043660395 -0.0312103 0.038794536 0.01238779
000050 1a 9a 15 3d 07 2f fe ba c5 20 d3 3c eb 28 46 3d
       0.036523916 -0.0019392677 0.025772462 0.048378866
000060 2c de 52 3c a9 b5 2c 3c 19 e8 38 bd 1f 93 86 bb
       0.012870353 0.010541358 -0.04514322 -0.0041068937
000070 a9 47 2a bd f1 58 3e 3d c2 0c 21 3d d5 db 86 3c
       -0.041572247 0.04647154 0.039318807 0.016462246

layer2.1.weight f4 [32]
000000 11 0b 4a 3f e9 62 44 3f ab 6d 52 3f fa fc 43 3f
       0.78923136 0.76713425 0.8219859 0.76557887
000010 d0 a3 48 3f ac 54 4d 3f 1b fb 46 3f cc b4 4a 3f
       0.7837496 0.80207324 0.77726907 0.79182124
000020 66 d8 4e 3f d6 0f 57 3f 6b 3c 4c 3f 04 b3 47 3f
       0.8079895 0.8400854 0.7977969 0.7800753
000030 2e 2b 48 3f a0 07 47 3f 68 ac 55 3f 75 69 46 3f
       0.78190887 0.7774601 0.83466196 0.77504665
000040 2f e3 50 3f 7f 7a 46 3f 21 74 52 3f 05 d2 47 3f
       0.81596655 0.77530664 0.8220845 0.7805484
000050 a9 92 4e 3f 2c d0 4c 3f 76 ae 47 3f 9c f9 43 3f
       0.80692536 0.80005145 0.7800058 0.7655275
000060 b4 10 47 3f 89 d1 39 3f 7c 9a 47 3f e0 2a 57 3f
       0.7775986 0.7258535 0.779701 0.840498
000070 08 7b 50 3f 7f d7 51 3f 27 93 45 3f b0 ac 50 3f
       0.8143773 0.81969446 0.7717766 0.815135

layer2.1.bias f4 [32]
000000 58 8f b6 be 1e a4 b7 be d2 ff c1 be 48 e2 b6 be
       -0.35656238 -0.358674 -0.37890488 -0.35719514
000010 f4 7b ab be 3f a1 9f be 4d 09 aa be 72 12 b6 be
       -0.33493006 -0.31177709 -0.3321022 -0.35560948
000020 a8 53 b5 be b8 79 b3 be b8 00 ab be 9b a8 b9 be
       -0.35415387 -0.35053802 -0.33398986 -0.36261448
000030 e2 eb b5 be a2 25 b5 be 4b b4 c1 be b9 af bd be
       -0.35531527 -0.35380274 -0.37832865 -0.37048128
000040 5e 3b bd be 93 82 bd be 40 03 b2 be 84 e0 b6 be
       -0.36959356 -0.37013683 -0.34768105 -0.35718167
000050 9f 3d ad be 18 e7 a2 be 41 2e b3 be df 03 b0 be
       -0.33836076 -0.31816936 -0.34996226 -0.34377953
000060 10 63 aa be fb 05 b1 be cf 14 b5 be 31 00 b0 be
       -0.33278704 -0.34574875 -0.35367438 -0.34375146
000070 58 49 ae be 19 17 c1 be c1 31 b4 be d6 ec b2 be
       -0.34040332 -0.37712935 -0.3519421 -0.34946316

layer2.1.running_mean f4 [32]
000000 52 ed 99 bd 4d 80 3e be bb bd 28 be c5 72 85 be
       -0.075159684 -0.1860363 -0.16478626 -0.26064125
000010 da 1b 83 3e 39 c9 04 bf 1d 97 96 be 15 dc 1f bf
       0.25607187 -0.5186954 -0.29412165 -0.62445194
000020 00 8a 12 be d2 d9 fc 3d 8e 96 36 be 8c d3 53 be
       -0.14310455 0.123462334 -0.1783087 -0.20686167
000030 b7 15 51 be dd 39 95 3c 10 73 0b 3e d7 73 e2 3e
       -0.2041844 0.018216068 0.13618112 0.44229004
000040 84 b4 98 3e dc 07 9f 3d 00 9c 80 3e 34 bd f3 3b
       0.29825222 0.07765171 0.2511902 0.0074383263
000050 82 c6 37 3e 3d b2 19 be 56 81 5a be 3b 09 66 be
       0.17946818 -0.15009399 -0.213384 -0.22464459
000060 6d 85 8f be f0 4c 1e 3f 66 88 57 be d8 6b 6e be
       -0.28031483 0.6183615 -0.21048126 -0.23283327
000070 19 9b af be d8 e6 e8 bd 24 d3 ae be f0 f4 e2 3e
       -0.34298018 -0.11372155 -0.34145463 0.44327497

layer2.1.running_var f4 [32]
000000 89 9a d4 3e c2 7a 89 3e 3c 76 a9 3e 21 77 e9 3e
       0.4152415 0.2685147 0.33098018 0.455987
000010 36 b5 c6 3e 41 e5 33 3f 78 32 f7 3e 41 e2 f1 3e
       0.38810128 0.7027169 0.48280692 0.4724293
000020 1d 2b c8 3e b7 1d 45 3f 41 2b c1 3e bd 06 92 3e
       0.39095393 0.76998466 0.37728313 0.28520766
000030 e7 1f 9a 3e 19 a7 b3 3e 41 8f d8 3e f9 43 d1 3e
       0.30102465 0.35088423 0.42296794 0.40872172
000040 ed d9 e9 3e 6f d1 ce 3e fa 1f 03 3f 42 ed 10 3f
       0.45674077 0.4039416 0.5122067 0.56612027
000050 95 51 ad 3e 5d bb 1d 3f 5b d3 b1 3e a0 1e d7 3e
       0.33851305 0.6161402 0.34731564 0.42015553
000060 aa ef c9 3e 5d bf ee 3e 5e a2 8e 3e 11 cb da 3e
       0.39440662 0.46630374 0.2785825 0.42733052
000070 46 a7 d0 3e e0 32 cf 3e ff 2d a4 3e 4b f3 03 3f
       0.4075262 0.40468502 0.32066342 0.5154311

fc.weight f4 [10, 1568]
000000 5b e4 f8 ba b4 51 cf 3c 34 ab 83 3c 46 91 7b bc
       -0.0018988954 0.025307514 0.016072847 -0.01535446
000010 88 12 d4 3c 1c c1 f0 bb b6 01 2a bd d7 97 83 3d
       0.025887743 -0.007347239 -0.041505538 0.064254455
000020 4d 08 c5 bc a0 8f 20 ba a0 21 9d 3c a4 e9 63 3d
       -0.02405181 -0.00061249174 0.019181073 0.05564274
000030 5b 7d 52 3c 72 8f ab ba 57 e6 77 bc 95 bc 19 bd
       0.01284727 -0.0013089015 -0.015130601 -0.03753336
000040 08 14 fc 3b 15 c1 0c bd 46 67 9e 3c 1a 5d c0 3b
       0.0076928176 -0.034363825 0.019336354 0.0058704736
000050 92 49 54 bd 10 5e ab bc 41 19 4c 3c 27 dd fa 3c
       -0.051827975 -0.020918876 0.012457193 0.030623032
000060 36 98 65 bc b7 3e 7e bc 8e 7b cb 3b 17 c0 92 3c
       -0.014013341 -0.015517882 0.006209797 0.017913861
000070 e8 1b b1 bc d5 0a 76 3c 72 68 52 3c 3e 9f 0f bb
       -0.021619752 0.015017231 0.0128422845 -0.0021914984
000080 e8 bd 87 bc 9d bb b9 bb e6 a7 75 ba 61 1b 62 bd
       -0.016570047 -0.005668117 -0.0009371027 -0.05520189
000090 a8 8e be 3b 42 bc 02 bd 3f 7d bf bc c2 b4 13 bd
       0.005815346 -0.031917818 -0.023375152 -0.036061056
0000a0 7b 4f 07 3b 13 db 44 bd 0a fc 93 bb 8b 66 67 bc
       0.002064674 -0.048060488 -0.0045161294 -0.014123569
0000b0 f3 be f1 bc 75 78 3d bd cb 21 bb bb b7 a6 a4 bc
       -0.029509997 -0.046257455 -0.0057108155 -0.020099027
0000c0 f2 e1 93 bc 9e 45 1b 3d 5e b9 b4 bb 5d 79 a9 bb
       -0.018052075 0.03790819 -0.0055152616 -0.0051719383
0000d0 ab 4f 87 3c 08 c0 33 bc 0a ac 9b bc 9a 63 cf bc
       0.01651748 -0.010971077 -0.019002933 -0.025316048
0000e0 79 40 fd 3a 5f 6b 48 3c 38 ae c8 3c c1 9a d8 bc
       0.0019321583 0.0122326305 0.024497136 -0.02644098
0000f0 97 03 33 3b 80 ee a4 3c 24 e8 36 bd 85 29 72 3c
       0.0027315372 0.020133257 -0.04465498 0.014780407
000100 a5 bc 6d bc 7b e0 1d 3d 74 f1 19 3d 5a d3 ba bb
       -0.014510308 0.03854416 0.037583783 -0.0057014646
000110 43 7a ca bb a5 b0 a6 3c 16 8e 5b bc b6 c6 20 3d
       -0.0061791255 0.020347903 -0.013400575 0.039252006
000120 61 fe 4b bc 46 87 ed bb cd b6 e2 3c c9 5c c7 bc
       -0.012450785 -0.007248792 0.027675057 -0.024336236
000130 b7 20 1e bd de 4e 5b bc c2 00 cb 3c e3 7e 33 3b
       -0.038605418 -0.013385503 0.024780635 0.0027388863
000140 54 c6 83 3c 39 dd 8d 3b 77 4a de 3a 68 31 96 bb
       0.016085781 0.0043293503 0.0016959448 -0.0045835264
000150 4a 8b fe bc 7b 3f 05 3d 62 66 c4 bc c9 48 9b 39
       -0.031072278 0.032531243 -0.023974601 0.00029618133
000160 a9 e3 98 bb fc e1 74 bd d1 d8 19 bc da 14 51 39
       -0.004665811 -0.059785828 -0.009390072 0.00019939561
000170 cf cb ec ba 96 87 af 3c b2 20 14 3c d6 aa be 3c
       -0.0018066111 0.021426957 0.009040998 0.02327482
000180 e9 09 9a bc 0e 1b 0f 3b 41 25 04 bc 9b 82 75 3d
       -0.018803554 0.0021836194 -0.008065523 0.05993901
000190 7d 48 5b 3d 20 a9 b4 3c 88 69 83 3b 76 48 9c 3c
       0.053535927 0.022053301 0.004010383 0.01907752
0001a0 3f 75 29 bd e2 7a 00 bd b1 3b 89 3d 2b 14 a9 3b
       -0.04137158 -0.03136719 0.06700838 0.005159875
0001b0 c1 0c 54 bc 72 92 1f bc e4 03 05 3c b9 a5 23 bd
       -0.012942494 -0.009739505 0.008118603 -0.039952967
0001c0 d6 38 cb bc fe ad a5 3d 41 57 bd 3c 14 3e fe bb
       -0.024807375 0.08089827 0.023112895 -0.007758865
0001d0 0a ec 94 3c 5a 8c 40 3d 2b bc 5e 3c a4 f9 c4 bb
       0.018178958 0.04700885 0.013594667 -0.006011205
0001e0 a9 11 86 3c 00 78 83 3c 56 4f d1 bb 7a 9f 9a bc
       0.016365843 0.016048431 -0.0063876314 -0.018874872
0001f0 f3 bd 86 3b 02 6b 95 bc ec 96 3c bc 23 3f 4c bd
       0.004111999 -0.018239502 -0.011510592 -0.0498649
000200 46 d0 d7 3c b0 aa a2 bc 19 ad c2 3c 6d 80 ad bc
       0.02634443 -0.01985678 0.02376418 -0.021179402
000210 a7 6e 85 bc 78 6a 02 bd b5 32 10 bd 44 81 6d 3c
       -0.016288115 -0.031839818 -0.035204608 0.014496151
000220 32 91 f1 bb e3 88 dd bc c6 8b 2d bb 9c ca 65 ba
       -0.007372045 -0.027042812 -0.0026481017 -0.0008765848
000230 cb 15 e2 bc ab 1b c5 ba 6b 32 9f 3c f5 49 3b 3c
       -0.027598282 -0.0015038153 0.01943322 0.011431207
000240 6b 49 ee 3a d3 27 16 3c ad 76 3f bc 4a ec 0e 3d
       0.0018179839 0.009164768 -0.011686009 0.03489331
000250 db 33 13 bc 03 e1 46 bd fe 37 2c 3c 0e 50 6a 3c
       -0.008984531 -0.04855443 0.010511396 0.014301313
000260 b4 e9 22 3d d0 1a 88 bb dc 53 5b 3d a4 6a 45 bc
       0.039773658 -0.004153587 0.05354677 -0.012049351
000270 18 0d 93 3c 38 5f 84 3c 96 ec 52 3d 45 7f b5 bb
       0.01795058 0.016158685 0.051495157 -0.0055388534
000280 c1 c7 df bb 03 42 3f 3b e7 24 68 bd a1 89 7b bc
       -0.0068292324 0.0029183633 -0.056675818 -0.0153526375
000290 12 7b e0 bb ea ba 7f bc 69 ad 1d bd c3 e7 16 bc
       -0.0068506086 -0.015608529 -0.038495455 -0.00921053
0002a0 84 49 32 bc eb 48 0f 39 48 f1 cc bb d3 ec eb 3c
       -0.010881785 0.00013664707 -0.006254349 0.02879945
0002b0 03 7a ac 3c f0 dc 10 bd fb 79 fd 3b 1f fc fc bc
       0.021054273 -0.035366952 0.0077354885 -0.03088194
0002c0 c2 83 01 3c 99 89 9d 3c 14 26 ba 3c 1b 45 fd 3c
       0.007904949 0.01923065 0.022723235 0.030916741
0002d0 53 b2 1e bd b8 25 21 3c 65 92 bf bc 89 86 a3 3c
       -0.038744282 0.009835653 -0.023385236 0.019961612
0002e0 e8 2e 3b bc 2b c9 a7 bc d9 d9 0c bd bd 53 40 bc
       -0.011424758 -0.020481667 -0.034387443 -0.011738715
0002f0 3d 80 ba bb 98 3e 35 bd f0 8d fe 3b fa 2f 6c bb
       -0.0056915567 -0.044249147 0.007768385 -0.0036039338
000300 ce 80 b3 bc 29 bf 4a bd f0 28 a4 bc 54 20 bf bc
       -0.021912005 -0.04949871 -0.020039052 -0.023330845
000310 09 a5 9f bc 42 98 87 bd 8a 3e 8b bc b6 7e d3 3b
       -0.019487875 -0.06620838 -0.016997594 0.006454314
000320 5f 9c 64 3d 15 21 6c bc f1 dd 9c bc 7b 61 07 bd
       0.05581319 -0.014412184 -0.019148799 -0.03305195
000330 16 22 58 bd 5b 02 d8 3c 22 d7 b2 3c 8e 4b 45 3d
       -0.052766882 0.02636831 0.021831099 0.048167758
000340 bd 34 81 bc 88 b4 16 bd 74 75 9a 3b 9f b9 9a bc
       -0.015772218 -0.03679326 0.0047137085 -0.01888734
000350 0f c5 15 3c df 9d 83 3c 84 f8 cb 3c 99 31 59 bc
       0.009141221 0.01606649 0.024898775 -0.013256454
000360 3b 3c e5 bc 36 6e d0 3c f1 4d 32 3b 3a 6f 3f bc
       -0.027982822 0.025443178 0.0027207101 -0.011684233
000370 11 ae 20 bc b5 1a cb 3c f6 8e 39 3d 95 66 aa ba
       -0.009807126 0.024793008 0.045302354 -0.0013000543
000380 45 9d 91 3c 97 54 eb bc 06 a2 15 bb 0f 36 06 bc
       0.017775187 -0.028726859 -0.002283217 -0.0081915995
000390 d3 3e 92 bc d5 43 04 3d 75 95 59 3b 32 8c a4 3c
       -0.017852223 0.032291252 0.0033200656 0.020086382
0003a0 06 a0 a2 bc a1 27 89 3c 8b 30 d2 bc 11 b8 49 bc
       -0.019851696 0.01674253 -0.025657913 -0.012311951
0003b0 ac 3f 1b ba 0f 17 b0 bb c7 17 04 3b aa 9c d0 bc
       -0.00059222686 -0.0053738425 0.0020155774 -0.025465328
0003c0 20 bf 0c 3d 50 7f ba bb 36 67 24 bd 4d 61 2a bb
       0.03436196 -0.0056914464 -0.040137492 -0.0025997937
0003d0 31 af 48 3c f1 3d cc bc c3 81 00 3d 23 f2 a0 3c
       0.0122488 -0.02493188 0.03137375 0.01964671
0003e0 dc 25 66 3c 96 2b 12 3c 38 a6 b6 3c f5 06 05 3d
       0.014047112 0.0089215245 0.022296056 0.032477338
0003f0 72 d6 ba bc a8 0d 0e 3c 4b 0f 02 3b f7 b9 4e 3c
       -0.022807334 0.008670248 0.001984554 0.01261758

fc.bias f4 [10]
000000 27 dd 31 bc 8f 6d 04 bc 27 5e 3a bc 55 da 40 bb
       -0.0108559495 -0.008082761 -0.011374987 -0.002942701
000010 1b 0e 8e ba 21 d7 ca 3b a6 65 1e 3d 5f f7 c2 3b
       -0.0010837944 0.006190196 0.03867116 0.005949899
000020 52 39 97 3b b2 66 b5 bc
       0.0046149874 -0.022143696
